events_simulation/models/model_20180503-0239.pt (torch_old, 78354 bytes, 9 tensors)

loss_function_events.weight f4 [27]
000000 00 00 80 3f 00 00 80 3f 00 00 80 3f 00 00 80 3f
       1.0 1.0 1.0 1.0
000010 00 00 80 3f 00 00 80 3f 00 00 80 3f 00 00 80 3f
       1.0 1.0 1.0 1.0
000020 00 00 80 3f 00 00 80 3f 00 00 80 3f 00 00 80 3f
       1.0 1.0 1.0 1.0
000030 00 00 80 3f 00 00 80 3f 00 00 80 3f 00 00 80 3f
       1.0 1.0 1.0 1.0
000040 00 00 80 3f 00 00 80 3f 00 00 80 3f 00 00 80 3f
       1.0 1.0 1.0 1.0
000050 00 00 80 3f 00 00 80 3f 00 00 80 3f 00 00 80 3f
       1.0 1.0 1.0 1.0
000060 00 00 80 3f 00 00 80 3f 00 00 80 3f
       1.0 1.0 1.0

lstm.weight_ih_l0 f4 [160, 70]
000000 cc a6 11 3e 96 5b e4 3b 8c 0b d9 3d cb a8 a6 bc
       0.14223784 0.0069689257 0.105979055 -0.020344159
000010 ec 42 e0 ba d4 ba f9 bd a7 15 32 3e 4a 35 16 3e
       -0.0017109788 -0.12193838 0.17391072 0.14668766
000020 99 f7 42 3e b7 c4 2d 3e d5 5f 83 3c 6f 47 5c 3e
       0.19039764 0.16969572 0.016036907 0.21511625
000030 07 e3 4d 3d 4e 73 3c 3e 3c 31 30 3e 7d 21 3d 3d
       0.05026534 0.1840336 0.17206281 0.046174515
000040 ee 92 95 3d 57 93 20 be 0f 7c 10 3e c4 bc b3 3d
       0.07303415 -0.15681206 0.14109825 0.087762386
000050 5c 70 0d bd 72 37 02 3d ab d4 84 bc c0 87 c8 bc
       -0.034530982 0.031791158 -0.01621469 -0.024478793
000060 43 28 ba bc 88 31 eb bc be 44 40 bd da 88 31 bd
       -0.022724276 -0.028710142 -0.046940558 -0.043343402
000070 73 8f 17 3c 56 6a 53 bd 04 d1 7b 3e 8d 67 3e 3e
       0.00925051 -0.05161508 0.24591452 0.18594189
000080 e0 28 a6 3d ad 51 3d 3e 8d d0 84 3d 02 1d f1 bc
       0.08113265 0.18488188 0.064850904 -0.029432777
000090 b9 63 a3 3d 6c ec 0c 3d 7f 27 e0 3b 0b d5 78 3e
       0.07978005 0.034405157 0.006840646 0.2430002
0000a0 4f 43 45 bd 1d e8 94 3d 47 00 78 3e 20 02 ae 3a
       -0.048159894 0.072708346 0.24218856 0.001327578
0000b0 33 c6 26 bd 96 cf 44 bd 00 76 77 bd 64 b2 03 bc
       -0.04071636 -0.048049532 -0.060415268 -0.008038137
0000c0 55 c8 f6 3d 39 93 d9 3d 88 68 43 3e 9d 2b 1e 3c
       0.12049929 0.106237836 0.19082844 0.009653953
0000d0 4a 2f 95 3d ac 38 ad 3c b1 52 c9 3b 0e 19 61 3e
       0.0728441 0.021145187 0.006143891 0.21982214
0000e0 d6 94 37 3d b8 6d df bc ef e9 47 3e 8c ab 9c 3d
       0.044819675 -0.027273998 0.19522832 0.076499075
0000f0 22 c3 7b 3e 28 48 4d 3e cd 2c 2c 3e 86 25 06 3e
       0.24586156 0.20047057 0.16813965 0.13100252
000100 20 ec 14 3b 77 ee 07 bd 24 44 7e 3e 5f 05 28 3e
       0.002272375 -0.033186402 0.24830681 0.16408299
000110 bf 24 63 3e 0a e0 23 bd 68 dd e4 3d 92 9a e0 3d
       0.22181986 -0.040008582 0.111750424 0.10966982
000120 d9 8a ae 3d 02 dc 99 bd 7b 96 61 3e 90 0d ed 3c
       0.08522577 -0.07512666 0.2203006 0.028937131
000130 f7 63 15 3e 34 05 c7 3d 4e 60 e9 3d 1e e5 ff 3d
       0.14588915 0.09717789 0.11395322 0.124948725
000140 0c 17 5b bd 73 55 d1 3d 58 d7 d4 3d f7 21 e0 3d
       -0.053488776 0.10221376 0.10392636 0.10943978
000150 ba cc 00 3e fd 61 74 3d 4f cb bb bb eb 4b 14 3e
       0.12578097 0.05966376 -0.0057310234 0.14482085
000160 40 2c 84 3d 80 25 b7 3d 5c a8 af 3d 86 97 83 3d
       0.064537525 0.089426994 0.08577034 0.06425385
000170 ed 0f 51 3d c7 a8 85 3c 0a 44 8d 3d 93 6b a4 bd
       0.05104058 0.01631583 0.06897743 -0.08028331
000180 b7 0e 62 3e 13 37 55 3e d4 3f 1d 3d 49 9b 53 3d
       0.22075926 0.2082179 0.03839095 0.051661763
000190 12 b1 77 3e cb 20 6e 3e cc 53 4b 3e 36 a8 47 3c
       0.2418864 0.23254697 0.19856185 0.012186101
0001a0 5f d3 49 3e b7 51 fd 3c d5 e1 62 3e 46 8c 11 3e
       0.19709538 0.030922754 0.2215646 0.14213666
0001b0 dc 1b e2 3d e4 e0 5d 3e a2 75 16 3e b1 5f b6 3d
       0.1104047 0.2166782 0.14693311 0.089049704
0001c0 15 9d db 3d e7 75 60 3d ad d0 5b 3d 57 49 2c 3e
       0.107233204 0.05479994 0.053665806 0.16824852
0001d0 31 b5 19 3d 59 a5 eb 3d 09 8a 1d 3e 3e 09 52 bb
       0.037526313 0.11506147 0.15384687 -0.0032048966
0001e0 93 81 43 bd 03 d0 50 bd fd 62 61 bd 82 9a 5d 3e
       -0.047730993 -0.050979625 -0.055026043 0.21640971
0001f0 cb a5 2b bc 42 b8 f0 3b 69 1c 54 3e c4 54 72 3e
       -0.01047654 0.007346184 0.20713963 0.23665148
000200 aa 1b 58 3c d8 f4 4d 3e 01 4a 82 3e ef 13 28 3e
       0.013190189 0.20112932 0.25447085 0.16413854
000210 d7 b1 0e 3e 81 10 71 3e 35 12 77 3e f6 30 1f 3e
       0.13935028 0.23541452 0.24128039 0.15546021
000220 6c 0d c6 3c da f7 63 3e b5 31 4b 3e 24 3b b8 3b
       0.024176322 0.22262517 0.1984318 0.0056222845
000230 e2 8f 9a 3d 8e f1 48 3e f0 0a 1c bd 05 7e 22 3e
       0.07546975 0.19623396 -0.03809637 0.15868385
000240 7d 95 a2 bd 86 51 f9 3d 6a ed fe 3d 8a 3a 7e bd
       -0.07938669 0.121737525 0.12447627 -0.062067546
000250 73 8d 14 3d 7a 3c e8 3d 47 d9 98 3d 77 bf a1 bd
       0.03626771 0.1133966 0.07463317 -0.07897847
000260 ed e4 a0 3c ae 27 09 3e c5 ae d3 3d 10 20 ec bc
       0.01964041 0.13394043 0.10336069 -0.028823882
000270 10 09 5d 3e 90 35 5e bd a8 2c 40 3e 15 08 b7 3d
       0.21585488 -0.0542503 0.18767035 0.089370884
000280 85 43 20 3e 22 f7 98 3d ee e3 3d 3e 92 90 31 be
       0.15650757 0.07469012 0.1854398 -0.17340305
000290 30 cd 61 3c 28 22 ea bd 55 cd 1a bc 8f 21 83 3e
       0.013781831 -0.11432296 -0.009448369 0.2561154
0002a0 d8 50 f0 3d c7 03 25 3e 8e e4 28 3e 3d 81 3b 3e
       0.1173417 0.16114722 0.16493437 0.18311019
0002b0 69 de b5 3d f2 bf d8 3d 2e 2d cc 3c ac ce b1 3c
       0.08880312 0.10583486 0.024923887 0.021704994
0002c0 e9 49 75 3e fa 8f 47 3e b6 cf 58 3d 15 a8 4f 3e
       0.23953976 0.19488516 0.052932464 0.20278962
0002d0 bb bc 6b 3e 42 e0 00 bc 73 28 79 3e f1 30 1f 3e
       0.23021214 -0.007865967 0.24331836 0.15546013
0002e0 d3 35 3e 3d af 05 52 3e 02 7d 64 3e 75 67 e8 3c
       0.04643805 0.2050998 0.22313312 0.028369645
0002f0 9b 31 22 3e 8e 59 66 bc 66 51 22 3c 4a 29 17 bd
       0.15839235 -0.014059437 0.009907102 -0.03690461
000300 e9 9f 17 3e 51 40 3a 3b 33 6b 10 bd b2 67 4e 3e
       0.14807095 0.0028419683 -0.035258483 0.20156744
000310 d7 0b 3d 3e 86 8d 53 3e 95 23 83 3e 2e 3c 29 3e
       0.18461548 0.20659456 0.25613084 0.16526863
000320 06 52 31 3e c5 77 2d 3d 5a 8a b2 3d 38 d8 a0 3d
       0.17316446 0.04235055 0.08717795 0.078537405
000330 f2 04 f8 bc 27 83 d6 3d bc 30 51 3e 77 b6 bc 3d
       -0.030275796 0.10474234 0.20428747 0.0921449
000340 60 ac 9f 3d 81 a0 3c 3e 55 96 e0 3d e0 71 82 be
       0.0779655 0.18420602 0.109661736 -0.25477505
000350 d1 2a 1e 3d d7 b7 65 3e 21 f3 e8 3c 47 46 10 3e
       0.03861505 0.2243341 0.028436245 0.14089309
000360 8d e2 d4 bd e5 99 33 3d b3 10 53 3d 2b a7 12 bd
       -0.10394774 0.043847937 0.051529597 -0.035803955
000370 93 85 28 be d1 2b 9f bd c6 18 fd bc 52 5f f0 bc
       -0.16457205 -0.07772029 -0.030895602 -0.029342327
000380 ea 5b 2e 3d 64 26 6e 3d e9 cc f5 bc 6c 10 0f be
       0.042568125 0.05814208 -0.030004935 -0.13971108
000390 fc 45 7a bd e8 df 7f bd 00 14 3e be 56 da 1e bd
       -0.0611019 -0.062469393 -0.18562317 -0.03878244
0003a0 e4 46 09 3e 0c a0 7f be 32 49 bd bc c4 48 56 3d
       0.13405949 -0.24963397 -0.023106191 0.05231549
0003b0 a0 bf 96 3e 5e c0 bf bc 78 3a 03 3e e2 06 1d 3d
       0.29443073 -0.023407158 0.12815273 0.038336642
0003c0 5a 55 84 3c d7 bf 91 bc 70 da a4 bd f2 8a 1d 3d
       0.01615398 -0.017791672 -0.08049476 0.038462587
0003d0 ad 85 15 be b0 37 8d bd f5 b3 1d 3e 7c 75 2d 3e
       -0.14601775 -0.06895387 0.1540068 0.16939348
0003e0 17 f0 05 bd 64 74 2e bd cb 3a 8a bc 82 ff 14 bd
       -0.03269967 -0.042591467 -0.016873738 -0.036376484
0003f0 1c fd 31 3d 3b 6b 24 3e 9e ca a0 3c 6c 81 a6 3a
       0.043454275 0.1605653 0.019627865 0.0012703366

lstm.weight_hh_l0 f4 [160, 40]
000000 f6 e9 57 bd 09 96 2d be 42 2d 5b be 72 34 50 3d
       -0.052713357 -0.16951765 -0.21403983 0.050831266
000010 85 43 62 bd 61 05 e1 3d 08 bf 53 3e ec a0 a3 bc
       -0.055240173 0.10987354 0.20678341 -0.019974194
000020 bb 5f 19 3e f6 42 11 3e 3c 2f 9b 3d 94 ae 33 3d
       0.14977925 0.141857 0.075773686 0.043867663
000030 01 1a 0b be 8f 4d 78 3d c5 7f c4 3c 46 b0 47 bb
       -0.13584138 0.06062084 0.023986707 -0.0030470057
000040 e6 0b 4d 3e 7d a7 8a bc 73 63 74 bc ac 10 16 be
       0.2002407 -0.016925568 -0.014916289 -0.14654797
000050 3d 9b 74 bd e5 ea 00 be ea aa 8f 3d ec 5a 47 be
       -0.05971836 -0.12589605 0.07015021 -0.19468278
000060 4b 4b bd 3d d2 bd c2 bd f5 00 30 3e 15 75 61 3c
       0.092428766 -0.095088616 0.17187865 0.013760825
000070 ce 35 53 3e c5 06 5e 3e 36 b1 4a be c3 ad 42 bd
       0.20625994 0.2168227 -0.19794163 -0.047528993
000080 11 13 37 3d 18 f3 37 be 94 8e 1f 3e d1 a5 6f bd
       0.044695918 -0.17963827 0.15581733 -0.058507744
000090 67 58 0c 3d 89 70 04 3e 7e b0 fa 3d 61 f1 b4 bd
       0.034263995 0.12933554 0.122406945 -0.08835102
0000a0 55 a0 43 bd 2a a1 63 3b 75 60 44 be 93 d8 eb 3c
       -0.047760326 0.0034733512 -0.1917742 0.028789794
0000b0 76 10 81 bd b1 15 b3 bc 12 f1 71 3e d3 ad 44 3b
       -0.06301968 -0.02186093 0.23627117 0.0030010834
0000c0 18 cc e5 b9 1d 92 d4 3d c8 19 52 bd f8 0d 0d 3e
       -0.00043830345 0.103794314 -0.05129412 0.1377486
0000d0 7d f1 9c bd d9 24 5a 3e 20 82 a2 3c ed 2b 30 be
       -0.07663248 0.21303119 0.019837439 -0.17204256
0000e0 99 72 27 3d 14 27 93 bd f2 4c 06 bc 8d 95 28 3d
       0.040880773 -0.07185188 -0.008197056 0.041158248
0000f0 c0 b0 6d 3e 32 a6 d3 bd e4 ce 46 3e b1 40 6c 3c
       0.23211956 -0.103344336 0.1941486 0.0144197205
000100 e6 10 b9 3d 3b 48 f8 bd 49 1c 52 3d 8d b7 51 3d
       0.09036426 -0.12123152 0.051296506 0.05120044
000110 dd 24 49 bd ca fc e9 3c 73 19 44 bd 51 c6 68 3d
       -0.04910742 0.028562922 -0.047875833 0.056829754
000120 4e e5 2a bd 20 ad 63 be f1 2c 0b 3d f6 6b 83 bd
       -0.04172259 -0.2223401 0.033978406 -0.06417076
000130 bd b0 34 3e b0 c9 14 3e b8 90 c3 bc d0 9a 66 3d
       0.17645545 0.14530063 -0.023872718 0.056299984
000140 a9 7c 76 bd bf b7 b7 3c 3f 75 02 bd 03 24 02 3e
       -0.06017748 0.022426484 -0.031850096 0.1270905
000150 31 32 19 be 53 e1 41 3e 15 df 80 3e 8a 82 50 bd
       -0.14960553 0.1893361 0.25170198 -0.05090574
000160 cd 43 b4 3d da 2f 30 bd 85 66 9c 3d 07 71 ae 3d
       0.088019945 -0.043014385 0.076367415 0.08517652
000170 ec 9c 1c be a6 ae 63 3c da 56 92 3d ff 78 60 be
       -0.15294236 0.01389662 0.07145472 -0.21921156
000180 56 60 66 3e f2 a0 b9 3d eb f7 be bd d7 15 25 be
       0.22497687 0.09063901 -0.0932463 -0.16121612
000190 c8 b1 b8 bc 49 e0 de bd a9 c7 28 bd 38 07 a2 3d
       -0.02254571 -0.10882623 -0.041206036 0.07911533
0001a0 0c c0 17 3d 6f b5 3f be d6 74 9d 3d 92 6f 6d be
       0.037048385 -0.18721555 0.076883 -0.23187092
0001b0 ed 22 c6 3c f5 c0 15 bd 00 a7 54 be 3a 2a 8c bd
       0.024186576 -0.03656097 -0.2076683 -0.068439916
0001c0 f0 87 b0 3d 72 74 76 bc 84 ca 9b 3d 6a 0a 77 be
       0.08619678 -0.015042411 0.07606986 -0.24125066
0001d0 a3 5e d0 3d 55 e6 0e 3b 6b b0 ee 3d 84 e9 04 bd
       0.101743005 0.002180477 0.11654743 -0.03244926
0001e0 58 12 bc 3d 16 6b 40 bd 5f e0 da bd c0 49 2d be
       0.09183186 -0.046977125 -0.10687327 -0.16922665
0001f0 f0 f9 09 3e c8 78 99 3d 7d ad d9 3d b1 a3 db bd
       0.1347425 0.0749374 0.106287934 -0.10724581
000200 fe 87 00 3e db 15 7d 3d 57 65 0a be b1 c1 8d 3d
       0.12551877 0.06178842 -0.1351522 0.06921709
000210 75 e4 09 be 94 d5 e1 bd 92 a6 1f 3e ba 41 86 3e
       -0.13466056 -0.11027065 0.15590885 0.2622202
000220 8f 9c ff bd e2 ec 53 3e b5 fd d5 bd 55 da 38 3e
       -0.12481033 0.20695832 -0.104487814 0.18052037
000230 98 4c 2f 3e 62 cd 14 3e 7f 81 3e 3d 93 cb 7d 3d
       0.17119062 0.14531472 0.046510216 0.06196172
000240 c7 26 3a 3c 05 96 c0 bd e7 d9 0a 3e 76 8d 76 3d
       0.011361784 -0.09403614 0.13559686 0.0601935
000250 71 f4 35 bd 2a 53 bc 3d c2 d2 ab 3d 14 fb 14 be
       -0.04442257 0.0919555 0.08389808 -0.14548904
000260 58 ca 76 3d 9d 2b 25 3e a0 2f d3 bd b9 7b 0f bd
       0.060251564 0.16129918 -0.10311818 -0.0350301
000270 a2 af e9 3c 6b e3 a7 3d 64 cb 53 bd 07 af 5a 3d
       0.028526131 0.081976734 -0.05170764 0.053389575
000280 be 6d 5e bd cf 00 93 3c 47 68 12 be 26 80 2d 3e
       -0.054303877 0.017944722 -0.14297591 0.16943416
000290 72 77 a7 bc 5d ba 7d 3e f1 cb 5d 3e af 7a 3f be
       -0.020442698 0.24778123 0.21659829 -0.18699144
0002a0 b4 a1 4d 3d 23 16 8b 3d e0 fa 6c 3e 98 c3 b1 3c
       0.05020304 0.067913316 0.23142576 0.021699712
0002b0 34 03 7d be b2 f3 a0 bd 03 91 29 3d 95 31 3e be
       -0.24708253 -0.07858981 0.04139806 -0.18573602
0002c0 2f 3e d8 3c b9 d1 f2 3d 44 96 02 3d aa f5 1b bb
       0.026396839 0.11856408 0.031881586 -0.002379755
0002d0 12 0c 44 3e 5e 97 54 bd 02 1a 22 3e 38 3b 41 be
       0.1914523 -0.051902167 0.15830234 -0.18870246
0002e0 07 11 92 bd 8f 8b 58 be ce 3d d7 bc a2 21 2d be
       -0.07132154 -0.21146987 -0.026274588 -0.16907361
0002f0 87 b5 f7 3d b6 75 2c 3c 7b 27 e2 bd 5f 7c 85 be
       0.120951705 0.010526111 -0.110426866 -0.2607145
000300 05 0b 1a bd 8d 07 de bb f2 0f 0e 3e e3 56 2c be
       -0.037608165 -0.0067758025 0.1387327 -0.1683002
000310 fc 54 99 3d ed 3e 13 3e 62 ed 24 3e b8 89 1c be
       0.074869126 0.14379473 0.1610618 -0.1528691
000320 34 81 fe bd 7f 3e b2 bd b3 73 e3 bd cc db 19 3e
       -0.12426987 -0.087033264 -0.11106052 0.15025252
000330 d5 4e 3f bc ba 16 dd 3c 06 12 0d 3e a8 a5 59 3a
       -0.01167651 0.026988376 0.13776407 0.0008302578
000340 fa af d0 3d b7 74 72 bb 07 3c 17 3e be 7f a9 3c
       0.10189815 -0.0036995837 0.14768992 0.020690795
000350 36 fc 58 be 03 f9 0c 3e 55 7b 08 3e 8b ba fe 3b
       -0.21189961 0.13766865 0.13328297 0.0077737025
000360 b4 9d 40 3e 7b fe 29 3e 5e d5 35 3e 14 bf 19 bd
       0.18810159 0.16600983 0.17757174 -0.037535742
000370 0e 89 6c 3e ec a1 2a be f2 9c 54 3d 3f 97 09 be
       0.23099157 -0.16663331 0.051907487 -0.13436602
000380 a1 b8 0c 3e e6 f4 17 be d4 31 2d 3d 19 4f 6d be
       0.13742305 -0.14839515 0.042283848 -0.23174705
000390 8f 13 05 3e 88 a3 76 3e 76 4d 99 3d 4f 01 81 be
       0.12995742 0.2408582 0.074854776 -0.2519631
0003a0 84 d4 83 3d fa 97 13 be 1e 14 1b 3d a9 ef e2 bd
       0.064370185 -0.14413443 0.037860982 -0.11080868
0003b0 dc 13 81 3b 88 da 42 3e 84 0f 11 3e 67 28 e9 bd
       0.003939135 0.19028676 0.14166075 -0.11384659
0003c0 b6 58 27 be 3c f2 36 3d d9 27 bc bd 0e 75 06 3e
       -0.16342434 0.044664606 -0.09187288 0.1313059
0003d0 5c 5a 3e be d7 1a 7d 3e 5d c4 5f 3e bb e3 8a bd
       -0.18589157 0.2471727 0.2185225 -0.067817174
0003e0 c4 e4 1a 3e e4 99 a0 3c ac 67 57 3e 62 87 98 3c
       0.1512633 0.01960463 0.21035641 0.018619243
0003f0 5d ee 53 be 01 2c b8 bc bd 92 62 3e 3e 6a 35 3c
       -0.20696397 -0.02248192 0.22126289 0.011072693

lstm.bias_ih_l0 f4 [160]
000000 97 4f 41 3e 07 6e 25 3e fb 7c 04 3e 4c e5 42 3e
       0.18878017 0.16155253 0.12938301 0.19032782
000010 68 32 18 3e af 4c 19 3e 93 25 68 3e 81 af 11 be
       0.14862978 0.14970659 0.22670583 -0.14227106
000020 28 fd 4d bb 3c ce 1d be 30 88 1b 3d 3b 19 f7 3c
       -0.003143141 -0.15410703 0.037971675 0.030163398
000030 8d 1f 84 3e 04 d6 3e 3e 5b 4b 33 bd 15 a9 5d 3e
       0.2580532 0.18636328 -0.043773036 0.21646531
000040 cc b0 f7 3c 9d 4c 56 be 57 98 e0 3d ec 50 de bd
       0.03023567 -0.20927663 0.109665565 -0.108552784
000050 6e c0 a0 3c 30 59 3c 3d f4 cd eb 3d b5 ef 25 3d
       0.019623008 0.045983493 0.11513892 0.040511806
000060 ce db 7a bd 7b b6 49 3d b0 a8 19 3e 02 b5 09 be
       -0.06124478 0.049246293 0.15005755 -0.13447955
000070 e4 d2 53 3e 4c e2 10 3e ec d7 35 bb 1a 94 a0 bc
       0.20685917 0.14148825 -0.0027747108 -0.01960187
000080 69 68 e9 3d ec 78 31 3e 40 17 30 3d be 69 0f 3d
       0.11396868 0.17331284 0.042990923 0.035012953
000090 24 1f 4c 3e d5 ea 89 3d b0 3b 24 3e 18 7c 21 3e
       0.19933754 0.06734244 0.16038394 0.15769994
0000a0 e3 15 dc 3b 3f b1 18 bd 93 8b d4 3d 88 6e ec 3d
       0.0067164763 -0.03727841 0.10378184 0.1154452
0000b0 96 7b b7 3d e4 8c 18 bc df d0 2b 3e ec 6a 94 3d
       0.08959119 -0.009310935 0.16778897 0.07246956
0000c0 06 6c 94 3b c1 25 b5 3d bc 20 7e 3e 98 76 65 bb
       0.004529479 0.088450916 0.24817175 -0.0035013314
0000d0 23 ba 71 3e 84 94 27 3e f8 e0 c8 bd 51 58 4f be
       0.23606162 0.16365248 -0.098085344 -0.20248534
0000e0 84 eb 53 3e 70 8a 23 3d e2 fe af 3d c6 d3 1d 3d
       0.20695311 0.039926946 0.08593537 0.03853204
0000f0 8b 4e 81 3e 2a 7f a5 bd c9 79 4c 3e 57 cd 0f bd
       0.25255236 -0.08080895 0.19968332 -0.035107937
000100 b6 67 cb 3d 58 3d 22 3c 8d 95 e2 bc ce 84 1a 3d
       0.09931891 0.009902321 -0.027659202 0.03772431
000110 ab c0 10 3e 8d 6a c5 bd 6a 4f 07 bd b8 04 80 3e
       0.14135997 -0.096394636 -0.03303472 0.250036
000120 c5 90 e6 bc 0b bf 27 3d ef e2 e6 bd 05 b8 01 3d
       -0.028145203 0.040953677 -0.11273753 0.031669635
000130 74 22 35 3e c5 30 2e 3e 5d 78 5b 3e 65 bc a3 3d
       0.17688924 0.17010792 0.21432634 0.07994918
000140 d2 84 c2 bd 4a 55 18 be 27 9d 35 be 2d f1 5c 3e
       -0.0949799 -0.14876285 -0.1773573 0.21576376
000150 03 97 54 be 8f b7 37 3e 3a d4 68 3e 0d 68 ce bb
       -0.20760731 0.17941116 0.22737208 -0.006299025
000160 27 2c de bd 55 2d b2 bc 56 26 67 3e 00 39 4f 3e
       -0.10848265 -0.021750132 0.22573218 0.20236588
000170 f0 2b c7 bd 44 70 33 bd 57 2a e3 3d b8 a0 f3 bd
       -0.09725177 -0.043808237 0.1109206 -0.11895889
000180 38 aa 7b 3d 9e d5 e4 bd 4e 30 a2 3d 90 d5 0a bd
       0.06144163 -0.11173557 0.0791937 -0.033895075
000190 91 b0 79 3e 5f 59 7e be 7b 79 36 3e af 8f 0c 3d
       0.24383761 -0.2483878 0.17819779 0.034316715
0001a0 a7 0b 68 bd 1d 64 f9 bd c2 5b 4a 3e 61 8c 85 bd
       -0.056651738 -0.12177298 0.19761565 -0.06520916
0001b0 79 84 2c 3e 28 81 2c 3e 05 95 fb bd 68 fc bd 3c
       0.1684741 0.16846144 -0.122842826 0.023191646
0001c0 63 44 8c 3d f0 9f 9e bb e3 1c a9 bc 5d fc f4 3b
       0.06848981 -0.0048408434 -0.020643657 0.007476373
0001d0 05 17 6d 3d 3b 16 0e 3e 74 4f 6c 3d 84 93 9b bd
       0.05788328 0.13875668 0.05769296 -0.07596496
0001e0 ab d4 9d 3d f4 c6 79 3d 2e 09 0a 3e 02 b4 0e be
       0.07706579 0.060980752 0.13480064 -0.13935855
0001f0 49 b0 23 3e 18 e6 6b 3e c1 6e 50 3e 43 43 26 3e
       0.15985216 0.23036993 0.2035475 0.16236596
000200 7c 67 52 be 81 23 88 3d 0a a7 c3 3d 2c e6 9d bd
       -0.20547289 0.06647397 0.095533445 -0.077099174
000210 6c 66 7b 3e 91 26 97 bc f6 d0 26 be fb bc 94 3e
       0.2455079 -0.018451007 -0.1629065 0.2905043
000220 d6 52 50 3e 6e ee df bd 39 52 a2 3d c4 1e 9e 3d
       0.203441 -0.10934149 0.07925839 0.07720712
000230 a6 ce 9a 3d 34 bd f0 3d e2 f7 85 bd 8b fb c2 bc
       0.07558946 0.11754838 -0.065414205 -0.023801586
000240 e5 32 0a bd 29 03 23 3e 71 6b d8 3d b0 3e 13 be
       -0.033739943 0.15919174 0.10567368 -0.14379382
000250 7d 2e e5 3d 84 bc 89 3d 56 7a 06 3d 1b 40 37 3e
       0.111905076 0.067254096 0.032831512 0.17895548
000260 69 08 b2 bd 03 85 52 3e 3b da c4 bd c5 84 80 3e
       -0.0869301 0.20558552 -0.09611937 0.25101295
000270 a2 c4 00 be 7e 30 49 3e 84 4a b3 3d 18 08 d6 3d
       -0.1257501 0.19647405 0.08754447 0.104507625

lstm.bias_hh_l0 f4 [160]
000000 e8 75 cd 3d 38 07 08 3e 1c 32 e2 bc e0 fc 71 3c
       0.100322545 0.13284004 -0.027611785 0.014769763
000010 62 f9 15 3e 35 9c 72 3c 46 d0 bb 3d dd 12 0b 3e
       0.14645913 0.0148077505 0.091705844 0.13581415
000020 c8 73 f5 bd 20 03 49 be 92 38 77 3e 85 79 f0 bd
       -0.11984974 -0.19630098 0.24142674 -0.11741928
000030 a4 eb 02 bd b8 73 96 bc 2e 9a c3 bd 21 ce bf 3d
       -0.031963006 -0.018365726 -0.09550892 0.09365488
000040 cb 54 4d 3e e9 30 ba bd b7 de 23 be 5a 80 0a 3e
       0.20051877 -0.0909136 -0.16002928 0.13525525
000050 54 7d 2e bd ef f9 6d 3e 46 3a 93 3d f2 67 46 bc
       -0.04259999 0.23239873 0.07188849 -0.012109743
000060 d7 b4 90 bd ef fd c7 3d a7 f3 b0 3d 4a 06 d4 bd
       -0.070657425 0.09765231 0.08640223 -0.10352762
000070 35 6c b3 3d 7b 27 8a bc 3f 9f 17 be 0d 54 00 3d
       0.08760873 -0.016864529 -0.14806841 0.031330157
000080 9e 5b 83 3d 31 2c 12 bd 08 4a b7 bd 0a 08 f7 3d
       0.06413959 -0.035686675 -0.08949667 0.1206208
000090 19 0c 17 bb 41 81 a2 3d 9b d2 0c 3d 16 27 7c 3e
       -0.0023047982 0.079348095 0.034380537 0.24624285
0000a0 b4 c5 16 3e 70 cb ca 3d fe 4b db 3d a1 b1 d3 3d
       0.14723855 0.09902084 0.10707854 0.103366144
0000b0 d4 46 29 bd 13 12 ec bc 3f c6 1e 3e 01 7a 12 be
       -0.041327313 -0.028817212 0.15505312 -0.14304353
0000c0 c2 e0 58 be 21 03 23 be 4f 55 80 3e 57 b7 91 3d
       -0.21179488 -0.15919162 0.25065085 0.071150474
0000d0 11 5c c4 3d 78 23 0e b9 1c 6d 4e be 52 11 98 bd
       0.09587873 -0.00013555388 -0.2015881 -0.074251786
0000e0 57 64 ae 3c a9 24 37 3d 1b b7 20 bd b5 ea ec 3d
       0.02128808 0.044712696 -0.039237123 0.11568204
0000f0 61 aa ba 3c 81 9d 5c bd 2b b6 98 3d 20 e6 73 bd
       0.022786321 -0.053861145 0.07456621 -0.059545636
000100 e7 0f a0 bc 48 dc 25 3c d5 d2 ec bc b9 4c 11 be
       -0.019538833 0.01012332 -0.028909126 -0.14189424
000110 40 24 46 3c dc 2b d5 bb 13 56 b6 bd c2 8a 03 3e
       0.012093604 -0.0065054726 -0.08903136 0.128459
000120 b1 de 67 bc 49 3b 08 3b 32 ff fb bd e0 61 67 3e
       -0.014152215 0.002078729 -0.12304534 0.2259593
000130 9b 4c aa bc 59 85 88 bd 5c 6a 04 bd 2f d7 7d 3e
       -0.020788481 -0.06666059 -0.032327995 0.24789117
000140 c9 be 4e be fe 7f 64 be 8d e9 4e be 23 17 86 3d
       -0.20189966 -0.2231445 -0.2020628 0.06547382
000150 8b 92 4f be 0d c9 33 3e 1d b3 05 bd 9a 08 48 bd
       -0.20270745 0.17557164 -0.03264152 -0.048836328
000160 ab 25 6e 3c cc b3 97 bb 19 0b 1d 3e 6a 8e 81 3d
       0.014535348 -0.0046295878 0.15336265 0.063259915
000170 b5 fe 39 be 1d 4f 34 3e fd 81 90 bd 03 86 87 bc
       -0.1816357 0.17608304 -0.07056043 -0.016543394
000180 c1 5b 0c 3e 19 bc 18 bd e3 dc 53 bd 06 67 30 be
       0.13706876 -0.03728876 -0.051724326 -0.172268
000190 2e 63 20 3e e0 a5 07 bc 45 eb 15 3e a3 f6 f4 bd
       0.15662834 -0.008279294 0.1464053 -0.11961105
0001a0 4b 09 b5 3d 58 c6 3b be 35 22 af 3c e3 df ae bd
       0.08839663 -0.18337381 0.021378616 -0.08538797
0001b0 c7 60 e0 3d ff a6 96 bc 98 04 e3 3c 49 c4 3b be
       0.10955959 -0.018390177 0.027712151 -0.18336596
0001c0 a1 83 35 3e ae 0e 7c be 97 66 17 3e a2 77 67 be
       0.17725994 -0.24614975 0.14785229 -0.2260423
0001d0 57 98 56 3c e9 9b 0a bd 49 df f0 3d 17 39 08 be
       0.013097844 -0.033840094 0.11761338 -0.13303028
0001e0 7c 08 c0 3d 0d ce 53 3d c9 61 bb bc b0 57 03 be
       0.09376618 0.051710177 -0.022873776 -0.12826419
0001f0 5c 06 6f 3e 07 b5 20 3e 40 88 d4 3d 9a a8 e1 bd
       0.2334227 0.15694056 0.1037755 -0.11018486
000200 d6 44 83 bb 29 d1 62 3d e1 c8 ae 3c aa 46 fc bb
       -0.0040060086 0.055375252 0.02133602 -0.0076988535
000210 99 ce b4 3d 9c 49 86 bd 2d 59 f1 bd cd 93 9c 3e
       0.08828468 -0.065570086 -0.11784587 0.30581513
000220 22 4f 4f 3e 77 f8 08 3c 9b df e8 bc 9a 83 c2 3d
       0.2024503 0.00836002 -0.028426936 0.09497757
000230 1c f7 12 bd 18 ce 80 3d 5d ab 6d 3e c4 00 79 3c
       -0.035880193 0.06289309 0.23209901 0.015197936
000240 ee 10 57 3d 38 39 13 bc 3c 31 0f 3d a3 27 0e be
       0.05250638 -0.00898581 0.034959063 -0.13882308
000250 68 84 16 3d db 23 cc 3d 5e 82 23 be be 39 12 3e
       0.036747366 0.099677764 -0.159677 0.1427984
000260 07 dc 1a 3d 0e bb 8d 3d c5 04 3b bd 27 3f 1e bd
       0.03780749 0.069204435 -0.045658845 -0.038634446
000270 75 65 0c 3e bd 47 94 3d 3b 8a 45 bc b8 9d 6c 3e
       0.13710578 0.072402455 -0.0120568825 0.2310704

hidden2event.weight f4 [27, 40]
000000 0d c0 13 3d 01 15 74 bd 97 0f 0b 3e c2 6c d6 bd
       0.036071826 -0.059590343 0.13580166 -0.10469963
000010 5a ab 01 3e 77 ba e3 bb 12 7a df bc 39 2a d6 bd
       0.12663022 -0.0069497186 -0.027279887 -0.10457272
000020 7b ed 1d be 93 05 b0 bc c1 ae 38 bd 52 30 d8 3d
       -0.15422623 -0.021487033 -0.045088533 0.10556091
000030 ab a0 55 3d c7 43 63 3c a6 ff c2 3c 48 33 0a bb
       0.052155178 0.01387114 0.023803543 -0.0021087695
000040 c0 cf 60 bd 75 60 a7 3d ab 34 01 be 88 b5 54 be
       -0.054885626 0.081726946 -0.12617747 -0.20772374
000050 31 05 22 3e 52 55 0a 3c b6 b5 09 bd 55 e6 1a be
       0.15822293 0.0084431935 -0.03362056 -0.15126927
000060 ca fe 3a bd 08 ea c2 bd 59 d1 3b 3d ec 21 78 3e
       -0.045653142 -0.09517294 0.045853946 0.2423169
000070 6f e9 b0 bd 9f 9f 8e bc c5 8d 54 3d ac de 18 3e
       -0.08638274 -0.017410098 0.051893014 0.14928693
000080 57 e2 52 3e f4 56 fe 3d 9b bc 82 3d 27 b8 b7 bd
       0.20594154 0.12418929 0.0638363 -0.08970671
000090 9c 74 1b bd 9a 84 47 bc 73 a6 96 bc 3e d2 9d 3d
       -0.037953004 -0.012177611 -0.018389916 0.07706116
0000a0 28 ff 26 3d 98 39 70 be 16 6e 3c be e8 eb 0a bc
       0.04077068 -0.2345947 -0.1840137 -0.008479096
0000b0 7c a4 0b be 93 f8 43 3e 9e 41 2b 3e 4c 73 53 bc
       -0.13636965 0.19137792 0.1672425 -0.012905907
0000c0 b2 45 a8 bd 55 07 74 3d 35 7d 43 bd 1f 64 ed bc
       -0.08216418 0.059577305 -0.04772683 -0.028978406
0000d0 9c 18 72 be 17 b8 bf 3d c1 b6 04 3e 8e 52 e5 3c
       -0.236422 0.09361284 0.1296034 0.027993467
0000e0 b3 39 31 3c ca 75 72 bc 2c e9 17 be 38 f0 9e 3d
       0.010816979 -0.014798591 -0.14835042 0.07760662
0000f0 d4 2e 86 bb 84 06 a0 bd 44 44 45 3e 2a d7 ef bc
       -0.004094938 -0.07813743 0.19264323 -0.029277403
000100 c6 49 2c 3d 68 4b 6c bd 6f eb b5 bc 09 99 68 be
       0.042062543 -0.0576891 -0.02220699 -0.22714628
000110 3c 68 03 3e c2 c1 1c 3e 91 9a 05 bd b6 48 87 3d
       0.12832731 0.15308288 -0.03261811 0.066056654
000120 fc 06 c0 3d ed c7 b9 3d 85 f3 10 3e 9f cc e6 bc
       0.09376332 0.09071336 0.14155395 -0.028173743
000130 30 79 33 3e aa cd 77 3d 64 57 5e bd a5 18 43 be
       0.17526698 0.06049887 -0.05428256 -0.1905237
000140 20 22 d9 3c ec ce 0b be 1c f8 4a bd 44 77 7a bd
       0.02650553 -0.13653153 -0.04955302 -0.061148897
000150 6f 17 1b bd 7d 39 6e 3d 86 76 f5 3d 1a b2 51 3d
       -0.037864145 0.058160294 0.11985497 0.05119524
000160 ff 37 0d bd be 7a 30 3d 24 4a 81 bd 8b 92 f4 bd
       -0.03447723 0.043085806 -0.06312969 -0.11942013
000170 13 7c 38 bd a8 93 b4 bd 57 9a e0 bd 82 b8 d3 3d
       -0.0450402 -0.08817226 -0.10966938 0.103379264
000180 22 a0 f2 3d 94 64 0a be c5 69 45 bd 91 93 81 be
       0.11846949 -0.1351493 -0.048196573 -0.25307897
000190 6e 65 b9 3d 60 3b 08 be 80 94 e8 3a 99 fe dd bd
       0.09052549 -0.133039 0.0017744452 -0.10839576
0001a0 46 cd ee bd 74 e0 a5 bc e4 fd af 3b ba 2c 1d be
       -0.116602466 -0.02024863 0.0053708423 -0.15349093
0001b0 26 e0 5c 3c 01 d0 7a bd 23 05 83 bd ee 57 02 bd
       0.0134811755 -0.061233524 -0.06397464 -0.031822138
0001c0 e3 47 fc 3d de 6c ad bd e3 1e ee bd ca 36 0d bd
       0.12318399 -0.084680304 -0.11626985 -0.03447608
0001d0 38 3d 83 3d 7c cd e7 3d 42 35 41 3e ea 24 a2 3b
       0.06408161 0.1131849 0.18867972 0.004948248
0001e0 f7 74 0e be 6d 85 8e bd ba 30 bd 3b 54 f5 95 3d
       -0.13911806 -0.06959043 0.005773631 0.07322183
0001f0 b9 dd 0e be 3e 80 01 bd 1b 74 b9 3d 98 ca 90 bd
       -0.13951768 -0.031616442 0.090553485 -0.07069892
000200 03 db cd bd 75 dd 14 3d c8 bf a3 3d ae cb 34 bc
       -0.10051539 0.03634401 0.07995564 -0.011034889
000210 00 0b 0c be ca 10 db bd 44 49 e9 bd a6 21 a7 bc
       -0.13676071 -0.10696562 -0.113909274 -0.020401787
000220 6a cf 56 3e e6 55 aa 3d 5c 64 11 3c 90 40 e7 bd
       0.2097756 0.08317165 0.008874025 -0.11291611
000230 b7 94 b8 3d 2f 31 55 be 8f 4f 57 3e a4 16 08 bd
       0.0901274 -0.20819543 0.21026443 -0.033224717
000240 0c f5 1b 3e d9 01 90 3d a6 ca f5 bb 11 73 0a be
       0.15230197 0.070316024 -0.007500964 -0.13520457
000250 69 2f e2 3d 0c 27 56 3e 85 8f e4 bd 5e 67 d7 3b
       0.11044199 0.20913333 -0.11160187 0.0065736016
000260 79 29 78 3b 3a 85 74 3d 69 b0 07 3e 43 9a 81 3d
       0.0037866517 0.059697367 0.13250889 0.06328251
000270 1b 02 23 3e 48 80 20 3e 44 b9 c5 3d 77 25 77 bd
       0.15918772 0.15673935 0.09654477 -0.060338464
000280 90 e6 78 bd bc 15 df 3d 9a d0 2d 3b 18 bc 01 be
       -0.060766757 0.108928174 0.0026522041 -0.12669408
000290 ff a7 de bd 40 42 09 3e ec 83 c1 3d 68 51 d4 bd
       -0.108718865 0.13404179 0.0944899 -0.103670895
0002a0 2a 8f 86 bd ee c8 e1 3d ca 47 9c bd 44 8f 2e bd
       -0.06570275 0.110246524 -0.0763088 -0.042617097
0002b0 14 f3 b2 3d 96 57 75 bd 23 4a 1c 3e 4d ca 07 3e
       0.0873777 -0.05989798 0.15262656 0.13260765
0002c0 bc 69 a8 bd 77 23 02 be 8a 79 9a 3d 58 ff cd 3d
       -0.08223292 -0.12708841 0.07542713 0.100584686
0002d0 63 12 3e bd 28 a7 39 be ac 2d ac bd 37 b8 a5 bd
       -0.046404254 -0.18130171 -0.08407149 -0.08091777
0002e0 fb f2 a3 3d 04 99 28 bc 10 2e 1c be 33 40 80 3e
       0.08005329 -0.010290388 -0.15251946 0.2504898
0002f0 19 d6 5e 3d bb d3 18 3c aa d7 53 3e 36 b7 cc bd
       0.0544034 0.009327824 0.20687738 -0.09995882
000300 d9 40 11 3e 14 3b 27 be 26 95 1e 3e 77 3c 5c 3d
       0.14184894 -0.1633113 0.15486583 0.0537686
000310 77 33 f1 bd f6 36 99 3d 05 61 25 3e 3c 4a e2 3d
       -0.11777394 0.07481186 0.16150291 0.11049315
000320 91 a2 cb 3d 80 6c e1 3d 45 d1 1e 3e 9d ea 3b be
       0.099431165 0.11007023 0.15509517 -0.18351217
000330 a3 e1 17 3c fa 87 66 3c 48 e5 13 be e2 7c 55 3e
       0.009270105 0.014070505 -0.14442933 0.2084842
000340 d9 de 89 bd 1a 21 1e be 31 21 7e be 87 32 84 3d
       -0.06731958 -0.15442315 -0.24817349 0.0645495
000350 18 f3 95 3e a2 c5 5a be 0c 14 48 bd 92 f5 e8 bc
       0.29287028 -0.21364453 -0.048847243 -0.02843741
000360 71 56 63 be 44 6e 79 3b b4 ba 45 3e c9 af 0a 3e
       -0.22200944 0.0038060108 0.19309503 0.13543619
000370 4f 5d 4d be 1a 35 52 3d 2c 78 59 bc 01 36 39 3e
       -0.20055126 0.051320173 -0.01327328 0.18087007
000380 af f0 21 bd 01 ae 52 3e 1b d1 25 be ac a0 3f bd
       -0.039536174 0.2057419 -0.16193049 -0.046784088
000390 22 bd 03 be 12 4d e2 bd 2b b9 77 3e 2b 7a 02 3d
       -0.12865117 -0.11049856 0.2419173 0.03185479
0003a0 19 de 36 be d4 b1 46 3e c0 11 5e be 04 56 b9 3d
       -0.17858161 0.19403774 -0.21686459 0.09049609
0003b0 a3 b5 72 bd a3 af 8d be 27 7b 59 be c1 fa f0 3d
       -0.059255254 -0.27673063 -0.21238385 0.117665775
0003c0 a0 1e 11 3e a0 9a f4 3d b1 74 f0 3d e6 36 c7 bd
       0.14171839 0.11943555 0.11741007 -0.09727268
0003d0 48 33 88 3e 78 78 25 bd e6 75 9f bc e1 b5 74 3e
       0.26601624 -0.04039809 -0.019465398 0.23897506
0003e0 32 d9 aa bd 6b f4 da 3c 58 61 99 bd a8 cf 41 be
       -0.08342208 0.026727876 -0.0748927 -0.18926871
0003f0 50 14 a3 3d 24 7d 72 be c5 72 ff bd c6 9b b8 3d
       0.07962859 -0.2368055 -0.124730624 0.090140864

hidden2event.bias f4 [27]
000000 f0 47 57 3c 8d 9b 98 3c 5c bb ed bc 46 9d 67 3e
       0.01313971 0.01862886 -0.029020004 0.22618589
000010 ce 98 b1 bd 34 52 71 be fb 9d 13 3d 41 90 50 bd
       -0.08671723 -0.23566514 0.036039334 -0.05091882
000020 a2 db 3d 3e 46 87 25 bd 89 d4 15 be c4 b4 bc bc
       0.18540815 -0.04041221 -0.14631857 -0.023035415
000030 c4 25 d6 bd e1 1d 68 3e a5 fb 15 bd da b5 67 bd
       -0.10456422 0.22667648 -0.03661694 -0.05656991
000040 65 91 9d 3d b0 7a 27 be b7 59 62 be b3 2a f0 bd
       0.076937474 -0.16355395 -0.22104536 -0.11726894
000050 8e 7f c2 3d 1e e8 36 be ab 57 45 be 1e 41 1c 3c
       0.094969854 -0.17861983 -0.19271724 0.0095370095
000060 fd 1d 84 3e d4 4b d4 bb 72 0d 89 be
       0.2580413 -0.006478766 -0.2676807

hidden2time.weight f4 [3, 40]
000000 fa 50 d3 bd 03 62 41 bd eb b1 33 be 18 91 60 bc
       -0.103181794 -0.047212612 -0.17548339 -0.013706468
000010 39 ce 77 3d 1c 73 39 3e 1d 02 2b 3d ac c8 cc bd
       0.060499404 0.18110317 0.041750062 -0.099992126
000020 67 87 8b bd 4f a5 2b 3d 4d 8d 62 bd 20 ed 02 bd
       -0.06812935 0.041905697 -0.055310536 -0.03196442
000030 79 7d 9e bd 4e f3 e3 bc 22 49 59 bd 91 7c 51 3e
       -0.07738776 -0.027825978 -0.05304826 0.20457675
000040 12 ea e9 bd 03 1a 05 3d 08 39 4a bd be 05 aa 3d
       -0.114215985 0.03249551 -0.049370795 0.083018765
000050 7c 46 b1 3c e0 d8 66 3d ba 30 58 bd e5 af 40 be
       0.021640055 0.056359172 -0.052780844 -0.18817098
000060 9d f8 0e 3e 58 4a 03 bd cd 1b da 3d 25 74 e8 3d
       0.13962026 -0.03205332 0.10649834 0.11350278
000070 b1 3d b5 bd 28 d7 b8 bd 64 f7 8c bb 8e 23 67 bd
       -0.08849657 -0.09025413 -0.004301952 -0.056430392
000080 b7 9e 15 3d d8 e9 c4 3d 9e a6 c4 bc 24 52 89 bd
       0.036528315 0.09614915 -0.02400523 -0.0670512
000090 c5 96 c4 3c 56 e9 c6 bb 32 f0 15 3e 28 85 d4 bd
       0.023997674 -0.0060702963 0.14642408 -0.1037696
0000a0 3b 5b 0e be ca aa 49 bc e2 d9 33 be a5 83 82 3d
       -0.13901989 -0.012308786 -0.17563584 0.063727655
0000b0 fd 04 e1 bc aa 19 3a 3e 83 ef e4 3b 0a e3 ce bd
       -0.027468199 0.18173853 0.00698656 -0.10101898
0000c0 01 93 7b bd 28 b7 ab bc f2 9f 39 3e d4 f8 f5 bd
       -0.06141949 -0.02096136 0.1812742 -0.12010351
0000d0 9a 89 36 be 5d 1f 9f 3d 10 14 ba 3d 31 44 69 be
       -0.17825928 0.07769654 0.09085858 -0.22779919
0000e0 f4 68 72 bd 37 14 8c 3d aa fe 76 3d 6c 58 76 bc
       -0.059182122 0.06839793 0.06030146 -0.01503573
0000f0 43 c7 f9 3d 99 c5 8e bd e5 75 1d 3e 78 d5 d8 bd
       0.12196209 -0.069712825 0.15377004 -0.10587591
000100 b5 77 49 bc 06 3a 37 be 1a 7d cd bd 72 c3 ef bd
       -0.012296607 -0.17893228 -0.10033627 -0.117072
000110 28 5c c5 bd 8b 48 46 3e f4 b8 77 bd 6a ba b0 bd
       -0.09636718 0.1936361 -0.06047912 -0.08629306
000120 f6 04 5c 3c dc 65 b2 3d 6f fd c8 3d 09 44 37 bd
       0.013428917 0.087108344 0.098139636 -0.044742618
000130 54 39 b2 bc 65 11 94 bc 1c be aa 3d 86 63 90 bd
       -0.021755852 -0.0180747 0.08337042 -0.070502326
000140 c5 f1 35 3e 5a 6a 4c 3e 91 78 a5 3d 50 72 50 bb
       0.17768009 0.19962445 0.08079637 -0.0031806417
000150 f9 ea 54 3e 78 f5 6b be e4 e2 3c be 65 70 32 3e
       0.2079276 -0.23042858 -0.18445927 0.17425688
000160 85 65 0b be 59 a4 80 3d de 1e 7f be 82 05 2b be
       -0.13612945 0.06281347 -0.24914119 -0.1670132
000170 32 6a 70 3e 9d 37 3d be e0 be 59 be 0c 1a 07 3e
       0.2347801 -0.18478246 -0.2126422 0.1319353
000180 f3 4a 1b be f0 77 62 bc c3 ae eb bc a8 18 e9 3d
       -0.1516531 -0.013822541 -0.028769856 0.11381656
000190 36 f4 b6 bd 2f bc 3f 3e a2 a6 c8 bd fe cc 0e 3e
       -0.08933298 0.1872413 -0.09797408 0.13945386
0001a0 c5 fe 73 be d9 9b 54 3d 3a c9 77 be 87 39 61 3e
       -0.23827656 0.05190644 -0.24197856 0.21994601
0001b0 15 00 84 be e9 2b 0e be 84 f3 c1 bc c1 2b 84 3e
       -0.25781313 -0.13883938 -0.023675688 0.25814632
0001c0 d9 49 1f be e3 ed 6b 3e b4 fa 32 be b3 7d 6e 3d
       -0.15555514 0.23039965 -0.17478448 0.058225345
0001d0 b4 65 46 be 1e 75 35 be 86 e3 25 be 74 b3 8a 3e
       -0.19374734 -0.17720458 -0.16200075 0.27090037

hidden2time.bias f4 [3]
000000 8f 8c d8 3d 3d 88 25 3d 8e 9e 48 be
       0.105736844 0.04041313 -0.19591734
