events_simulation/models/model_20180506-1917.pt (torch_old, 78354 bytes, 9 tensors)

loss_function_events.weight f4 [27]
1.0 1.0 1.0 1.0 1.0 1.0 1.0 1.0
1.0 1.0 1.0 1.0 1.0 1.0 1.0 1.0
1.0 1.0 1.0 1.0 1.0 1.0 1.0 1.0
1.0 1.0 1.0
00000000: 0000 803f 0000 803f 0000 803f 0000 803f
00000010: 0000 803f 0000 803f 0000 803f 0000 803f
00000020: 0000 803f 0000 803f 0000 803f 0000 803f
00000030: 0000 803f 0000 803f 0000 803f 0000 803f
00000040: 0000 803f 0000 803f 0000 803f 0000 803f
00000050: 0000 803f 0000 803f 0000 803f 0000 803f
00000060: 0000 803f 0000 803f 0000 803f

lstm.weight_ih_l0 f4 [160, 70]
0.511477 -0.27214423 0.009400459 -0.7257959 -0.5378531 -1.4435906 0.88113207 0.89503044
-0.46813807 -0.10455653 -0.06512823 0.28885514 0.7342822 -0.14822109 -0.4780856 -0.37862492
-0.67537624 3.5737817 0.38104117 -0.1922067 -0.24191834 0.01302373 -0.04389242 0.62136996
-0.30630895 0.023332164 1.0967767 -0.84518933 0.014154611 1.1904117 0.2382535 0.100805685
-0.17273073 -0.066402584 -0.058211286 -0.19001943 0.08148022 0.20988165 0.2932061 0.027084697
-0.025243837 0.0028837612 -0.013172855 -0.19906124 0.20153154 -0.102058165 -0.10619755 0.015859181
0.26306298 -0.09666359 -0.03097603 -0.089881815 -0.01447896 0.011899723 0.11150515 0.20458795
0.13946946 0.052805893 0.045694865 -0.10347846 -0.10554951 0.12296834 -0.25050503 -0.20421633
-0.13228522 0.08743491 -0.060944114 -0.055271186 -0.03506896 0.10787361 0.42706302 1.0375668
-0.27444768 -1.4422853 -1.1658634 1.8900391 0.6522506 0.38487062 0.4850272 0.27204147
0.22231224 2.2909994 1.4101752 -0.033092692 -0.5755009 -1.447357 -1.1302776 0.26479658
1.7756951 1.5344335 -1.5933661 1.2105231 1.8340994 3.6753016 1.5023361 0.08811137
-0.12747979 1.0456533 -1.1637744 -0.103521176 -0.593308 0.21909802 -1.0620514 0.3275134
-0.084589705 -0.24263883 0.0810318 0.28152728 0.43395206 -0.07645369 0.25959042 -0.17433523
-0.44533467 -0.01484809 0.61129695 -0.35388204 0.12704547 -0.3657172 -0.24217057 -0.09342236
0.4333396 0.45231774 0.21467502 -0.5093321 0.46365976 1.1467968 0.1405324 0.5668068
-0.69005483 -0.7466045 0.25165412 0.021706328 -0.35339943 0.12661175 -0.1590548 0.16056542
-0.060048163 -0.16808282 -0.29229566 0.4523528 0.25195208 0.10848446 0.13123561 -0.25715315
0.04102896 0.00613101 -0.044313848 0.18423113 -0.12207888 0.08031754 -0.034495518 0.01605916
-0.060727026 0.29765704 -0.07344987 0.23752984 0.11168752 0.007953083 -0.075045496 0.42516455
0.38767928 -0.20864445 -0.048700184 -0.5858893 0.22581261 0.116739556 0.29929247 -0.030528672
0.15306205 0.24180813 0.9665295 0.31943047 0.11176839 0.03097488 -0.21402954 0.46533692
0.08159636 -0.10996196 0.2150638 -0.2319474 -0.1806115 -0.13234295 0.8883019 0.091985844
-0.0060322843 0.09404172 -0.09502615 0.1341546 -0.17929122 0.052096315 -0.07567122 0.19630879
-0.2960455 -0.18461467 0.17320216 -0.3207993 -0.18615158 -0.61656535 0.11568945 0.03271667
0.3115967 0.26164708 0.28950474 0.23796321 0.3731511 -0.20891319 0.10402941 -0.33537558
0.31551597 0.31608868 0.18818185 0.13723892 -0.21468739 0.24083947 0.1785269 -0.047724802
0.050433803 0.0018375425 -0.2685471 -0.12174581 -0.008584354 0.059925627 0.15192717 0.04330783
0.18442652 -0.33909538 -0.05203231 0.047570474 -0.0052648354 0.066792324 -0.03861262 0.42406175
-0.0005582705 -0.10261744 0.138876 -0.053311653 0.27909225 0.24569282 0.11270737 0.33395457
-0.6633575 -0.065868445 -0.44275945 -0.23199803 -0.03283324 -0.056791127 0.29957002 -0.13991581
0.09281873 0.13391064 0.23174801 0.16808423 0.20332238 -0.2655275 -0.46768618 0.17667687
00000000: 28f0 023f 7d56 8bbe 6204 1a3c c3cd 39bf
00000010: beb0 09bf 94c7 b8bf df91 613f b720 653f
00000020: cbaf efbe bc21 d6bd f361 85bd d2e4 933e
00000030: ebf9 3b3f 45c7 17be a3c7 f4be 20db c1be
00000040: 75e5 2cbf d7b8 6440 d417 c33e d5d1 44be
00000050: 71b9 77be 7c61 553c 8ac8 33bd 1a12 1f3f
00000060: 87d4 9cbe 1823 bf3c 2e63 8c3f 545e 58bf
00000070: bee8 673c 695f 983f baf8 733e 3673 ce3d
00000080: 53e0 30be 14fe 87bd f56e 6ebd 7494 42be
00000090: 1adf a63d 37eb 563e 1c1f 963e bae0 dd3c
000000a0: 2acc cebc 7cfd 3c3b f5d2 57bc b6d6 4bbe
000000b0: 495e 4e3e df03 d1bd 1a7e d9bd 1deb 813c
000000c0: 31b0 863e 8ff7 c5bd 71c1 fdbc f513 b8bd
000000d0: 2939 6dbc 0ef7 423c d05c e43d 817f 513e
000000e0: 15d1 0e3e fe4a 583d 8a2a 3b3d 84ec d3bd
000000f0: 572a d8bd d3d6 fb3d 3242 80be 161e 51be
00000100: c775 07be 1311 b33d 89a0 79bd 0a64 62bd
00000110: 78a4 0fbd d7ec dc3d 01a8 da3e fdce 843f
00000120: 6884 8cbe ce9c b8bf 033b 95bf cdec f13f
00000130: e5f9 263f c30d c53e 7c55 f83e 0549 8b3e
00000140: d2a5 633e bc9f 1240 9f80 b43f 348c 07bd
00000150: 0754 13bf ff42 b9bf f0ac 90bf 6b93 873e
00000160: fa49 e33f 5168 c43f 6cf3 cbbf 6cf2 9a3f
00000170: c5c3 ea3f 2438 6b40 8d4c c03f bc73 b43d
00000180: 108a 02be f8d7 853f 8ff6 94bf e902 d4bd
00000190: 08e3 17bf 3b5b 603e 4df1 87bf d6af a73e
000001a0: 5e3d adbd 5076 78be 00f4 a53d 5824 903e
000001b0: f72e de3e c193 9cbd 09e9 843e ef84 32be
000001c0: e802 e4be 6745 73bc f57d 1c3f 0730 b5be
000001d0: 3518 023e 493f bbbe 90fb 77be 3954 bfbd
000001e0: b0de dd3e 3196 e73e c5d3 5b3e 9763 02bf
000001f0: d064 ed3e 3dca 923f bae7 0f3e 401a 113f
00000200: 6fa7 30bf 7921 3fbf cfd8 803e 78d1 b13c
00000210: c5f0 b4be 83a6 013e 43df 22be 436b 243e
00000220: 10f5 75bd e71d 2cbe c7a7 95be c99a e73e
00000230: ddff 803e 1a2d de3d a162 063e 94a9 83be
00000240: fc0d 283d a4e6 c83b 7082 35bd 16a7 3c3e
00000250: 7e04 fabd 867d a43d 2c4b 0dbd 808e 833c
00000260: e7bc 78bd 8166 983e e36c 96bd 063b 733e
00000270: 6dbc e43d a64d 023c 74b1 99bd 2baf d93e
00000280: e67d c63e e4a6 55be d879 47bd d7fc 15bf
00000290: 6c3b 673e 2615 ef3d dd3c 993e 4417 fabc
000002a0: 4cbc 1c3e 8d9c 773e 7a6e 773f 648c a33e
000002b0: d3e6 e43d 08bf fd3c 8f2a 5bbe a440 ee3e
000002c0: fe1b a73d bc33 e1bd af39 5c3e 9f83 6dbe
000002d0: 39f2 38be e984 07be c167 633f 1363 bc3d
000002e0: 78aa c5bb f298 c03d 129d c2bd d35f 093e
000002f0: 1e98 37be f262 553d 83f9 9abd 2c05 493e
00000300: 4793 97be a10b 3dbe e85b 313e ce3f a4be
00000310: 859e 3ebe 3ad7 1dbf 97ee ec3d ea01 063d
00000320: 9a89 9f3e 9bf6 853e f739 943e a1ac 733e
00000330: a90d bf3e 57ed 55be 5f0d d53d 59b6 abbe
00000340: 4f8b a13e 60d6 a13e beb2 403e 5c88 0c3e
00000350: 03d7 5bbe 9f9e 763e c1cf 363e 157b 43bd
00000360: ad93 4e3d b2d9 f03a 017f 89be de55 f9bd
00000370: 64a5 0cbc 9374 753d cc92 1b3e 8d63 313d
00000380: 4eda 3c3e e99d adbe d51f 55bd 42d9 423d
00000390: a484 acbb 6aca 883d 4428 1ebd 9f1e d93e
000003a0: e658 12ba 1829 d2bd 8335 0e3e 525d 5abd
000003b0: 2ee5 8e3e e696 7b3e 1fd3 e63d 18fc aa3e
000003c0: ccd1 29bf 09e6 86bd 5eb1 e2be e490 6dbe
000003d0: 267c 06bd d09d 68bd 3e61 993e 1746 0fbe
000003e0: bf17 be3d df1f 093e 5a4f 6d3e 461e 2c3e
000003f0: be33 503e 38f3 87be 9074 efbe c8ea 343e

lstm.weight_hh_l0 f4 [160, 40]
0.95795333 0.06966425 0.08636021 -0.022082109 -0.46544212 -0.15023917 -0.31336287 0.15562549
0.27320087 0.2001051 0.30809212 0.18547618 0.55642444 -0.14206554 0.35024828 -0.28412002
0.114240006 0.21137403 0.36776876 0.31369218 -0.10218547 -0.35450745 -0.08432724 0.12792578
-0.27905113 -0.2918939 0.3003575 0.074775964 0.1460556 -0.36946425 -0.14312187 -0.10660779
0.3064783 0.18537962 0.022980517 -0.075872004 -0.22025493 0.14201124 0.43114248 0.45229316
-0.46428242 1.4823998 0.39339897 0.29488778 0.50899386 -0.6444354 0.4405009 0.06087854
0.026934365 1.5742991 -0.21693656 -0.15519816 -0.02769868 0.024390958 0.28617156 -0.32096407
2.7885246 1.238021 0.19206755 -0.07493554 -0.0017241961 0.17915873 -0.20120412 0.32024238
0.04129863 0.07220558 -0.08822156 0.30786204 -0.4098066 -0.045659203 0.55778635 -0.34214857
-0.16085881 0.3717702 -0.12735762 0.0296164 -0.36006036 0.3619204 0.12713121 0.41549864
0.6909686 0.5814516 -0.22104214 -0.20608988 -0.90506566 0.27718633 0.51106465 -0.029097915
-0.24675427 -0.9656856 -0.86767286 -0.53903806 1.8766346 0.21615888 -0.12359621 0.071808025
-0.6966419 0.5426615 -0.03832327 -0.061547782 -0.04859933 0.24321565 -0.14204055 -1.0546705
0.1989608 -0.10756234 -0.3320577 -0.30001405 -0.18195632 -0.30669504 0.12757103 -0.02044031
0.15819876 -0.056780454 0.5977968 -0.10934781 0.09142955 -0.38820052 0.5354001 0.02614807
-0.24457675 -0.59339106 -0.31023255 -0.24678746 0.9316251 -0.12230862 0.39823344 -0.04331566
0.03258441 -0.1276146 0.32771274 0.21361801 0.15909314 -0.08510941 -0.08917265 0.10518011
-0.48755437 0.32048026 -0.044516884 -0.28093207 0.2129795 -0.07297791 0.221305 -0.48720452
-0.08569536 -0.023525655 -0.05686559 -0.16717063 -0.1706623 -0.13445738 0.092779815 0.09908114
0.0230253 -0.22917467 0.656745 0.12421965 0.053711988 -0.034898657 -0.29175004 0.06975496
0.17737167 1.632753 0.24599122 1.413696 0.2064765 -0.501416 0.13415952 0.5910988
0.17859304 0.7415136 0.11736302 -0.4983154 -0.53127444 -0.89788204 0.18323675 0.64418995
0.5965732 0.3584967 0.246127 0.23379676 -0.66716397 -0.009514821 -0.7201364 0.12488398
0.34645596 -0.65578544 0.7822118 0.122557044 0.585654 -0.070297964 -0.17104876 -0.012518723
0.07510601 -0.055877976 0.15163174 -0.8282664 0.83623654 0.3922944 -0.13339458 0.14720742
0.014392204 -0.17769706 -0.256709 0.038302235 0.14177155 -0.006998554 0.34291115 -0.10148047
-0.0077826767 -0.03815601 -0.3669768 0.34567073 0.24449101 0.13763294 -0.042082172 0.056489617
0.2533122 -0.08288878 -0.05828086 -0.22191478 0.053398397 0.11035373 0.14412522 -0.13090289
0.07140608 0.081413746 -0.049063303 -0.15580359 0.025313111 0.25692275 0.2164292 0.36219716
0.10232162 -0.26883852 0.13143964 -0.049080584 0.21094482 -0.05716277 -0.13325062 -0.067742
-0.5442872 -0.33645383 0.4678663 -0.18419349 0.45520282 -0.18685523 -0.18996657 -0.049255926
0.05874788 -0.5585754 -0.1269023 -0.050291806 0.25275445 0.17739466 -0.0012295601 -0.011260486
00000000: 6e3c 753f 21ac 8e3d 9fdd b03d 8ae5 b4bc
00000010: 6e4e eebe 4cd8 19be 1971 a0be 4a5c 1f3e
00000020: fce0 8b3e 5ae8 4c3e 40be 9d3e 78ed 3d3e
00000030: d571 0e3f a179 11be be53 b33e 2e78 91be
00000040: aaf6 e93d 6f72 583e 304c bc3e 439c a03e
00000050: 9e46 d1bd 0082 b5be c3b3 acbd fafe 023e
00000060: cadf 8ebe 1e73 95be 75c8 993e 2424 993d
00000070: 998f 153e 6b2a bdbe 8a8e 12be 2f55 dabd
00000080: b9ea 9c3e 28d4 3d3e a341 bc3c c862 9bbd
00000090: 828a 61be 656b 113e b5be dc3e f892 e73e
000000a0: 6db6 edbe 47bf bd3f 976b c93e 88fb 963e
000000b0: 6c4d 023f b8f9 24bf 5589 e13e c75b 793d
000000c0: 75a5 dc3c a282 c93f 9e24 5ebe 44ec 1ebe
000000d0: 58e8 e2bc 8ccf c73c 1485 923e 6755 a4be
000000e0: 3077 3240 7977 9e3f 5bad 443e ce77 99bd
000000f0: 6cfe e1ba 6375 373e 7408 4ebe cff6 a33e
00000100: c128 293d 85e0 933d 81ad b4bd 18a0 9d3e
00000110: 2cd2 d1be 2505 3bbd 16cb 0e3f 192e afbe
00000120: 2cb8 24be aa58 be3e 096a 02be 189e f23c
00000130: d559 b8be a14d b93e af2e 023e 3dbc d43e
00000140: 51e3 303f 03da 143f df58 62be 3a09 53be
00000150: 62b2 67bf 5eeb 8d3e 22d5 023f c05e eebc
00000160: 27ad 7cbe 2c37 77bf cf1f 5ebf 66fe 09bf
00000170: 9035 f03f c158 5d3e 0220 fdbd 1610 933d
00000180: 2057 32bf ddeb 0a3f dcf8 1cbd 8719 7cbd
00000190: 1710 47bd 860d 793e 1473 11be 71ff 86bf
000001a0: 61bc 4b3e a549 dcbd 7803 aabe 719b 99be
000001b0: c252 3abe 2207 9dbe fba1 023e 7072 a7bc
000001c0: dbfe 213e 9f92 68bd 3609 193f bff1 dfbd
000001d0: 6a3f bb3d 38c2 c6be fb0f 093f 7a34 d63c
000001e0: 5472 7abe 7ae8 17bf cdd6 9ebe dab5 7cbe
000001f0: fc7e 6e3f f17c fabd 41e5 cb3e c36b 31bd
00000200: 3b77 053d 67ad 02be f7c9 a73e aebe 5a3e
00000210: 50e9 223e d84d aebd 26a0 b6bd ab68 d73d
00000220: baa0 f9be fd15 a43e 5657 36bd 54d6 8fbe
00000230: 4c17 5a3e 7175 95bd c79d 623e df72 f9be
00000240: 0d81 afbd e0b8 c0bc e5eb 68bd c72e 2bbe
00000250: 19c2 2ebe 32af 09be 5803 be3d 0deb ca3d
00000260: 8e9f bc3c c4ac 6abe 7120 283f df66 fe3d
00000270: 1a01 5c3d e5f1 0ebd 4360 95be b0db 8e3d
00000280: eba0 353e 0dfe d03f 1fe5 7b3e fef3 b43f
00000290: 936e 533e cd5c 00bf 1d61 093e 4052 173f
000002a0: 18e1 363e d6d3 3d3f 065c f03d 3223 ffbe
000002b0: 9a01 08bf 99db 65bf 6aa2 3b3e a2e9 243f
000002c0: 05b9 183f e18c b73e b708 7c3e 6b68 6f3e
000002d0: 42cb 2abf 0de4 1bbc dc5a 38bf 2cc3 ff3d
000002e0: ad62 b13e 8ee1 27bf 083f 483f 30ff fa3d
000002f0: 6ced 153f 61f8 8fbd 6827 2fbe 541b 4dbc
00000300: 2ed1 993d 4ee0 64bd 5a45 1b3e 4409 54bf
00000310: 9913 563f d0da c83e 9798 08be 8bbd 163e
00000320: 47cd 6b3c 38f6 35be 5d6f 83be cee2 1c3d
00000330: 902c 113e 2054 e5bb 0d92 af3e fed4 cfbd
00000340: d305 ffbb 7a49 1cbd 62e4 bbbe c1fb b03e
00000350: da5b 7a3e a6ef 0c3e 5b5e 2cbd a861 673d
00000360: 23b2 813e 98c1 a9bd e9b7 6ebd a13d 63be
00000370: 47b8 5a3d 2301 e23d 9095 133e 680b 06be
00000380: 5a3d 923d 40bc a63d 9af6 48bd fa8a 1fbe
00000390: 715d cf3c 618b 833e 9e9f 5d3e e871 b93e
000003a0: ff8d d13d 34a5 89be 1d98 063e b908 49bd
000003b0: eb01 583e 8223 6abd da72 08be 51bc 8abd
000003c0: 6856 0bbf ad43 acbe 2c8c ef3e 389d 3cbe
000003d0: 5810 e93e fa56 3fbe 9986 42be 95c0 49bd
000003e0: 9ea1 703d ccfe 0ebf adf2 01be c8fe 4dbd
000003f0: 0869 813e f2a6 353e 3129 a1ba e77d 38bc

lstm.bias_ih_l0 f4 [160]
-0.42001265 -0.12292942 0.100336775 0.017803442 -0.06240536 0.31464523 -0.12483201 0.12763968
0.16605003 0.10791786 -0.09108229 0.0063926023 -0.074252404 -0.041528597 -0.0116816675 0.044670973
0.17465131 -0.08066463 0.02302824 0.2791811 0.24554966 0.13614051 0.107888535 -0.34105623
0.10365413 -0.011667625 0.21219034 0.14798114 0.047288753 0.18985596 0.21216746 -0.23210119
0.20937589 0.21553054 -0.0736946 -0.012006442 0.08376365 0.05223461 0.0006097886 0.06685263
0.35784608 0.1871091 0.16028415 0.21732074 0.004892023 0.051639028 -0.09711982 0.19133125
0.00725493 -0.10200103 0.14437069 -0.16241074 -0.101806186 0.0086698085 0.0642217 0.23130012
0.16344152 -0.13070948 0.1255203 -0.028940655 0.1855261 -0.0716093 0.2007999 0.20168328
0.15862519 -0.03397778 0.11829814 0.18180461 0.020917973 -0.13220493 0.17367314 0.09272716
0.20679884 0.2733063 -0.050372656 0.25004774 0.14138022 0.1544134 0.049202386 0.08646027
0.0054297773 0.03767901 -0.27633086 -0.07831016 0.19698575 0.17701267 -0.056852613 -0.2389231
-0.2250429 -0.14208573 -0.115766115 0.008488173 -0.14616753 -0.023160955 -0.27427304 0.020458858
-0.26887763 -0.18144578 -0.16521963 -0.27499413 0.24572624 0.16452672 0.012385337 0.114486925
0.24358308 -0.009356085 -0.26286027 -0.13973951 -0.14257799 0.10904534 0.25920647 0.11181131
-0.039002795 -0.22824173 0.059218224 0.19455518 0.034865063 -0.20265944 -0.18270959 -0.117806025
0.35282335 0.120895594 0.01531941 -0.1332856 -0.043890387 0.0047992435 0.14654893 0.11339724
-0.098460756 0.14730601 -0.0330857 0.1415332 -0.026895888 0.025203824 -0.020067543 -0.04491324
0.26054844 -0.08420226 0.14016426 -0.008335809 -0.09091896 0.12185357 0.13402046 -0.106573015
0.15531047 -0.15631482 -0.10727542 -0.059343316 0.06668766 -0.0146996565 0.23276582 -0.040422797
0.010124266 -0.12209513 0.13112622 -0.09153062 -0.09989422 0.17492072 -0.12906598 -0.2054759
00000000: e60b d7be 6bc2 fbbd 5e7d cd3d 86d8 913c
00000010: c39c 7fbd 2e19 a13e eda7 ffbd fab3 023e
00000020: 0509 2a3e 0a04 dd3d 5a89 babd 0979 d13b
00000030: a511 98bd e419 2abd 7764 3fbc e9f8 363d
00000040: cbd7 323e 7f33 a5bd b8a5 bc3c d3f0 8e3e
00000050: 5f71 7b3e 6b68 0b3e aaf4 dc3d ec9e aebe
00000060: 9e48 d43d 9129 3fbc 6d48 593e 5e88 173e
00000070: dab1 413d 9a69 423e 6d42 593e efab 6dbe
00000080: a266 563e 0ab4 5c3e 32ed 96bd abb6 44bc
00000090: 478c ab3d f5f3 553d 38da 1f3a 08ea 883d
000000a0: 9a37 b73e 8799 3f3e 8721 243e 5489 5e3e
000000b0: 434d a03b 7283 533d c2e6 c6bd 57ec 433e
000000c0: c4ba ed3b ebe5 d0bd e9d5 133e 004f 26be
000000d0: c37f d0bd d00b 0e3c ab86 833d f0d9 6c3e
000000e0: 375d 273e b5d8 05be 6588 003e f414 edbc
000000f0: 8efa 3d3e e6a7 92bd 7d9e 4d3e 1086 4e3e
00000100: a46e 223e 492c 0bbd 4c46 f23d fd2a 3a3e
00000110: 2b5c ab3c bb60 07be 5fd7 313e bde7 bd3d
00000120: 13c3 533e ceee 8b3e 8f53 4ebd 4206 803e
00000130: fac5 103e 8c1e 1e3e 7188 493d 1512 b13d
00000140: 46ec b13b 4e55 1a3d 3d7b 8dbe 1461 a0bd
00000150: a2b6 493e cf42 353e 49de 68bd 42a8 74be
00000160: a571 66be ec7e 11be c916 edbd fa11 0b3c
00000170: f1ac 15be 0bbc bdbc 846d 8cbe 5699 a73c
00000180: 54aa 89be eccc 39be 562f 29be 08cc 8cbe
00000190: a99f 7b3e b179 283e deeb 4a3c 1f78 ea3d
000001a0: d86d 793e 444a 19bc 9f95 86be e017 0fbe
000001b0: f7ff 11be 2a53 df3d b6b6 843e 54fd e43d
000001c0: 65c1 1fbd 33b8 69be cf8e 723d 7939 473e
000001d0: abce 0e3d f585 4fbe 3918 3bbe 4944 f1bd
000001e0: 43a5 b43e 1c98 f73d 43fe 7a3c 057c 08be
000001f0: 68c6 33bd f942 9d3b ec10 163e d03c e83d
00000200: cba5 c9bd 63d7 163e df84 07bd 14ee 103e
00000210: c454 dcbc 4078 ce3c b064 a4bc f2f6 37bd
00000220: 9b66 853e 3c72 acbd 3887 0f3e eb92 08bc
00000230: b833 babd 5d8e f93d a93c 093e f442 dabd
00000240: b509 1f3e fe10 20be 37b3 dbbd fa11 73bd
00000250: 8a93 883d d4d6 70bc 2a5a 6e3e 6092 25bd
00000260: 40e0 253c 030d fabd f445 063e 6874 bbbd
00000270: 5795 ccbd 6b1e 333e df29 04be 4668 52be

lstm.bias_hh_l0 f4 [160]
-0.28773987 -0.11946353 0.123670325 0.16242853 0.09879459 0.21828377 0.03765043 0.10259097
0.23537557 0.23285367 -0.087648466 0.1018267 -0.2607693 0.11106917 0.21947847 -0.0066070305
0.22450785 -0.0036948782 0.282677 0.05502383 0.43956527 0.09454311 -0.017198972 -0.11352968
0.12332654 -0.046689004 0.093505114 0.19250014 0.2875929 -0.05216244 0.28827247 -0.007838999
0.0101560075 0.24396686 0.13373433 0.23339735 0.16712771 0.31608647 0.022168303 0.1441999
0.40421295 0.25677234 -0.014906669 0.2651568 0.00876851 0.25300992 0.06843642 0.1468774
0.28116518 -0.21523167 -0.038514744 -0.11269508 -0.17834693 0.033577673 0.21932876 0.2688657
-0.03693218 -0.09913382 -0.012407398 0.1450582 0.18433958 0.055765808 0.14959256 0.15897867
0.06563144 -0.19136271 0.25385642 0.16245835 0.12214354 -0.12675796 0.2667312 -0.09667269
-0.049118016 0.13612348 0.17166974 0.0926462 0.10596719 0.21213469 0.18757693 0.22682756
0.05908372 0.06021738 -0.17604949 -0.31508988 -0.029567659 0.04003282 0.16825886 -0.20215562
-0.21740209 -0.3032439 -0.068219416 0.054424636 0.022079732 0.27405342 -0.117242135 0.079867214
-0.20007151 -0.04640579 -0.08443946 -0.23352037 0.20542769 0.21097748 0.24371226 0.029649645
0.15643774 0.1440126 -0.19013944 -0.14479627 -0.045597505 0.14491169 0.08104405 0.04756897
-0.107579894 -0.11931634 0.024239881 0.25299692 0.12024057 -0.1850637 -0.08895027 -0.18803221
0.07066371 0.36794618 -0.00066789833 -0.27843112 0.19370213 -0.053867906 0.091643386 0.071006544
0.015589567 0.17218879 -0.017140284 -0.08839125 -0.038030688 0.014143517 -0.13886784 -0.15125224
0.20293333 -0.009225568 -0.018094959 -0.040045295 -0.07041958 -0.11031681 0.03362442 -0.009230768
-0.014156684 -0.034185026 0.099040486 0.08531893 0.01494797 0.14636257 0.10135997 0.0048014545
-0.007425656 0.0004352443 0.27773502 -0.08174105 0.053911842 0.036960337 -0.12398295 -0.1902003
00000000: a452 93be 4ca9 f4bd de46 fd3d aa53 263e
00000010: d154 ca3d c885 5f3e 5637 1a3d 371b d23d
00000020: 4b06 713e 3171 6e3e 0a81 b3bd 848a d03d
00000030: 8e83 85be 3c78 e33d f7be 603e ca7f d8bb
00000040: 63e5 653e c525 72bb 0abb 903e ab60 613d
00000050: b30e e13e d19f c13d dce4 8cbc 4082 e8bd
00000060: a092 fc3d f83c 3fbd 9c7f bf3d c21e 453e
00000070: 603f 933e 48a8 55bd 7398 933e 256f 00bc
00000080: 6265 263c 73d2 793e a7f1 083e b7ff 6e3e
00000090: 8723 2b3e 16d6 a13e 4d9a b53c 23a9 133e
000000a0: 00f5 ce3e aa77 833e 1a3b 74bc a2c2 873e
000000b0: cca9 0f3c 848a 813e 6528 8c3d 0767 163e
000000c0: e2f4 8f3e b165 5cbe a3c1 1dbd aecc e6bd
000000d0: 94a0 36be be88 093d b897 603e c4a8 893e
000000e0: 3346 17bd ac06 cbbd 6648 4bbc 238a 143e
000000f0: 84c3 3c3e b06a 643d cb2e 193e 4ecb 223e
00000100: c769 863d 96f4 43be 78f9 813e 7b5b 263e
00000110: 6426 fa3d d7cc 01be fe90 883e 55fc c5bd
00000120: f92f 49bd f463 0b3e 31ca 2f3e 4abd bd3d
00000130: 5305 d93d d639 593e 2b14 403e 7c45 683e
00000140: c501 723d 80a6 763d 5146 34be 7653 a1be
00000150: e037 f2bc 74f9 233d 0d4c 2c3e e201 4fbe
00000160: a79e 5ebe c942 9bbe 9fb6 8bbd 5eec 5e3d
00000170: 8ee0 b43c bb50 8c3e a51c f0bd 6c91 a33d
00000180: 8cdf 4cbe ff13 3ebd 98ee acbd f71f 6fbe
00000190: a35b 523e 7b0a 583e b58f 793e d0e3 f23c
000001a0: 3731 203e 0a78 133e eab3 42be 7945 14be
000001b0: 73c4 3abd bb63 143e 6cfa a53d aed7 423d
000001c0: d952 dcbd 205c f4bd b792 c63c d088 813e
000001d0: b040 f63d 5781 3dbe 8f2b b6bd 848b 40be
000001e0: 23b8 903d 7163 bc3e e615 2fba 868e 8ebe
000001f0: da59 463e 98a4 5cbd 87af bb3d e16b 913d
00000200: 626b 7f3c 4252 303e c869 8cbc 7906 b5bd
00000210: 11c6 1bbd 36ba 673c 5f33 0ebe dee1 1abe
00000220: c1cd 4f3e d626 17bc e13b 94bc 8906 24bd
00000230: 2438 90bd c8ed e1bd c3b9 093d a63c 17bc
00000240: 70f1 67bc 9905 0cbd bdd5 ca3d b1bb ae3d
00000250: 55e8 743c 12e0 153e d195 cf3d 8555 9d3b
00000260: eb52 f3bb 8031 e439 4933 8e3e da67 a7bd
00000270: aad2 5c3d b963 173d c6ea fdbd dec3 42be

hidden2event.weight f4 [27, 40]
-0.40392238 0.2295589 -0.7336596 -0.10587579 0.9145402 -0.35533428 -0.0068749394 0.38093773
0.09533364 -0.6010765 -0.93216115 0.601299 -0.38637337 -0.10674584 0.00011201916 0.3451056
-0.86878425 -0.32361522 0.07031601 0.43938515 -0.24603473 -0.24800228 0.024343349 1.6131524
-0.5436021 -0.088121966 -0.009037941 -0.47032928 0.00917995 -0.9650635 -0.30671373 -0.48074555
0.5573969 0.010231129 -0.55285555 -0.43383557 -0.31795138 -0.18058226 -0.4120886 0.5286264
0.19004157 -0.18808515 -0.014505837 0.06817579 0.2650404 0.051988672 0.37946945 -0.21391079
-0.59027773 -0.45064268 0.20228305 0.4782755 -0.41781732 0.50481063 0.22375964 -0.261717
-0.18209274 -0.57737595 -0.22637369 0.017448647 -0.28779218 0.3375675 0.5051809 0.20766181
-0.20497826 -0.026712306 0.009671772 -0.21189883 -0.26478988 -0.21336862 0.62422854 -0.34720883
0.3582286 0.010937696 -0.35109344 0.18563923 -0.14085004 0.0004744631 -0.3478171 -0.13334285
0.03236047 -0.32272175 -0.5746071 0.18559243 0.13355847 -0.03736015 0.2524919 -0.1066741
-0.07154638 -0.344095 -0.5228798 0.7587682 0.3744682 0.100622214 -0.16660312 -0.38180622
-0.51773477 -0.5932289 0.14480567 -0.2538701 -0.29490754 -0.4455206 0.56157035 -0.5865836
0.37710202 0.3538514 0.33432594 -0.23723304 -0.21585178 -0.57494175 -0.09349371 0.35769665
-0.108345784 0.1733934 -0.9995093 -0.016280012 -0.475267 -0.46965462 -0.2723636 -0.29299286
0.022310631 -0.2282862 -0.38624355 -0.19260235 -0.1827211 0.41950476 -0.1370771 -0.27430025
-0.51067656 1.3679395 0.6918215 0.56880856 0.5351899 0.01203004 -0.15705517 -0.048385184
-0.15220083 -0.17372972 -0.6562753 0.24181129 -0.24696289 -0.030469352 0.2697116 -0.5885412
-0.19677228 0.81152 -0.4014536 -0.3615437 -0.45268515 -0.8601874 0.14317557 -0.6428638
-0.54420364 -0.29128197 0.5873153 0.28377476 0.1179062 -0.6830055 -0.20194146 -0.5917112
0.07883732 -0.56529945 0.5941536 0.6883803 -2.4304695 0.009133427 -0.16902086 -0.053007808
0.9256934 0.92586535 -0.73972034 -0.766179 -0.30531183 0.5744838 -0.10397074 0.17701414
-0.017948678 0.4626135 0.3155789 -0.64341694 -0.2702937 -0.054551437 0.4834339 1.8235574
-0.6928537 0.03136736 0.12782161 0.7237619 0.3306592 0.44227704 0.06129346 -0.12335907
0.6287883 0.4847871 1.2619265 0.30434862 0.5822888 0.047216155 0.24331242 -0.38783625
-0.2924325 0.46702936 0.44440794 0.4015376 0.20791246 -0.3842354 -0.8398492 0.5172234
0.37344977 0.5743304 0.5123479 -1.4702157 0.72197616 -0.53838766 0.31051323 -0.53941923
0.9953094 0.33903155 0.59922874 0.46129468 -0.3098982 -0.62721205 -0.5384 0.538254
-0.22839548 -0.54910755 0.26887336 0.12903155 0.55595994 -0.3754801 -0.48369363 -0.44078717
0.9995394 0.22829193 -0.57287127 -0.77243817 -0.3003855 0.37056965 0.46798414 0.55814916
0.23795806 -1.3468449 0.46892452 0.5264123 -0.3076957 -0.57242346 -0.53972906 0.5200721
0.65197754 0.63314795 -0.35826477 -0.23459716 -0.43953326 -0.438674 0.3874796 -0.8315233
00000000: eace cebe 7d11 6b3e 1ed1 3bbf 68d5 d8bd
00000010: 4e1f 6a3f 60ee b5be 2c47 e1bb 450a c33e
00000020: 493e c33d 26e0 19bf 1da2 6ebf bbee 193f
00000030: bbd2 c5be 909d dabd d4eb ea38 aeb1 b03e
00000040: a568 5ebf e5b0 a5be d701 903d 17f7 e03e
00000050: 87f0 7bbe 4ff4 7dbe b46b c73c c77b ce3f
00000060: 8229 0bbf 4a79 b4bd df13 14bc 00cf f0be
00000070: 8067 163c 670e 77bf 9509 9dbe 4824 f6be
00000080: 90b1 0e3f 77a0 273c f187 0dbf b21f debe
00000090: 86ca a2be 8eea 38be 47fd d2be 0f54 073f
000000a0: 429a 423e 6599 40be e4a9 6dbc c09f 8b3d
000000b0: 60b3 873e 13f2 543d d249 c23e 6e0b 5bbe
000000c0: 711c 17bf a3ba e6be 4a23 4f3e 87e0 f43e
000000d0: 27ec d5be 453b 013f 3f21 653e c5ff 85be
000000e0: 8576 3abe e9ce 13bf 81ce 67be 77f0 8e3c
000000f0: 7f59 93be a6d5 ac3e 8953 013f 4ca5 543e
00000100: d2e5 51be c4d3 dabc 5a76 1e3c 02fc 58be
00000110: 8a92 87be 4e7d 5abe 71cd 1f3f 5bc5 b1be
00000120: bd69 b73e 0634 333c 85c2 b3be 3618 3e3e
00000130: fe3a 10be 5cc1 f839 1515 b2be 078b 08be
00000140: 6a8c 043d c93b a5be 7319 13bf f10b 3e3e
00000150: 8dc3 083e f506 19bd 9e46 813e f377 dabd
00000160: e986 92bd 382d b0be 73db 05bf a23e 423f
00000170: 4cba bf3e 0513 ce3d 029a 2abe 1b7c c3be
00000180: 448a 04bf d9dd 17bf f047 143e 43fb 81be
00000190: 1ffe 96be 471b e4be 13c3 0f3f 582a 16bf
000001a0: 8413 c13e 032c b53e c52c ab3e 38ed 72be
000001b0: 4008 5dbe 622f 13bf a179 bfbd 0424 b73e
000001c0: 65e4 ddbd 0a8e 313e d7df 7fbf a95d 85bc
000001d0: 3256 f3be 9276 f0be 3e73 8bbe 2903 96be
000001e0: c9c4 b63c dcc3 69be b7c1 c5be 8d39 45be
000001f0: 3d1b 3bbe 54c9 d63e f05d 0cbe 1571 8cbe
00000200: b3bb 02bf a418 af3f 371b 313f 709d 113f
00000210: 3502 093f a519 453c 12d3 20be 8b2f 46bd
00000220: 89da 1bbe 34e6 31be a801 28bf 619d 773e
00000230: d7e3 7cbe dd9a f9bc a417 8a3e a3aa 16bf
00000240: ac7e 49be c6bf 4f3f 548b cdbe 411c b9be
00000250: 59c6 e7be 3e35 5cbf 9e9c 123e b992 24bf
00000260: ee50 0bbf e922 95be 4c5a 163f ed4a 913e
00000270: ce78 f13d 73d9 2ebf bec9 4ebe 637a 17bf
00000280: 7675 a13d 77b7 10bf 731a 183f b139 303f
00000290: d08c 1bc0 5fa4 153c ce13 2dbe b71e 59bd
000002a0: 3efa 6c3f 8305 6d3f 505e 3dbf 4f24 44bf
000002b0: d551 9cbe 5f11 133f 9dee d4bd 3243 353e
000002c0: 1b09 93bc addb ec3e 8f93 a13e f9b6 24bf
000002d0: f063 8abe 5471 5fbd a684 f73e 546a e93f
000002e0: dc5e 31bf 107b 003d abe3 023e 7648 393f
000002f0: 2a4c a93e 2372 e23e da0e 7b3d aea3 fcbd
00000300: 45f8 203f 0436 f83e cf86 a13f 95d3 9b3e
00000310: e110 153f ba65 413d e426 793e 7992 c6be
00000320: b6b9 95be 791e ef3e 7089 e33e 5696 cd3e
00000330: 01e7 543e 81ba c4be 5b00 57bf c168 043f
00000340: cf34 bf3e 5107 133f 3b29 033f 0730 bcbf
00000350: 6ed3 383f c6d3 09bf 97fb 9e3e 6117 0abf
00000360: 99cc 7e3f 8b95 ad3e 0e67 193f d12e ec3e
00000370: faaa 9ebe f890 20bf 95d4 09bf 04cb 093f
00000380: 81e0 69be 5092 0cbf c5a9 893e d920 043e
00000390: 6453 0e3f ed3e c0be b1a6 f7be dbae e1be
000003a0: d0e1 7f3f 5cc5 693e b1a7 12bf 82be 45bf
000003b0: 21cc 99be 4ebb bd3e 9e9b ef3e dde2 0e3f
000003c0: 47ab 733e 6a65 acbf e016 f03e f5c2 063f
000003d0: 4a8a 9dbe 588a 12bf af2b 0abf 7223 053f
000003e0: 00e8 263f fc15 223f 7b6e b7be 3d3a 70be
000003f0: 810a e1be e199 e0be ba63 c63e b6de 54bf

hidden2event.bias f4 [27]
-0.30337867 0.35056424 -0.11666654 0.28332365 0.052925415 -0.5189853 -0.45904893 -0.21101804
0.19608638 -0.17691875 -0.20761362 -0.24776556 -0.10305386 0.24278823 0.05177238 0.08548727
-0.01124663 -0.3663946 -0.12243728 -0.118828975 0.29027236 -0.07166598 -0.39143136 -0.21871263
0.021606386 -0.28284416 -0.27167538
00000000: 7354 9bbe 287d b33e deee eebd cc0f 913e
00000010: 52c8 583d 38dc 04bf 7608 ebbe 1d15 58be
00000020: deca 483e 302a 35be aa98 54be 41b6 7dbe
00000030: e70d d3bd 7a9d 783e 460f 543d f313 af3d
00000040: c943 38bc 1398 bbbe 66c0 fabd 9b5c f3bd
00000050: 949e 943e 9dc5 92bd b169 c8be 34f6 5fbe
00000060: e0ff b03c f3d0 90be 0919 8bbe

hidden2time.weight f4 [3, 40]
0.19089222 0.24699712 0.040846337 -0.13137665 -0.32230008 0.11570343 -0.0810949 -0.1350186
-0.2572956 0.38198406 -0.40956032 -0.17659166 -0.45133314 0.12602125 -0.17727588 0.15615244
0.49578974 0.46201417 -0.14543192 -0.24922743 0.15405838 0.21267611 0.07210571 -0.10334618
0.01588019 0.46559623 -0.27876234 -0.08962875 -0.18252262 -0.2938941 0.22709271 0.071480945
-0.23036557 -0.06815081 -0.277225 -0.029623587 0.29218975 -0.0038769904 -0.35345373 -0.3342095
-0.0036621506 -0.17848983 -0.22558981 -0.1334915 0.13729219 -0.09370478 0.19395961 0.0013617391
-0.20974329 -0.3565917 0.033438552 0.047065858 0.12977247 0.124414496 -0.04672583 0.14679511
-0.47167587 -0.4091609 -0.1333822 -0.13087238 0.11106971 -0.04868649 0.24270152 -0.027378825
0.10668864 -0.17988019 -0.035932656 -0.17814429 -0.07825223 0.46035317 0.22917478 0.2775593
-0.12768698 -0.18814752 0.49713242 0.12503111 0.11027299 -0.27801725 0.13645443 0.01511592
-0.60182476 0.16159649 0.24157372 0.39337227 -0.06628109 -0.40133563 -0.9839043 0.5933945
0.19874811 1.1924037 0.88270354 -1.0055704 0.68470967 -0.35187724 0.43247613 -0.63805526
1.6371534 -0.3806674 0.54510367 0.21847342 -0.21525621 -0.613842 -0.3876686 -0.16077812
-0.43920404 -0.77646977 0.57755286 0.50828177 0.5278835 -0.26149404 -0.31866023 -0.9647253
0.5325962 0.56876063 -0.7826902 -0.6416551 -0.29710707 0.41605482 0.67622185 0.6835978
00000000: 4079 433e d0ec 7c3e 7d4e 273d 9a87 06be
00000010: 8404 a5be ebf5 ec3d 1515 a6bd 5142 0abe
00000020: 40bc 83be 6a93 c33e e4b1 d1be 72d4 34be
00000030: 2315 e7be b70b 013e cf87 35be 6de6 1f3e
00000040: 27d8 fd3e 1f8d ec3e 1bec 14be 7a35 7fbe
00000050: 7bc1 1d3e c4c7 593e 29ac 933d 29a7 d3bd
00000060: 2c17 823c a162 ee3e f0b9 8ebe 478f b7bd
00000070: 36e7 3abe 4a79 96be fe8a 683e 9a64 923d
00000080: f4e4 6bbe a792 8bbd 6ff0 8dbe 2aad f2bc
00000090: e599 953e 1b15 7ebb e3f7 b4be 821d abbe
000000a0: b100 70bb 0ac6 36be 0401 67be ffb1 08be
000000b0: 5396 0c3e 4be8 bfbd 599d 463e 627c b23a
000000c0: f2c6 56be 3093 b6be ddf6 083d 21c8 403d
000000d0: 13e3 043e 07cd fe3d 9563 3fbd 7551 163e
000000e0: 807f f1be 8a7d d1be 5895 08be 6903 06be
000000f0: 8478 e33d 7c6b 47bd bf86 783e 8f49 e0bc
00000100: 937f da3d 8332 38be 1f2e 13bd 756b 36be
00000110: b542 a0bd 69b3 eb3e cbac 6a3e 411c 8e3e
00000120: 60c0 02be bea9 40be 2488 fe3e 2808 003e
00000130: ced6 e13d 4758 8ebe b6ba 0b3e c4a8 773c
00000140: 3011 1abf 8d79 253e 1a5f 773e 1768 c93e
00000150: 61be 87bd dd7b cdbe 27e1 7bbf b4e8 173f
00000160: a084 4b3e afa0 983f dcf8 613f 88b6 80bf
00000170: 2249 2f3f 4129 b4be 836d dd3e 9757 23bf
00000180: 3e8e d13f d6e6 c2be ea8b 0b3f 7fb7 5f3e
00000190: 206c 5cbe c024 1dbf 807c c6be 05a3 24be
000001a0: 5adf e0be b9c6 46bf 81da 133f c11e 023f
000001b0: 6023 073f 8ce2 85be 6f27 a3be 3df8 76bf
000001c0: 3958 083f 4c9a 113f 635e 48bf 8243 24bf
000001d0: 6b1e 98be 2305 d53e e01c 2d3f 4400 2f3f

hidden2time.bias f4 [3]
0.23190689 0.037852783 -0.25161037
00000000: 0079 6d3e 850b 1b3d 13d3 80be
