events_simulation/models/model_20180503-0147.pt (torch_old, 78354 bytes, 9 tensors)

loss_function_events.weight f4 [27]
1.0 1.0 1.0 1.0 1.0 1.0 1.0 1.0
1.0 1.0 1.0 1.0 1.0 1.0 1.0 1.0
1.0 1.0 1.0 1.0 1.0 1.0 1.0 1.0
1.0 1.0 1.0
00000000: 0000 803f 0000 803f 0000 803f 0000 803f
00000010: 0000 803f 0000 803f 0000 803f 0000 803f
00000020: 0000 803f 0000 803f 0000 803f 0000 803f
00000030: 0000 803f 0000 803f 0000 803f 0000 803f
00000040: 0000 803f 0000 803f 0000 803f 0000 803f
00000050: 0000 803f 0000 803f 0000 803f 0000 803f
00000060: 0000 803f 0000 803f 0000 803f

lstm.weight_ih_l0 f4 [160, 70]
1.0466266 0.6099905 0.08618951 0.5563952 0.3957692 -0.028594203 0.035726495 -0.10083734
0.16684718 -1.61178 1.8061606 0.013460429 -0.80299616 -0.5076815 -1.184685 -0.63559854
0.08766982 0.12566309 0.94535184 0.64124733 0.19225453 0.9645815 0.66854477 0.1802324
0.105860345 0.025292784 -0.4573529 0.4001729 0.19766687 -0.6874461 0.6186655 0.12610573
0.47205275 0.49936938 0.24706945 -0.08699633 0.70337534 -0.92845166 0.043093722 0.5737523
0.3154132 0.39875033 0.25087842 0.47814247 0.22999874 0.23586383 0.17065077 1.1470335
0.23264273 0.51349354 0.39745557 0.11965446 0.27441177 0.33756894 0.009750677 -1.3157626
-0.5797753 -0.5582397 0.56667346 0.379585 0.5569337 -0.27163115 -0.46394855 -0.66129833
0.3078767 -0.7470131 0.18782894 -0.2654101 0.06517469 0.4774424 2.0995548 -1.1746976
-1.3525016 0.7522828 -1.90749 2.685293 -2.0839627 -2.0009887 0.19142543 -0.5754885
0.15371794 1.6213864 2.9260468 -2.025846 -1.3657582 0.7461222 -0.09569757 0.49006325
2.2434382 -0.92783517 0.8141259 -1.0476365 0.26364386 2.6537905 0.53745395 0.0068784356
-0.042222563 -0.39499003 0.51375645 0.15074053 0.96408755 0.4366452 -0.33264548 -0.721123
-0.33384234 -0.24962309 0.19640873 1.2798946 0.7174429 0.07921056 -0.29894805 0.4482456
0.9255708 0.6081312 0.6868197 -0.20113134 0.6601582 0.11868309 -0.011962651 0.15672971
0.45407227 0.15517324 0.2906702 -0.045394715 0.30612534 -0.68877 -0.6362414 0.48134062
1.7706757 -1.0579423 -0.7184611 0.20682052 0.052345634 0.5415263 0.32610857 -0.51162297
-0.2760643 0.5767201 0.64445823 -1.7939479 0.12621218 0.14080487 0.15720406 0.27172172
0.014095664 -0.12047864 0.007369081 0.20095104 0.2266997 0.20428997 0.15812568 0.042972963
0.13216436 0.03784127 0.2091563 0.13621446 -0.020789752 0.010054168 0.096116714 0.12738493
0.055387277 0.31551573 0.17043024 0.13110618 0.08124045 -0.13780019 -0.38509935 0.1943011
0.30123398 -0.3251202 1.03449 0.5590176 0.25179836 0.49896437 -0.46370852 0.38359106
0.38746947 0.51207906 0.023859974 0.20462513 1.1721822 0.091598235 0.028536487 0.3226033
0.25262278 0.0033992385 0.30865875 -0.09852805 -0.34901237 -0.21478754 -0.1612593 -0.5289632
0.43513203 0.88232136 1.2359885 0.1434985 0.16613793 0.95987445 -0.50753486 0.39679757
-0.2249573 0.5549666 0.21403497 -0.275735 0.13128184 0.7057763 -0.15340833 -0.19322482
0.2712417 0.14025229 3.2255154 -0.0037853743 0.91242725 0.2952434 -1.4491475 -0.412763
0.7083889 -2.90313 -1.8460653 2.4341466 -1.4298387 -0.27346572 0.59519744 -1.7586924
-2.2721806 -1.4132707 -0.23924994 2.014431 -0.59771824 -2.5580556 2.6010087 1.4547511
-2.5599828 2.2171247 -1.0345716 0.07729015 0.9781259 -3.8184226e-07 -0.40237603 1.1861713
-0.07650385 0.4335156 -0.55837244 -1.4696853 -0.1149957 0.50089526 0.22208324 -0.523325
-0.52659225 -0.48789692 -0.24414043 -0.11497884 1.135524 0.6533668 -1.3110917 0.04162122
00000000: dcf7 853f 5628 1c3f 2084 b03d ea6f 0e3f
00000010: 43a2 ca3e 643e eabc f255 123d cf83 cebd
00000020: fdd9 2a3e cf4e cebf 4530 e73f 2289 5c3c
00000030: 2891 4dbf 6af7 01bf c2a3 97bf 96b6 22bf
00000040: 3c8c b33d d3ad 003e 9402 723f c928 243f
00000050: 5fde 443e d0ee 763f c025 2b3f d88e 383e
00000060: 4fcd d83d d032 cf3c 292a eabe 76e3 cc3e
00000070: 2f69 4a3e 78fc 2fbf dd60 1e3f dc21 013e
00000080: e6b0 f13e 58ad ff3e c6ff 7c3e 222b b2bd
00000090: 6810 343f 02af 6dbf 0b83 303d 6ee1 123f
000000a0: d77d a13e 0129 cc3e 2373 803e 17cf f43e
000000b0: ca84 6b3e 4a86 713e 13bf 2e3e fed1 923f
000000c0: e539 6e3e 5074 033f 4c7f cb3e 660d f53d
000000d0: b37f 8c3e d6d5 ac3e 4ec1 1f3c e96a a8bf
000000e0: 276c 14bf cce8 0ebf 8311 113f f758 c23e
000000f0: 3593 0e3f 3d13 8bbe aa8a edbe d94a 29bf
00000100: 04a2 9d3e 403c 3fbf 3b56 403e d5e3 87be
00000110: 4f7a 853d 5573 f43e 1b5f 0640 7e5c 96bf
00000120: c61e adbf 9b95 403f a228 f4bf d7db 2b40
00000130: a55f 05c0 3310 00c0 0705 443e 3753 13bf
00000140: 3c68 1d3e 9789 cf3f 5a44 3b40 76a7 01c0
00000150: 2ad1 aebf dd01 3f3f 16fd c3bd 92e9 fa3e
00000160: 7e94 0f40 9b86 6dbf 8e6a 503f f418 86bf
00000170: 54fc 863e b4d7 2940 9596 093f 8064 e13b
00000180: 91f1 2cbd 223c cabe 8b85 033f ba5b 1a3e
00000190: 71ce 763f f68f df3e 8250 aabe 849b 38bf
000001a0: 62ed aabe 329d 7fbe 5f1f 493e 96d3 a33f
000001b0: 57aa 373f 2539 a23d b80f 99be 7380 e53e
000001c0: 35f2 6c3f 7cae 1b3f 6ad3 2f3f 60f5 4dbe
000001d0: 2100 293f 1f10 f33d fffe 43bc c17d 203e
000001e0: 297c e83e bce5 1e3e b9d2 943e cfef 39bd
000001f0: 76bc 9c3e 3b53 30bf b7e0 22bf 4772 f63e
00000200: 80a5 e23f a76a 87bf 11ed 37bf c2c8 533e
00000210: 6068 563d 78a1 0a3f b4f7 a63e b9f9 02bf
00000220: 4d58 8dbe eea3 133f 37fb 243f 16a0 e5bf
00000230: c43d 013e 272f 103e 1afa 203e 1c1f 8b3e
00000240: 80f1 663c 81bd f6bd 5578 f13b 1cc6 4d3e
00000250: f723 683e 6431 513e b3eb 213e 6b04 303d
00000260: 1856 073e 73ff 1a3d 122d 563e ce7b 0b3e
00000270: 454f aabc 3dba 243c d7d8 c43d 3271 023e
00000280: c5dd 623d 478b a13e 4485 2e3e b340 063e
00000290: 6561 a63d 7e1b 0dbe be2b c5be def6 463e
000002a0: 573b 9a3e 2876 a6be 2b6a 843f c71b 0f3f
000002b0: b7eb 803e 4278 ff3e 346b edbe 0c66 c43e
000002c0: 6662 c63e 9d17 033f fe75 c33c 4089 513e
000002d0: 110a 963f db97 bb3d 5ac5 e93c 422c a53e
000002e0: c657 813e c2c5 5e3b 8508 9e3e 13c9 c9bd
000002f0: c0b1 b2be 44f1 5bbe 2821 25be 226a 07bf
00000300: a0c9 de3e d0df 613f df34 9e3f 45f1 123e
00000310: 1020 2a3e 55ba 753f ceed 01bf 0d29 cb3e
00000320: 355b 66be 4b12 0e3f fc2b 5b3e 232d 8dbe
00000330: bf6e 063e c1ad 343f 1317 1dbe badc 45be
00000340: 31e0 8a3e 4c9e 0f3e d86e 4e40 0b14 78bb
00000350: d594 693f 252a 973e aa7d b9bf ac55 d3be
00000360: fa58 353f e2cc 39c0 de4b ecbf 0fc9 1b40
00000370: f404 b7bf b303 8cbe dc5e 183f d51c e1bf
00000380: 686b 11c0 0ee6 b4bf f0fd 74be 70ec 0040
00000390: 1004 19bf 2fb7 23c0 ed76 2640 4935 ba3f
000003a0: c2d6 23c0 5fe5 0d40 d86c 84bf 4c4a 9e3d
000003b0: 7566 7a3f 0000 cdb4 3b04 cebe 76d4 973f
000003c0: 0dae 9cbd c2f5 dd3e 7ff1 0ebf a61e bcbf
000003d0: de82 ebbd ac3a 003f ca69 633e a1f8 05bf
000003e0: c0ce 06bf a0cd f9be f3ff 79be 077a ebbd
000003f0: da58 913f 0c43 273f dad1 a7bf 037b 2a3d

lstm.weight_hh_l0 f4 [160, 40]
-0.0735942 0.42310128 0.09362954 0.5256999 0.20545314 -0.3606584 0.9828054 -0.028144527
-0.5172684 1.3385996 0.8725723 0.05846727 0.25119138 0.5042385 -0.21875727 0.049643554
-0.28905478 0.49975738 0.51525193 0.17436974 0.10929826 0.31210196 -1.4634293 -0.65334004
-0.09900649 -0.16222347 -2.0320537 -0.05738784 0.31476423 1.0578611 0.5048964 -0.3548982
-0.11198605 -0.28002685 0.8004942 -2.1359298 0.11536242 0.041499585 1.9007978 0.0029487158
-0.69271266 0.51876605 0.13061021 -0.011940276 0.67742616 0.24376844 1.2366226 -0.57958466
-0.26551256 0.029652126 1.3337234 0.57702804 0.61833847 0.022883236 -0.10631142 0.618302
-0.23848738 -0.7653083 -0.27374935 -0.1560302 -0.36204702 -0.59772223 0.37103668 0.13151756
-0.6726252 0.808036 -0.21245344 -0.20188253 -0.20341006 1.0810046 -0.67041045 0.07768729
-0.51963526 1.2696594 -0.5106598 -0.6702554 0.30952653 0.44724274 0.09693515 -0.5272739
0.11005508 0.17984775 -0.20582211 0.6332735 -0.23192033 0.14240557 1.2001567 0.18259229
-0.7027052 -1.1630921 2.3697598 0.051315524 0.105364405 0.18380912 0.08431714 0.124540806
-0.19803773 0.093570404 -0.34874722 0.13534111 -0.21243145 -0.8202185 0.30173185 1.0429603
0.55847126 -0.017037395 0.17904554 0.6265937 -0.15898822 1.2889863 -0.5458854 0.23139608
-0.14852013 -0.12683873 0.36739606 0.82185537 -0.8286336 -0.01197399 0.4457192 -0.22552718
-0.6935211 -1.1387285 -0.06504684 -1.4873068 -0.4093492 1.0254289 0.82082564 0.2975375
-0.40682 0.00045185303 -2.5365498 -0.26855418 0.9108341 1.1623003 1.544997 0.6705711
0.016736917 1.5820702 -0.08204155 0.4289567 -0.31028897 -0.7896427 0.5196551 0.6811971
-0.688118 -0.30269137 0.71476585 0.8938303 0.37253875 -0.49573934 -0.5408276 -1.7188514
-0.566098 0.31244335 0.729785 0.45604575 -0.17943953 0.55381376 0.09476624 0.3067734
-0.5505508 -0.16262433 -0.064988986 0.86099446 0.81815463 0.11888206 -0.07254045 1.2603414
-0.15028921 -0.7666648 -0.33397663 0.5073646 0.320939 1.2192621 -1.2529672 -0.28352365
-0.7800789 0.68038434 -0.026166575 0.055173527 0.1869002 0.53792197 0.49030122 -1.9063889
0.47439572 -2.0827782 -1.4730015 0.052817374 0.15108688 -1.0656202 0.2882824 -0.80918396
-0.65866345 -0.104758345 -0.88883007 -3.9749384 -0.06576682 0.19162726 -0.38512057 0.11754602
0.33108127 0.31013408 0.2223553 0.35831395 -0.3030888 -2.2902813 0.11956647 0.0082284575
0.2581201 0.30063632 -0.10800217 0.015905835 -0.12961212 -0.38971132 0.3283074 -0.19341111
-0.016276706 -0.22116897 -0.4545607 -0.015301891 -0.49699014 0.38798764 0.1664511 0.47729427
0.30551055 -0.038197145 -0.56508887 -0.4296021 0.028112384 -0.39321777 0.3477747 0.09194754
0.20814915 -0.098271325 -0.38925168 0.15884504 0.4084999 -0.20226146 -0.30922976 0.10385445
-0.092825286 0.036610592 0.17528677 -0.04195501 0.0838553 0.11688867 0.08637979 -0.35860354
0.119295694 0.20836888 -0.46259445 -0.15189183 -0.0681131 0.045700215 0.2858342 -0.024275213
00000000: 8eb8 96bd bba0 d83e d8c0 bf3d 4594 063f
00000010: 4f62 523e 38a8 b8be 2299 7b3f 5a8f e6bc
00000020: b46b 04bf 3b57 ab3f e660 5f3f 607b 6f3d
00000030: 289c 803e c615 013f e801 60be 0a57 4b3d
00000040: fdfe 93be 33e0 ff3e 8de7 033f fb8d 323e
00000050: c4d7 df3d d4cb 9f3e a751 bbbf 4b41 27bf
00000060: eac3 cabd e91d 26be 2b0d 02c0 830f 6bbd
00000070: c728 a13e fe67 873f e440 013f 38b5 b5be
00000080: f158 e5bd ae5f 8fbe 30ed 4c3f 13b3 08c0
00000090: 2243 ec3d 78fb 293d 584d f33f 3e3f 413b
000000a0: 9e55 31bf dacd 043f afbe 053e 26a1 43bc
000000b0: cd6b 2d3f 6f9e 793e a649 9e3f a95f 14bf
000000c0: 43f1 87be 04e9 f23c 73b7 aa3f 1cb8 133f
000000d0: 6e4b 1e3f a075 bb3c cdb9 d9bd 0a49 1e3f
000000e0: 0936 74be 3feb 43bf e028 8cbe 61c6 1fbe
000000f0: 3a5e b9be 5304 19bf 85f8 bd3e 8aac 063e
00000100: 2a31 2cbf 73db 4e3f 658d 59be 4bba 4ebe
00000110: ba4a 50be 5c5e 8a3f 05a0 2bbf 841a 9f3d
00000120: d106 05bf 3384 a23f 9aba 02bf dc95 2bbf
00000130: 437a 9e3e 00fd e43e f085 c63d 6cfb 06bf
00000140: 8f64 e13d 022a 383e 08c3 52be 361e 223f
00000150: 867c 6dbe c4d2 113e bc9e 993f 79f9 3a3e
00000160: 7de4 33bf 34e0 94bf 25aa 1740 3a30 523d
00000170: 4bc9 d73d 7538 3c3e 77ae ac3d 400f ff3d
00000180: 67ca 4abe d7a1 bf3d ff8e b2be dc96 0a3e
00000190: a187 59be d7f9 51bf 997c 9a3e b97f 853f
000001a0: f9f7 0e3f 0292 8bbc b757 373e 7268 203f
000001b0: cfcd 22be 81fd a43f 25bf 0bbf 18f3 6c3e
000001c0: a915 18be 03e2 01be 561b bc3e 1d65 523f
000001d0: 5521 54bf 8e2e 44bc 4f35 e43e 99f0 66be
000001e0: 998a 31bf dbc1 91bf 4737 85bd 1260 bebf
000001f0: 3896 d1be 4141 833f a121 523f d656 983e
00000200: b64a d0be b0e6 ec39 d556 22c0 ef7f 89be
00000210: 6c2c 693f 42c6 943f 76c2 c53f 8caa 2b3f
00000220: dc1b 893c 4781 ca3f 6605 a8bd 36a0 db3e
00000230: 32de 9ebe 0626 4abf 1e08 053f ef62 2e3f
00000240: 8028 30bf 5dfa 9abe e5fa 363f 10d2 643f
00000250: 66bd be3e 8cd1 fdbe ad73 0abf 5303 dcbf
00000260: cceb 10bf 93f8 9f3e 31d3 3a3f d47e e93e
00000270: ffbe 37be bdc6 0d3f cd14 c23d 6711 9d3e
00000280: e6f0 0cbf fe86 26be f218 85bd 226a 5c3f
00000290: 9572 513f 7078 f33d 1690 94bd de52 a13f
000002a0: 6ae5 19be 2544 44bf fcfe aabe a5e2 013f
000002b0: 1e52 a43e c810 9c3f 3b61 a0bf 032a 91be
000002c0: 40b3 47bf ab2d 2e3f 495b d6bc a3fd 613d
000002d0: c462 3f3e 41b5 093f c308 fb3e 8d04 f4bf
000002e0: ffe3 f23e 3d4c 05c0 508b bcbf 0857 583d
000002f0: 85b6 1a3e 3e66 88bf c099 933e ae26 4fbf
00000300: 2b9e 28bf 8b8b d6bd 5e8a 63bf 6465 7ec0
00000310: c1b0 86bd f039 443e 862e c5be f8bb f03d
00000320: 7c83 a93e e5c9 9e3e 1cb1 633e ed74 b73e
00000330: 752e 9bbe f893 12c0 44df f43d a7d0 063c
00000340: 5128 843e 01ed 993e 3e30 ddbd f44c 823c
00000350: 0ab9 04be 3e88 c7be e817 a83e 900d 46be
00000360: ba56 85bc 1e7a 62be 2ebc e8be c8b4 7abc
00000370: 7e75 febe 51a6 c63e 2872 2a3e ea5f f43e
00000380: e16b 9c3e 9c74 1cbd aaa9 10bf cef4 dbbe
00000390: f14b e63c d753 c9be 870f b23e fe4e bc3d
000003a0: 0d25 553e 7a42 c9bd ff4b c7be 46a8 223e
000003b0: e626 d13e a11d 4fbe 5d53 9ebe a4b1 d43d
000003c0: 2f1b bebd fdf4 153d 607e 333e 04d9 2bbd
000003d0: 54bc ab3d 5463 ef3d e3e7 b03d e29a b7be
000003e0: 4d51 f43d a75e 553e 2ed9 ecbe 8889 1bbe
000003f0: e27e 8bbd 2630 3b3d dc58 923e d0dc c6bc

lstm.bias_ih_l0 f4 [160]
0.23012684 0.038021304 0.19469579 0.27094415 0.06552655 -0.43525574 -0.3881922 0.23524736
0.05942037 0.12568481 0.021517778 0.075333215 0.20362894 -0.004700581 -0.08563588 0.073468275
-0.17152293 0.018343192 0.06737229 -0.17657489 -0.02812752 -0.041779373 0.05607313 0.16642857
0.17906262 -0.26268128 0.26941785 0.15591861 0.13884975 -0.20900218 0.10054185 -0.047282178
0.20922187 0.13649088 0.3161494 -0.1739222 0.05572941 0.07027858 -0.36484736 0.22438808
0.12296626 -0.008954349 0.12847434 -0.11653994 0.16283733 0.79984814 0.35623163 0.22138934
0.27616438 0.26065522 0.13340941 0.10101816 0.18579598 0.06509034 0.24592686 0.19242293
0.22136272 0.20018734 -0.018691225 0.28815 0.160338 0.2615583 0.18504594 -0.018115342
0.14432245 0.16246164 0.017310215 0.31560576 0.21361369 -0.049528994 0.21574555 -0.1316359
0.08782356 0.04291433 0.20365232 0.04822287 0.20137559 0.24475831 -0.061896436 -0.019552708
-0.190622 0.020535104 -0.122119084 -0.23704307 0.2637407 0.043866336 0.077696145 0.22448613
-0.037710227 -0.2550082 0.0070454916 0.02292364 0.12620775 0.10480373 -0.29985204 0.104485266
-0.23786199 0.2952089 -0.0050459118 0.22695172 0.15742432 -0.23618893 -0.07420664 0.08757801
-0.06712579 -0.10204008 0.2191462 0.20950474 0.1862324 0.1112634 -0.17297798 -0.12554093
-0.19427954 0.25133663 0.3570467 0.1593639 -0.043806065 0.1747607 0.1787603 -0.18667856
-0.05549675 0.44655335 -0.1534268 0.1884408 0.17889677 0.13011187 -0.06995895 -0.070262544
-0.392789 0.09759007 0.31839177 -0.18358518 -0.10844711 0.23994948 0.04964898 0.22906417
0.2908541 0.18309638 0.27515537 -0.107356764 0.2357057 0.13469894 0.32990924 -0.0038536652
0.09573361 -0.06817411 0.48625398 0.095183425 0.12462328 0.007452137 -0.07576365 0.2406418
-0.115650594 -0.115972914 0.45037174 0.16911831 -0.29504907 0.07353951 0.056079347 -0.3023787
00000000: 5fa6 6b3e 3abc 1b3d 555e 473e 31b9 8a3e
00000010: c932 863d d7d9 debe 21c1 c6be afe4 703e
00000020: c662 733d 85b3 003e 0d46 b03c 4d48 9a3d
00000030: 1b84 503e 5507 9abb dd61 afbd 8976 963d
00000040: b5a3 2fbe 7644 963c 7cfa 893d 0cd0 34be
00000050: af6b e6bc d920 2bbd f0ac 653d 406c 2a3e
00000060: 315c 373e 297e 86be 23f1 893e 21a9 1f3e
00000070: a12e 0e3e ab04 56be e3e8 cd3d f5aa 41bd
00000080: 423e 563e 44c4 0b3e 56de a13e a918 32be
00000090: 8644 643d 37ee 8f3d 46cd babe fdc5 653e
000000a0: bcd5 fb3d 43b5 12bc c78e 033e 7eac eebd
000000b0: d4be 263e d9c2 4c3f fe63 b63e e3b3 623e
000000c0: 6b65 8d3e 9a74 853e 7a9c 083e 9ce2 ce3d
000000d0: 4d41 3e3e 164e 853d 40d4 7b3e 840a 453e
000000e0: e9ac 623e e9fd 4c3e 571e 99bc 6688 933e
000000f0: a52f 243e f8ea 853e af7c 3d3e a066 94bc
00000100: 44c9 133e 585c 263e 27ce 8d3c 1497 a13e
00000110: 8cbd 5a3e eade 4abd 67ec 5c3e 90cb 06be
00000120: d7dc b33d f0c6 2f3d 3c8a 503e 5885 453d
00000130: 6735 4e3e eca1 7a3e 1e87 7dbd 002d a0bc
00000140: 6a32 43be 3c39 a83c 9219 fabd 6bbb 72be
00000150: 0509 873e 30ad 333d 281f 9f3d b1df 653e
00000160: 0a76 1abd 6f90 82be dedd e63b 5cca bb3c
00000170: 9b3c 013e 57a3 d63d 3586 99be 5ffc d53d
00000180: 1892 73be 9f25 973e 2d58 a5bb 0866 683e
00000190: d733 213e 83db 71be a7f9 97bd 1a5c b33d
000001a0: 3f79 89bd 64fa d0bd dd67 603e 6988 563e
000001b0: b5b3 3e3e 11de e33d 2421 31be cd8d 00be
000001c0: 37f1 46be 32af 803e d3ce b63e 4a30 233e
000001d0: fd6d 33bd 78f4 323e f10c 373e aa28 3fbe
000001e0: 8f50 63bd a4a2 e43e ea1b 1dbe a0f6 403e
000001f0: b730 373e 0c3c 053e a346 8fbd cfe5 8fbd
00000200: a41b c9be 4ddd c73d 3f04 a33e c1fd 3bbe
00000210: 8519 debd 51b5 753e bb5c 4b3d cc8f 6a3e
00000220: d4ea 943e 9e7d 3b3e 2ae1 8c3e dddd dbbd
00000230: d65c 713e 85ee 093e dde9 a83e c68d 7cbb
00000240: fc0f c43d de9e 8bbd 48f6 f83e 87ef c23d
00000250: 7d3a ff3d 0e31 f43b f929 9bbd ce6a 763e
00000260: 38da ecbd 3583 edbd 2097 e63e 5a2d 2d3e
00000270: ac10 97be e29b 963d 75b3 653d 62d1 9abe

lstm.bias_hh_l0 f4 [160]
0.01936317 -0.055776678 0.002935713 0.28739932 -0.019240102 -0.5132845 -0.51126766 0.2156364
-0.039026596 -0.040561825 -0.07814131 0.18234476 0.19540806 0.018386725 0.101619616 0.11007273
-0.030965993 0.14422068 0.012015702 0.092815116 -0.10728641 -0.06799716 -0.06165195 0.46587807
0.021439008 -0.38333982 0.3860745 0.12490895 -0.04118506 -0.044520173 0.14558461 0.059005067
0.27781004 0.2494048 0.25035864 -0.14211573 0.10935283 -0.023297329 -0.20096822 0.1103512
0.014852999 0.18805031 0.028612517 -0.09968045 0.25519386 0.842158 0.35869706 0.34375098
0.34995717 0.26173386 0.06803871 0.11722711 0.28909385 0.19871986 0.033000875 0.15366328
-0.06549623 0.3965867 0.07264303 0.20018633 -0.14066117 0.12041801 0.070573844 0.01668223
-0.09715756 0.29429892 -0.14012234 0.30620682 0.030581903 0.028466957 0.037363123 -0.12080085
0.15148364 0.21943966 -0.029685391 -0.049512997 0.1700059 0.087291345 -0.1514161 0.22962472
-0.23450446 -0.08359206 -0.1993156 -0.20145027 0.27470797 0.18710513 0.27946845 0.0821661
0.019637084 -0.105648905 -0.123019144 0.24793388 0.21758737 0.15684853 -0.046440337 -0.08632102
-0.19225508 0.22645539 -0.10502502 0.2556897 0.090211876 -0.27027366 0.008426528 -0.16740595
-0.1749037 0.08137863 0.4474937 0.15151937 0.17913377 0.07644092 -0.14740397 -0.072217815
-0.14557959 0.31103697 0.33763555 0.08638274 -0.2082087 0.090149395 -0.032482427 -0.13142523
-0.107321925 0.21206738 -0.03928331 0.44345567 -0.00092508574 0.1254004 0.12125877 0.02463914
-0.1334125 0.19787136 0.19831531 -0.0071516354 -0.057744678 0.17422242 0.1629033 0.06634043
0.09849902 0.1316251 0.114301614 -0.11051611 0.22178948 0.16366683 0.30481842 0.16062431
0.10678843 0.16543023 0.44578183 0.18069349 -0.089096986 -0.024823757 -0.03825581 0.28005075
0.071473554 -0.026724253 0.28527695 0.26789695 -0.09506456 0.0177091 -0.15204298 -0.13353023
00000000: 839f 9e3c 1676 64bd 1765 403b 0126 933e
00000010: 6b9d 9dbc 9d66 03bf 70e2 02bf cacf 5c3e
00000020: 5ada 1fbd 2824 26bd 8d08 a0bd 96b8 3a3e
00000030: 0d19 483e c29f 963c f21d d03d d06d e13d
00000040: 65ac fdbc 96ae 133e 82dd 443c da15 be3d
00000050: fab8 dbbd 1842 8bbd c186 7cbd 9287 ee3e
00000060: dca0 af3c 1e45 c4be 8fab c53e 43d0 ff3d
00000070: aab1 28bd c95a 36bd 2214 153e 4caf 713d
00000080: 1e3d 8e3e f963 7f3e 022f 803e c986 11be
00000090: 60f4 df3d 0ada bebc 9dca 4dbe cfff e13d
000000a0: fe59 733c 4390 403e cc64 ea3c 4425 ccbd
000000b0: c5a8 823e ab97 573f 24a7 b73e 2100 b03e
000000c0: 962d b33e fb01 863e e157 8b3d c414 f03d
000000d0: 1c04 943e 387d 4b3e ed2b 073d e859 1d3e
000000e0: e322 86bd 690d cb3e dec5 943d a5fd 4c3e
000000f0: 7b09 10be b89d f63d 0589 903d 2ca9 883c
00000100: 8bfa c6bd 59ae 963e 3b7c 0fbe 24c7 9c3e
00000110: e686 fa3c 8933 e93c 130a 193d 7066 f7bd
00000120: 871e 1b3e cab4 603e c72e f3bc 24ce 4abd
00000130: 0716 2e3e cec5 b23d d20c 1bbe be22 6b3e
00000140: f021 70be 5032 abbd 6319 4cbe fb48 4ebe
00000150: 86a6 8c3e 7d98 3f3e 7d16 8f3e b346 a83d
00000160: f3dd a03c 745e d8bd 76f1 fbbd 61e2 7d3e
00000170: 39cf 5e3e e79c 203e 3938 3ebd 13c9 b0bd
00000180: 84de 44be ece3 673e 5c17 d7bd c3e9 823e
00000190: 01c1 b83d 4f61 8abe 6c0f 0a3c 776c 2bbe
000001a0: f519 33be d7a9 a63d e51d e53e e527 1b3e
000001b0: d86e 373e 0f8d 9c3d 11f1 16be efe6 93bd
000001c0: d112 15be 3d40 9f3e 91de ac3e 6fe9 b03d
000001d0: a934 55be 3fa0 b83d 4b0c 05bd 5694 06be
000001e0: 99cb dbbd 3128 593e 89e7 20bd 9f0c e33e
000001f0: 7481 72ba f668 003e 8556 f83d 06d8 c93c
00000200: 499d 08be ca9e 4a3e 2b13 4b3e 4458 eabb
00000210: af85 6cbd 5d67 323e 1fd0 263e 7edd 873d
00000220: dbb9 c93d bbc8 063e f716 ea3d 4556 e2bd
00000230: c81c 633e 4798 273e 2911 9c3e b37a 243e
00000240: e4b3 da3d 8b66 293e 843d e43e b707 393e
00000250: 7b78 b6bd 315b cbbc 20b2 1cbd d062 8f3e
00000260: ba60 923d d2ec dabc d20f 923e ca29 893e
00000270: 35b1 c2bd ad12 913c 28b1 1bbe 26bc 08be

hidden2event.weight f4 [27, 40]
0.46003416 0.25443122 -0.6118318 -0.32147264 0.0534822 0.12443216 0.46751338 0.10805281
-0.83754873 0.41077647 -0.7935264 -0.35053942 -0.5968955 0.09971916 -1.2260225 -1.3276231
0.42626923 0.4941743 0.024488114 -0.18542027 -0.67966473 -0.2703341 -1.2781417 0.19010258
1.9648887 -0.35099277 -0.25258008 -0.28155655 -0.60488683 -0.982287 0.1377798 0.16249974
0.16695793 -0.5887584 1.4776386 -1.166397 0.2756245 -0.34757435 0.48813173 -0.4837093
-0.21559754 0.035324045 -0.16643181 -0.514571 0.5651477 -0.2769306 -0.012857086 0.28221187
-0.7748925 -0.21095972 -0.34288523 -0.2952502 -0.15910581 -0.31590405 -0.50957817 -0.86562735
0.28085694 0.2832625 0.22783317 0.29223976 -0.10429469 0.09249728 -0.32364446 0.09901876
0.249821 -0.38205463 0.27901363 -0.11272878 0.09405607 -0.12109773 -0.11273275 0.043432936
-0.08455624 0.33134073 0.13858831 -0.083121896 -0.5486288 0.28120565 0.4975984 -0.299135
-0.32351184 -0.31474718 0.12325821 -0.28574008 0.3970644 0.12282555 0.3826233 0.4010518
-0.8197138 0.12276232 0.28256464 0.09516276 -0.152562 -0.16323051 -0.26633 -0.91160643
-0.6708959 -0.24766132 -0.55605656 0.122461766 -0.76802194 -0.14219226 0.6411586 -0.33579922
0.3624509 -0.509917 0.38529882 0.53963727 0.26347303 0.032640025 0.5370929 0.035057396
0.47697684 0.27255064 0.15196986 0.2770636 -0.64590263 -0.064195395 0.8181086 -0.08432128
-0.12013893 -0.7309031 -0.03662965 0.8168159 -0.42410514 -0.19390367 -0.017624378 -0.28977817
0.39867806 -0.5904045 -2.119432 0.07671234 0.44738707 -0.2065988 0.50839376 -0.013548508
0.10208046 0.5065704 0.623389 -0.099005744 0.06423869 -0.3149553 -0.122743756 -0.32963917
-0.79934484 0.65532255 0.6380784 0.43077713 -0.25007132 -0.90570474 0.138956 0.41594088
-0.26796633 0.34866688 -0.33539206 0.59119225 -0.9605374 0.3921414 1.6171001 -0.5372035
-0.7794433 -0.5908488 0.32433343 1.9274033 0.37767613 -0.60222495 -0.030476265 0.28261676
0.063012354 0.72703975 0.121360905 -0.4402198 -0.2709694 -0.9066972 0.66685957 -0.48095265
0.47385082 0.8455395 -0.11919178 -0.36678255 0.93627167 0.5747543 1.2120097 -0.5694452
-0.568406 0.59623027 0.5110272 -1.0214317 0.15974331 -0.989213 -0.72462875 -0.36685833
-0.6901592 -0.4443921 0.6205715 -1.5388966 0.3212164 0.5262268 0.088582315 0.74825966
0.02558078 -0.1756274 0.541339 2.1276295 -0.444277 0.3710726 -0.18786743 -0.27406892
1.6157327 5.224217 -0.3597708 -0.59910226 -0.29581997 -0.03821204 0.58768755 0.03615755
0.8942883 -0.4825426 -1.1861007 -0.7957651 -0.29291934 0.20510104 0.31981242 -0.057913993
0.20620772 0.6181276 -2.2722533 -1.1010474 -0.33933073 0.5663309 0.63571864 0.6083941
0.46544498 -0.47563785 -0.48839116 -0.58101934 0.45525527 -0.7497768 -2.235864 -0.09456344
0.51886696 -0.40386197 0.43843746 1.4875679 0.5807682 -0.14297497 0.7868991 -0.50029284
0.82217526 1.9947599 0.047480494 -0.36193627 -0.2958372 0.18548721 0.08458043 -1.9741763
00000000: 9989 eb3e cf44 823e 02a1 1cbf 1098 a4be
00000010: 2710 5b3d 4ad6 fe3d ea5d ef3e cb4a dd3d
00000020: 9869 56bf 4b51 d23e 8c24 4bbf e779 b3be
00000030: 25ce 18bf 8f39 cc3d 4eee 9cbf 8eef a9bf
00000040: f63f da3e 6a04 fd3e 4c9b c83c d0de 3dbe
00000050: 82fe 2dbf 3b69 8abe 269a a3bf 40aa 423e
00000060: 7981 fb3f 53b5 b3be 2d52 81be 2e28 90be
00000070: ddd9 1abf 2977 7bbf 2616 0d3e 5566 263e
00000080: 05f7 2a3e dfb8 16bf 4323 bd3f 7f4c 95bf
00000090: a81e 8d3e 44f5 b1be 67ec f93e bfa8 f7be
000000a0: 9ac5 5cbe f2af 103d 1a6d 2abe edba 03bf
000000b0: 85ad 103f d9c9 8dbe 87a6 52bc 137e 903e
000000c0: 5b5f 46bf d305 58be a78e afbe 092b 97be
000000d0: a2ec 22be 2dbe a1be b773 02bf c199 5dbf
000000e0: 7bcc 8f3e c807 913e 194d 693e 73a0 953e
000000f0: 7498 d5bd 376f bd3d bab4 a5be 59ca ca3d
00000100: 14d1 7f3e aa9c c3be e0da 8e3e 59de e6bd
00000110: 78a0 c03d 1602 f8bd 6ee0 e6bd bce6 313d
00000120: d22b adbd 7ea5 a93e 18ea 0d3e d03b aabd
00000130: f072 0cbf 30fa 8f3e 38c5 fe3e 3928 99be
00000140: 58a3 a5be 8b26 a1be cd6e fc3d 864c 92be
00000150: 064c cb3e f68b fb3d 34e7 c33e a956 cd3e
00000160: c3d8 51bf d06a fb3d 50ac 903e b1e4 c23d
00000170: 3739 1cbe e625 27be 685c 88be 0a5f 69bf
00000180: d5bf 2bbf ee9a 7dbe b959 0ebf 3ccd fa3d
00000190: 169d 44bf d99a 11be f822 243f e0ed abbe
000001a0: 2a93 b93e ec89 02bf e345 c53e ab25 0a3f
000001b0: f0e5 863e 8cb1 053d ec7e 093f 5898 0f3d
000001c0: 4f36 f43e c28b 8b3e fd9d 1b3e 48db 8d3e
000001d0: e059 25bf e078 83bd 916f 513f a3b0 acbd
000001e0: 660b f6bd 771c 3bbf f908 16bd d91a 513f
000001f0: 4f24 d9be af8e 46be 0061 90bc ce5d 94be
00000200: 881f cc3e c024 17bf c6a4 07c0 5c1b 9d3d
00000210: eb0f e53e a38e 53be 1826 023f 90fa 5dbc
00000220: 8f0f d13d 99ae 013f 6c96 1f3f 86c3 cabd
00000230: 938f 833d d241 a1be 1461 fbbd 77c6 a8be
00000240: dda1 4cbf 38c3 273f 1b59 233f d28e dc3e
00000250: 5909 80be 44dc 67bf 7b4a 0e3e 34f6 d43e
00000260: e232 89be 7784 b23e 82b8 abbe 6058 173f
00000270: c7e5 75bf c2c6 c83e 23fd ce3f 2b86 09bf
00000280: 9989 47bf de41 17bf 080f a63e 27b5 f63f
00000290: c45e c13e 6a2b 1abf 5ca9 f9bc 25b3 903e
000002a0: 9f0c 813d 471f 3a3f 118c f83d 7d64 e1be
000002b0: 80bc 8abe 4f1d 68bf 4fb7 2a3f 6d3f f6be
000002c0: 939c f23e 4775 583f d21a f4bd ecca bbbe
000002d0: 80af 6f3f 1923 133f 2223 9b3f 29c7 11bf
000002e0: 0e83 11bf 8ca2 183f aed2 023f 46be 82bf
000002f0: c093 233e 103d 7dbf 4581 39bf dbd4 bbbe
00000300: 46ae 30bf 5d87 e3be c6dd 1e3f 90fa c4bf
00000310: 7a76 a43e cdb6 063f a56a b53d f28d 3f3f
00000320: c98e d13c abd7 33be 3195 0a3f 152b 0840
00000330: 4678 e3be 3afd bd3e 5260 40be c352 8cbe
00000340: 54d0 ce3f c92c a740 e133 b8be c45e 19bf
00000350: b775 97be 3a84 1cbd b172 163f f019 143d
00000360: 14f0 643f d30f f7be 26d2 97bf 43b7 4bbf
00000370: 86f9 95be 0206 523e 74be a33e 3937 6dbd
00000380: 1e28 533e 9c3d 1e3f 996c 11c0 1fef 8cbf
00000390: c2bc adbe 10fb 103f 75be 223f b7bf 1b3f
000003a0: ce4e ee3e ce86 f3be 680e fabe afbd 14bf
000003b0: 3817 e93e 5ff1 3fbf 6518 0fc0 7aaa c1bd
000003c0: 77d4 043f ffc6 cebe e07a e03e a068 be3f
000003d0: 3aad 143f 0868 12be 3872 493f 3113 00bf
000003e0: 147a 523f 4b54 ff3f e87a 423d b64f b9be
000003f0: f977 97be 5cf0 3d3e 8138 ad3d cfb1 fcbf

hidden2event.bias f4 [27]
-0.15296248 0.32145563 -0.070786335 0.3515108 -0.024336342 -0.624964 -0.30992112 -0.10083406
0.3536688 -0.14244282 -0.6354051 -0.070986696 -0.3766343 0.31306827 0.023499263 0.40685937
-0.066224866 -0.47371927 -0.3510162 -0.6893887 0.38334024 -0.129685 -0.23591717 -0.511058
0.12637572 -0.46273243 -0.35207352
00000000: 32a2 1cbe d595 a43e 6df8 90bd 39f9 b33e
00000010: 025d c7bc a4fd 1fbf fbad 9ebe 1682 cebd
00000020: 1414 b53e 88dc 11be e9a9 22bf 7961 91bd
00000030: 36d6 c0be 7c4a a03e 8781 c03c df4f d03e
00000040: e7a0 87bd 558b f2be 65b8 b3be c77b 30bf
00000050: 2c45 c43e 25cc 04be 4594 71be b2d4 02bf
00000060: a368 013e 44eb ecbe fb42 b4be

hidden2time.weight f4 [3, 40]
-0.036327336 -0.005538577 -0.25998512 0.048305575 0.021176158 -0.17037056 -0.0282447 0.040859632
-0.19526796 0.038237058 0.073545985 0.03295129 0.1514637 -0.06469989 -0.1896056 0.13664742
-0.04593023 -0.04032657 0.13302481 0.020465415 0.10003882 -0.098676115 -0.029140033 -0.14309335
-0.075097896 -0.09921123 -0.06641769 0.054741573 0.20702586 -0.076500915 -0.19661728 -0.0140045965
-0.039824817 -0.012308768 -0.13346529 -0.047313757 -0.11835328 0.15018277 0.10985213 -0.17205836
-0.07908467 -0.13264208 -0.17474341 -0.060979497 0.10132042 -0.112824 -0.08384874 0.033261154
0.002514585 0.009407649 0.10603178 0.10585289 0.026754575 0.011875169 -0.16208142 0.10121476
0.0090391375 0.12280914 0.24764614 0.14088689 0.14795648 -0.09579164 -0.13050401 -0.08452678
-0.044433095 -0.1491526 0.23954554 0.21362558 0.17300355 0.09190047 -0.035896692 -0.114323206
-0.045259904 0.04358576 0.1398102 0.021098902 0.034605656 0.045921057 -0.036712248 -0.07849733
0.52318215 1.6077263 0.62917817 1.7783012 -0.32187673 0.4157467 0.30686575 -0.44458276
0.77730733 2.0412707 -0.20693906 -0.35117117 -0.43428192 -0.46825954 0.5813892 -0.64330816
0.66201264 -0.53064394 -0.68911105 -0.5484157 -0.34911323 0.47720563 0.56827325 0.7900868
0.638 0.71396244 -2.671159 -0.6435828 -0.5341723 -0.36129907 0.648115 0.82542247
0.53159726 -0.48305437 -3.2292292 0.2285076 0.5020609 -0.7190435 0.04476337 0.53739256
00000000: f9cb 14bd f47c b5bb c51c 85be 11dc 453d
00000010: 9f79 ad3c 9f75 2ebe 6e61 e7bc 6e5c 273d
00000020: 53f4 47be 769e 1c3d 479f 963d eff7 063d
00000030: 4d19 1b3e 6081 84bd f827 42be 4ded 0b3e
00000040: 5621 3cbd 792d 25bd a837 083e 16a7 a73c
00000050: 27e1 cc3d b416 cabd 14b7 eebc 1087 12be
00000060: edcc 99bd 422f cbbd ff05 88bd b338 603d
00000070: 96fe 533e 83ac 9cbd 0a56 49be 8973 65bc
00000080: 591f 23bd b7aa 49bc 20ab 08be 12cc 41bd
00000090: 3463 f2bd 83c9 193e 27fa e03d 1130 30be
000000a0: 25f7 a1bd 53d3 07be f0ef 32be a3c5 79bd
000000b0: 1581 cf3d 4510 e7bd e3b8 abbd d93c 083d
000000c0: bccb 243b 8a22 1a3c 3127 d93d 66c9 d83d
000000d0: 692c db3c 1290 423c acf8 25be af49 cf3d
000000e0: e418 143c 5c83 fb3d f396 7d3e a744 103e
000000f0: e781 173e 682e c4bd d8a2 05be 601c adbd
00000100: 7aff 35bd 76bb 18be 6d4b 753e aac0 5a3e
00000110: d827 313e 5036 bc3d 6908 13bd 4922 eabd
00000120: 7362 39bd fb86 323d 682a 0f3e 9bd7 ac3c
00000130: a9be 0d3d b817 3c3d 955f 16bd 35c3 a0bd
00000140: 44ef 053f fac9 cd3f d211 213f 609f e33f
00000150: 07cd a4be c0dc d43e 821d 9d3e 5aa0 e3be
00000160: 9dfd 463f 2ea4 0240 d5e7 53be b5cc b3be
00000170: 335a debe b7bf efbe ecd5 143f d8af 24bf
00000180: a979 293f 48d8 07bf 9569 30bf f964 0cbf
00000190: f8be b2be 4c54 f43e 5b7a 113f 2143 4a3f
000001a0: f853 233f 3ec6 363f 45f4 2ac0 d8c1 24bf
000001b0: 84bf 08bf 31fc b8be ddea 253f e34e 533f
000001c0: c216 083f e752 f7be b1ab 4ec0 e5fd 693e
000001d0: 1087 003f 3c13 38bf cc59 373d 8f92 093f

hidden2time.bias f4 [3]
0.11150217 0.23308049 -0.38972232
00000000: 405b e43d a7ac 6e3e af89 c7be
