events_simulation/models/model_20180504-0714.pt (torch_old, 78354 bytes, 9 tensors)

loss_function_events.weight f4 [27]
000000 00 00 80 3f 00 00 80 3f 00 00 80 3f 00 00 80 3f
       1.0 1.0 1.0 1.0
000010 00 00 80 3f 00 00 80 3f 00 00 80 3f 00 00 80 3f
       1.0 1.0 1.0 1.0
000020 00 00 80 3f 00 00 80 3f 00 00 80 3f 00 00 80 3f
       1.0 1.0 1.0 1.0
000030 00 00 80 3f 00 00 80 3f 00 00 80 3f 00 00 80 3f
       1.0 1.0 1.0 1.0
000040 00 00 80 3f 00 00 80 3f 00 00 80 3f 00 00 80 3f
       1.0 1.0 1.0 1.0
000050 00 00 80 3f 00 00 80 3f 00 00 80 3f 00 00 80 3f
       1.0 1.0 1.0 1.0
000060 00 00 80 3f 00 00 80 3f 00 00 80 3f
       1.0 1.0 1.0

lstm.weight_ih_l0 f4 [160, 70]
000000 ab 95 06 c0 da 59 2a c0 cc 0f 4d 3d 39 ae b6 3f
       -2.102885 -2.661734 0.050063893 1.4271919
000010 fd 72 d8 bf c5 76 43 40 cb 15 c3 bf 7e 28 88 3f
       -1.6910092 3.054124 -1.5241026 1.0637357
000020 e6 8e 29 be 47 49 9f c0 7a 8a 08 40 62 05 b6 c0
       -0.16558418 -4.977695 2.133452 -5.688157
000030 0b f8 01 40 59 6a 21 bf f6 85 c8 3f f9 25 98 3e
       2.0307643 -0.630529 1.5665882 0.2971647
000040 e0 de fd 3f d7 29 7b be 10 08 19 c0 45 91 25 c0
       1.9833641 -0.2452768 -2.391117 -2.5869915
000050 5e c1 00 3f b3 7a 57 c0 06 ab 50 c0 9c 35 c0 3e
       0.50295055 -3.366864 -3.2604384 0.375409
000060 53 19 02 40 40 5c 28 3b 15 3f d3 be 8b df 88 bd
       2.0327957 0.002568975 -0.41259065 -0.066832624
000070 01 ec 81 be a7 b3 02 bf 84 1e ca 3f bc 08 9c 3e
       -0.2537537 -0.5105538 1.5790563 0.30475414
000080 61 fb 88 3e 9e b3 a1 3f 9d ae d3 3e 18 dc ac bd
       0.26754287 1.263294 0.41344157 -0.08440417
000090 bd 22 c8 3e 3a a2 02 3f a3 7c c8 3d b9 f5 ee 3e
       0.39089003 0.5102879 0.097893976 0.46671847
0000a0 46 81 38 3f c5 f9 92 3e 00 be 3f 3f 1a a8 55 bf
       0.72072256 0.28706184 0.7489929 -0.8345963
0000b0 25 e6 7c 3f 03 e2 72 3e 23 24 60 be be 6d 61 be
       0.9878867 0.23719029 -0.21888785 -0.2201452
0000c0 62 f1 ca be 3a ee 24 3e 9a d9 5b 3e 7b 17 bb be
       -0.39637285 0.16106501 0.21469727 -0.36541352
0000d0 43 8c 31 3f 4a 52 eb be 3c e2 48 bf ca fb a1 bf
       0.6935465 -0.4596122 -0.78470206 -1.2654965
0000e0 08 d0 bf be 27 93 68 3f 32 8f 43 3e 6d 29 2d 3f
       -0.37463403 0.90849537 0.19097593 0.67641336
0000f0 ea 31 3b 3e 86 25 43 bf 22 c9 a4 be 92 18 d3 be
       0.1828076 -0.7622913 -0.32184702 -0.41229683
000100 1a 14 8b 3e bc e7 bd 3f 54 a5 8c 3f d8 33 a1 3f
       0.27163774 1.4836345 1.0987954 1.2593946
000110 70 54 f2 be c8 3d d8 3f f0 ee 85 3e 1f bb 72 bf
       -0.47330046 1.6893854 0.26158857 -0.94816774
000120 4f fa 01 3f ba 15 fb bf 45 b3 a4 3f 3a 93 4d 40
       0.50772566 -1.9616005 1.2867209 3.212111
000130 07 97 a4 3f ef b9 93 3f 72 be a4 be bf 6a 88 3f
       1.285859 1.1541117 -0.32176548 1.0657576
000140 ea d7 0e 40 6d 88 59 bf c1 34 07 3f 51 98 eb bf
       2.2319283 -0.84973794 0.5281487 -1.8405858
000150 7f 43 8e bf a3 e2 76 40 14 93 88 40 cf c9 ae bf
       -1.1114348 3.8575828 4.267954 -1.3655337
000160 37 fa 52 40 63 ea 96 bf b6 6c 07 3e 42 77 1e 3f
       3.296522 -1.1790279 0.13225064 0.61900723
000170 75 33 15 40 15 8f f0 40 76 d7 22 bf 5a c8 9e 3d
       2.3312657 7.517466 -0.6361002 0.07753058
000180 fd 47 86 3e 9a 78 7a 3f 65 3f dd be 49 fb 92 3e
       0.26226798 0.97840273 -0.4321243 0.2870734
000190 0f d6 bc be 1e a3 99 3f f8 84 52 3f d4 3c 2a 3f
       -0.36882064 1.2002904 0.82234144 0.66499066
0001a0 91 3e 5f 3e 75 cc 43 3f f8 77 91 3e 17 a3 c8 3f
       0.21801211 0.7648385 0.2841184 1.5674771
0001b0 04 6d 8a 3e b9 56 9e be ec a1 49 3f ae 6e 80 bf
       0.27036297 -0.3092554 0.787627 -1.0033777
0001c0 1a 79 27 bf 7e a3 5a 3f 27 7a 87 3f 1d 54 63 be
       -0.6541916 0.8540572 1.0584153 -0.22200055
0001d0 9e d0 12 be 7e 1f 21 3f 07 35 10 bf 2e 5a ae 3e
       -0.14337394 0.6293868 -0.56330913 0.34053177
0001e0 2c b0 69 bf a7 95 66 3e 6b 7c 9a bf 5e 26 14 bf
       -0.9128444 0.22518025 -1.2069219 -0.57871044
0001f0 69 ea e8 bc a4 29 aa 3f b7 6b 56 bf fe d3 8e bf
       -0.028432088 1.3293958 -0.8375811 -1.1158445
000200 69 87 e4 3d ac 44 85 3f ab 5b 49 be d0 8a 94 3e
       0.1115864 1.0411582 -0.19663875 0.29012156
000210 8b 04 0a be fa 02 c8 be 52 e2 5e bf b2 94 86 bf
       -0.13478296 -0.3906477 -0.8706409 -1.0514128
000220 8b 3a b1 3e f6 c4 48 bf 41 87 ae bd 03 58 ce 3e
       0.34614977 -0.7842554 -0.085218914 0.40301523
000230 ec 9a 99 bf 96 92 9d bc f2 06 87 bf 6d 4b 9e 3f
       -1.2000403 -0.019234937 -1.0548995 1.2366768
000240 e0 43 ab be 9b bc e3 bd ca 2b 08 40 ad eb 11 3f
       -0.33450222 -0.11119958 2.1276727 0.5700024
000250 93 22 4f 3f 3b 29 18 c0 b5 75 b9 bf 3d e0 48 bf
       0.8091213 -2.3775165 -1.4489046 -0.7846716
000260 ec 41 6f 3f 02 51 08 bf 92 c6 f1 bf f3 8e b7 3f
       0.93459964 -0.5324861 -1.8888724 1.43405
000270 84 82 9b 3f b7 6b e2 3e f1 22 2c 3f ff 10 98 bf
       1.2149205 0.44222805 0.67240816 -1.1880187
000280 83 67 65 3f 6f 7d 3c 3f 1e d4 9e 3f 3a 75 ec bf
       0.8961107 0.73628896 1.2408483 -1.8473275
000290 9f fd 10 bf b4 8e 8b 3d eb e3 d6 be b2 8e 87 3e
       -0.56636995 0.06814328 -0.41970763 0.26476055
0002a0 8c 9c 5b bb 69 7a 01 bf c5 03 36 3e 4f c5 15 3f
       -0.0033510057 -0.5057741 0.17774875 0.58504194
0002b0 29 9a 21 be 65 11 d6 3e 81 61 57 be d1 a5 68 be
       -0.15781464 0.41810146 -0.21033289 -0.22719504
0002c0 c8 07 43 3e c6 30 3d 3f ba c6 24 be ea 9d e4 be
       0.19045937 0.7390255 -0.16091433 -0.4465173
0002d0 70 55 be 3e 63 55 85 be 22 79 38 be 43 71 42 3e
       0.3717456 -0.26041707 -0.18014959 0.18988518
0002e0 1d 72 17 3f 7c 29 57 bf 52 5d d5 be 43 2c 8b 3e
       0.591585 -0.84047675 -0.4167276 0.27182207
0002f0 fb 08 0a bf 97 a3 e5 be 1e b0 87 3f 47 5a ac bc
       -0.53919953 -0.44851372 1.0600622 -0.021039141
000300 83 52 b8 3e 0b e8 c7 be e4 38 f2 bf a8 ea ba 3d
       0.3600045 -0.39044222 -1.8923612 0.091267884
000310 01 b3 16 3f b9 0f 0e 3f fc e9 80 3d f2 a3 4b 3f
       0.5886689 0.5549274 0.06294629 0.79547036
000320 f2 a0 2d 3e c4 65 14 3f 5a 26 2c 3e 4f 9c 29 3e
       0.16955927 0.5796778 0.16811505 0.16563533
000330 1a ba c0 3c c0 a1 c8 3d 40 8b 08 3f be be 00 3e
       0.02352624 0.09796476 0.5333748 0.12572762
000340 3d 21 09 bf c4 32 07 3f 0a 57 b5 3d 12 b2 a4 3f
       -0.5356634 0.5281184 0.08854492 1.2866843
000350 bb 67 07 3f f5 1a 82 bf b6 ee 32 3f dc 4b 79 bf
       0.52892655 -1.0164477 0.69895494 -0.9738138
000360 27 18 98 3f 60 24 64 bf af 69 ec be 92 ce ea 3e
       1.1882371 -0.89118004 -0.4617438 0.45860726
000370 a3 39 36 3f a3 57 b2 40 e9 1e 46 bf 6f ae 0a c0
       0.71181697 5.573198 -0.77390915 -2.1668966
000380 59 4e c0 bf 3e 61 1e 3e 52 94 e1 3f b4 1b b6 40
       -1.502391 0.15466782 1.7623389 5.6908817
000390 13 f4 39 40 08 f6 7a c0 56 7b c4 3e 27 7c 1a be
       2.905522 -3.9212666 0.38375348 -0.15086423
0003a0 3a 3c 4b 3f 46 32 93 40 64 54 2d bd 2d 68 01 3e
       0.79388773 4.599887 -0.04231681 0.12637396
0003b0 98 8d 32 40 83 87 f7 be 27 a0 1b be 4d 4f 45 40
       2.7898922 -0.48345575 -0.15197812 3.0829651
0003c0 72 49 2a bf 2d de 9b be ff 9f 86 3e 13 90 38 bf
       -0.6651832 -0.30442944 0.26293942 -0.7209484
0003d0 b6 1b 96 3e 9e b6 e8 bd 55 bb 34 3f df 67 40 3f
       0.29318017 -0.113629565 0.70598346 0.75158495
0003e0 f9 46 54 bf fc 10 ed bc b1 d6 e6 3e 69 1c 1a be
       -0.82920796 -0.028938763 0.45085672 -0.150499
0003f0 52 fd 21 bc af e0 cf be f9 19 8e 3d 0f 98 41 bd
       -0.009887056 -0.40601107 0.06938548 -0.047264155

lstm.weight_hh_l0 f4 [160, 40]
000000 b7 a5 9c bf 63 8e a7 3f cc 7e ec be 7e b1 a7 3d
       -1.2238072 1.3090328 -0.46190488 0.08188151
000010 ed 67 1a bf 78 ad 89 3f 12 6f b9 be 83 50 23 3f
       -0.6031483 1.0756063 -0.36217552 0.63794726
000020 69 28 41 bf b6 b3 9e be 5f ee 13 40 b9 05 89 3e
       -0.75452286 -0.30996484 2.311424 0.2676218
000030 80 2b 0f 3f 4b 90 07 3e 5f fa 7e be f3 72 2b c0
       0.5592575 0.13238637 -0.24900196 -2.678891
000040 5f 28 21 be 97 2f 23 3f a8 5b a8 3f 5b 34 10 bf
       -0.15738057 0.6374449 1.3152971 -0.5632989
000050 65 a8 12 3f ad d9 8d bf 68 d8 6b 3d f3 30 77 3d
       0.572882 -1.1082054 0.057579428 0.060349416
000060 e2 33 05 bf a7 ca b4 3d 86 3d 0e 3f c1 47 da 3d
       -0.5203229 0.08827715 0.5556263 0.10658217
000070 57 69 9d 3e 7a 3c ae 3b 03 f0 10 3d f1 94 32 3f
       0.3074443 0.005317268 0.035385143 0.69758517
000080 20 6f 11 3f a8 89 d8 3e ea 22 9f be ff 50 29 bf
       0.5681019 0.42292523 -0.31081325 -0.66139215
000090 f8 e6 83 bf 28 5a 12 bf 3c f8 53 3e 00 ea 9e 3f
       -1.0304861 -0.5716882 0.20700163 1.2415161
0000a0 5f c2 80 bf e6 7a 1c bf 74 74 85 3f dc 8d c7 3f
       -1.0059317 -0.6112503 1.0426164 1.5590167
0000b0 83 55 ba 3e 68 8d 42 bf e3 e3 31 3f 5c d9 58 3d
       0.36393365 -0.7599702 0.6948835 0.052941665
0000c0 86 55 26 bf 7c ee 7b bf d4 13 66 be 47 bd d9 be
       -0.6497425 -0.98410773 -0.22468501 -0.4252722
0000d0 a5 eb 28 3f 29 bf 3e 3e 09 4c c4 3e b4 a9 04 3f
       0.65984565 0.1862761 0.3833926 0.51821446
0000e0 01 72 8b be 9f bc 55 3f 9b 32 7d 3e a3 f6 80 bf
       -0.27235416 0.8349094 0.24726336 -1.0075268
0000f0 b8 26 d5 bd 28 e8 0f bf aa fc 06 3d 63 f0 d1 3d
       -0.10407776 -0.5621362 0.032955803 0.10250928
000100 26 a7 98 bf b9 a1 6b bd aa 97 47 3f 70 c3 31 bf
       -1.192601 -0.057527278 0.77965796 -0.6943884
000110 31 b5 9c 3e a2 50 ef be a7 23 8a be 9e 32 d0 bd
       0.30606988 -0.46741205 -0.26980326 -0.101659045
000120 6c d3 9e be 53 52 8a 3e c9 f2 70 3e 59 b9 26 bf
       -0.31020677 0.27015933 0.23530115 -0.6512657
000130 f5 34 93 3f 15 48 ef be ea 85 10 3f 02 ac 76 bd
       1.1500536 -0.46734682 0.56454337 -0.060222633
000140 34 f9 2b 40 68 6d ab bc ff d9 32 bf 76 ff c3 bd
       2.6870852 -0.020926192 -0.69863886 -0.0957021
000150 11 c6 93 be e3 e1 c2 bd 07 35 57 3f ea 48 dc 3e
       -0.2886205 -0.09515741 0.8406529 0.4302438
000160 7a 5d 30 be b3 4f ed be 06 6d 64 3d 75 12 d3 3e
       -0.17223158 -0.46349868 0.055768035 0.4122502
000170 82 2f 02 bf 49 02 91 3d 4b e6 aa 3e 79 30 06 c0
       -0.5085374 0.07080514 0.33378825 -2.0967085
000180 e3 48 08 3f 5f d3 a5 bf a8 6f 38 bf 5c e5 96 bf
       0.53236216 -1.295513 -0.72045374 -1.1788745
000190 41 44 91 be 53 bb 7d 3d 21 17 1d bf 73 bc 23 3e
       -0.28372386 0.061946224 -0.61363417 0.15989856
0001a0 2b ad 09 bf 79 d0 ec bd 29 02 28 be 1a de 22 3e
       -0.5377986 -0.115632005 -0.16407074 0.15905038
0001b0 93 c4 cf bc cf 94 ba 3d 0b 18 a5 3e d0 3f 02 3d
       -0.025362289 0.09110414 0.32244906 0.031799138
0001c0 4f 34 d9 bd 01 fd 92 3d ee 8d 8d be 39 92 8c 3e
       -0.1060568 0.07177163 -0.27647346 0.2745531
0001d0 16 c6 34 be a4 6c 12 bf 85 de 52 3e 79 2d f2 3b
       -0.17653689 -0.5719702 0.20592697 0.0073906747
0001e0 7d 73 0f 3e f0 19 49 3f 43 1d a0 3e 00 a5 12 be
       0.14008899 0.785552 0.31272325 -0.14320755
0001f0 40 f9 17 3e fb 6a b6 3e f2 ab bb be 0a 9c 09 3f
       0.14841175 0.35628495 -0.3665462 0.5375372
000200 56 18 18 bf fd 33 43 be 8e be 55 3e 13 17 11 bd
       -0.59412134 -0.190628 0.20873472 -0.035422396
000210 5f 76 2f 3f 6c d5 21 bf 38 e5 0b bf bd 6c b0 bf
       0.68539995 -0.6321628 -0.54646635 -1.3783184
000220 25 94 29 bf 54 df 0b bd 1e d1 2d 3f 73 78 9d 3d
       -0.66241676 -0.03414853 0.6789721 0.076889895
000230 60 32 83 be 04 02 59 be 4e a3 2a 3e bc 0c 27 3f
       -0.2562437 -0.21192175 0.16663858 0.65253806
000240 35 51 f6 be fe 90 7d 3e fe 56 b1 bd 66 21 29 3f
       -0.4810883 0.24762341 -0.086591706 0.66066587
000250 e3 d5 fc 3d 0b 26 22 be 53 41 0f bf 7b 8c 2e 3d
       0.12345483 -0.15834825 -0.5595905 0.04261444
000260 35 7c ad bd 0f ba 12 3e 9c 18 c4 be ce 16 8c 3e
       -0.08470956 0.14328788 -0.38300025 0.2736115
000270 6b 13 e5 bf a6 21 4f 3f 44 30 49 bf 45 9e bb bc
       -1.7896551 0.8091072 -0.7858927 -0.022902617
000280 f2 db 02 40 d2 f8 a6 3f 77 30 4f bf 72 31 66 be
       2.0446744 1.3044684 -0.80933326 -0.224798
000290 50 1c fd 3e 6b 20 a6 3f 12 95 a8 bf e7 40 27 3c
       0.49435663 1.2978643 -1.3170493 0.010208345
0002a0 aa 91 27 bf b8 fd c7 bd ae 5f 45 3f 98 ef 5c 3e
       -0.6545664 -0.0976519 0.7709912 0.21575773
0002b0 5a 28 13 bf 13 69 a4 3f 2c 4b b9 3d 0f a8 77 3e
       -0.57483447 1.2844566 0.09047541 0.24185203
0002c0 13 6a b8 3e 18 5b 60 be 8b 32 22 bc b0 33 8d be
       0.36018428 -0.2190975 -0.009899746 -0.27578497
0002d0 75 1d bb 3e b6 45 18 be 94 81 3f 3f 1f 23 94 3d
       0.3654591 -0.14870343 0.74807096 0.07233261
0002e0 85 ac e1 bd 3b a0 84 bd 83 a3 a0 be f5 1e 94 be
       -0.110192336 -0.06475874 -0.3137475 -0.28929868
0002f0 b9 55 6a bc a7 24 4c 3e a3 d0 b0 3e 7e be 83 3f
       -0.014302664 0.19935857 0.34534177 1.0292509
000300 89 05 56 be 49 e6 89 bf 4c a0 4e bf 18 3b 3b 3f
       -0.20900549 -1.0773402 -0.80713344 0.73137045
000310 60 c1 c0 3f d2 85 f5 bf 7e 04 13 3f 1b 2d c9 be
       1.5059013 -1.9181464 0.5742873 -0.39292225
000320 27 ac e8 bf 19 6c b7 3e 64 38 03 3f fb ee bc be
       -1.8177537 0.3582466 0.5125792 -0.36901078
000330 92 74 e9 3d 01 16 1a 3f fb e4 db be e6 88 47 3f
       0.11399187 0.60189825 -0.42948136 0.77943265
000340 a9 84 97 3e 78 0a bc bf 16 65 62 3e cb 95 95 bf
       0.295934 -1.4690695 0.22108874 -1.1686338
000350 e7 49 a7 3e c3 7c 95 3f e9 73 be 3e 11 b2 8f bf
       0.3267357 1.1678699 0.37197807 -1.1226217
000360 3b 15 9e be 47 ba dc 3e 9f 95 09 bf 84 58 69 3f
       -0.30875573 0.43110868 -0.5374393 0.9115069
000370 3a 81 a1 bf 2c 82 dc bd 27 76 45 3f 1e 6f 31 bf
       -1.2617562 -0.10767016 0.7713341 -0.69310176
000380 94 2c 08 3e e5 f7 14 bf 84 e8 77 bf 25 a8 cd 3f
       0.13298255 -0.5819076 -0.96839166 1.6066939
000390 00 74 01 be 90 4e 42 be 07 59 34 be 6c 5d 07 3f
       -0.12641907 -0.18975282 -0.17612086 0.52876925
0003a0 03 d5 8f 3f ec 81 1a 3f 6c 76 56 3b 3d cd 8b be
       1.1236881 0.60354495 0.0032724394 -0.27305022
0003b0 b7 01 71 3f 1f 25 08 3f 61 fe d9 3e f3 97 8e 3e
       0.9414324 0.5318164 0.42576888 0.27850303
0003c0 1b 08 97 bd e0 1d 3c 3f 62 43 0b be f2 52 8e 3e
       -0.07374593 0.73483086 -0.13599923 0.27797657
0003d0 ac 82 31 be 87 0a da 3e 49 59 94 3f 0b a5 05 bd
       -0.17335004 0.42586157 1.1589748 -0.0326281
0003e0 0d 05 e1 be e4 19 dc be 6e 6b 00 bf f6 a9 5a be
       -0.43949166 -0.42988503 -0.50163925 -0.21353897
0003f0 ab 9c 57 3e ee f7 3c 3d d4 59 c1 3e 9c a2 d4 be
       0.21055858 0.04613488 0.37763846 -0.4153031

lstm.bias_ih_l0 f4 [160]
000000 a9 ea 74 be 15 26 24 3d 4f 4e 29 be 94 dd 40 be
       -0.23917641 0.04007538 -0.16533779 -0.18834525
000010 36 7b b9 3e 97 a6 ac be eb 70 5a 3e 6e 7d 6e 3e
       0.36226815 -0.33720848 0.21332137 0.23290035
000020 cb 85 cf be 8f 34 a7 bd cc 17 09 3d 37 6b d7 bd
       -0.40531763 -0.08164322 0.03346996 -0.105184965
000030 39 b3 5a 3d a2 c6 38 3e f1 d9 b2 3d a8 b4 28 be
       0.053393576 0.18044522 0.08732975 -0.16475165
000040 2c 7d a3 3d 86 d4 00 3d 0d 7f 94 3e 14 99 9a 3e
       0.07982859 0.03145268 0.29003182 0.30194914
000050 90 e0 51 3e 7f c8 1e 3e c3 e9 a0 ba 90 21 67 3e
       0.2049582 0.1550617 -0.0012276698 0.22571397
000060 75 bc 8d bd 70 64 0a 3e 1d 99 1c be 3b 76 1d be
       -0.06920711 0.13514876 -0.15292783 -0.15377133
000070 fa 52 82 3e e3 75 7c bd 84 5d 7a 3e 39 43 0c 3e
       0.2545393 -0.061635863 0.24449736 0.13697518
000080 f3 8b 69 3e aa 8e 76 3d 66 a1 a7 3e f5 88 8f bd
       0.22807293 0.06019465 0.32740325 -0.07008544
000090 8b f1 88 bd 16 09 db 3e a7 76 e6 3d 01 d5 98 3e
       -0.06686696 0.4278037 0.112531 0.2985001
0000a0 c5 9b 02 bd b0 f9 e3 3c d5 df 40 3d 0a cc e9 bd
       -0.031886835 0.027829021 0.047088463 -0.114158705
0000b0 5d 7e 0d 3e 69 6f 11 3e dc 4f 95 be 3e 98 57 3e
       0.13817735 0.14202656 -0.2916249 0.2105417
0000c0 78 67 26 3f 5b e5 1e bc a4 52 4d 3e ea fe 92 bc
       0.6500163 -0.009698237 0.20051056 -0.017943818
0000d0 62 33 d8 3d 59 8e 19 be e7 25 9e bc 1a 3b 94 be
       0.105566755 -0.14995708 -0.019305183 -0.2895134
0000e0 42 c8 3c bb a3 ef e2 3d 67 73 a6 3e 3c 03 d2 3d
       -0.0028805886 0.11080863 0.3250992 0.10254523
0000f0 ab 54 4e 3d 38 f7 81 3e 3e f9 bd 3d e9 39 9a 3e
       0.050373714 0.25383925 0.09276055 0.30122307
000100 71 d4 16 be 63 74 64 3e d7 5c d5 bd be b8 ff bc
       -0.14729477 0.22310023 -0.104180984 -0.031216022
000110 b0 6e 4e 3d 1f ac dd 3d f5 f3 90 3e 38 d3 2a 3e
       0.05039853 0.10823845 0.28311124 0.16682136
000120 43 a3 ae 3e 49 9d a0 3e 96 f5 3c 3e b5 7b 8e bc
       0.34108934 0.3137 0.18453059 -0.017392972
000130 df 8a c5 3d 38 81 2f bd 71 3f 46 3d ea 48 0b 3e
       0.09645628 -0.042847842 0.048400346 0.13602033
000140 34 16 ce 3a 7b 4f 01 3e 32 f3 2d be c3 b0 00 3e
       0.001572317 0.12627976 -0.16987303 0.12567429
000150 00 54 81 be 91 ec be 3c d4 89 7b be 16 c6 23 be
       -0.252594 0.023306163 -0.24564296 -0.15993533
000160 b8 b2 82 3d 00 d5 6f 3e df b8 86 3e fc 31 67 3e
       0.06381744 0.23421097 0.2631292 0.22577661
000170 a5 2f f8 bd e3 a7 80 3d 35 93 2a 3e b3 3b 01 be
       -0.121184625 0.06282022 0.16657718 -0.1262043
000180 21 81 a4 bb 39 13 bc 3d c2 c4 a0 be ee bd 18 be
       -0.005020276 0.09183354 -0.31400114 -0.14916202
000190 a1 80 05 3e 06 2d e0 bd 34 f5 9a bd 86 a3 2e 3e
       0.1303735 -0.109460875 -0.075663 0.17054567
0001a0 5f 60 90 3d 14 7a a7 3e 96 97 d5 3d ef 9b a6 3c
       0.07049631 0.32710326 0.10429303 0.020338027
0001b0 bf 37 92 3e 02 9b 23 3e 7a 7e 24 bd 77 d4 87 bd
       0.28558156 0.159771 -0.04015968 -0.06632321
0001c0 31 6e 84 3d 0c 48 49 be 37 3b 84 bd 3a 6c 25 3e
       0.0646633 -0.1965639 -0.06456607 0.16154566
0001d0 7b 50 68 3d 2f 07 39 bd a9 9d 84 3d 60 22 93 3d
       0.056717377 -0.045172866 0.06475384 0.07184291
0001e0 a6 53 3c 3e d9 67 da bc d1 ec b0 be bf 24 f3 3d
       0.18391284 -0.026660847 -0.34555677 0.11872243
0001f0 97 25 bd 3e 31 70 0d 3d 57 17 7a 3e 36 d0 37 3e
       0.3694274 0.034530822 0.24422966 0.1795052
000200 5b 2a 0a 3e 23 2a 10 3e 9f c2 0f 3d 2e 75 4e bd
       0.1349272 0.14078574 0.035097715 -0.05040472
000210 62 f7 6d bd 57 04 50 bd 2c f7 2f 3c 7f 17 06 be
       -0.05809725 -0.05078539 0.010740083 -0.130949
000220 f2 9e 8d bd d6 d6 41 3e 0d 91 e6 3c 92 2c 68 be
       -0.06915082 0.1892961 0.028145337 -0.22673252
000230 fd 39 c5 3d 97 b4 ba bc e2 b5 1d 3e d6 d9 b0 bd
       0.09630201 -0.02279119 0.15401414 -0.08635299
000240 e2 a2 16 be 03 9f f1 bb 32 59 94 be 0c 6d 1a 3e
       -0.14710572 -0.007373692 -0.289743 0.1508066
000250 71 3d 0d 3e 5c d8 1a 3e fa aa 39 3d d0 77 9b bd
       0.1379297 0.15121597 0.04532907 -0.07591212
000260 9b 5c 13 3e 9e c5 54 bc 3a d3 a5 be f8 fd 98 be
       0.14390795 -0.012986569 -0.32387716 -0.29881263
000270 ac 14 b2 3e 1e 95 68 3d 3f 07 12 3d 78 de 56 be
       0.34781396 0.056782834 0.03565144 -0.20983303

lstm.bias_hh_l0 f4 [160]
000000 ab 11 f6 bd 2f 2c 68 bd 05 a0 a3 3b 1a 14 a9 be
       -0.12015089 -0.05668276 0.004993441 -0.3302315
000010 aa bb 03 3f 77 5e b5 be 49 32 40 3e 93 51 8b 3e
       0.5145823 -0.35423633 0.18769182 0.27210674
000020 57 21 fb be 97 26 01 3c 98 20 ae bd 2d 07 b6 bb
       -0.49048874 0.007882736 -0.085023105 -0.0055550546
000030 47 d4 44 3e 56 db f3 3d f3 3a 27 3e 0c 06 42 be
       0.19221602 0.119070694 0.16331081 -0.18947619
000040 a1 df 02 3e e7 b8 27 3e ee 23 93 3c 6e fd 55 3e
       0.1278062 0.16379128 0.017961469 0.20897457
000050 12 41 80 3d c1 08 2f 3e 43 2a 6b 3d 3e 38 8d 3e
       0.06262411 0.17093183 0.05741335 0.27581972
000060 17 eb 83 be 6b f3 05 3e 44 aa 8f be b3 30 a5 bd
       -0.25765297 0.13081138 -0.2805959 -0.08065929
000070 5e dc 99 3e 22 e7 4d 3d c8 55 28 3e 21 b1 3d 3c
       0.3005094 0.050269254 0.16438973 0.011577875
000080 18 0a 81 3e 61 4f 75 3e de ca 50 3e a4 68 37 ba
       0.25203013 0.23956062 0.20389888 -0.00069964887
000090 c3 3f 69 3d 2e e7 b2 3e 2b 0e 69 3e dd 4d bd 3d
       0.056945574 0.34942 0.22759311 0.09243367
0000a0 84 36 9a bd a7 65 aa bd d4 8c f0 3d 5a a9 86 3d
       -0.07529929 -0.0832017 0.11745611 0.0657527
0000b0 2c f1 6c 3b d0 fd 96 3e 22 23 9e be 18 cb 8a 3c
       0.0036154492 0.2949052 -0.3088618 0.016942546
0000c0 4e d2 fc 3e c2 54 cd 3d f8 c6 6f 3e 03 3f 15 3e
       0.493792 0.10025932 0.23415744 0.14574818
0000d0 ff 39 19 3e 69 d2 57 be ea 3f 1a 3e 64 cf 80 be
       0.1496353 -0.21076359 0.15063444 -0.25158226
0000e0 ef 11 fc 3d bb d1 ed 3d 97 4f ca 3e 0f f7 1c 3c
       0.12308108 0.116122685 0.39513847 0.009580388
0000f0 0b 19 55 3e 73 aa 9f 3d 16 9e 12 3e 0a 15 53 3e
       0.20810334 0.077961825 0.14318117 0.20613495
000100 1e e0 58 be 6a 1d ab 3e 95 0d 34 bd 05 4d 68 bd
       -0.21179244 0.3342088 -0.043958265 -0.056714077
000110 74 b5 3c 3d 53 0c 61 3d f0 c1 ad 3e 0a fc 62 3d
       0.046071485 0.054943394 0.33937025 0.055416144
000120 12 fa 8d 3e d9 0d 31 3e cb 29 5b 3d 82 74 c5 3d
       0.2772985 0.17290439 0.053506654 0.09641363
000130 d4 2b d0 3a bf 1a 0e 3d 0e 24 31 3e 97 46 47 3b
       0.0015882202 0.034693476 0.1729891 0.0030407065
000140 97 f2 c7 3c a7 d0 a9 3e 68 c6 35 be e0 47 a2 3d
       0.024407668 0.33167002 -0.17751467 0.07923865
000150 fc 74 93 be 71 b3 65 3e 9b 75 89 be 12 29 97 be
       -0.2880019 0.22431733 -0.26847538 -0.29523522
000160 c6 ad 02 3d 33 6d 01 bc f8 64 81 3e f6 1b f9 3c
       0.031904005 -0.00789957 0.25272346 0.03040884
000170 a5 a3 27 be e7 11 d2 bd e7 59 80 3e 0d ff 5e be
       -0.16371019 -0.10257321 0.2506859 -0.21776982
000180 e2 4b f2 3c b0 d2 1b 3e 6e ba db be 4b f1 6f bd
       0.0295772 0.1521709 -0.42915672 -0.058579724
000190 31 82 90 3e 9b 34 95 be 67 22 60 3d 83 01 82 3e
       0.28224328 -0.29141697 0.05472031 0.25391778
0001a0 23 3a 28 3d bb cf 90 3e f7 60 34 bd 93 e8 b6 bb
       0.04107107 0.28283486 -0.044037785 -0.005581924
0001b0 dc bc 8d 3e 05 66 f9 3c db 95 d1 bd 4e 80 6d be
       0.2768315 0.030444155 -0.10233661 -0.23193476
0001c0 3f 08 95 bd 38 5f 5b be fc ce 13 be ba 0f 55 3e
       -0.072769634 -0.21423042 -0.14434427 0.2080678
0001d0 31 8a 95 3d 95 54 7f bd 10 0b 6a 3e 77 6e 93 3e
       0.073017485 -0.062336523 0.22855783 0.28795215
0001e0 e8 83 31 bd ce 4c fe bd 23 5e cb bd c7 3c 97 3d
       -0.043338686 -0.12416993 -0.099300645 0.07384639
0001f0 f6 0a 2c 3f 6e f3 02 bd fe ae 86 3e 5b eb 96 3e
       0.67204225 -0.031970434 0.26305383 0.29476437
000200 05 4e 2f 3e ac 0f 28 3d c5 0c b8 3c d2 d4 3d bd
       0.17119606 0.04103057 0.022467026 -0.04634554
000210 d9 fc ba 3c ba fd 3a 3d c4 45 41 3e 94 19 6c 3d
       0.022825645 0.04565213 0.1887427 0.05764158
000220 23 e3 b6 bd 28 9a 27 3e d3 76 35 3d 35 43 7b be
       -0.08930042 0.163674 0.044302773 -0.24537356
000230 ea f3 84 3c 3a a0 10 be 7d 25 b8 bd 5a b3 20 bd
       0.016229589 -0.14123622 -0.08991525 -0.039233543
000240 d0 66 83 be f9 2d 79 bd d2 32 02 be f7 aa 85 3e
       -0.25664377 -0.06083486 -0.12714699 0.26106998
000250 9c aa 34 3e 7b 08 af 3e 19 7c 89 3c 72 05 9e 3d
       0.17643207 0.34186158 0.016782807 0.07715882
000260 15 d3 af bd 1e 57 71 bd fc bc 38 be 92 d9 69 be
       -0.085851826 -0.058920972 -0.18040842 -0.22836903
000270 64 25 b2 3e 7b 0b 63 3e a4 2d 40 bc 47 7d 12 3d
       0.34794152 0.22172348 -0.011729632 0.035764005

hidden2event.weight f4 [27, 40]
000000 42 e0 04 bf 52 36 08 3f 9f 5a 12 3f 74 58 f1 be
       -0.5190469 0.53207886 0.57169527 -0.47137797
000010 0f 8d 5b be 68 0c b3 be 1d b6 1e bf 61 0e af 3e
       -0.21440528 -0.34970403 -0.6199663 0.34190658
000020 03 d0 74 be f8 8b 23 be 22 4b 8e 3e b5 f7 42 be
       -0.23907475 -0.15971363 0.27791697 -0.19039805
000030 98 e3 c0 be d3 d0 9f 3f 36 b7 81 be c7 86 db bf
       -0.3767364 1.2485603 -0.2533509 -1.7150506
000040 3d 1b 4e bf dd d8 3a 3d 64 9b 31 bf d7 8a 05 3f
       -0.8051031 0.045616973 -0.6937773 0.5216498
000050 68 04 54 3f 0b 33 03 3f ea 21 f4 3e cb 54 2a bf
       0.82819223 0.5124976 0.47682124 -0.66535634
000060 da 0d f2 3d d1 81 ec be c4 8e 5b be 7f b8 21 bf
       0.11819048 -0.46192792 -0.2144118 -0.63172144
000070 22 fd 09 bf 0f e5 ce be df 44 0b be 76 10 8c be
       -0.53901875 -0.40409133 -0.13600491 -0.2735631
000080 8f 9c 19 bf e0 89 93 3e 29 6c ae 3e 41 69 a8 be
       -0.60004514 0.28816128 0.34066895 -0.32892802
000090 5c 8b 57 3e b7 0a 60 3f cc de c5 3b 90 fe 06 3e
       0.21049255 0.8751635 0.0060385223 0.13183045
0000a0 0c 90 c1 be ce b7 bc be 05 a7 60 3e 26 15 56 bd
       -0.37805212 -0.36858982 0.21938713 -0.052266262
0000b0 6f e3 07 be 7a d0 e2 3e d1 3f dd be 84 04 5d 3e
       -0.13270353 0.4429968 -0.4321275 0.21583754
0000c0 dd 09 82 3c f6 68 45 3e 54 04 c9 3e e2 6f b7 3d
       0.015873844 0.1927832 0.39261115 0.08956887
0000d0 8c 21 15 be 7d c8 29 3f f2 8b 4b be 70 4e d3 bc
       -0.14563578 0.66321546 -0.19877604 -0.025794238
0000e0 cf 97 e5 3d 6b c2 73 be 56 7b 03 bf 0b a6 6a be
       0.11210596 -0.23804633 -0.5136007 -0.22914903
0000f0 db f7 ff 3e cc e0 bd bd 59 28 37 3d 76 a8 64 be
       0.49993786 -0.09271392 0.044716213 -0.22329888
000100 e8 62 08 3f 83 73 30 3e c3 dc ab 3e 94 c2 af be
       0.5327592 0.17231564 0.33566865 -0.3432814
000110 c1 44 7f be 24 0f 87 3d 01 20 ec be 97 0a 33 be
       -0.24928571 0.06594685 -0.46118167 -0.17484508
000120 86 ff 92 3e 52 ee 4d be 09 76 fc be a9 e6 0c 3f
       0.28710574 -0.20110443 -0.49308804 0.5503946
000130 84 c4 d7 be c1 58 57 3e 7f 27 c5 3e 37 96 00 3e
       -0.42142117 0.2102995 0.38506696 0.12557302
000140 85 13 d6 3c 72 c4 7a bd d0 4e 74 3f dc 60 3b bf
       0.026132355 -0.0612225 0.9543276 -0.7319467
000150 2f 04 f6 bc be 89 df 3a eb f4 55 be f9 e6 d9 be
       -0.030031292 0.00170546 -0.2089421 -0.4255903
000160 9c 76 ff bd 72 50 9e 3e e8 42 80 3e 66 08 b4 bd
       -0.12473795 0.3092075 0.25051045 -0.087906644
000170 0b c7 70 bc 27 90 99 3c 15 92 1d bf b9 37 85 bd
       -0.014695893 0.018745495 -0.6155103 -0.06504769
000180 d2 c2 03 3f d9 a5 be 3d f3 b9 87 3e 7c f1 a3 3d
       0.5146915 0.09308977 0.26509055 0.08005044
000190 5f b5 53 3f c6 76 1f bf c6 e6 83 3e a8 11 24 be
       0.82698625 -0.6229061 0.25762004 -0.1602236
0001a0 b8 c9 09 3e 36 45 3a 3d 97 8c 1e 3e f0 9a b5 be
       0.13455856 0.04547616 0.15483318 -0.3546977
0001b0 88 50 82 bd d7 3d aa be 8f 4e 8b be 02 68 b9 be
       -0.06363016 -0.33250305 -0.27208373 -0.36212164
0001c0 13 21 e3 bd d4 30 87 3e 82 b7 02 bf ec 66 dc be
       -0.11090293 0.2640444 -0.5106126 -0.43047273
0001d0 cd 57 6e be c4 50 71 be 66 c0 fd bc e5 92 da 3e
       -0.23275681 -0.23565966 -0.030975532 0.42690197
0001e0 98 d8 3b 3f 1a 4d 5b 3e 34 cb 5e bd b3 2f ad 3e
       0.7337737 0.2141613 -0.05439301 0.33825454
0001f0 53 22 19 3f b5 bd 8b 3e 6a d1 40 be 69 f6 83 be
       0.59818 0.27293172 -0.18829885 -0.25773934
000200 5a f0 22 3e 1b ad b0 be 4e b1 0b 3e 91 33 b5 3e
       0.15912 -0.3450707 0.13641855 0.35390905
000210 74 6f 02 be d7 09 1d 3f e2 6e a2 be f4 1b 76 bc
       -0.12737828 0.6134314 -0.31725222 -0.015021313
000220 3d d5 26 bf c5 50 9c bf 6a c6 c1 be 70 c1 95 bc
       -0.65169126 -1.2212149 -0.3784669 -0.018280715
000230 fd 49 26 3e 2b 43 d6 be 60 1e 52 bf 2a f1 88 3e
       0.16239162 -0.4184812 -0.820776 0.26746494
000240 56 d2 a0 3f a4 fa 9b 3e a2 b1 08 3f 2e 57 a6 3f
       1.256419 0.3046466 0.53396046 1.2995355
000250 73 d5 a5 3e ef c1 60 be 8b 90 b8 3e ca 2e 3b be
       0.3238941 -0.2194898 0.36047778 -0.18279567
000260 05 cd a7 3e 53 19 77 be f0 82 2e bf a5 7d 04 3e
       0.32773605 -0.24130754 -0.68168545 0.12938555
000270 8f d2 2d bf e1 77 93 bf df c9 8d 3e 0c 71 27 3f
       -0.6789941 -1.1520959 0.27693078 0.6540687
000280 71 71 3f 3e f1 5e 25 3d 9e f6 34 bd bb 4a 81 bf
       0.18695618 0.040373746 -0.044180505 -1.0100931
000290 ed 7d a1 be 46 93 3e 3e d1 9e a3 3f fe 2b 13 3d
       -0.31541386 0.18610868 1.2782842 0.035930626
0002a0 c5 ac ce 3e 26 eb aa bf b3 7f 60 bf 51 56 af 3d
       0.40366188 -1.3353012 -0.87694854 0.085613854
0002b0 05 29 cb 3e ac 63 10 bf 37 9a ba 3e 96 8b aa bf
       0.39679733 -0.5640209 0.36445782 -1.3323848
0002c0 5d ed 82 3d ca d5 9e bf 7b 69 6a 3e e9 e5 f8 3e
       0.0639293 -1.2408993 0.228918 0.48612908
0002d0 7e a3 56 be 01 f2 69 3f 05 c6 88 bf 57 8f 0d bf
       -0.20960805 0.91384894 -1.0685431 -0.55296844
0002e0 2b 30 93 3f d7 1d 31 3f 2b 8e 93 bf 1c d7 f2 3e
       1.1499075 0.69186157 -1.1527761 0.4742974
0002f0 90 e0 52 3f 8f 4c 43 3e 31 6c 89 bf 4c 73 d0 bd
       0.82373905 0.19072174 -1.0736142 -0.10178241
000300 0c 84 2e 3e 0d 36 e7 3e a2 56 cd 3e 97 12 28 3f
       0.1704256 0.45158425 0.40105158 0.65653366
000310 93 30 48 bf 8f 0c b1 3e 26 8e b1 bf ce 8d a6 3e
       -0.7819912 0.34579894 -1.3871505 0.32530063
000320 25 29 b1 3f 48 4f 80 bf ae 84 9c 3d a0 60 89 bd
       1.3840681 -1.0024195 0.07642494 -0.06707883
000330 7c e9 ce 3e 81 c6 aa be 61 2f 49 40 cf d2 6d 3e
       0.4041251 -0.3335457 3.1435168 0.23224948
000340 47 24 9e be 6d 15 3f bf 76 8a ce be da 60 84 bf
       -0.30887052 -0.7464207 -0.40340012 -1.0342057
000350 ec 63 af 3e 12 83 ef 3c 5c 1b b2 be 1a 43 74 bf
       0.34255922 0.029237304 -0.347865 -0.9541489
000360 ad 43 bc 3e 32 b2 8c bf a3 11 07 3f a9 57 b6 3e
       0.36770383 -1.0991881 0.52761286 0.35613754
000370 04 08 c8 bf 94 51 05 3f c6 9e 0e bf db cd f6 be
       -1.5627446 0.52077603 -0.5571102 -0.4820393
000380 df 1c 6c bf df 88 49 bf 6d 44 08 bf 3f 73 37 be
       -0.92231554 -0.78724474 -0.5322941 -0.17915057
000390 ba 3e c9 be 22 d2 db be f9 19 b4 3e a4 fc b3 3e
       -0.3930567 -0.42933756 0.35176066 0.35153687
0003a0 c8 33 13 bf 13 2d 20 3f d9 2a 48 3f 7a d8 68 bf
       -0.57500887 0.6256878 0.7819038 -0.9095532
0003b0 7c bf a3 3e d4 cb c4 3e f3 d3 b9 be 5a ec 8f be
       0.31982028 0.3843676 -0.36294517 -0.2811001
0003c0 bd 94 2c 3f bd af cd be ec 52 5b 3f c0 e0 06 bf
       0.67414457 -0.4017314 0.85673404 -0.5268669
0003d0 2c 73 24 bf b0 38 38 be ee 31 ce 3f 4a cd ee 3d
       -0.6423824 -0.17990375 1.6108987 0.116602495
0003e0 6e fa ce 3e 7f a0 b5 bf b6 2d 8e bf 59 0b 00 bf
       0.40425438 -1.4189605 -1.11077 -0.50017315
0003f0 75 a7 03 3f 3d 05 5c be d7 ba 46 be e9 72 41 bf
       0.51427394 -0.21486373 -0.19407211 -0.75565964

hidden2event.bias f4 [27]
000000 11 62 a3 be 0b 33 92 3e fd 07 16 3c 72 21 ad 3e
       -0.31910756 0.28554568 0.009157178 0.3381458
000010 0d 95 7c bd d6 71 17 bf f7 51 b6 be e7 6b 20 bf
       -0.061665583 -0.59158075 -0.3560941 -0.62664646
000020 d6 13 46 3c f2 fc 60 be a5 bc d4 be a5 a1 b6 bd
       0.01208969 -0.21971491 -0.41550174 -0.0891755
000030 73 c3 f5 bc 73 64 1d 3e 0c d3 01 3d d7 bd 54 3e
       -0.030000424 0.1537035 0.03169541 0.20775543
000040 fb 93 a2 bd b2 7a 03 bf 22 87 65 be f0 2c f6 be
       -0.07938381 -0.51359093 -0.2241483 -0.4808116
000050 0f 4f b4 3e 31 7c 2b be 53 a6 a3 bd e7 b0 01 bf
       0.35216567 -0.16746594 -0.07990708 -0.50660557
000060 59 5b 57 3e cf 10 03 bf 37 2b fa be
       0.2103094 -0.5119752 -0.48861095

hidden2time.weight f4 [3, 40]
000000 37 e7 5a bb d5 d2 be 3d d8 30 6d be 5b bc 15 be
       -0.0033401975 0.09317557 -0.23163164 -0.14622633
000010 b9 e1 0d 3e 74 d5 af 3d 60 6c 69 3e 3b 93 b8 bd
       0.13855638 0.08585635 0.22795248 -0.09012457
000020 d5 cc 3f 3e a8 d4 3a bd f0 ab 1a 3d 54 ea 19 3e
       0.18730481 -0.04561296 0.03776163 0.15030795
000030 eb bf 9d bd 45 c2 69 3c 99 b3 0e 3d 6e a9 25 3e
       -0.07702621 0.014267509 0.034839246 0.16177914
000040 aa 92 1d be ec 25 f9 3d f2 08 c6 3d c3 4a 7f be
       -0.15387979 0.12165436 0.09669675 -0.24930863
000050 bc 5f 3e bd 49 07 e7 bd c0 2a a5 bd fd 61 13 3d
       -0.04647802 -0.112806864 -0.080647945 0.03598212
000060 7c f5 67 3e e4 04 10 3d eb 60 6c 3e 68 25 d3 bd
       0.22652239 0.035160914 0.23083846 -0.10309869
000070 a7 d0 4f 3e 29 b9 f4 3b 52 ff c6 3b e5 11 03 be
       0.20294438 0.007468362 0.006072917 -0.12799795
000080 06 c4 eb 3d 3f 07 65 be de 46 5d be 94 07 ba 3c
       0.11511998 -0.22366045 -0.21609065 0.022708692
000090 9c f0 5a 3d 8f 40 11 3c 97 32 a1 3d 5a 32 75 3e
       0.05345212 0.00886549 0.07870977 0.23944989
0000a0 2a fe 78 bd db ed c7 3c 6c ac 03 bd 6a 59 41 bd
       -0.060789265 0.02440541 -0.032146856 -0.047204413
0000b0 b7 10 b0 be 98 9c 11 3b f0 e7 98 be 49 b0 0c be
       -0.34387752 0.0022218581 -0.29864454 -0.13739122
0000c0 8d 0d a7 3d be 66 46 3d 95 5b ce 3d 3f 91 12 3e
       0.081568815 0.048437826 0.10076062 0.1431322
0000d0 d4 9e 3f be 08 1e 1f bb 0e ca dd 3d f4 60 ab be
       -0.18712932 -0.0024279375 0.108295545 -0.33472407
0000e0 96 9c 1a 3c 0c be ed 3d f5 9a 39 be 97 39 e3 ba
       0.009436747 0.11608514 -0.18125518 -0.0017335889
0000f0 d7 45 b9 3d 19 d4 c8 bd 93 62 9a 3d 0e d1 fd 3c
       0.09046524 -0.098060794 0.07538333 0.030983474
000100 c6 48 ef bd 4a ed e8 3d ae d9 db 3c 59 52 dc 3c
       -0.11683802 0.11373384 0.026837196 0.026894735
000110 63 d3 57 3e 35 46 99 3e 48 f8 ce bb aa b9 da bd
       0.21076731 0.29936376 -0.0063162185 -0.10679944
000120 da a2 53 3e c2 3e 2d be 7d 65 00 3e f7 71 4b bd
       0.20667592 -0.16918471 0.12538715 -0.049669232
000130 b0 38 da bd 8d f5 88 bd 07 b9 41 3e 22 7e 3b 3d
       -0.106553435 -0.0668746 0.18918239 0.045774586
000140 2b 08 33 3f f4 2b ab bf 54 00 de 3e 1f c1 13 3f
       0.6993434 -1.3372788 0.43359625 0.57716554
000150 6f be ea 3f 8e 21 14 bf b2 f3 96 40 e0 48 27 3f
       1.8339366 -0.578637 4.717248 0.65345573
000160 81 74 1f bf ea 0c 49 bf c8 74 f5 be d7 16 72 bf
       -0.62287146 -0.7853533 -0.4794066 -0.945661
000170 4a a3 1c 3f f7 8a 44 3f 0f 4a 11 bf 9e 79 ee 3e
       0.6118666 0.76774544 -0.5675363 0.46577162
000180 cc 37 48 3f 23 e7 fe be 49 5a 04 3f b3 7b 1b 3f
       0.7821014 -0.49785718 0.51700264 0.60735625
000190 21 1f 5e bf 45 cb ef 3e e8 9c 34 be 83 d7 3d bf
       -0.8676625 0.4683477 -0.1763798 -0.7415697
0001a0 da e2 91 be 1e 4d 22 bf c6 47 13 bf 26 ff ae 3e
       -0.28493387 -0.6339892 -0.5753139 0.34179038
0001b0 3e d5 0c bf 67 de 82 bf 2f 09 1f 3f 34 b9 d1 3e
       -0.5501288 -1.0224122 0.6212339 0.4096161
0001c0 d6 dc 0c bf c2 65 2f 3f 5d 99 10 3f 54 ff 25 bf
       -0.5502447 0.68514645 0.56484014 -0.64842725
0001d0 5a 3f 49 3e cb ae 84 3f 30 d0 af be ea 40 5b bf
       0.19653073 1.0365843 -0.34338522 -0.85645926

hidden2time.bias f4 [3]
000000 34 59 19 bb 70 1f 9e bb 17 26 d4 be
       -0.0023399116 -0.004825525 -0.4143531
