events_simulation/models/model_20180501-2208.pt (torch_old, 78354 bytes, 9 tensors)

loss_function_events.weight f4 [27]
00000000: 0000 803f 0000 803f 0000 803f 0000 803f
00000010: 0000 803f 0000 803f 0000 803f 0000 803f
00000020: 0000 803f 0000 803f 0000 803f 0000 803f
00000030: 0000 803f 0000 803f 0000 803f 0000 803f
00000040: 0000 803f 0000 803f 0000 803f 0000 803f
00000050: 0000 803f 0000 803f 0000 803f 0000 803f
00000060: 0000 803f 0000 803f 0000 803f
1.0 1.0 1.0 1.0 1.0 1.0 1.0 1.0
1.0 1.0 1.0 1.0 1.0 1.0 1.0 1.0
1.0 1.0 1.0 1.0 1.0 1.0 1.0 1.0
1.0 1.0 1.0

lstm.weight_ih_l0 f4 [160, 70]
00000000: 0208 b23e f4b9 6cbe 9ffa fc3e 6d20 32be
00000010: 1dec da3d 0070 e8bc 6588 8a3e ffef febe
00000020: c113 6fbe e895 92be 79f6 843e e6cb 693e
00000030: 7399 563f e45e 473e 1e5a 02bf 6013 503e
00000040: 7003 c03d 6e01 8d3d fd7f 20bf cb6b cebe
00000050: 89e6 53be d34d 8b3d 5f24 8cbe 8c3d 2ebf
00000060: 8a46 4f3e efb8 1f3e f4a1 9a3f 9dc7 143d
00000070: 38b6 5ebe 1c1d 893f 03f1 803d e9a2 f2bd
00000080: d66d 133c 4128 933d ff3a fbbd 0c03 0cbe
00000090: d0c5 d13d 68ea 20be f57e 50bd cb51 31bd
000000a0: 05c3 fbbd 3eca 1c3e 10f2 28be e03d ffbb
000000b0: 2271 6bbc fd35 15be 5680 41be 01b7 47bd
000000c0: f69e 06be a3c5 a2bd 21bf 17be 402a dfbd
000000d0: ddc8 f4bd b377 94bd 9c6c 5a3e c44a e53d
000000e0: 995d 773d 9919 f73c 8597 afbd c398 49bd
000000f0: 1c27 ef3c 2de6 49be 9eb8 19be c1f6 afbd
00000100: 0f35 05bd 88cd 06bd a041 c33c 60df 9cbc
00000110: 68d0 86bd c8bb 17bd 5619 663e 9c62 883d
00000120: a06e ebbd 4930 a83e 4187 d33d 561e c93d
00000130: 3ca0 8aba 3bb5 ccbd 3a0e 8abe 1892 80bb
00000140: bc2b 58be 5ecc 45bf e5ba b03e 67cb 0d3e
00000150: f9a5 17be c417 183e 1329 65be 6975 073e
00000160: 0102 63be b3c8 12be 2d02 abbd 98b9 d0bc
00000170: 7dcc c5bc ef01 2bbf f552 483e 0b93 15be
00000180: cf3e 433f 04c4 233e d648 afbd 11bd 6c3f
00000190: ce5d 29be 68c0 a73b cacc 59bd f043 a23c
000001a0: ad4a 0cbe 995f f7bc abe6 dc3d 9289 bf3d
000001b0: 83af 673d ed8a 73bc 69a2 8c3c 761e 163e
000001c0: d68f cf3b f762 da3d 515b 82bd 8168 8dbd
000001d0: 4ad1 073c ca4c 153d de52 fb3d 4e26 e23d
000001e0: 13ad 13be 389c a9bc e9d3 bd3d 4455 8ebc
000001f0: bb87 ad3d 1cd6 0a3e 5fc4 253d dc0b b73b
00000200: 7a50 07bd 5250 02bd 4c17 353d 9056 333c
00000210: cacc bb3c ec4c 16be 9146 34bd d59a 8a3d
00000220: 0b46 12be e3ab 3fbd 75ba e83d 8a94 3d3e
00000230: 20e8 733e 014a 223e b09f 883e d775 be3d
00000240: 3ba4 753e 3f48 f6bd 073f 693d 089d 013e
00000250: 08fd 673e acd1 e13d 87ef 863e 2885 3cbd
00000260: 49e8 cf3d d29f 6e3e 6aef 783e 9595 4a3e
00000270: 4ea1 f73c 18c9 f23c b3e5 c63d 7921 463e
00000280: 0c4a b83d 6eaa 093e b113 c43c de85 643e
00000290: 338c 853e aecb 2cbd f091 0d3f 3558 713e
000002a0: 50fc 883e e94d 113f 00e6 303e 6a32 d4bb
000002b0: 032f 233d fb8e 7d3e 5d43 453e 3505 0e3e
000002c0: c74c 843e a97f e23d 0c63 333d 632e c53c
000002d0: 06cc 8a3e ca65 503e 34f9 b33c 8274 973e
000002e0: 0ca2 013e 8808 913e e5e8 883e 3616 103e
000002f0: 5e7e a93d 38ed 5d3d 0b49 063d 8b21 9c3e
00000300: d21a 963e 366c 723e e706 1a3e 8ce5 f43d
00000310: 1ea7 c33d 4cee 173e 76b3 6dbc 3383 873e
00000320: d4c6 573e 764e 5d3e 7684 f23c 8327 813e
00000330: 9063 cb3d 5587 663e 5155 593e 163e 3d3e
00000340: 1fd1 923e b0ff 203e f7ae 8e3d 7964 2fbf
00000350: 625a d0be 7280 7c3e 5789 b3be e030 be3c
00000360: 8664 fbbd 56a9 08be 2ae9 10bf 6e65 35be
00000370: 0122 9e3c b4f3 473e 85fd 6cbe e1f9 8b3e
00000380: a79f fc3d 70c6 383f 2962 6bbe 005a ad3a
00000390: dc02 a73e b392 95be 6244 1cbd a317 9ebe
000003a0: e251 bebd 7215 a73e 229e 72bb 9a70 e33d
000003b0: 3724 e93e 970b 383d 5318 303c 42ff 073f
000003c0: e227 30bd b870 cc3d 9b3a 5f3e 87b6 f1bb
000003d0: cf38 4cbd f7bd 99bd 9e17 07bd 5d01 713e
000003e0: 648d 183e 85d4 8d3d 0b14 00be 15b8 f93c
000003f0: e0b2 be3d ea06 163e b159 6d3c 72e7 653d
0.34771734 -0.2311781 0.4940996 -0.17395182 0.10689566 -0.028373718 0.27057186 -0.49792477
-0.2334738 -0.28629994 0.25969294 0.22831687 0.83827895 0.19469792 -0.5091876 0.20319891
0.09375656 0.06885038 -0.62695295 -0.40316615 -0.20693411 0.06801953 -0.273715 -0.68062663
0.20241752 0.1559789 1.2080674 0.03632318 -0.21749198 1.0712008 0.06295969 -0.11847479
0.008998355 0.07185412 -0.12267112 -0.13673037 0.10242808 -0.15714419 -0.050902326 -0.043290894
-0.122930564 0.15311524 -0.1649859 -0.0077893585 -0.014370235 -0.14571376 -0.18896613 -0.04875851
-0.13146576 -0.079478525 -0.14819004 -0.108967304 -0.11952374 -0.07249393 0.21330494 0.11195901
0.060391996 0.030163573 -0.08573822 -0.04921795 0.029193453 -0.19716711 -0.15011832 -0.085919864
-0.032521304 -0.032910854 0.023835003 -0.019149482 -0.06582719 -0.037044317 0.22470602 0.06659433
-0.114957094 0.3284934 0.10328532 0.09820239 -0.0010576318 -0.099955045 -0.2696398 -0.0039236657
-0.21110433 -0.77264965 0.3451759 0.13847123 -0.14809407 0.14852816 -0.2237895 0.13228382
-0.22168733 -0.14334373 -0.08350024 -0.025479123 -0.02414536 -0.66799825 0.19562896 -0.14606874
0.76267713 0.15992743 -0.08558814 0.9247599 -0.1653969 0.005119372 -0.053173818 0.019807786
-0.13700362 -0.030196952 0.10786184 0.09352411 0.056563865 -0.014864665 0.017167287 0.14660057
0.0063342853 0.10663407 -0.063650735 -0.06904698 0.0082896445 0.036450185 0.12271665 0.11042462
-0.14421491 -0.020704374 0.09268934 -0.017374642 0.08473154 0.13558239 0.040470477 0.0055861305
-0.033035733 -0.03181488 0.04421167 0.010945931 0.0229248 -0.14677781 -0.04401261 0.06767813
-0.14284532 -0.046794783 0.11363689 0.18513694 0.23819017 0.15848543 0.26684332 0.0929982
0.2398843 -0.120254986 0.056944873 0.12657559 0.22655118 0.1102632 0.2635462 -0.046025425
0.10151727 0.23303154 0.24310079 0.19783624 0.030228283 0.029636905 0.097117804 0.19348706
0.08998498 0.1344392 0.02393517 0.22316691 0.26083526 -0.04218643 0.5530081 0.23568805
0.26755 0.56759506 0.17275238 -0.0064757364 0.039839756 0.24761574 0.19263978 0.13869174
0.25839826 0.110595055 0.04379563 0.02406997 0.27108783 0.2035133 0.021969415 0.29581076
0.12659472 0.2832682 0.26740184 0.14070973 0.08276056 0.054181308 0.032784503 0.3049434
0.29317337 0.23674092 0.15041696 0.11957845 0.095533594 0.14836997 -0.014508119 0.26467285
0.2107194 0.21611962 0.029604178 0.25225458 0.099310994 0.22512563 0.21223952 0.18480715
0.28675172 0.15722537 0.06966966 -0.68512684 -0.40693957 0.24658373 -0.3506572 0.023216665
-0.12275033 -0.13345847 -0.5660578 -0.17714474 0.019303324 0.19526559 -0.23143585 0.2733908
0.12335139 0.7217779 -0.22986664 0.0013225675 0.3261937 -0.29213485 -0.038151152 -0.30877408
-0.09292962 0.3263355 -0.0037020524 0.111054614 0.45535442 0.044932928 0.010747987 0.5312387
-0.043006785 0.09982437 0.217997 -0.0073764953 -0.049858864 -0.07506936 -0.032981507 0.23535676
0.14897686 0.069253005 -0.12507646 0.030483285 0.093114614 0.14651075 0.014486716 0.056128927

lstm.weight_hh_l0 f4 [160, 40]
00000000: 465a 91be a9ad b23c 07c1 8cbd 5103 703d
00000010: dbad 98bd dfde c2bd f164 93bc 829d 77bd
00000020: 2509 3e3e 2e31 9d3d 5955 08be b891 39be
00000030: 9d24 003e c5bf 08be fd64 8ebc e6fa f5bc
00000040: ce65 74bd d622 223f a87d 873e 111b 7cbc
00000050: 4086 113e 715e 143e 22f1 a8bc 3fd0 b93e
00000060: 5d2b 00be 4eda e83d 0c92 e03d e01b 8f3d
00000070: f0b1 ce3d 85a4 9bbd 3e08 d03d f598 423d
00000080: 83c4 5e3e 1960 2e3d 9bbe 113d 58f6 08bd
00000090: d00f 39bd eba2 0b3c 1a44 7ebd 6607 333e
000000a0: 456f f4bd cfc4 c93c 61f8 c63d 00a2 f93d
000000b0: 85d3 ff3b a6f8 2ebe 38b6 943d 6540 66bd
000000c0: fe3e 283e 9f90 e7bd 3b0a 383b cfaf 2e3e
000000d0: db11 89bd b35c 02be 216a 093e 1785 18be
000000e0: 7af2 263e 0469 6c3e 03ea 943d 56ef b9bd
000000f0: 763a 5d3d 1d33 523e d6ee 0a3d 8473 1cbe
00000100: 0f21 ccbc 7054 5b3d 1922 a1bc 8555 c83d
00000110: 9fb9 d6bd ef22 883d 8014 8c3d 0dae b6bd
00000120: 1fbe 403e cc79 dc3d 5ae8 5f3c 6071 a4bc
00000130: 9891 87bd ea13 2f3e 4b15 bc3d c311 613e
00000140: bc10 aabc 6373 c33b 44ad 613e 1279 b5bc
00000150: 7148 173e c39d 343d d515 033e a31c 8e3e
00000160: b182 a33c 3f8c 063d 52da 903e ed89 9f3d
00000170: 2b0f 79be aba9 3b3e 8ea7 8cbd 18e3 383e
00000180: c945 a3bc 18cd 383e 57d8 513e c727 b73d
00000190: 1eb6 7f3e db8b 973d df8e 093e c941 d23e
000001a0: a298 443e 11e5 6e3e 66cd 823c 9139 343e
000001b0: 9267 6fbb dd37 dc3d 1ebf dd3d 1ae3 603e
000001c0: d69c 55be 4459 e13d 857a c93d 5014 bc3d
000001d0: 58eb 61be c512 ddbd ea0e 63be b987 463e
000001e0: 68e5 8cbd e72d a9bd f851 f9bd 187c abbd
000001f0: d0ae 743d 5026 143b 88be cfbd 03e1 113e
00000200: ea25 f1bc ae48 dcbd 827d 8d3c 9d4b 213d
00000210: 63bf 20be 41e3 87bb 2bb1 f6bd 7f31 31bd
00000220: 474e fabc 3ac9 e8bd 96a5 f63d c2c4 413d
00000230: f164 863e d608 f4bd b171 d53e 376b 6c3d
00000240: d4a0 943d fe74 213e 4b0e 013d f2ec a23d
00000250: cc0b 34be 908e dabc 3b1e 3d3e f127 48bd
00000260: 3be6 38bc bd24 73bd 6be0 13be 82b5 aebd
00000270: 760d fabd d5d5 023e ad6d 4bbd cb45 603e
00000280: 73aa 883e 32ab 58be f515 76bd 76ca 86be
00000290: c9d9 8cbe b646 aebe 0d1c 4a3d faf4 4cbd
000002a0: 6617 7a3e 1bc3 3e3d a152 36be c800 26be
000002b0: 7fda b53e cd53 47be 611a e03c 3f74 6bbe
000002c0: 105e a43d 459e 763d 71ec 86be bc09 0b3d
000002d0: a583 0c3e 2301 453e 1d6b f3bc b2d1 e33d
000002e0: 9eda 82be ea4a 38be 9b1f 923e 8862 6dbe
000002f0: e986 0d3e bb31 f63c 725e 243e c666 ea3c
00000300: 0d99 b43d bd3a d4be 5c1e a8be 030c 45bd
00000310: 3ca6 cf3c 4535 453e d3ed 8e3e b84f 86be
00000320: 3cd5 babd 0b42 7dbd 60ff 22bd 122b 973d
00000330: 3c64 5c3d bcb4 4bbd 3da3 8f3d 6015 f8bd
00000340: dfe9 c43d 952f 50be 5524 2d3e 1710 44be
00000350: bd46 1f3d 4d31 a1bd 6ca6 85bd e49f 3f3e
00000360: caa3 ef3d 2b0c 3a3d 57c3 bc3d 862a 00be
00000370: 7d23 823e 9631 923d 0df8 ce3d 8abc 833d
00000380: 4e96 fb3d 32f6 713e 55fd dcbd d16e 543e
00000390: 14a3 0cbd 9c6b c5bd e0e1 293e 49ae 593e
000003a0: 25b9 0d3e 1964 b83c 4aef 13be 3f32 c23d
000003b0: 67f9 c3bd ce8c 0bbe 8d5a 14be 3e07 733c
000003c0: ab5b f53d 5355 14bd 604e d03d bd91 ca3d
000003d0: 56fe 273e 8e8a 983e 5d8c 20be 4303 553d
000003e0: e3c5 f73b 4a05 ebbc 0a76 4cbe 3058 8a3d
000003f0: 7976 2abd aef8 fabd 1532 1fbe 99a2 903d
-0.28389186 0.021811323 -0.068727545 0.058596913 -0.07455035 -0.095151655 -0.017992469 -0.060452946
0.18558176 0.07675396 -0.13313808 -0.18121994 0.12513967 -0.13354404 -0.01738214 -0.030026864
-0.0596674 0.63334405 0.26463056 -0.0153873125 0.14211369 0.14489152 -0.020622794 0.36291692
-0.12516542 0.11369763 0.10965356 0.069877386 0.10092533 -0.07599739 0.10157822 0.047509152
0.21754651 0.042572115 0.035582166 -0.033438057 -0.045181096 0.008522729 -0.062076665 0.17483291
-0.119352855 0.024629978 0.09715343 0.12189102 0.0078071975 -0.1708704 0.07261318 -0.056213755
0.1643028 -0.11306881 0.002808227 0.17059253 -0.06692859 -0.12730674 0.13419391 -0.1489452
0.16303435 0.23086935 0.07271197 -0.09078853 0.05401083 0.2052731 0.033919178 -0.1527844
-0.024918107 0.053547323 -0.01966958 0.097819366 -0.10484623 0.06647288 0.068398476 -0.08919916
0.18822525 0.107654184 0.013666237 -0.020073593 -0.06619567 0.1709744 0.09183749 0.21979432
-0.020759933 0.005964683 0.22038752 -0.022152457 0.14773728 0.044095766 0.12801297 0.27756223
0.01995978 0.032848593 0.28291565 0.07789979 -0.24322192 0.18326442 -0.06867896 0.1805538
-0.019930737 0.18046987 0.20492683 0.08943134 0.24971816 0.07399722 0.13433407 0.41065815
0.1919885 0.2332957 0.015967082 0.17600085 -0.0036530239 0.107528426 0.10827468 0.21961632
-0.2086061 0.11003354 0.09837822 0.09183562 -0.22062433 -0.10794596 -0.22173658 0.19387712
-0.06879693 -0.08260708 -0.121738374 -0.083732784 0.059737027 0.0022605844 -0.10143763 0.14245991
-0.029437024 -0.1075605 0.01727176 0.03937875 -0.15698008 -0.004146964 -0.12045511 -0.043260094
-0.030554904 -0.11366506 0.12043302 0.047306783 0.26248887 -0.11915748 0.41688302 0.057719436
0.07257238 0.15767285 0.03150777 0.0795535 -0.17582625 -0.026679307 0.18468563 -0.048866216
-0.01128536 -0.05936121 -0.14441077 -0.085307136 -0.12209599 0.12776883 -0.04966514 0.21901624
0.26692542 -0.21159056 -0.060079534 -0.2632634 -0.27509907 -0.34038323 0.049343158 -0.050038315
0.24422988 0.046572786 -0.17804958 -0.16211236 0.35518262 -0.19465561 0.027356328 -0.22993563
0.080257535 0.06020953 -0.26352265 0.03394483 0.13722093 0.19238715 -0.029714162 0.111239806
-0.25557417 -0.17997327 0.28539738 -0.23182118 0.13820995 0.03005301 0.16051653 0.02861346
0.088182546 -0.41451064 -0.32835662 -0.04810716 0.025347821 0.19258602 0.2791582 -0.26232696
-0.091227025 -0.06183056 -0.039794326 0.07381262 0.05380653 -0.04973291 0.07013557 -0.12113452
0.0961492 -0.20330651 0.16908391 -0.19146763 0.03888582 -0.078707315 -0.06525883 0.18713337
0.11701162 0.04542176 0.092169456 -0.12516221 0.254177 0.07138364 0.10105906 0.06432445
0.12284528 0.23629072 -0.10790507 0.20745398 -0.03433521 -0.096396655 0.1659007 0.21257891
0.13840158 0.022508668 -0.1444675 0.0948224 -0.09569054 -0.13627931 -0.14487667 0.01483327
0.11980375 -0.036214184 0.10171199 0.098910786 0.16405615 0.2979321 -0.15678544 0.052005064
0.0075614317 -0.028689045 -0.19966903 0.06755102 -0.04161689 -0.12254463 -0.15546449 0.07062263

lstm.bias_ih_l0 f4 [160]
00000000: fbee 14be 5738 ee3c 5956 603e fdcd 13bd
00000010: dc2b 543b 36bf d03d 2f97 a6bb 7917 093e
00000020: 9a6a 7ebd cb28 523e f6a5 773d 0dd6 803e
00000030: 3e26 173d 315d f73c 01ff aa3d fa21 a13d
00000040: be84 593e 5c47 ef3d 9828 aabd 4ae6 c33d
00000050: ae9c 09bd f292 e43d 6ab2 0c3e e62b 653e
00000060: 6c27 373d 8ab2 213e a02b a6bb fbdf 853e
00000070: 06a3 51bd 6398 88bd 9c4b 453d 23fb a93d
00000080: ab05 2d3d 4fa6 0d3d 788d fcbd 2578 75bd
00000090: 22e1 3a3c dfac 093e db2f 403d ba42 453e
000000a0: 6bd9 3cbe 6ef8 fb3d e7e8 8f3e f3fe f1bd
000000b0: bc23 033d 38bc 5b3d 05eb 1ebe d232 3bbd
000000c0: b5a7 7ebd 35df ff3d ba65 05bd 40be db3c
000000d0: 9190 80bc 927a 803c 5e78 393e 5c4a bd3d
000000e0: aed2 a03d dde1 cf3d e7a0 9dbd 8e63 3cbe
000000f0: d2bc e73c 0028 373d 9d55 a23d 56d7 db3d
00000100: cbda 94bc 1502 df3d 1bb8 c83d 0e9a 843d
00000110: ab19 24be 07ed 5dbe 0c9c 5ebe 2f27 b4bd
00000120: ad3e af3b b9d1 24be b27c 92bd 3558 1b3e
00000130: c383 233e 9b5f 073e 3476 173c 0437 eebd
00000140: 6c74 a33b 86dc 103e 4171 8a3e 6dd1 323c
00000150: 516c 32bd 6efa a1bb a3c6 0f3e 8e40 b1bc
00000160: ec1f 5d3b c2f6 2abe 70fe 593e 6a25 93bd
00000170: 3356 4ebd 15eb 523e 1e71 c7bd ab4e 333e
00000180: 9113 3bbe cdff f13c 5cf4 e93c 5613 843d
00000190: 5e96 a539 08f1 d03d 88ff 02ba 9c57 d6bd
000001a0: 486a 63bd 4097 e03c 9354 57be 43d5 613e
000001b0: 7cff 12be 04e0 85bd c596 e3bd 0f41 b0bd
000001c0: 0f54 0abe 281a 143d 9398 d5bd f556 583e
000001d0: e83c 37be 2a2c 6fbe 2aa3 143d 5173 04be
000001e0: e423 db3d f833 7dbb 3648 a63e dcb2 f6bd
000001f0: ca82 1c3e 5155 7a3d c7ee bf3d 9dfe 0dbe
00000200: 5dc6 203e 5452 d23d f4cc f73d 948d 893e
00000210: c06d 5abb 379f a53c 62a2 11bc 5f03 61bd
00000220: cdcb f6bd 7260 3c3d 5a24 523d 1985 cebd
00000230: d2da 3b3e be20 18bd 66b1 f6bc 63f7 383d
00000240: 12f4 cf3d 6a0f 803d 08fe b9bd a8bf 993e
00000250: c563 943d 5bf0 c53d c398 33be 709a a13b
00000260: 1b1f 57bd 8647 d63c 4b00 373d b78a 81bc
00000270: 614b ec3d da78 503d 90e2 dbbd a412 703e
-0.14544289 0.0290796 0.21907939 -0.036085118 0.0032374775 0.101927206 -0.0050839405 0.1338786
-0.062113382 0.20523374 0.060461007 0.25163308 0.036901705 0.030195804 0.083494194 0.07867809
0.21242043 0.116835326 -0.08308524 0.095654085 -0.033596687 0.1116084 0.13739935 0.22380027
0.04471533 0.15790763 -0.0050711185 0.26147446 -0.051180862 -0.066696905 0.04816781 0.08299854
0.042241734 0.034582432 -0.123316705 -0.059929032 0.011406215 0.13444851 0.04692064 0.19263735
-0.18442313 0.123032436 0.28107378 -0.11816206 0.0320165 0.053646296 -0.1551934 -0.045702763
-0.062171657 0.12493745 -0.032567717 0.026824117 -0.015693935 0.015683446 0.18112323 0.092426986
0.07852684 0.10150502 -0.07696705 -0.18397352 0.028288279 0.04471588 0.07926486 0.107344314
-0.018170735 0.10889069 0.0980074 0.06474696 -0.16025417 -0.2167245 -0.21739215 -0.08796536
0.0053480477 -0.16095628 -0.0715269 0.15170367 0.15968232 0.13220064 0.00924449 -0.11631587
0.004988244 0.14146623 0.2703953 0.010914189 -0.04356033 -0.0049431836 0.14040618 -0.021637227
0.003374095 -0.16695693 0.21288466 -0.071848705 -0.050375175 0.20597489 -0.09738372 0.17510478
-0.18269183 0.02954092 0.028558902 0.064490005 0.00031583285 0.10202223 -0.00049971836 -0.10465929
-0.05552128 0.027415872 -0.21028356 0.22054009 -0.14355272 -0.06536868 -0.111127414 -0.08606159
-0.13508628 0.036157757 -0.10429492 0.21126921 -0.17894328 -0.23356691 0.036288418 -0.12934615
0.10700205 -0.0038635712 0.32476968 -0.120458335 0.15284267 0.06111652 0.09371715 -0.13866659
0.1570067 0.10269609 0.120996386 0.26865828 -0.0033329576 0.020217521 -0.008888813 -0.054934856
-0.12050591 0.045990415 0.0513042 -0.1008398 0.18345192 -0.0371406 -0.030113887 0.0451578
0.101539746 0.0625294 -0.09081656 0.30029035 0.07245592 0.09664985 -0.17538743 0.0049317405
-0.0525199 0.026157152 0.044678014 -0.015813215 0.11537815 0.050896503 -0.10736573 0.23444611

lstm.bias_hh_l0 f4 [160]
00000000: 619c a23d 7bbd aebd b662 3a3d ebc5 e9bd
00000010: 3246 24be 13da 973c ff3f c93c 2095 363e
00000020: 9272 9dbd 368a 573e abe0 a63d edf2 253d
00000030: e864 71bd 3cc3 32bd ecda c53c af77 9abc
00000040: f9b9 1e3e 4f12 df3d e2e1 e9bd 06f0 efbc
00000050: 48e2 3e3e e7f7 03be d8b5 fd3d 2c2f ae3e
00000060: b1dd 263e 179a bdbd c814 1e3e 38d5 4f3d
00000070: 3411 afbd 68a5 ccbd 74b5 6bbd d23e b03d
00000080: 5e22 ff3c 512d 273d 1526 b53c 4a83 a33d
00000090: c026 51bd 4d6c 023e 8046 253e 46c2 733e
000000a0: f91e 923d c6b0 01be 86c8 923e 0553 003d
000000b0: f961 833d 3e5d 69bd d3bb a53d 653e 323e
000000c0: 22b7 a6bd d247 87bd 5d81 223d 643c 143d
000000d0: e25b 133e ada2 19be 9f1e 77bc 5701 18bd
000000e0: 40cd 4dbd 6833 253d b013 a6bc 1ec4 f1bd
000000f0: bee5 e8bd 7962 a2ba 4108 b73d 42ee d13d
00000100: 28e0 c43d f8dd 6a3d bb36 91bd d998 c63d
00000110: 50b4 6fbd 7818 73bd 6cdc 5dbe b4d6 2dbe
00000120: da4f 57bd bd7f b0bb 9360 1cbe 4189 ad3d
00000130: 7e93 abbc f39d 633e 6f3f e2bd 8faa fabc
00000140: c81e 42be 3d3e bebd d839 7c3e ed10 6cbd
00000150: 9c26 a6bd 6d89 d23d a715 0cbe 5197 20bd
00000160: b5d4 f43c d923 37be a794 cd3c f614 193e
00000170: 432a 2ebe 63e1 633d df35 3abe 7b76 b33d
00000180: 7616 73bd 931d 1f3e 1845 0cbd 9e74 d5bd
00000190: c678 653e e377 07be aac1 e03d f23f 2c3e
000001a0: 4d30 9d3c 64ed 573e c538 21be bfee 803e
000001b0: 0bfc f73c 6695 d23d 69e1 e2bd 0ff8 913d
000001c0: f103 d13c 4a96 b43c d024 033a 091a 763e
000001d0: 855d 3ebd cb59 04be f13a 69bc d7d6 833d
000001e0: e736 21be c715 2fbe 6b5c c33d 90d5 273e
000001f0: 58cf f33d bcb4 09bd c4be 8bbc 2a50 9f3d
00000200: a9cb 00be c71a 7c3c a2de 213e cdef 8d3e
00000210: 752b 06bd e31c 223e 63d2 e2bb 1d41 92bd
00000220: d4eb e33c 8b8a 743e b4d2 03be e806 b23c
00000230: 9094 c03d caa4 4abd 1a51 133e 68e7 4e3e
00000240: 4691 93bd af4e 113d 90d3 abbd f502 613e
00000250: 419e 393d 6a9f 2d3e 2558 61be 5174 7fbd
00000260: a31d 103b 5ac6 303e a618 1a3e 352f ff3d
00000270: b4e8 3639 8ac9 f73d ea93 ba3d be81 773e
0.07939983 -0.08532234 0.045504294 -0.11414703 -0.16042402 0.018536603 0.024566649 0.17830324
-0.07687868 0.21048817 0.08148321 0.040514875 -0.058934122 -0.04364322 0.024152242 -0.018855898
0.1550063 0.10892164 -0.11420037 -0.029289257 0.18641007 -0.12887536 0.123881996 0.34020364
0.16295506 -0.09257906 0.15437615 0.05074045 -0.08548203 -0.09992486 -0.057546094 0.08605732
0.031144317 0.0408147 0.022112885 0.07984026 -0.051062346 0.12736626 0.16140175 0.23804578
0.07134814 -0.1266509 0.28668612 0.031329174 0.06415171 -0.05697369 0.08092465 0.17406614
-0.081403986 -0.066054955 0.03967415 0.036190405 0.1439052 -0.15003462 -0.015082984 -0.037110653
-0.05024457 0.040332228 -0.02027306 -0.118049845 -0.11371945 -0.0012388966 0.08937121 0.10250522
0.09613067 0.057340592 -0.07090517 0.09697122 -0.05852157 -0.059349507 -0.21666116 -0.16976434
-0.052566387 -0.0053863213 -0.15271215 0.08473445 -0.020944353 0.22228222 -0.11047255 -0.030598907
-0.18957055 -0.09289215 0.2463144 -0.05763333 -0.08112833 0.10280118 -0.13680135 -0.039206807
0.029886583 -0.17884769 0.025095297 0.14949402 -0.17008309 0.055634867 -0.18184613 0.08762833
-0.059347592 0.15538625 -0.03424558 -0.104226336 0.22409353 -0.13229327 0.109744385 0.16821268
0.01918807 0.21086651 -0.15744312 0.2518215 0.03027155 0.10282402 -0.1107815 0.071273915
0.025514575 0.02204432 0.0005002739 0.24033369 -0.046475906 -0.12924878 -0.014235244 0.06437462
-0.157436 -0.17098151 0.09539112 0.16390061 0.11904782 -0.033619627 -0.017058738 0.07778962
-0.1257769 0.015387244 0.15807584 0.27722016 -0.032756288 0.15831332 -0.0069220527 -0.071413256
0.027822413 0.23880975 -0.12873346 0.021731809 0.09403336 -0.04947356 0.14386407 0.20205462
-0.07205443 0.03547543 -0.08389962 0.21973784 0.04531694 0.16955343 -0.2200628 -0.062366787
0.002199032 0.17263165 0.15048465 0.12460176 0.00017443561 0.120989874 0.091102436 0.24170586

hidden2event.weight f4 [27, 40]
00000000: 2e6f ab3c ce04 91be 0bdd 3ebc afcf 9fbe
00000010: 409f 48be d6e6 98bd 48a9 99bd c34e 06be
00000020: 7dc0 2dbe b092 3abd 4eda 143d 6e17 213f
00000030: 1982 ccbd 7841 30bd cc0e a53d fc7a 193c
00000040: 9302 503d 1910 edbe c183 80bd f6f4 983e
00000050: 2b09 e6bc ed82 923e 64b4 f0be c553 f93e
00000060: ab4d 21be d19b 623d 7051 debd 7620 82be
00000070: f458 153e d209 4dbd 5a48 8b3d 12c7 2ebb
00000080: e8b7 353e f166 10bf 55ac 6dbe 2b90 a53d
00000090: 3338 e83c 07be 1cbe 0714 1f3e f344 4dbe
000000a0: 2d59 54bd 5392 533d 9890 4f3e 1bf1 a8be
000000b0: 7722 b8bc 3621 7f3e fcc0 d73d 12a0 4b3e
000000c0: 366a 90be c9e7 5abe 2995 6abd c186 d43e
000000d0: f318 ca3d ebb1 a63d 8d38 a13d ebc3 22be
000000e0: f282 a5be 8b0e 86be 8ec0 793d 6c81 ab3d
000000f0: 46a0 a23d aed4 28be a7f6 ce3e c423 533f
00000100: a5a8 80b9 a33c a9bd 908c 5cbe a763 4f3e
00000110: dd11 45bd 67b6 423f 3d54 61be 174b d4be
00000120: 8332 673c 2261 eebe 655c 34be eb4a 09bd
00000130: 56fe 0f3d 999e 27be 3a81 99bd 65e8 51bd
00000140: 280f 8f3e 960a 473d 222c 5e3b 4e5b 15bf
00000150: c0ef a33e d6da 493e 06c7 c23e 194c d13e
00000160: a5a7 60be 976e 203c cfe7 b2bd 271a 0b3f
00000170: fc51 003e 3ac8 17be 415d 4ebe ab2d 9b3d
00000180: e6ae 09bd c40c 40bf 5885 d339 4c1a ce3e
00000190: 3318 48bd 48ca a8be 5d48 3f3f ec8c 3d3f
000001a0: bbae d6bd 2a63 12bd c169 01bd d897 adbc
000001b0: 813d 3ebe ad08 c6be e8fc 193b e3e0 983d
000001c0: 80db be3e aeb6 86bd 656d 593d 6123 f63d
000001d0: 457f 0a3e 0817 a6bd 6442 b03e b3a0 f23e
000001e0: 5495 26be 48b5 41bc 8ebc aebb 3334 8cbe
000001f0: 59e5 ad3e 37b8 1a3f 93c8 793e bec9 df3c
00000200: 9a93 113e 39a1 6abe 21c4 ae3c c205 19be
00000210: d0a8 5638 f1b8 1f3f e3eb 063c 9c36 dd3e
00000220: 456b 383e ac41 88bf f27d bf3e ac9b 873f
00000230: 3b9d 29bd dfdc 13bf 46bb 31bf 7534 14bf
00000240: f76f d1bc e604 c03d b1ed e5be ed2e 4b3e
00000250: 678d a3bb f7c6 8bbe 2148 cabd 1d26 07bf
00000260: 9504 50bf a036 903e f1c9 153f c93e 043c
00000270: 9b2d 0dbe a316 a7bd 9ee1 6e3e 73dc 21bf
00000280: d6b7 153e f15a f9bd dcf1 043e 5ee0 5a3e
00000290: f983 3bbf 9c30 3ebf dbea 75be b67e 443e
000002a0: f85e 1fbe 689f 89be 58ca 173e 5952 04bf
000002b0: f2f7 803e 8af6 c43d 9f58 5e3e b0f3 a43d
000002c0: 94e6 a8bc 5a99 c33e 2230 95be e56a 2abf
000002d0: ba86 473e 82ce 09bc e5ec e1be 7a5c 94bf
000002e0: b194 70be 81b0 4cbe f63c be3d 2c85 fbbd
000002f0: 247f 07bd a296 8dbf a8a8 1e3e 745f 43bf
00000300: b70c 623e 73f0 b33e 55a7 0dbd 3240 6fbe
00000310: ee15 6fbe 59a9 10be 953f 6e3e 126a e7be
00000320: 0ad3 85bd 47bc 9ebe 7e40 4bbe fe28 fabe
00000330: bf74 913d 7ae1 53be dcdc 86be 244a cebe
00000340: dc05 d23e 3067 7c3e 6036 e3be 1d52 8dbd
00000350: d5d9 3b3e 2d27 b3be a3e6 cf3e 7039 d3be
00000360: 5757 b73e 0d08 4ebd c235 8bbd dddf a1be
00000370: b9a2 16bf d090 e93e dc27 56be 31af abbe
00000380: abb4 a8be 3106 a1be 95ce df3e 18c9 cfbe
00000390: 8753 5d3e 494c 483e d441 6e3e 46d2 16be
000003a0: 162e 073e 3d00 68be 71a6 32be 8894 c1be
000003b0: def3 b13e f9ce f03e e8fd c53e 53d7 5abe
000003c0: db98 223e 6d39 22be c1a5 4abe 389c 35be
000003d0: 95e1 2abe 2925 11be f74f febd 83e5 28be
000003e0: 81f9 6f3e 33e0 8e3e b2ff e9bd 48ba ffbd
000003f0: d8de c43e ad94 49be 4edc c43e 209d 81be
0.020927038 -0.28323978 -0.01164938 -0.31213138 -0.19591999 -0.074659035 -0.07502991 -0.13115983
-0.1696796 -0.04555005 0.036341004 0.62926376 -0.09985752 -0.043031186 0.08059463 0.009367701
0.050783705 -0.46301344 -0.0627513 0.2987439 -0.028080544 0.28615513 -0.47012627 0.48696724
-0.15752284 0.05532438 -0.10855377 -0.2541539 0.14584714 -0.050058194 0.06800909 -0.0026668948
0.17745936 -0.56407076 -0.2321027 0.080841385 0.02834711 -0.15306865 0.15534984 -0.20045833
-0.051842857 0.051653218 0.20270002 -0.3299645 -0.022477372 0.24915013 0.10534856 0.1988528
-0.28206033 -0.21377482 -0.057271156 0.4150906 0.0986804 0.08139404 0.07872114 -0.1589505
-0.32326466 -0.2618297 0.06097465 0.08374295 0.07940726 -0.16487381 0.40422556 0.8247645
-0.00024539712 -0.08263519 -0.21537995 0.20252858 -0.04811274 0.76059574 -0.2200479 -0.4146354
0.014111164 -0.4655848 -0.1761337 -0.033518713 0.035154663 -0.16369094 -0.07495351 -0.05124702
0.2794125 0.04859408 0.0033900817 -0.58342445 0.32018852 0.19712386 0.38042468 0.4087837
-0.21938951 0.009791992 -0.0873562 0.5433678 0.12531275 -0.14822474 -0.20152761 0.0757707
-0.03361406 -0.7501948 0.00040344405 0.40254438 -0.048851203 -0.32966828 0.7471979 0.74043155
-0.10482546 -0.0357391 -0.031594995 -0.021190569 -0.1857815 -0.38678494 0.002349669 0.07464769
0.3727684 -0.06577812 0.053082842 0.12018467 0.13525112 -0.081098616 0.34425652 0.4738823
-0.16267902 -0.011823006 -0.005332536 -0.27383575 0.3396404 0.6043734 0.24392919 0.027317878
0.14216462 -0.22913064 0.021333756 -0.14943603 5.1178795e-05 0.62391573 0.008234951 0.43205726
0.1800967 -1.0645041 0.37400776 1.0594382 -0.041409712 -0.577589 -0.6942638 -0.57892543
-0.025566084 0.09375934 -0.44907907 0.1984212 -0.0049912217 -0.27300236 -0.09877039 -0.5279253
-0.8125699 0.28166676 0.58511263 0.00807161 -0.13786928 -0.081586145 0.23328254 -0.63227004
0.14620909 -0.12175549 0.12982887 0.21374652 -0.7324825 -0.7429292 -0.24015372 0.19188961
-0.15563571 -0.2687943 0.14823282 -0.5168815 0.25189167 0.09617336 0.21713494 0.08054292
-0.02061776 0.38202935 -0.29138285 -0.6656936 0.19484988 -0.008411052 -0.4412605 -1.1590722
-0.23494221 -0.19989206 0.09288971 -0.1228126 -0.033080235 -1.1061594 0.15494025 -0.76317525
0.22075163 0.35144386 -0.03458341 -0.23364332 -0.2334821 -0.14127101 0.23266442 -0.45198113
-0.06534393 -0.3100302 -0.1984882 -0.488594 0.07102346 -0.20691481 -0.26340377 -0.4029094
0.41020095 0.24648738 -0.44377422 -0.069004275 0.18344815 -0.34990826 0.4060565 -0.4125476
0.35808823 -0.050300647 -0.06797363 -0.31616107 -0.58842045 0.45618296 -0.20913643 -0.33532098
-0.3295034 -0.31450036 0.43712297 -0.4058311 0.21613894 0.1956035 0.23267299 -0.1472865
0.13201174 -0.22656341 -0.17446305 -0.37808633 0.34756368 0.47032908 0.38670278 -0.21371202
0.15878622 -0.15842219 -0.19789793 -0.17735374 -0.16687615 -0.14174332 -0.12417596 -0.16493802
0.23435022 0.27905425 -0.11425723 -0.12486702 0.38451266 -0.19685622 0.3844933 -0.2531519

hidden2event.bias f4 [27]
00000000: 91ef 91bc 51c7 db3d d0c7 19bc 6284 393e
00000010: fa14 bc39 8a5f 29be d58a 52be bfd3 7fbe
00000020: b154 ad3e ba00 413b e7cc 62be 7951 69be
00000030: 13ad 23be 6f56 803d 6998 dfbb 2729 223e
00000040: f6c1 35be fb81 1dbe 358f 89be 4242 b23a
00000050: acb0 fc3d f812 56be e4f4 39be f3a0 3fbe
00000060: 6e6d 1a3e 7fc1 a5be 51aa 8cbe
-0.01781443 0.10731376 -0.009386018 0.18116906 0.00035873783 -0.16540352 -0.20560773 -0.24983118
0.33853677 0.0029449896 -0.22148477 -0.22784986 -0.15983991 0.06266486 -0.0068235886 0.15836011
-0.17749771 -0.15381615 -0.2686707 0.0013600069 0.12338385 -0.20905674 -0.18159825 -0.18713741
0.15080807 -0.32374188 -0.2747369

hidden2time.weight f4 [3, 40]
00000000: fd12 873d fa6c 013e 0444 b53d 27c3 c53d
00000010: fea2 843d 49f6 db3d 1da6 93bc 1529 193e
00000020: e4d1 f3bd 82f1 5bbd ffe8 58bd f614 173d
00000030: 3b20 77bd a539 30bd 558d 7e3d ec10 f73d
00000040: 819e 29bc c0bd c33c 825d 94bd 305a 113d
00000050: 8b9b 50bd 33c9 22be 10d1 f3bc 55ac d0bc
00000060: fc34 9f3d bac4 b5bc 3df8 7f3b e43f f83c
00000070: 0afb 873c 17e6 ab3d 1e65 e63c 772b 3b3d
00000080: 2e16 4abd f64f 823d 6496 0a3e 2a56 1b3e
00000090: 9996 2abe 3342 07be 4073 fd3c 5fee 2dbd
000000a0: ef2c 11bd 7f71 503d 2653 443e f9a5 1b3e
000000b0: e668 2a3d 96b6 b23d 3f30 773d a20b 013e
000000c0: d9a2 963c e7ca 19be 559f 953d 0754 973d
000000d0: 3a60 b0bd d40f 48bd f493 913d 1008 0d3e
000000e0: 492b c73b 8906 1e3d ac3f 59bd 12d2 943b
000000f0: 16fb 9abc b6e0 1bbe 2f7e 2cbd dd98 793c
00000100: dc52 cf3c 5d87 ca3d efb3 02bd a3b3 eb3d
00000110: 39a6 5eba 0d13 b53d e6e2 b0bc 3b92 963c
00000120: 4737 48bd f7bb 933d 1b9a 323d 1250 373e
00000130: 2723 fdbd 55c2 3cbe 08da 81bd 7716 30bd
00000140: 9784 0a3e bb0e 2dbd 4b2f 93be 3845 a0be
00000150: c96c 643e 1574 58be 7767 2fbe f16c 3ebe
00000160: 49d5 a83e fbf9 ba3e ec53 e4be ccce 99be
00000170: fbc3 183e db23 04be 0129 873e f2e1 a5be
00000180: ce07 9b3e 9792 d7bd 1c60 5fbd 295c 40be
00000190: 508c 0fbf 50c0 703e f2f7 dabd bb07 9bbe
000001a0: 7e1b 8dbe 24ba 0abf 8047 953e f60a 97be
000001b0: eccb c0bc 4c6b 113e 7ca4 ebbc ada0 b23c
000001c0: 6247 e83d f333 f0bb 7727 38be c225 49be
000001d0: 0b2a 863e d4d0 913e cb55 ac3e e8b2 7bbe
0.065954186 0.12639228 0.088508636 0.09656363 0.06476401 0.107403345 -0.018023545 0.14957078
-0.11905268 -0.053697117 -0.052956577 0.036885224 -0.06033347 -0.043023724 0.062146503 0.120637745
-0.010352732 0.02389419 -0.07244398 0.0354864 -0.050929587 -0.15897064 -0.029762775 -0.0254728
0.07773778 -0.022188533 0.0039057874 0.030303903 0.016599197 0.083934955 0.028124388 0.04569575
-0.04933756 0.063629076 0.13533932 0.15169588 -0.16659011 -0.13208847 0.030938745 -0.042463657
-0.035443243 0.05088949 0.19172344 0.15200032 0.041603945 0.08726232 0.060348745 0.12602094
0.018388199 -0.15018807 0.07305781 0.07389074 -0.08612104 -0.04884322 0.07108298 0.13772607
0.006078158 0.03858045 -0.053039238 0.004541644 -0.018918555 -0.15222439 -0.042112526 0.015234199
0.025308065 0.098891 -0.03190988 0.11508872 -0.0008493397 0.08841524 -0.021592569 0.018380275
-0.04888084 0.07213586 0.043603998 0.17901638 -0.123602204 -0.18433507 -0.06340414 -0.042990174
0.13527142 -0.042250376 -0.2874702 -0.3130281 0.22307123 -0.21138032 -0.17129312 -0.18596245
0.32975224 0.36518845 -0.44595277 -0.30040586 0.1491851 -0.12904303 0.2639847 -0.32398945
0.30279392 -0.10526007 -0.054535016 -0.18785156 -0.56073475 0.23510861 -0.10691823 -0.30279335
-0.27560037 -0.5419028 0.29156113 -0.2950055 -0.023534738 0.14201087 -0.028764956 0.021805132
0.1134174 -0.0073304116 -0.17983805 -0.1964331 0.2620395 0.28479636 0.33659205 -0.24579966

hidden2time.bias f4 [3]
00000000: bf3e bfbd 1e9c 553d 06ba 6dbe
-0.0933814 0.052150838 -0.23215494
