events_simulation/models/model_20180515-1656.pt (torch_old, 78354 bytes, 9 tensors)

loss_function_events.weight f4 [27]
000000 00 00 80 3f 00 00 80 3f 00 00 80 3f 00 00 80 3f
       1.0 1.0 1.0 1.0
000010 00 00 80 3f 00 00 80 3f 00 00 80 3f 00 00 80 3f
       1.0 1.0 1.0 1.0
000020 00 00 80 3f 00 00 80 3f 00 00 80 3f 00 00 80 3f
       1.0 1.0 1.0 1.0
000030 00 00 80 3f 00 00 80 3f 00 00 80 3f 00 00 80 3f
       1.0 1.0 1.0 1.0
000040 00 00 80 3f 00 00 80 3f 00 00 80 3f 00 00 80 3f
       1.0 1.0 1.0 1.0
000050 00 00 80 3f 00 00 80 3f 00 00 80 3f 00 00 80 3f
       1.0 1.0 1.0 1.0
000060 00 00 80 3f 00 00 80 3f 00 00 80 3f
       1.0 1.0 1.0

lstm.weight_ih_l0 f4 [160, 70]
000000 90 fe 07 3e 1d 76 e2 3d 5b 28 81 3e ff 96 32 3d
       0.13280702 0.110576846 0.252261 0.043601032
000010 ae 17 af 3d 7d 1c 17 be 9c fa 2f bd 62 a8 57 ba
       0.085494384 -0.14756961 -0.04296361 -0.000822669
000020 9b 51 77 3d 43 77 7d 3e 84 76 26 3d 8c 74 c3 3d
       0.06038056 0.24752526 0.04064037 0.09543714
000030 5f 55 56 3e 90 a2 7c 3e 60 30 f8 3d 79 17 98 bc
       0.20931004 0.24671388 0.12118602 -0.01856588
000040 ad 5a 02 bd e8 6d bf bd 96 ed 3f 3e dd 27 66 3e
       -0.031824756 -0.09347135 0.18742976 0.22476144
000050 1a 3e 80 bb 89 e9 ce 3d 77 08 2a 3d 24 43 86 bc
       -0.003913653 0.10103137 0.04151198 -0.016389437
000060 58 20 bc 3d 6b 6d 07 3e 70 51 f0 3e 71 2e 55 3e
       0.091858566 0.13225333 0.46937132 0.20818497
000070 1d 4c 4d 3e 78 44 14 3f 96 52 06 3e 92 6e 5d 3d
       0.20048566 0.57916975 0.13117442 0.054060526
000080 4a 15 67 3e b3 7e 87 3e c4 96 b5 3c 22 e1 a2 3e
       0.22566715 0.2646385 0.022166617 0.31812388
000090 2b 82 db 3d 70 5a 0e 3d 69 4e 87 3e 7f d0 85 3e
       0.10718187 0.034754217 0.2642701 0.26135632
0000a0 d8 be 4e bc 11 26 2f 3d c5 c6 22 3e 57 9a 45 3e
       -0.012618743 0.042760912 0.15896137 0.19297157
0000b0 d8 b1 42 3e e6 7d cc 3d d4 a9 6a b7 dd b5 ac 3d
       0.19013155 0.09984951 -1.3987028e-05 0.08433125
0000c0 32 80 89 3e 74 c1 84 3a 9c 2a af 3d e9 bc 96 3e
       0.26855618 0.0010128454 0.08553049 0.29441002
0000d0 b1 2e 99 3e 28 45 47 3e 67 70 4a 3e 2f 5e b5 3c
       0.29918435 0.19459975 0.1976944 0.022139637
0000e0 d6 19 81 3e 65 57 15 3e 97 8e 22 3e fc ec bd 3d
       0.25215024 0.1458412 0.15874706 0.09273717
0000f0 33 d1 10 3e 7f 08 1f 3d 61 33 b5 bb 03 d9 bd 3d
       0.14142303 0.038826462 -0.0055298065 0.09269907
000100 73 9a 40 3e b2 e1 a4 3d a1 fd 9f 3d 01 fa 5d 3e
       0.18808918 0.080508605 0.07812048 0.216774
000110 77 71 27 3e 4d 00 97 3e b6 29 91 bf 74 25 fd be
       0.16351877 0.29492417 -1.1340854 -0.49442637
000120 a3 dc a0 3e 0f 15 9b bf 66 1f 04 3f cf c0 1b 3e
       0.31418332 -1.2115802 0.5161041 0.1521027
000130 bf 11 04 3d 79 93 5d bf d9 13 9b bf ef a7 35 be
       0.032243486 -0.8655315 -1.2115432 -0.17739843
000140 ca ca 12 3f f6 1a cd 3f 4e 1c bb bc 37 c6 87 3e
       0.5734068 1.6023853 -0.022840645 0.26518413
000150 4a 26 3d be e1 78 bd 3f 01 c9 ff 3e 52 93 d2 3d
       -0.18471637 1.4802514 0.4995804 0.10282005
000160 3d 02 7f 3f 72 a5 2f bf 32 5a 95 3f e9 c7 a6 be
       0.9961279 -0.68611825 1.166815 -0.32574394
000170 fb de 5f 3f fa 78 9b 3f d2 ef 2b bd ff 02 20 3e
       0.87449616 1.2146294 -0.041976757 0.15626143
000180 d4 eb c4 3e 1a 27 1e be 66 a3 d3 3c 16 2d de 3e
       0.38461173 -0.15444604 0.02583475 0.43393773
000190 a3 0c 86 3e 72 8b cc 3d b8 22 3b 3e 2a 5b 87 3e
       0.26181516 0.099875346 0.18274963 0.2643674
0001a0 6e f8 cc be 20 d1 3a 3d ae a7 cb 3d 54 53 b8 3c
       -0.40033287 0.045609593 0.09944092 0.022500671
0001b0 0a ae 34 bd 7c c2 6d be 11 45 45 be 68 57 26 3d
       -0.04411129 -0.23218721 -0.19264628 0.0406107
0001c0 1e e7 01 bc a4 70 b6 3d bc eb a9 3d d0 d1 70 3e
       -0.007928638 0.08908203 0.08296916 0.23517537
0001d0 70 8c d4 3b 8b 06 6e be d1 9f 26 be 46 61 bd 3c
       0.006486468 -0.23244683 -0.16271903 0.023117673
0001e0 0b 5e 56 bc 49 9c 99 3d f6 b9 ea 3d 43 09 08 bd
       -0.013083945 0.07500512 0.114612505 -0.033211958
0001f0 88 4a 09 3e 44 77 8d bd ea 66 b7 bd 29 8c 8c bc
       0.13407338 -0.06907514 -0.08955176 -0.017156677
000200 e9 f3 51 3d 15 d4 f8 3c fa 07 f8 bd f1 88 7b bd
       0.051258 0.030374566 -0.121108964 -0.061409894
000210 31 4c 2f be 78 d1 44 3c 7b 9b 1e bc 92 c7 0d 3e
       -0.17118908 0.012012832 -0.009680624 0.13845661
000220 d9 88 85 3c ab 75 9f bd 53 4a 03 3e 91 cd c1 3d
       0.016300606 -0.07786115 0.12821321 0.09463037
000230 ab 49 3f 3e 55 48 a3 bc 99 8f d3 bb ac 9c c2 3d
       0.18680446 -0.019931952 -0.006456327 0.09502539
000240 b0 a7 91 bb 00 54 94 3b e6 56 c5 3d 51 88 85 3e
       -0.0044450387 0.004526615 0.09635715 0.26080564
000250 cc 12 7b 3e e7 5f 29 3e 4a 2a e0 3d 4b 06 44 3d
       0.24518889 0.1654049 0.10945566 0.047857564
000260 7c e3 54 3e e1 92 56 3e 7b c0 5e 3d 7b 19 06 3d
       0.20789903 0.20954467 0.054382782 0.032739144
000270 dd e5 42 3e 36 57 16 be ae e8 c0 3d 1e dd d4 3d
       0.19032998 -0.14681706 0.0941938 0.10393737
000280 c8 3f 88 3e 55 1e 6d 3d 2a f5 68 3d 5a be b2 3d
       0.2661116 0.057890255 0.05687443 0.08727713
000290 c3 85 02 3e 10 f3 37 3d a6 ac a2 3e 8a 6f 8c 3e
       0.12746339 0.044909537 0.31772345 0.27428848
0002a0 06 35 5a 3d 19 5f b1 3e 50 a3 02 bd 80 69 41 3e
       0.053273223 0.34642866 -0.03189403 0.18887901
0002b0 3a 02 72 3d cb fe 31 3e 99 bc 76 3e 7c 7e 68 3d
       0.059084155 0.17382352 0.24095382 0.05676125
0002c0 64 a2 8a 3d 16 ee 6b 3e 54 dc 53 3d 5f 8a 52 3e
       0.06769255 0.23040041 0.051723793 0.20560597
0002d0 25 b8 f5 3d d1 97 b6 bc af 22 50 3e a9 62 08 bd
       0.119980134 -0.022289189 0.2032573 -0.033297215
0002e0 45 3b 2d 3e 0e 3c 7f bc 25 91 ce bb a2 da 50 3e
       0.16917141 -0.015578283 -0.0063039237 0.20395902
0002f0 32 7c 81 3d 05 fc 1a 3e bd 53 0b 3e d8 49 db 3d
       0.063225165 0.151352 0.13606162 0.10707444
000300 16 78 01 bd 60 31 5b 3c 49 f3 40 3e 27 cb 90 3e
       -0.031608663 0.013378471 0.18842806 0.28279993
000310 7e f2 40 3e 6c b6 57 3d 6d b1 46 bc d5 26 0c 3e
       0.18842503 0.052664205 -0.012127263 0.13686688
000320 d7 a5 4b 3e 4f 4b 61 3e 33 71 54 3e 0a ef 4a 3e
       0.19887482 0.22001384 0.20746307 0.19817749
000330 93 b4 e2 3d c6 23 71 3e 45 da 44 3e 28 37 c6 3d
       0.11069598 0.23548803 0.19223888 0.09678489
000340 7d 0b 73 3e 63 a4 66 3e 50 79 5a be 08 08 82 be
       0.23734851 0.22523646 -0.2133534 -0.25396752
000350 8b c3 97 be de 28 4b 3d e5 58 68 bf c0 08 0b 3c
       -0.29641375 0.04959952 -0.9076064 0.008485973
000360 62 52 88 be b9 d6 98 be 36 ed f4 3e 03 09 e2 be
       -0.26625353 -0.2985132 0.47837228 -0.441475
000370 f9 32 af be 97 23 fa 3c 5e ab 59 be 3d be ca be
       -0.34218577 0.030534549 -0.21256778 -0.39598265
000380 5b 01 94 3e 00 a9 e6 3e 73 9c 02 3e d8 ef 0c be
       0.28907284 0.45050812 0.12754993 -0.13763368
000390 3a db d0 3d 7c a4 5c bf ad 41 c9 3e 05 2c a7 3d
       0.10198064 -0.86188483 0.3930792 0.08162693
0003a0 a1 fc 89 3d 86 94 78 3d dd 82 1b 3d fe 57 1f be
       0.06737638 0.060688518 0.037966598 -0.1556091
0003b0 e2 4c 91 3e 39 5a 5f be aa 35 f6 3d d6 86 f7 3e
       0.2837897 -0.21811761 0.12021954 0.4834506
0003c0 44 94 a3 3e e9 13 81 3e be a8 a4 3d 0d c4 30 3e
       0.31949055 0.25210503 0.080399975 0.17262287
0003d0 68 13 3f 3d bb 6e 8c 3d 46 c1 bb 3d ac b5 12 3e
       0.046649367 0.06857058 0.09167723 0.14327115
0003e0 57 55 88 3d 08 89 8f 3e 14 bb e4 3e 4a ca 2b 3c
       0.06656902 0.28034234 0.4467398 0.010485241
0003f0 e5 3d 39 3e 20 ba 6f 3e f6 a0 8c 3e 89 f9 8f 3e
       0.18090017 0.23410845 0.27466553 0.28120068

lstm.weight_hh_l0 f4 [160, 40]
000000 d1 d9 0d 3d 1b 1a f2 3d 52 3e 29 be cd b3 ae 3d
       0.034631554 0.118213855 -0.1652768 0.08530388
000010 e9 46 6c bd d1 22 08 3d da 92 cb 3d e8 ed 45 bd
       -0.057684813 0.03323633 0.09940119 -0.04832259
000020 61 31 5b be 39 bd 1c 3e ef 46 be bd 2c 91 80 3d
       -0.21405555 0.15306558 -0.09290873 0.06277689
000030 91 93 09 be 8c 59 98 3d 48 10 5b ba a5 5e b7 3e
       -0.13435198 0.07438955 -0.0008356613 0.35814396
000040 fe b3 c0 3d bc aa e9 bd 23 36 7c 3e 29 85 88 bd
       0.09409331 -0.11409518 0.24630027 -0.06666023
000050 32 96 7d bc f2 5f 9b 3e 03 d2 17 3e e8 56 8d 3e
       -0.015477704 0.30346638 0.14826207 0.27605367
000060 66 1e 2a be 8c 1e 31 be d9 28 3c be d4 96 ea 3d
       -0.16613159 -0.17296809 -0.18374957 0.114545494
000070 fb 83 ac 3d b1 ec b6 3c 82 85 81 be f7 9e 19 3e
       0.08423611 0.02232966 -0.2529717 0.15002047
000080 5c 54 f7 bb e5 eb 7e 3d e8 d4 85 3d 06 3e ed 3c
       -0.007547898 0.062236685 0.06534749 0.02896024
000090 4c 60 3d 3e 64 2d b9 3d f0 fd 00 3d c1 e9 c7 3c
       0.18493766 0.09041861 0.031492174 0.024403455
0000a0 52 46 da 3d 57 d1 ef bc ce b5 2c 3d bb 32 81 bd
       0.10657944 -0.029274626 0.04216557 -0.06308504
0000b0 b3 a4 5e be 97 22 56 3e d5 c2 44 be 8c 4a cc 3e
       -0.21742515 0.20911632 -0.19214948 0.39900625
0000c0 eb ef 02 be dd 62 46 bd 4d cf 5a 3e 47 a8 56 3d
       -0.12786834 -0.048434127 0.21368141 0.052406576
0000d0 12 f9 21 bd 1e 8f 97 bb 9b f9 7c 3b 1b 22 93 3d
       -0.039544173 -0.004625215 0.0038600925 0.071842395
0000e0 ef 96 1d 3d 41 38 72 bd 75 4d a3 be 3d 9a 34 bc
       0.03847402 -0.05913568 -0.31895033 -0.011023101
0000f0 a7 f4 11 be 30 3d 69 bd 53 44 a3 3d 37 03 7a 3d
       -0.14253484 -0.05694312 0.07972016 0.061038222
000100 f1 82 e9 3c 44 6a 4b 3d 5d 75 f4 3d bd fb ef 3e
       0.02850482 0.04966189 0.11936448 0.4687175
000110 cd 95 d7 3c ca 53 77 3d e7 37 9f 3d e6 c3 18 be
       0.026316548 0.06038264 0.077743344 -0.1491848
000120 cc fa 58 3c 9b 55 1f 3d b0 59 ee 3d 93 8f 1a 3e
       0.013243388 0.0389 0.116382 0.15093832
000130 2c cc 4c be 81 0b 28 bd 04 c2 dd 3d 93 5c 35 3d
       -0.1999976 -0.041026596 0.10828021 0.04427774
000140 3b 3d 34 3c 4b 6e 4c 3e ca 52 e3 bc df bf fc bd
       0.011000927 0.19963948 -0.027749438 -0.12341284
000150 ec 09 cb bd 3f 84 d4 bc 6e 43 d1 3c 94 60 52 3d
       -0.09914002 -0.025941966 0.025544848 0.051361635
000160 41 89 10 be a8 ff 06 bd 67 3e d4 3d b8 74 d4 3d
       -0.14114858 -0.032958657 0.10363465 0.10373825
000170 6b 92 b6 bd 72 52 86 3e e2 23 29 3e 3f b1 89 3d
       -0.08914646 0.26234776 0.16517594 0.0672326
000180 0f 99 33 3e 8b c2 b0 3c 41 b0 82 bd 27 1c f8 3d
       0.17538856 0.02157714 -0.06381274 0.12114745
000190 63 09 c7 bd 57 fe 36 3e b4 b1 19 ba 3b b9 20 3e
       -0.09718587 0.1787046 -0.00058629666 0.1569566
0001a0 6d 1b 67 be 3e ca 77 be cf c4 a3 bd cb 0d c9 3d
       -0.22569056 -0.24198243 -0.07996523 0.09817084
0001b0 d8 e5 67 3e 9b de 46 be b6 74 96 bd 3e 44 40 3d
       0.22646272 -0.19420855 -0.073464796 0.04694008
0001c0 d3 75 29 3d 7d 56 4c 3e bc 42 18 3e 24 9d 9b bb
       0.04137213 0.19954868 0.14869207 -0.004748957
0001d0 aa 7c 24 3e 56 7e 38 3d 80 71 fb bc 7f 4c e2 bd
       0.1606318 0.04504236 -0.03069377 -0.11049747
0001e0 51 a6 c1 be 00 c1 13 3e b2 45 70 be a6 8c 3c 3f
       -0.37822202 0.14429092 -0.23464087 0.7365211
0001f0 fa 53 c0 3d 99 5b 16 be 61 26 81 3e 0a d0 99 3c
       0.09391017 -0.14683379 0.25224593 0.018775959
000200 12 bc 7e be 7c 73 b4 3e b5 db 94 3e d6 35 24 3e
       -0.2487643 0.35244358 0.29073873 0.16036162
000210 9c 67 1e be 53 f0 af 3e 36 5e 05 3e 01 6a 09 3e
       -0.15469211 0.3436304 0.1302422 0.13419344
000220 74 ff b1 3e 8b 60 a9 be 27 27 dc 3e 3f 1e b4 bd
       0.34765208 -0.3308147 0.4299862 -0.087948315
000230 4f a6 82 be 26 20 68 3e 57 06 96 3e 20 58 b6 3d
       -0.25517508 0.22668514 0.29301712 0.08903527
000240 ae 82 6e be 5f 82 df bd 76 22 7e be 6a 1e 74 3e
       -0.23292038 -0.10913538 -0.24817833 0.23839727
000250 b2 92 ca 3e ca 78 2f be 3e 1e 02 be 28 7a ad 3e
       0.39565045 -0.17135921 -0.12706849 0.3388226
000260 30 cc cf 3d 50 ee 53 3e bf 5e 60 bd ce 48 86 be
       0.101463675 0.20696378 -0.054777857 -0.2622742
000270 a8 7a ce 3e 05 97 3c 3e 12 e4 c7 bd ec 5e c6 bd
       0.40327954 0.18416984 -0.09760298 -0.09686074
000280 da 7b e0 bd b7 d9 29 be fa 0e 8e 3d 72 de 9b be
       -0.10961123 -0.16586958 0.0693645 -0.3044315
000290 12 ce da 3d 21 84 67 3d 96 13 1c bd 76 66 ed 3d
       0.10683836 0.056522492 -0.038104616 0.115918085
0002a0 51 27 34 3d 27 e1 97 bd 2d 23 32 3d 36 a5 b2 bc
       0.043982808 -0.07415991 0.043490577 -0.021807294
0002b0 c8 2f 72 bd a0 e4 36 3c 1a f1 89 3c 47 16 24 be
       -0.0591276 0.011162907 0.016838599 -0.16024123
0002c0 8f 8d 5c 3e 5e 7d 84 be 66 cb 75 bc ed 8d 4a 3e
       0.21538375 -0.25876898 -0.015002107 0.19780703
0002d0 c1 6b c4 bc 88 b0 5a 3e c9 7f 88 3d f6 5d 40 3d
       -0.023977162 0.21356404 0.06664998 0.046964608
0002e0 42 4b 61 be ef a0 c2 3c aa 9e 01 3d 86 79 a6 bd
       -0.22001365 0.02375838 0.031645454 -0.081286475
0002f0 d4 32 cb bd 56 af 85 bc 1b 31 b1 bd ec 1d e7 3c
       -0.09921804 -0.016318958 -0.08651944 0.02821251
000300 33 68 5b 3e fb 50 2f 3e e6 9c 67 be 91 95 bf bd
       0.21426468 0.17120735 -0.22618446 -0.093546994
000310 94 a4 25 bb 12 ff 64 3e e6 46 57 3d d8 f0 1e 3e
       -0.0025275098 0.22362927 0.05255785 0.15521562
000320 97 56 c1 bd 86 7a d6 3d 99 6c 5e be 50 e6 73 bc
       -0.09440344 0.10472588 -0.21721114 -0.014886454
000330 00 56 e3 3d 80 5f ed bc 2d 2a 8a 3d 1b 73 35 3e
       0.111003876 -0.028976202 0.06746326 0.1771969
000340 c5 5c f7 bd 9b 30 a7 3d 69 89 4b bc f8 d8 8e 3d
       -0.12078241 0.08163568 -0.012422898 0.06974977
000350 63 d2 92 be 0e f5 1e 3e 3f eb 94 3c b2 12 21 3e
       -0.28676137 0.15523168 0.01817858 0.15729788
000360 90 2d 8b bd f3 53 56 be c0 fe 85 be 5b 48 a3 be
       -0.067958 -0.20930462 -0.2617092 -0.3189114
000370 1a 0c 89 be 45 45 b3 3d 32 60 63 3d 28 58 9f bc
       -0.26767045 0.087534465 0.05551166 -0.019451216
000380 30 cc 0a bd cd 52 4a be ed 87 bd 3c e4 38 5f be
       -0.033886135 -0.19758148 0.023136104 -0.21799046
000390 9b 99 33 bd 4b b3 1e 3d f5 93 bf bd 71 a3 2d bd
       -0.04384766 0.038745206 -0.093543924 -0.042392198
0003a0 41 e4 2e 3e b9 b6 02 bd 52 83 20 3e 6f 6a 52 3d
       0.1707926 -0.03191254 0.15675095 0.051371034
0003b0 87 ba fd 3d 69 ac dc 3d 0f 05 35 be 82 c3 14 be
       0.12389093 0.10775072 -0.17677711 -0.14527705
0003c0 73 6f 3d bc b8 69 b7 3d 67 8e 4c 3e 6e 8d 7e be
       -0.011562216 0.08955711 0.19976197 -0.24858639
0003d0 0e 0a 74 3d 85 5b 1f bf f0 01 8f 3d 16 bf b6 be
       0.0595799 -0.6224902 0.069827914 -0.35692662
0003e0 42 f4 13 3c c6 5b 0f bb 1a 53 dc be 07 72 4a bd
       0.009030404 -0.002187477 -0.4303215 -0.04942515
0003f0 28 9f cd bd 6b fc 4c be 66 43 4f 3e 25 2c 9f be
       -0.10040122 -0.20018165 0.20240554 -0.31088367

lstm.bias_ih_l0 f4 [160]
000000 01 00 83 3e a7 0b 88 bc ae c9 fd 3c c1 48 3e 3e
       0.2558594 -0.016607119 0.030979957 0.18582441
000010 18 07 11 be d9 ca 8b 3d 85 49 56 3d 41 af 5e 3d
       -0.14162862 0.068257995 0.052316207 0.054366354
000020 23 5c 93 3e b5 1f c4 3d 08 48 56 3e 7f f7 04 3e
       0.28781232 0.0957636 0.20925915 0.12985037
000030 e6 aa 4a 3e 69 8f b2 3d 0c 1e bd 3d 8e c7 2a 3e
       0.19791755 0.087187596 0.092342466 0.16677687
000040 80 cb 29 3d 29 b5 df 3d 9d f5 0b 3d 74 5b 41 bd
       0.04145384 0.109232254 0.034169782 -0.047206357
000050 87 8e 7c 3d da 17 55 3e d6 e8 d7 3d 01 b6 9b bc
       0.061659362 0.2080988 0.10542457 -0.019007685
000060 d0 93 94 3c 8b 13 8f 3e 85 7d 64 3e f0 48 12 3e
       0.018136889 0.27944598 0.22313507 0.14285636
000070 88 ab 84 3c 19 2d f9 3d 16 78 15 3e df 81 1d 3e
       0.016195074 0.12166805 0.1459659 0.15381573
000080 36 8f a2 3e b4 97 fa 3d a8 d0 11 3e 1c 47 f2 3d
       0.31749886 0.12235966 0.14239752 0.11829969
000090 73 4c ef 3c b4 bb 78 3e 1f 4e 27 3e 63 33 b0 3d
       0.029211259 0.24290353 0.16338395 0.08603551
0000a0 62 58 30 3d cf 6e ff bb 5b e1 4b 3d d6 3d bc bd
       0.04305304 -0.007795192 0.049775463 -0.09191482
0000b0 25 09 80 bd 27 62 38 3e d6 4d 5b 3e 63 71 b1 bc
       -0.06251744 0.18006192 0.21416411 -0.021660512
0000c0 c9 4d 67 3d 71 4f 18 3e 36 da 76 bd 81 24 8a 3b
       0.056470666 0.14874054 -0.060266696 0.0042157774
0000d0 61 44 62 3e a4 bb 13 3e 13 c6 2e 3e ec 6a 09 be
       0.22096397 0.14427048 0.17067747 -0.13419694
0000e0 84 12 fc 3a 9c a6 06 bd d5 fb 5d 3c fb 55 94 3d
       0.0019231592 -0.032873735 0.013548811 0.07242962
0000f0 82 be 86 3d 48 c4 77 3d ee eb 4b 3d 90 ad 8f 3d
       0.06579305 0.060489923 0.049785547 0.07015526
000100 07 8b 5a 3e 17 cb c5 3b 90 c0 77 3e 8c 4e f8 bd
       0.21342097 0.006036173 0.2419455 -0.121243566
000110 52 c5 22 3e ce fe 2a 3e 65 1c 94 3d 32 69 2d 3e
       0.15895584 0.16698763 0.07231978 0.1693466
000120 c9 49 14 3d 2e bd 47 3e 54 d3 fc bd 4a 43 5b 3e
       0.03620318 0.1950576 -0.12344995 0.21412387
000130 5a 86 3e 3e 55 81 8e 3e 69 af 57 3e 7c 04 9c 3d
       0.18605939 0.27833048 0.21063007 0.07618043
000140 bc 82 31 be 78 e9 8a 3e d6 50 88 be 5a fd ac 3d
       -0.17335027 0.27131248 -0.26624173 0.084467605
000150 ef 78 b7 3d 57 0d 9d bd c2 bc d7 3d 64 3a f8 3c
       0.08958613 -0.0766856 0.105340496 0.03030128
000160 f1 9c c0 bd 9d d3 58 3e 3d 55 58 be 78 54 0d bb
       -0.09404934 0.21174474 -0.21126266 -0.002156524
000170 91 20 1c be d2 13 8c 3e ee e4 87 3e cc 36 1e 3e
       -0.15246798 0.27358872 0.26541847 0.15450591
000180 bc c3 59 3d 88 16 fd 3c 77 b4 ae bd d4 3b 3f bd
       0.053165182 0.030894533 -0.08530515 -0.046687916
000190 47 fe 6c be 5c 5c 02 3e 3b 9e 06 bc 92 45 04 3e
       -0.23143874 0.12730545 -0.008216436 0.12917164
0001a0 f3 a6 47 be 30 bc 2d be b0 00 75 be ba dd 50 3c
       -0.1949728 -0.16966319 -0.23926044 0.012748176
0001b0 97 98 72 3e 3a 0c 45 be 8b 96 3e be 70 89 17 3e
       0.23691021 -0.19242945 -0.18612115 0.14798522
0001c0 93 9e 39 3e b1 63 16 3e b8 dc dd bc ba bf 42 be
       0.18126898 0.14686467 -0.027082786 -0.1901845
0001d0 1a c4 08 3e 21 4a 7b 3e fe 41 89 bd b2 05 77 bd
       0.13356057 0.24539997 -0.0670204 -0.060308166
0001e0 3e ba ee 3d b3 27 27 3e 5e 9c 3a 3e 03 2b b8 3e
       0.11656617 0.16323738 0.18223712 0.35970315
0001f0 29 d7 00 3e 3f fc 8d 3d 33 e1 d8 3d c4 ee 14 be
       0.12582077 0.06932878 0.10589828 -0.14544207
000200 0d cf f8 3c 1c 8f 57 3e 09 db 59 3e 3d a2 a9 bb
       0.030372167 0.21050686 0.21274962 -0.005176811
000210 b3 2b b9 bd c8 05 62 3e 4b 07 64 bc 63 18 c5 3e
       -0.09041538 0.22072518 -0.013917754 0.38495168
000220 70 f9 17 3d f3 b2 29 3e 20 27 8e bd eb 60 3e 3c
       0.037103117 0.1657217 -0.06941056 0.011619787
000230 2b d5 3a 3e 1e 2c 9e bd 29 88 91 3d 60 7f 9b bd
       0.1824538 -0.077232584 0.071060486 -0.07592654
000240 83 45 1d 3e f6 27 62 3b e1 28 b5 3d a4 bc 07 3b
       0.15358548 0.0034508682 0.08845688 0.0020711804
000250 c5 2d 2b 3e e6 07 3d b9 1a b1 bf bc 54 6e 79 3c
       0.16716678 -0.00018027387 -0.023399878 0.015224058
000260 61 2c af 3d 73 ac b4 bd fd a9 e5 3d 42 4c 13 be
       0.085533865 -0.088219546 0.11214063 -0.14384559
000270 0b d2 a9 bd 34 20 8d bd a0 66 aa bd 8a 51 33 bc
       -0.08292016 -0.06890908 -0.083203554 -0.010944733

lstm.bias_hh_l0 f4 [160]
000000 26 8b 96 3e 2e c4 f1 3d 5a f3 88 3d 23 2b 94 3e
       0.29403037 0.118049964 0.066870406 0.2893916
000010 ac 3a 0b bd 6c 59 86 3c 1a 9d 51 3e e7 8f fa bd
       -0.0339915 0.016400062 0.20470086 -0.122344784
000020 29 d6 d7 3d 79 8a 39 3e 6a 99 bd 3c 5c 4f ec 3d
       0.10538895 0.1811923 0.023144443 0.11538574
000030 62 7c 64 3b 74 27 d7 bc ab fb 5f 3e 9a dd 26 3e
       0.0034864177 -0.02626393 0.21873347 0.16295472
000040 02 7d 27 3e 41 a9 50 3e 96 00 67 bd 60 b9 09 3b
       0.1635628 0.20377065 -0.056397043 0.0021015033
000050 63 6a 4c 3e 88 f9 3a 3d d7 0a 5d 3e 5d 3c 18 3e
       0.19962458 0.045648128 0.21586166 0.14866777
000060 cb 53 88 3e 4d bb 56 3e fa fc e1 3d 7b b5 01 be
       0.2662643 0.20969887 0.110345796 -0.12666886
000070 43 00 f1 3d 9a 99 e4 3c e1 d5 af 3d eb bb 2f 3e
       0.11767628 0.027905274 0.08585716 0.17161529
000080 9a dc b6 3d ea c8 9d bb b2 d6 53 bd 37 44 dc 3d
       0.08928795 -0.0048152106 -0.05171842 0.107551984
000090 6a d9 7b 3e 2d 5d 56 3e 55 86 91 3e d6 9e 0b bd
       0.24594656 0.20933981 0.284228 -0.034087025
0000a0 c5 67 0d 3e 8b 7b ec ba 38 75 4f bc b0 2d 09 be
       0.13809116 -0.001804219 -0.0126622245 -0.13396335
0000b0 3b a6 04 be 35 fb a2 3c c3 e3 19 3e b4 52 5d 3d
       -0.12954037 0.019895175 0.1502829 0.05403395
0000c0 c4 d0 8c 3e f5 15 3e 3e fe 35 86 ba 19 49 86 3e
       0.27503026 0.18563063 -0.001023948 0.26227644
0000d0 88 d2 aa 3d da 60 2a 3e c9 2b 70 3e fb 7e 47 3c
       0.08340937 0.16638508 0.23454203 0.012176271
0000e0 38 52 42 3d 59 8e c3 bd 62 73 85 bc 3e b0 74 3c
       0.04744169 -0.09548635 -0.01629037 0.014934598
0000f0 fd b5 4b 3e 58 97 17 3e d0 ce a6 3d 31 da 7b 3d
       0.19893642 0.14803827 0.08144915 0.06148738
000100 61 e3 ce 3d ab cd 28 3e 43 5b dd 3c b6 29 22 bd
       0.10101963 0.16484706 0.027021056 -0.03959056
000110 76 f2 73 3e d8 bb 1b 3e 8d ab 0e 3e 26 1f e7 3d
       0.2382296 0.15208375 0.13932629 0.11285238
000120 7e f0 25 3e d8 ea 6b 3e 80 b4 a9 bd 39 3a 32 3e
       0.16205022 0.23038805 -0.08286381 0.17405023
000130 fc d9 57 3e 45 d6 3b 3e 27 08 37 bc 4f e2 48 3d
       0.21079248 0.18343456 -0.011171377 0.04904395
000140 de 4e 0e be 84 62 44 3d 5a bd 74 be 33 54 0c 3d
       -0.13897273 0.047945514 -0.23900357 0.034259986
000150 81 9b a8 3d 2b 99 9b bd 48 fb 64 3e 08 d6 da bd
       0.08232785 -0.07597574 0.22361481 -0.106853545
000160 fb 01 4a be f9 e2 5c 3d 12 e5 bc 3d 9d 60 3a 3e
       -0.19727318 0.053927395 0.09223379 0.18200918
000170 8a 76 0e be 50 ec e6 3d ec 84 66 3e 9a 34 08 3e
       -0.13912407 0.11275542 0.22511643 0.13301316
000180 c7 40 6a 3d b6 57 1c be 00 5e 08 3d b5 2e 68 bd
       0.057190683 -0.15267834 0.03329277 -0.05668517
000190 4f 71 f3 bd a6 ce 4a 3d 7d 8f 87 3e 79 1a 0b 3e
       -0.11886846 0.04951348 0.2647666 0.13584317
0001a0 e7 07 4a be 79 3d a3 bd bc ec 0d be 00 07 aa bc
       -0.19729577 -0.07970709 -0.13859838 -0.020755291
0001b0 99 41 f8 3d 2f eb 43 be a5 be 2f be 4e f3 a3 3d
       0.12121887 -0.19132684 -0.17162569 0.08005391
0001c0 3f fa 3d 3e 51 47 dc bc b3 09 a4 3d af 89 50 bd
       0.18552493 -0.026889475 0.080096625 -0.050912555
0001d0 0b e0 03 3e 2c 0f 83 3e 60 df 38 be 54 07 03 be
       0.12878434 0.25597513 -0.18053961 -0.12795764
0001e0 12 ad b4 bd ca e9 99 3d d1 8b b4 bd 85 9c 3c 3e
       -0.08822073 0.07515295 -0.0881573 0.18419082
0001f0 9c 50 b7 bd 72 bd fc bd 63 48 b2 bd 53 2f 26 bd
       -0.08950922 -0.12340821 -0.08705213 -0.040572476
000200 db 86 e9 3d f0 7a 22 3a da b0 8a 3e 34 e1 bf 3c
       0.11402675 0.00061981287 0.27088052 0.023422815
000210 68 4b e8 3d 10 70 1f 3e d3 1e 7b 3e f7 7e 30 3e
       0.113425076 0.15570092 0.24523477 0.17235933
000220 0f b9 da bd 4d 87 94 3e eb 03 59 bd b9 bc 1e 3e
       -0.106798284 0.29009476 -0.052982252 0.1550168
000230 9a 35 d5 3d 0e ae e2 bd 43 a8 4b 3e 86 c0 bc 3d
       0.10410614 -0.110683545 0.19888406 0.092164084
000240 94 77 95 bd 86 66 f0 3d 53 11 41 3e 79 ac c2 3d
       -0.07298198 0.11738305 0.18854265 0.09505553
000250 03 bb 9d bd d1 55 7b 3d a2 9f 32 3e c8 51 b2 bd
       -0.07701685 0.061361138 0.17443708 -0.08707005
000260 42 c1 74 3e ed 6e 94 bd 0a fc 5a bd eb 3b 79 bd
       0.23901847 -0.0724772 -0.05346302 -0.060848158
000270 ad 84 6a 3d 3a d1 02 3e b6 5f 97 3c 68 44 6e bd
       0.057255436 0.12775126 0.018478256 -0.058170706

hidden2event.weight f4 [27, 40]
000000 3f 08 58 bd 3a 81 9f 3e bc a5 55 3d d3 56 4e bf
       -0.05274224 0.3115328 0.05216001 -0.80601233
000010 38 b5 8f 3a 7f e1 80 be c3 9b 35 3d 8a 8f 62 3d
       0.0010964042 -0.2517204 0.044338 0.05531267
000020 9d 5a 61 be 59 86 47 be 92 42 96 3e ef 28 b3 be
       -0.22007222 -0.19484843 0.29347664 -0.34992167
000030 cd 70 9c 3d 56 dd de bd ef 63 eb bc 18 0c a2 3e
       0.076387025 -0.1088206 -0.028734175 0.31649852
000040 e8 e0 26 be c2 ac d7 be fb 06 83 3c 6c 28 24 be
       -0.16296732 -0.4212399 0.01599454 -0.16031045
000050 ee 72 7c 3d 08 67 a7 bd 30 31 c0 3d d8 a3 4e be
       0.061633043 -0.081739485 0.09384382 -0.20179689
000060 94 55 8c bd 03 0c 84 bd d7 09 08 be 8e 80 ba be
       -0.0685226 -0.064476036 -0.13285004 -0.36426204
000070 00 d6 b3 be 90 1e 73 3e e8 5d 69 3e 6e 91 1f bd
       -0.35124207 0.23742127 0.22789729 -0.038957052
000080 5c c1 ee 3e 5c dc 3f bd 93 2b 9c bd d5 16 00 bf
       0.46631896 -0.04684101 -0.076254986 -0.5003484
000090 aa 5b 2b 3e 87 8d 0f be 94 ba 4b 3d bd 90 14 bc
       0.16734186 -0.14018832 0.04973848 -0.009067711
0000a0 37 b1 79 3c 1d cc 45 3e ec 60 b7 be 38 ed 55 be
       0.015240005 0.19316144 -0.35816133 -0.20891273
0000b0 23 ee f9 be 3e 89 a7 be fb 9a 2c 3e d2 cf 84 bd
       -0.48814496 -0.32721895 0.16855995 -0.06484951
0000c0 13 63 8c be d9 9e 4e 3e e8 39 df 3e e6 de 0a be
       -0.27419338 0.20177783 0.43598866 -0.13561592
0000d0 91 1c d7 be e4 9d cf bc 5a 73 a3 bd ba 43 3d 3f
       -0.42013982 -0.025343843 -0.07980986 0.7393147
0000e0 f7 2b b8 3e d1 d7 34 bf 42 db b1 3d 01 41 b2 be
       0.35971043 -0.7064181 0.08684398 -0.3481522
0000f0 16 75 f5 bb ae c4 65 be 18 fa 6e bd 1e 35 2c be
       -0.0074907644 -0.22438309 -0.058343977 -0.16817138
000100 da 63 33 bd 3b 65 4d 3d 58 42 15 3e 80 06 1e bd
       -0.043796398 0.05014537 0.1457609 -0.038580418
000110 10 97 b5 bc f9 fd 9c bd 39 fd 96 bd 0d 55 7d 3e
       -0.022166759 -0.07665629 -0.07372517 0.24739476
000120 55 9e 47 bd e2 0f b8 3e 7e 2d 59 3e 64 3f ab be
       -0.04873498 0.35949618 0.2120876 -0.334468
000130 19 ad 24 3e 5c 7a 01 3e 08 4f 37 be fa a9 05 3e
       0.16081657 0.12644333 -0.17901242 0.13053122
000140 64 68 6b be 93 bc ae be f2 6d 47 3c 5f bd eb be
       -0.2298904 -0.34128246 0.012172209 -0.46042916
000150 96 f4 f5 bd de df 2c be 1c a9 d3 3e 15 71 87 3d
       -0.12009542 -0.16882274 0.41339958 0.066133656
000160 4a be 91 be 06 51 b7 3c 89 88 b8 3e 67 04 f3 bd
       -0.28465492 0.022377502 0.36041668 -0.11866074
000170 aa e9 04 3e 02 e1 80 3e 4f 10 32 3b ec db 23 3f
       0.12979761 0.25171667 0.0027170365 0.6400745
000180 03 c8 2f be 21 bb 17 bf 4d c1 d9 3e 91 e1 0d be
       -0.17166142 -0.5926991 0.4253029 -0.13855578
000190 a2 67 8d 3d 16 ef a1 3d 37 65 10 bc 52 8f 57 be
       0.06904532 0.0790693 -0.008813194 -0.21050766
0001a0 97 42 38 be 39 a9 d1 3d 4d d0 ae be 88 ef fd 3e
       -0.17994152 0.10237355 -0.34143296 0.4959681
0001b0 e8 0e 00 bc ae 0b 84 3d 98 69 5c be fc e2 e8 bd
       -0.007816054 0.0644754 -0.21524656 -0.11371419
0001c0 9d cc 9a bc bf 68 b4 3e cb f7 10 3f a8 9e c6 be
       -0.018896395 0.35236165 0.566281 -0.3879292
0001d0 16 1c f0 be dc 3f 20 be d6 37 2b be 37 5a d3 3e
       -0.46896428 -0.1564936 -0.16720518 0.41279766
0001e0 0f 29 f8 be 10 40 6a 3f 1b 51 32 be f3 15 54 3f
       -0.48468825 0.91504 -0.17413752 0.8284599
0001f0 6c 86 1a bf f4 e4 cf be ad d9 d8 be ca 70 60 bd
       -0.6036136 -0.40604365 -0.42353573 -0.054795064
000200 a0 fb 51 be 11 8b 0d 3e 73 99 94 be 30 a0 45 3e
       -0.20506144 0.13822581 -0.29023322 0.19299388
000210 32 2f 5e be b7 60 81 3e 59 1c f3 3d b8 a7 76 bf
       -0.21697691 0.252691 0.11870641 -0.9634967
000220 54 c2 6d bd 37 c0 da 3d d6 b9 ba 3d 85 5f e9 bd
       -0.058046654 0.10681193 0.09117477 -0.11395172
000230 ca f3 94 be 24 94 c2 3e c0 a7 70 bb 78 64 5c bd
       -0.29092246 0.38003647 -0.003672108 -0.053806752
000240 7e ba 90 be 15 0a 28 3e d6 05 68 3e c8 7d 8d be
       -0.28267282 0.16410096 0.22658476 -0.27635026
000250 1c 7a 89 3e 9a 0a bd bc 95 b9 5d be 33 e9 14 3f
       0.26850975 -0.023076344 -0.21652825 0.58168334
000260 39 cb 3c 3e 3f 19 3a 3e ff a5 26 3f ad 9a 46 bf
       0.18436898 0.18173693 0.6509704 -0.77579767
000270 12 09 5b bf 54 cd cf 3c 0d ad a1 be bf 7e b0 3e
       -0.85560715 0.025366463 -0.3157734 0.344717
000280 db 06 50 3e e4 5f 4f bc 40 88 58 be ac 3e 37 3e
       0.20315115 -0.012657139 -0.21145725 0.17895001
000290 ad 01 2a 3f 53 f4 ff be 42 90 bd 3e 88 13 db bd
       0.6640881 -0.49991092 0.37024122 -0.10697085
0002a0 1b e8 5e bc 03 d7 16 be 36 de 44 bf e9 b9 80 3e
       -0.013605143 -0.14730458 -0.76901567 0.25141838
0002b0 cd 47 87 be d5 82 88 be 4a 9f 54 be ef f5 80 bf
       -0.26421967 -0.26662317 -0.20763889 -1.0075053
0002c0 5f 34 ac be 81 42 40 3f 8f b6 45 3f 81 0c 5d 3d
       -0.33633706 0.75101477 0.7723169 0.053967003
0002d0 2a 3b ec 3c fa 1f 4a 3d 8e 62 07 3e c6 60 74 be
       0.028836805 0.0493469 0.1322119 -0.23865041
0002e0 80 01 ab 3c 30 81 e7 3e 10 ab b1 3d ee c7 a2 bd
       0.020874739 0.4521575 0.08675206 -0.0794829
0002f0 55 f7 71 bd a5 9e 1f be 12 fe a1 3e 1f 53 a9 bd
       -0.059073765 -0.15587862 0.31639153 -0.08267807
000300 88 e2 5d bd 49 a7 97 be f4 00 21 be ba 5e 99 3e
       -0.054171115 -0.29619816 -0.1572302 0.29955083
000310 9e ca de 3e 00 33 50 be e4 fb 1e 3e d4 05 0c 3d
       0.4351396 -0.20331955 0.15525776 0.034185246
000320 0d c9 9f 3e 8c 0b d8 bd 77 c1 a2 3d 09 0e 64 bc
       0.31208077 -0.105490774 0.07947057 -0.013919362
000330 e6 01 88 be 0a 08 a9 3e a0 a9 12 be 5e 47 2d 3e
       -0.26563948 0.33013946 -0.1432252 0.16921756
000340 5f 6d b4 3e 0a 99 91 be 50 96 31 3e 2d 48 fe bd
       0.35239694 -0.28437072 0.17342496 -0.1241611
000350 7d 38 b0 3e 09 5e 9e be e3 3a 51 be 06 30 97 be
       0.34418097 -0.30931118 -0.2043262 -0.29528826
000360 aa 21 b5 be 85 13 c0 3e 31 56 dd be ca d9 1b 3e
       -0.35377246 0.37514892 -0.4322982 0.15219799
000370 01 ca 49 3e 81 71 ab be 22 73 c8 be 26 9c 96 be
       0.19705965 -0.33485034 -0.3915034 -0.29416007
000380 a0 7c 99 3e f2 1b 75 3e 19 7b b1 3e 0d 03 83 3d
       0.29977894 0.23936442 0.3466423 0.06397066
000390 fa 5b d5 be ce df a5 3e b6 42 b3 3e b7 7b 1d be
       -0.41671735 0.32397312 0.35011834 -0.15379225
0003a0 41 ad 12 be 70 9d c7 be 91 2f ea 3e 8f d5 c2 3e
       -0.14323904 -0.38987303 0.45739415 0.38053557
0003b0 7e 9a a4 be d6 5f 2e be 27 e3 b1 3e ac 23 99 3e
       -0.32149118 -0.17028746 0.34743616 0.29910028
0003c0 93 9a aa 3e d7 82 a4 be 5a 4c f0 3d 9f ac cf 3e
       0.33321056 -0.32131073 0.11733313 0.40561387
0003d0 d9 72 d8 3d da b3 66 3e d1 ed d0 bd 9c dc 18 3e
       0.105687805 0.22529545 -0.1020161 0.14927906
0003e0 9c 27 7d 3e 3d 1a 05 be c8 d0 61 3d af c0 b4 bd
       0.24722141 -0.1299829 0.05513075 -0.08825814
0003f0 58 1c 56 3e 71 64 8b be ef f5 b2 be c3 69 a6 be
       0.2090925 -0.27225068 -0.34953257 -0.32502565

hidden2event.bias f4 [27]
000000 f1 51 81 be e4 bf 9a 3c e7 d5 26 3e f6 c7 c2 3c
       -0.2525783 0.018890329 0.16292535 0.02377699
000010 15 d1 1c bd b0 26 9d bd f0 5b 7b be 8b 6b 20 3d
       -0.038285334 -0.07673395 -0.2454679 0.03916506
000020 61 c7 d6 3d 89 26 5c be 34 e2 18 be 55 66 d8 bd
       0.10487247 -0.21499075 -0.1493004 -0.10566393
000030 2b 80 f1 bc 08 ba 57 3e 98 e1 37 be 2f 93 d2 3c
       -0.02948006 0.21067059 -0.17957151 0.025704948
000040 b9 17 23 bd 27 b0 0f be 94 c7 16 be ff b0 cf bd
       -0.039817546 -0.1403204 -0.1472457 -0.10141181
000050 ed ec 77 bc 60 05 07 bd 35 b5 b9 bd ba 8c 47 be
       -0.015132171 -0.03296411 -0.090677656 -0.19487277
000060 74 63 92 3c 03 cd e7 bd 44 ff a9 be
       0.017869689 -0.113184 -0.33202565

hidden2time.weight f4 [3, 40]
000000 f5 eb 2d 3d e0 00 93 bc 16 fc 85 bd b4 8f 28 be
       0.042461354 -0.017944753 -0.06542222 -0.16461068
000010 30 1c bb bd 80 36 e4 3c 61 0c 71 3c ac 46 56 3d
       -0.09136236 0.027858019 0.014712424 0.05231349
000020 16 84 c9 bd 66 80 32 3e 66 75 47 3e 23 23 7a 3d
       -0.098396465 0.17431793 0.19478378 0.061068665
000030 d6 8f f4 3d 9c d9 ae bc e5 b7 bb 3d 5b d0 c1 be
       0.11941497 -0.021343999 0.091659345 -0.37854275
000040 b8 73 89 3d 85 da a1 3c 81 d3 4a 3e 46 63 53 bd
       0.06711525 0.019757519 0.19807245 -0.051608346
000050 af 70 31 be 82 dc cc bd ae 9c fd 3d 05 7e 29 3e
       -0.17328142 -0.10002996 0.123834 0.16551979
000060 55 21 8a be d3 14 eb bb 83 54 d6 bd 9d 98 a8 3d
       -0.26978555 -0.0071741133 -0.10465338 0.08232234
000070 2c 02 7e 3e 8f 84 2c be 5b 90 4e 3b f3 5a 92 3e
       0.24805516 -0.16847442 0.0031519148 0.28585014
000080 88 ec a3 bd 7c c7 0a bd cf 69 d6 be fd 52 77 be
       -0.08004099 -0.03388165 -0.418776 -0.24152751
000090 d6 57 79 ba ee 63 3b 3d fa d0 b3 bc 04 40 9b 3d
       -0.0009511685 0.045749597 -0.021950234 0.075805694
0000a0 65 5f 9c 3d 84 0b 2b be ab 10 36 be 8f f0 2c 3e
       0.076353826 -0.16703612 -0.17779796 0.16888641
0000b0 48 fc dc 3d 3d 81 78 3d f4 8a 8e 3e 43 85 50 3d
       0.10790306 0.060670126 0.27840388 0.05090834
0000c0 90 f7 cd bd b2 70 3b 3e ac 4d 89 be 4b 86 93 bc
       -0.100569844 0.18304709 -0.2681707 -0.018008372
0000d0 81 0a 1b bc 49 63 e9 bc ba c2 00 3e 3e 6f e6 3e
       -0.009462954 -0.028489726 0.12574282 0.45006746
0000e0 1e d4 24 3e 3f 3d 4f be a1 c4 aa bd 85 a1 fb 3c
       0.16096541 -0.20238207 -0.08338285 0.030716667
0000f0 06 89 1d be 7f 5a 03 3d 71 de 15 3e ec 82 c7 bd
       -0.15384302 0.032068726 0.14635636 -0.09741768
000100 15 33 39 bd f4 ee 5a be 56 6e 0c be 51 a1 f6 bd
       -0.04521473 -0.21380216 -0.13713965 -0.120424874
000110 23 64 b6 3c b8 5b 55 be f8 65 b4 bd d9 96 8b ba
       0.022264546 -0.20835769 -0.088085115 -0.0010649815
000120 6d 01 3b 3e 9d 59 1d 3d 1c 40 86 3e 23 3b 94 3c
       0.18262263 0.03841554 0.26220787 0.018094605
000130 c9 de 98 bb c9 f7 50 3e e4 41 84 3b a6 76 0c 3d
       -0.00466523 0.20407023 0.004036175 0.03429284
000140 5d c3 b6 3e c2 65 9b be af e4 a9 3e 31 e9 36 bc
       0.35695925 -0.30351073 0.33182284 -0.011163996
000150 0d c1 81 be e5 ca e2 3e 2a 3e 4a be 6a 59 59 bd
       -0.253426 0.4429542 -0.19750276 -0.053063788
000160 b1 11 99 3e 2e 63 61 be 70 4f 5b 3e b4 10 c8 be
       0.2989631 -0.2201049 0.21417022 -0.39075243
000170 bf 33 bf 3e 34 a6 a8 be 0b 49 b4 be 05 88 99 be
       0.37344167 -0.32939303 -0.35211977 -0.29986587
000180 ce 74 d3 be d8 b1 73 3e 96 ad be be 3c 0e 9a bd
       -0.41300052 0.23798311 -0.3724181 -0.07522246
000190 b6 98 60 3e 7f 04 c2 be 52 61 b7 be 5c 7d b6 be
       0.21933255 -0.37894055 -0.35816437 -0.35642517
0001a0 73 bc 68 3e c9 fd 3d 3e 72 e1 4e 3e 52 73 37 be
       0.22728138 0.18553843 0.20203188 -0.17915085
0001b0 3f 92 38 be 3d 1b 65 3e 11 e9 27 3e 92 9a 89 be
       -0.18024538 0.22373672 0.16397502 -0.2687574
0001c0 4d 06 b0 be c4 c7 4c be 18 46 dc 3d 13 21 d3 3e
       -0.34379807 -0.1999808 0.10755557 0.4123617
0001d0 01 af 00 bf 11 aa ab be c9 58 3d 3e 8f f4 b2 3e
       -0.50267035 -0.33528188 0.184909 0.34952208

hidden2time.bias f4 [3]
000000 33 f9 2a 3e 58 3f 4c bd ea c9 08 be
       0.16696624 -0.049865097 -0.13358274
