events_simulation/models/model_20180429-1441.pt (torch_old, 78354 bytes, 9 tensors)

loss_function_events.weight f4 [27]
000000 00 00 80 3f 00 00 80 3f 00 00 80 3f 00 00 80 3f
       1.0 1.0 1.0 1.0
000010 00 00 80 3f 00 00 80 3f 00 00 80 3f 00 00 80 3f
       1.0 1.0 1.0 1.0
000020 00 00 80 3f 00 00 80 3f 00 00 80 3f 00 00 80 3f
       1.0 1.0 1.0 1.0
000030 00 00 80 3f 00 00 80 3f 00 00 80 3f 00 00 80 3f
       1.0 1.0 1.0 1.0
000040 00 00 80 3f 00 00 80 3f 00 00 80 3f 00 00 80 3f
       1.0 1.0 1.0 1.0
000050 00 00 80 3f 00 00 80 3f 00 00 80 3f 00 00 80 3f
       1.0 1.0 1.0 1.0
000060 00 00 80 3f 00 00 80 3f 00 00 80 3f
       1.0 1.0 1.0

lstm.weight_ih_l0 f4 [160, 70]
000000 54 42 11 3e 42 5e ad bc 14 b3 0b be 4f 07 59 3e
       0.14185458 -0.02116311 -0.13642532 0.21194194
000010 5c 63 a7 bd 85 f5 9c bd f1 ea cc 3d bf 6e 9f 3d
       -0.08173248 -0.07664017 0.10005749 0.07784795
000020 6c 04 3f 3e bc e1 84 3c 4f 6b 4d 3e 3e 79 11 3e
       0.1865403 0.01622092 0.20060466 0.14206406
000030 bf ec e0 3d f6 88 2f 3e 8a ee ae 3b cd 32 3d 3e
       0.10982656 0.1714209 0.0053384947 0.1847641
000040 ae a5 87 bd fc 75 1d 3d 1b 9e ef bd 9d 6b 60 3e
       -0.06623398 0.038442597 -0.11700078 0.21916051
000050 6e cd 0c 3e 81 f4 97 3d fb 6e 1a 3e 9f e6 2a 3d
       0.1375024 0.07419682 0.15081398 0.041723844
000060 de 25 03 3e 2a 5b 8c bd 45 8d 0a bd f3 a7 30 bd
       0.12807414 -0.06853326 -0.03382613 -0.04312892
000070 ef 97 94 3d ca 69 f6 3d 74 83 68 3d 34 4d 9f 3b
       0.072555415 0.120318964 0.05676599 0.0048614983
000080 67 61 df 3d 11 70 4f 3e c9 a2 aa bb 0d 76 be bd
       0.1090725 0.20257594 -0.005207394 -0.0929986
000090 06 31 08 3d 45 28 ed 3d d1 c5 ad bd 62 0a 3f 3e
       0.033249877 0.115799464 -0.08484996 0.18656304
0000a0 42 a8 45 3e 8d c8 06 3e 2e 6e 96 3d 8f 41 07 bd
       0.19302467 0.13162442 0.07345234 -0.033021506
0000b0 90 16 24 bc f8 1c 8e bd 91 e9 8f bc 30 32 fb 3d
       -0.010015145 -0.06939119 -0.017567428 0.12265432
0000c0 2a 55 63 bd ca 97 3d 3c fc 05 7b 3d 08 54 c0 3c
       -0.05550114 0.011571834 0.061285004 0.02347757
0000d0 01 91 43 bd e9 18 fe 3d 8c 25 9f bd 0e fe 55 3d
       -0.04774571 0.12407095 -0.077708334 0.05224424
0000e0 75 1a 53 3d ba bb dc 3d 8b b3 55 bd 20 ba 40 bd
       0.051538903 0.107779935 -0.05217318 -0.047052503
0000f0 5c ca 8c 3b 0a b1 ab 3d cc a6 c2 3d 8c 00 2c 3b
       0.004296584 0.08383377 0.0950447 0.0026245443
000100 11 be 14 3d a6 3d 34 3e 4f 42 b6 3b cc 1a 61 bd
       0.036314074 0.17601642 0.005562104 -0.054957196
000110 e7 72 36 bd 52 7b 90 bd 9e 9d bf bd 38 ef 48 bc
       -0.044543173 -0.070547715 -0.09356235 -0.012264065
000120 11 46 d6 3d 44 1e 13 3d 41 6a 94 3d 6e 64 fb 3d
       0.10462583 0.035917535 0.07246829 0.12275015
000130 f2 ae af 3d f4 13 01 3e f8 81 14 3c 52 35 03 bc
       0.0857829 0.12605268 0.00906419 -0.008008318
000140 7d eb 11 3e 89 76 e8 bd 4b 7b 1f bd 34 b3 f1 3d
       0.14249988 -0.11350734 -0.03893594 0.118017584
000150 0e 66 96 3d 23 65 b3 3d 06 70 6b bd ee 6a fa bd
       0.07343684 0.08759525 -0.05747988 -0.122274265
000160 ec 29 89 3d 6f 54 f0 3d fc 73 19 3c ee 23 ea 3c
       0.06697449 0.117348544 0.009366032 0.028581586
000170 96 72 fa 3c 82 f8 48 3d b5 ff 25 bc 28 ed 81 3c
       0.030572217 0.04906512 -0.010131766 0.015860155
000180 0b 64 a5 3d 8d 00 63 3e 9f f0 b9 3b 1c 15 84 3d
       0.08075722 0.22168179 0.005674436 0.06449339
000190 ce a4 6d 3d b6 d0 b5 3d d6 c9 45 3e 5f 6f 28 3e
       0.058018498 0.08877699 0.19315276 0.16448735
0001a0 d5 98 81 bc ab 1a d8 3d 4e 60 9d 3c ff 6b 15 3e
       -0.015819946 0.105519615 0.01921096 0.14591978
0001b0 18 94 75 3d fd bc 21 3e 62 11 28 3e 5a 48 b7 3c
       0.059955686 0.1579475 0.16412881 0.022373367
0001c0 2b 05 17 bd 1a 49 20 3e d6 b9 fc 3d b3 a4 81 3b
       -0.036870163 0.15652886 0.12340133 0.0039564013
0001d0 c2 87 6d bb 19 49 86 bd e2 e2 22 3e c1 47 05 3e
       -0.0036244248 -0.06556911 0.15906861 0.13015653
0001e0 c2 80 a5 3b 60 e9 4f 3e bd 94 16 3d 36 fd c7 bc
       0.0050507495 0.20303869 0.03676294 -0.024412733
0001f0 bc c7 22 3c 16 1c 4a 3e 5d 1d 45 3e 45 67 38 3e
       0.009935316 0.19737276 0.19249482 0.18008144
000200 2c 8e e0 3c 2e 63 d9 3d af 90 4e 3e 6d 20 56 3e
       0.027411543 0.1061462 0.2017238 0.20910807
000210 02 73 ad bd b7 36 e8 3d 26 aa 21 3e 1f 4d eb 3d
       -0.084692016 0.11338561 0.15787563 0.11489319
000220 33 ae 37 3d 3b 85 b1 3c 98 d4 1c bd e0 b8 f2 3d
       0.044843864 0.021669975 -0.038288683 0.11851668
000230 cd 8b 1e bd 17 12 a7 bd da 83 4a bd 6e 5b 20 3e
       -0.038707543 -0.08157747 -0.04944215 0.15659878
000240 2b 3c 54 3e be ae a0 3d 80 b2 c6 3d 62 6b 14 bd
       0.20726077 0.078458294 0.09702015 -0.03623522
000250 cd f9 e0 3d e9 6e 0d 3e 74 61 02 bd 76 30 af bd
       0.10985146 0.1381184 -0.03183122 -0.08554165
000260 bf a2 fb 3d 72 51 e1 bc 05 f1 12 3e 2c 93 93 3d
       0.12286901 -0.027504656 0.14349754 0.07205805
000270 c4 a4 b3 3d 1f fe 12 be d3 07 a1 3d f0 59 19 3e
       0.08771661 -0.14354752 0.078628205 0.14975715
000280 78 87 8f ba a4 15 30 3d c2 80 12 bc 70 61 29 3e
       -0.0010950407 0.042989388 -0.008941831 0.16541076
000290 ce dc b2 bd e0 26 f3 bb 09 34 e9 3d f3 90 a4 bd
       -0.087335214 -0.0074204057 0.11386878 -0.08035459
0002a0 a3 ef 62 3e c8 a0 c2 3d 87 b5 0c bd c3 5a 3e 3e
       0.22161727 0.09503323 -0.034352805 0.1858931
0002b0 83 4d 58 3e 51 ce 0a 3e 40 76 ef 3d 9f 1b 68 3e
       0.21123318 0.13555266 0.11692476 0.22666787
0002c0 05 98 64 bd 2e 70 25 3d 2f ed fd bc d8 11 be 3d
       -0.05580904 0.040390186 -0.030996887 0.09280747
0002d0 27 63 00 3e 2c 62 38 bc 2e 92 a5 3d 3b 31 37 3d
       0.12537824 -0.011253875 0.08084522 0.044724684
0002e0 da 37 07 3d af 26 42 3d a2 b6 56 3e e3 74 7f bd
       0.03301225 0.047400173 0.20968106 -0.06236733
0002f0 f2 ad 15 3e 66 df fe 3d 5d f0 25 3e 41 7e a6 bd
       0.14617136 0.124449536 0.16204973 -0.0812955
000300 0b 3e 41 bd 39 22 54 3e 54 cc 1b 3e 89 ad 33 3e
       -0.04717831 0.2071618 0.15214664 0.17546667
000310 d5 2d 4c 3e 2b c2 a2 bd 70 a3 5e bc 7e 8d e7 3d
       0.19939359 -0.07947191 -0.013588771 0.11306284
000320 98 91 73 3a b2 c7 01 3d b0 c2 43 3e ed 56 f7 3d
       0.00092914095 0.031684585 0.19117236 0.12077127
000330 02 11 af bc 1e 0a f7 3d 9e a8 ce 3d 2e d5 3d 3d
       -0.021370415 0.120624766 0.10090755 0.046345882
000340 db d8 22 3e 1c cc c5 3d 0a 08 30 be a4 9d 96 bc
       0.15903036 0.096580714 -0.17190567 -0.018385716
000350 d0 91 f4 bd d0 8b 05 3d 76 6e 9c 3d 4d 6b 1a 3e
       -0.11941874 0.03260404 0.07638256 0.15079994
000360 5d ae 21 be c5 40 95 bd e8 72 ef bd f9 b6 21 3d
       -0.1578917 -0.072877444 -0.116918385 0.039481137
000370 96 49 10 3c 94 61 64 bc 32 1b d1 bd b3 e7 38 be
       0.008806607 -0.01393928 -0.10210265 -0.18057136
000380 82 aa 2d 3d 1f a1 f5 bc 0b 22 2a bd 30 23 a5 3c
       0.042398937 -0.029984055 -0.041536372 0.02015838
000390 06 97 a4 bd 03 de a7 bd a0 bd 13 be 3d 0b 36 be
       -0.08036618 -0.08196642 -0.14427805 -0.17777725
0003a0 66 4c c7 bd 6d 2c 4c 3d 64 66 a9 bd 5e f8 18 be
       -0.09731369 0.049847055 -0.082714826 -0.14938495
0003b0 cf a3 4a bd 14 75 54 be 64 40 63 3a 27 1d 22 bd
       -0.049472626 -0.20747787 0.0008668958 -0.039578583
0003c0 0d 0c 7c 3d 5c 99 81 3d c2 79 24 be c8 44 62 3c
       0.06153493 0.06328079 -0.16062072 0.013810344
0003d0 5f d6 25 be b0 f7 cf 3d fb 34 40 be 85 39 f8 bd
       -0.16195057 0.101546645 -0.1877021 -0.12120346
0003e0 83 8b bc 3d ef ca 23 be f3 f7 d2 bc 26 b1 be bd
       0.09206297 -0.15995382 -0.025752997 -0.09311132
0003f0 64 7b 16 be 5c 39 8b bb fb 73 0a be d5 66 49 3d
       -0.14695507 -0.004248781 -0.13520806 0.049170334

lstm.weight_hh_l0 f4 [160, 40]
000000 80 8a 9c 38 5f e1 c5 3d b3 af 22 be b7 da 77 bd
       7.464457e-05 0.09662127 -0.15887336 -0.060511317
000010 be 1b df bd f4 fc 59 3d 9a 0b dd 3d 5e 67 b7 3d
       -0.10893963 0.05321975 0.107932284 0.089552626
000020 db ee 9c 3c f4 fd 37 3e 90 a1 00 3e be 37 ba 3d
       0.019156864 0.17967969 0.12561631 0.09092663
000030 03 72 cd 3d 6d 49 28 3c 3a d3 95 bd 4d ee 93 3d
       0.10031512 0.010271412 -0.07315679 0.07223187
000040 df 9e 26 3d f8 e4 18 be f9 6a a9 bd 12 ee bb 3c
       0.040678855 -0.14931095 -0.082723565 0.02294067
000050 2e 19 35 3e 53 b5 cb 3b fe 3e e0 3d 2d 7c 49 3d
       0.17685387 0.006216684 0.10949515 0.04919069
000060 85 0b 8e 3d 86 03 40 3e 02 f9 84 3d 37 41 55 be
       0.06935791 0.18751344 0.06492807 -0.20825659
000070 94 9a 06 be d8 8a e0 bd 87 c8 cd 3d 4c fc b9 bc
       -0.13144904 -0.10963982 0.10048013 -0.022703312
000080 f6 fe af bd 0b 83 28 3e f7 66 9f 3d dd 8e 49 3d
       -0.08593552 0.16456239 0.07783311 0.04920851
000090 4a 04 0a bd 09 9f 33 3e 7c ab 99 bc ce a5 c3 3c
       -0.033695497 0.17541136 -0.018758528 0.023882773
0000a0 23 75 fc bd 7b d8 31 bd 7a e8 18 be d1 d8 e3 3c
       -0.123270296 -0.043419342 -0.14932433 0.027813347
0000b0 2d d6 e3 bd 7a d7 43 be 2e 9e 4d 3e be 35 3c bd
       -0.11124835 -0.19125167 0.20079872 -0.04594969
0000c0 20 21 b6 bd 1c f1 a2 3c f0 6d ad 3d 5a c2 17 3e
       -0.08893037 0.01989036 0.084682345 0.14820233
0000d0 98 a6 4f bd 8d 9e 4a 3e 0d f8 2c be 71 47 37 3e
       -0.050695986 0.19787045 -0.16891499 0.17898346
0000e0 47 da fc 3c e4 4d b6 3d 51 ad ca bb 07 49 96 bd
       0.030865801 0.08901575 -0.0061852117 -0.073381476
0000f0 6f 72 43 3e ea 03 ae bc ba 08 c9 3d a1 16 34 bd
       0.19086622 -0.0212421 0.098161176 -0.043966893
000100 8f 12 fd bd cb 48 93 3d 46 a7 c2 3d 5c f5 94 3c
       -0.123570554 0.071916185 0.09504561 0.018183403
000110 95 91 a2 bd 24 a1 38 3c 43 8f 69 bd 63 2c 6e 3d
       -0.07937924 0.011268888 -0.05702139 0.0581478
000120 ba 8d 83 3d 73 87 17 3d c3 54 48 be f9 d7 12 3e
       0.064235166 0.03699441 -0.19563584 0.143402
000130 9b 99 63 bd 88 d1 ba bd 47 af 7f 3d 15 78 26 be
       -0.05556641 -0.09121996 0.062423017 -0.16256745
000140 98 bc 8f 3d b8 70 2a 3e 67 36 03 bc 28 77 35 be
       0.07018393 0.16644561 -0.008008576 -0.17721236
000150 b7 ee 25 be c1 03 5b be 9c 93 8d bd 91 3f 0e 3e
       -0.16204344 -0.21388151 -0.0691292 0.13891436
000160 bf 2a 3a be 16 15 1a 3e 36 3a af bd 7d 85 39 bd
       -0.18180369 0.15047106 -0.08556025 -0.04529332
000170 fb 03 9f 3b d2 69 2c 3d 36 58 3b be 2c 48 39 3e
       0.0048527694 0.042093106 -0.18295369 0.18093938
000180 ad 87 86 bc eb c4 51 be 64 a0 7e bd 44 6e 15 3e
       -0.016422117 -0.20485274 -0.06216468 0.14592844
000190 db 39 4d 3e 81 3e bc 3d 5a 0c 5a 3d f0 d9 b7 bd
       0.20041601 0.09191609 0.053234436 -0.08977115
0001a0 ca ea 6d bd 77 c9 2b 3e 8b b6 9e 3b bb a7 2a be
       -0.05808524 0.16776071 0.004843538 -0.16665547
0001b0 a0 a4 53 be 4a 14 fa 3d c5 7b 2e be 17 89 ef bd
       -0.20668268 0.12210901 -0.17039402 -0.1169607
0001c0 18 f6 06 3d e0 d4 21 39 8f ac 23 be 4f f6 60 bd
       0.032949537 0.00015433459 -0.15983795 -0.0549224
0001d0 0c 19 e9 3c 56 20 83 3d 80 87 ba bd 44 3b 3a be
       0.028454326 0.06402652 -0.09107876 -0.1818667
0001e0 5f 0f 48 3e 8b a7 92 bd cd f0 92 bd da a8 de bc
       0.19537114 -0.071608625 -0.07174835 -0.027180124
0001f0 ec fd ed bc 2d ff 13 3e bd 5a cd bd ab 24 a3 3d
       -0.029051743 0.1445281 -0.100270726 0.07965978
000200 00 6d b8 3b 1c 13 fb bc 23 fb 8f bd e8 7c a8 3d
       0.005628228 -0.03064876 -0.070303224 0.08226949
000210 2a 98 fa bd ba 12 0a be 8c 95 30 3d 61 6e d6 bd
       -0.12236054 -0.13483706 0.04311137 -0.10470272
000220 ac 64 69 3e b2 67 e6 3b 0f d7 a5 3d 3a a0 36 be
       0.2279231 0.0070314044 0.0809766 -0.17834559
000230 65 8d 56 3d 95 9d 9e bb 23 b9 0a be 46 aa fb 3d
       0.052380938 -0.0048405626 -0.13547187 0.122883365
000240 2c 26 e2 3b 7a fd 14 be 52 c5 60 be c0 41 a1 3d
       0.006901523 -0.14549819 -0.21950272 0.07873869
000250 b6 1e 4f 3e cb 6c 05 3e a0 dd 18 be 1b 3d 60 3e
       0.20226559 0.13029782 -0.14928293 0.2189831
000260 af 43 3b 3d 84 dc 63 be 9f 88 98 3d dd 6c 11 be
       0.045718845 -0.22252089 0.074479334 -0.14201684
000270 50 e2 00 bc a2 03 a0 bd 98 88 51 3d 07 34 30 3e
       -0.007866457 -0.07813193 0.051155657 0.17207347
000280 00 2a 06 3a c1 fc 92 bd 15 b1 31 3d 01 03 05 3e
       0.0005117953 -0.07177115 0.04338177 0.12989427
000290 cb 82 b2 3d 22 63 da bd 7d 46 ad 3d 1a 54 9f bd
       0.08716353 -0.10663439 0.0846071 -0.07779713
0002a0 74 ed 30 bc a5 f1 d0 bd ee 04 0f 3e e5 10 65 3d
       -0.010798801 -0.1020234 0.13966724 0.055924315
0002b0 56 a1 b5 bd ce 81 3c 3e af 06 04 bd c3 f6 29 3e
       -0.08868663 0.18408892 -0.032232936 0.16598038
0002c0 5c 1e b4 ba ac 11 00 be 41 37 93 bd 41 b9 1a 3e
       -0.0013741958 -0.12506741 -0.07188273 0.15109731
0002d0 50 8d d9 3b 25 59 92 bd 99 3f 75 bd b4 ca 2f be
       0.00663916 -0.07145909 -0.059875105 -0.17167169
0002e0 b2 4c 23 be f7 e8 13 be 8a bb 19 3e 71 a2 d1 bc
       -0.15947226 -0.14444338 0.15012947 -0.025590153
0002f0 a6 7a e7 bd 87 ce 57 3c d9 20 03 3c 69 37 19 be
       -0.1130269 0.013171799 0.008003437 -0.14962544
000300 8e 21 0f 3e 6e 7b b1 bd 4e 24 a9 bd 9f dd a9 3d
       0.13977644 -0.086661205 -0.08258878 0.08294224
000310 14 6e 39 3e e3 66 8c bd 22 db c4 3d b4 8a de 3c
       0.18108398 -0.068555616 0.09612109 0.027165748
000320 b6 7e b2 3d 44 a7 1b 3e 14 58 12 3d a2 c8 86 bd
       0.087155744 0.15200526 0.03572853 -0.065812364
000330 c9 9e a4 3d ed c1 9b bd d3 89 33 3e f6 1e 6d bc
       0.08038098 -0.07605348 0.17533045 -0.014472714
000340 7d d9 41 3c f3 c7 0b 3d af 20 b0 bd 3b 2b ad bd
       0.011831638 0.034126233 -0.08599984 -0.08455511
000350 d4 0d db 3d c6 0f 75 3d 7a 8c 83 3c 28 a7 1b 3c
       0.10695997 0.059829496 0.016058195 0.009500302
000360 6e 4c 3f 3c c8 c7 26 3d 3c 72 cf bd 5b 2d 29 bd
       0.011675937 0.04071787 -0.1012921 -0.04130302
000370 ea 1c cb bc 58 68 2e be 1c 7c a4 bd fa fa 98 3d
       -0.02479406 -0.17031991 -0.080314845 0.07469745
000380 54 63 c5 3d d5 20 99 3d 1f 68 1b 3e 62 f1 aa 3d
       0.09638086 0.07476965 0.15176438 0.08346821
000390 4e 69 b1 bc 73 0e 20 3e 62 ab b8 bb 73 d1 ff bd
       -0.021656659 0.15630512 -0.005635665 -0.12491121
0003a0 36 dc 19 3e 73 9c b5 bc 68 a8 df bd 53 3b a5 bd
       0.1502541 -0.022169327 -0.10920793 -0.08067956
0003b0 05 09 58 bd 7f 78 49 3c b1 79 9a 3d 24 53 01 be
       -0.052742977 0.012296795 0.07542742 -0.12629372
0003c0 52 a9 f2 bc 39 df b9 3d fb 24 4b bd bb 33 c3 3d
       -0.029621754 0.090757795 -0.049595814 0.09531351
0003d0 26 73 82 bd 41 51 a4 bd 17 a2 e5 bc d4 00 15 bc
       -0.06369619 -0.080233105 -0.028031392 -0.009094436
0003e0 1f f6 3d bd 96 89 1f bc ab 78 ce 3d 82 2b 5b 3e
       -0.046377297 -0.009737393 0.10081609 0.21403316
0003f0 64 89 cb bc 9c 96 4d 3e 06 77 ba bd ad 8e 19 3d
       -0.024845786 0.20076984 -0.09104733 0.03748958

lstm.bias_ih_l0 f4 [160]
000000 18 9f 5d 3e 9a aa 81 bd c8 2a dc 3d 2c 3a 81 3d
       0.2164272 -0.06331368 0.107503474 0.063099235
000010 68 75 c2 bd 1a 26 cb 3d f8 5f 83 bd c0 bb 8e 3d
       -0.0949505 0.09919377 -0.06414789 0.06969404
000020 f6 7b e0 3d 40 b8 10 b9 af 44 6d 3d c7 16 0b 3d
       0.10961144 -0.00013801549 0.05792683 0.03395727
000030 01 b9 0b 3e 22 8e 28 3d c2 3f 1c 3e 90 18 f6 3c
       0.13644792 0.041151173 0.15258697 0.03004101
000040 52 bd f6 bd a5 01 1a 3e 8f cd 44 3e d8 09 79 3d
       -0.12047829 0.1503969 0.1921904 0.060800403
000050 6a d4 08 bc 48 e6 c2 bd d8 7a 3e 3d 72 f9 22 3e
       -0.008351425 -0.09516579 0.04650387 0.15915468
000060 a5 07 a8 bc de 47 90 bd de aa 05 3d ae df a9 bd
       -0.020511458 -0.070449576 0.032633655 -0.08294617
000070 dd 61 e1 3d 02 c5 2a bd a2 37 20 bd bc 01 d4 3d
       0.11004994 -0.041691788 -0.039115556 0.10351893
000080 36 b5 2f 3e e5 24 34 3e bd f3 b0 bd b6 bd ab bd
       0.1715897 0.17592199 -0.086402394 -0.08385794
000090 d1 a8 00 3e ab 23 2b 3e 1f 88 0d 3e 1d b5 4f 3e
       0.12564398 0.16712825 0.13821457 0.20283933
0000a0 8b b5 9b bd ae 38 71 bd 08 1d 0c 3c d0 7a 8d 3c
       -0.07602986 -0.058891945 0.008551843 0.017270476
0000b0 e9 3a 13 3e b4 c5 f6 3c 44 5b 13 3c fd 34 e8 3c
       0.14377941 0.03012357 0.008993927 0.02834558
0000c0 d8 60 1e bd cc 58 85 3c 66 e5 f9 3d e9 86 c5 3d
       -0.038666576 0.016277693 0.122019574 0.09644873
0000d0 d9 2b b5 3b fa ac d6 3d d0 89 02 3d 4d dc 34 3e
       0.0055289087 0.104822114 0.03186971 0.17662163
0000e0 c5 83 0b 3e 6a a0 64 bd fe 18 d1 bd 3d 22 26 bd
       0.13624485 -0.055817045 -0.10209845 -0.040559996
0000f0 89 63 30 3e 2c c4 96 bc d4 55 e2 bc 5e b0 cb bd
       0.1722547 -0.018404089 -0.027628817 -0.09945749
000100 27 6e 71 bc 17 4a 6f bd 3b 96 a7 bc de 50 96 3c
       -0.014735735 -0.058420267 -0.020457378 0.018349107
000110 38 92 76 3d 27 ef 1e 3e 00 ee 41 be d8 97 2d 3e
       0.06019804 0.15520917 -0.18938446 0.16952455
000120 38 5b 7b bd ff 43 8a 3d 1d 80 94 bc e6 bd ba 3d
       -0.06136629 0.067512505 -0.018127495 0.091182515
000130 fc dd 28 bd 81 be 1d 3e ce 0a d6 bc e6 cf 72 bd
       -0.041227326 0.15404703 -0.026128199 -0.0592803
000140 1e 7f 38 be ab f3 32 3e 1e e4 2b be fe 8f d1 3c
       -0.18017241 0.17475764 -0.16786239 0.025581356
000150 0e 13 4c be c2 aa 56 be ac 20 61 3d 94 b2 32 3d
       -0.19929144 -0.20963576 0.0549628 0.043627337
000160 77 d6 4b be 71 cf ee bd 19 b2 d9 3d f8 e9 13 3e
       -0.1990603 -0.1166066 0.106296726 0.14444721
000170 2a 88 84 3d 31 1f 43 3e 3a 41 02 be 12 79 40 3e
       0.06471284 0.19054867 -0.12720194 0.18796185
000180 ff 49 cb bd 3c 18 31 bd 01 67 90 bd 88 84 d8 3b
       -0.09926223 -0.043236002 -0.070508964 0.006607596
000190 46 b1 b4 3d 55 39 c0 3c c7 b8 3a 3e f6 76 88 bd
       0.08822875 0.023464838 0.1823455 -0.06663315
0001a0 fb 8c 3f 3e bf 20 95 bd 69 62 0a 3d a1 42 a4 bd
       0.18706124 -0.072816364 0.033785257 -0.08020521
0001b0 2a cc ef 3c fa 93 97 bd 08 5d 19 3c da 2f 4a be
       0.029272158 -0.07401271 0.009360559 -0.19744816
0001c0 19 8f 8e bd ab a7 03 3e e7 f0 00 be 75 db 37 3e
       -0.069608875 0.12856929 -0.12591897 0.1795481
0001d0 0b f8 30 3e 2f b2 37 3e bf 4a 1a bd 55 eb 83 bd
       0.17282121 0.17939065 -0.03766894 -0.064413704
0001e0 78 a4 19 3e 64 ec a2 3d ed 87 c4 3d 41 c7 cb bd
       0.15004146 0.07955244 0.09596238 -0.09950114
0001f0 68 e5 a2 bc b5 56 50 3e 12 31 d3 3d e0 97 47 bd
       -0.01988478 0.20345576 0.10312094 -0.048728824
000200 65 30 9a bd 6c 93 b3 bd 1b cd 2a 3e 5c e2 4c 3e
       -0.07528762 -0.08768353 0.16679804 0.20008224
000210 2a 76 5a bc 04 ea 9e 3d 71 3a 9f bc a7 ff 5b bd
       -0.013333837 0.07759479 -0.019437047 -0.053710606
000220 39 51 0d be ec f6 c0 3a 78 0f f8 bd 03 86 cd bd
       -0.13800515 0.0014722026 -0.121123254 -0.10035326
000230 39 83 dc 3d b8 99 fd bc 28 24 52 bd 57 4c 47 3d
       0.10767216 -0.030957088 -0.051304013 0.048656788
000240 d4 a8 a6 bc 57 55 1f be 03 c0 69 bd 64 78 e3 3d
       -0.020344175 -0.15559898 -0.057067882 0.11106947
000250 fa 28 2b 3e 00 ea 6b bc f7 6a 65 bd 8a 41 c6 bc
       0.1671485 -0.014399052 -0.056010213 -0.024201173
000260 bd 1e 21 3e 2e 37 24 bc a4 53 ec 3d cd 37 36 3e
       0.15734382 -0.0100229215 0.11539391 0.17794724
000270 cb bb 98 bd a8 f7 f0 3d 46 52 4a 3d 34 04 a8 3d
       -0.07457694 0.11765987 0.04939487 0.08203927

lstm.bias_hh_l0 f4 [160]
000000 9a f6 f3 3b 92 4e 15 3c 46 6a 60 bd 76 70 f4 bd
       0.0074451687 0.009112971 -0.05478885 -0.11935513
000010 63 ce 02 3d d9 31 04 3e f4 33 8d bd a6 10 c0 3c
       0.031935107 0.1290964 -0.06894675 0.023445439
000020 4d 06 67 3e d8 f5 cb bc fe 3e 00 3e 00 2a 53 bd
       0.22560997 -0.0248975 0.1252403 -0.051553726
000030 ab 77 13 3e 7e 90 03 3e 82 55 1e 3e fe 45 74 3d
       0.14401118 0.12848088 0.15462306 0.059637062
000040 d0 8f 21 bc a7 2f 7f bd c0 ac 39 bd cf 24 f3 bd
       -0.009860948 -0.062301304 -0.045330763 -0.11872255
000050 2a 62 21 3e c2 d5 38 3e d8 9c c8 3d 7a 84 3d 3e
       0.15760103 0.18050292 0.097955406 0.18507567
000060 b4 87 27 be e1 76 21 be 29 24 fc 3d 01 9b 54 3e
       -0.1636036 -0.15768005 0.123115845 0.20762254
000070 1e b9 0d 3d d6 5d 18 bd af e5 b0 bd a0 a4 42 b9
       0.03460037 -0.037198864 -0.08637559 -0.0001856261
000080 df a3 b1 bd a3 9a 52 3e 13 26 35 bd de 64 a2 bd
       -0.08673834 0.20566802 -0.044225764 -0.07929395
000090 91 82 46 3e 40 5c c8 3d 49 7e f8 bd b9 43 0c 3e
       0.19385745 0.0978322 -0.12133462 0.13697709
0000a0 b4 1c aa 3d 28 fd 22 3c a1 d1 30 bd 6a 66 c4 3d
       0.08306256 0.0099480525 -0.043168668 0.095898464
0000b0 66 23 5c 3c 45 ce 8f 3c b3 31 a2 bd 96 f7 a5 3d
       0.013436174 0.017554412 -0.079196356 0.08103864
0000c0 cd 02 b1 3d 5e f3 d1 3a 81 e1 aa 3d 79 e6 1a bd
       0.08643112 0.0016017964 0.08343793 -0.037817452
0000d0 eb 2e 1c 3d 0a 22 13 3d cd 4a a6 3d 3c 83 86 bd
       0.038130682 0.035921134 0.08119736 -0.06568
0000e0 57 c0 01 3d a8 96 28 3c 1d d6 87 bd a3 2a 42 3d
       0.03167757 0.0102898255 -0.06632636 0.047403943
0000f0 5c a8 c2 bc 56 2f 22 3e 8e f7 06 3e 59 77 78 bd
       -0.02376192 0.1583837 0.13180372 -0.060660694
000100 57 e3 07 be 09 ce 03 be 78 c3 45 3e a4 a1 21 3c
       -0.13270317 -0.12871565 0.19312847 0.009865198
000110 18 91 4f 3e 47 0b 04 bd c5 7e be bd b0 c2 c9 3c
       0.20270193 -0.032237317 -0.09301523 0.024628967
000120 84 d6 fe 3d 6d 9f 76 bc 74 0c ab bd 5e b0 af bd
       0.12443259 -0.0150526585 -0.083519846 -0.08578561
000130 88 e0 75 bc 04 31 8b bd 19 92 06 3e 55 48 39 3e
       -0.015007146 -0.06796458 0.1314167 0.18093999
000140 ff ae 41 be 42 04 13 3e 3d e4 5d be 50 b5 4f bd
       -0.18914412 0.14357093 -0.21669097 -0.050710022
000150 82 97 38 be 2e fe 47 be a8 40 fc 3d 94 25 32 3d
       -0.18026546 -0.19530556 0.1231702 0.04349287
000160 5b b0 53 be a2 62 c6 bd ca f7 51 bc db 15 5b 3d
       -0.20672743 -0.096867815 -0.012815425 0.05348764
000170 bc aa bb 3d 40 c2 f0 3d c5 73 20 bc 29 70 16 3e
       0.091634244 0.117558 -0.009793227 0.14691223
000180 ce 56 da bc 81 ad 9e 3d 1b 67 e4 bc 9c 38 c9 3d
       -0.02665272 0.07747937 -0.027881196 0.098252505
000190 f7 83 d5 bc 2e 05 63 be 2d ae 26 3e 85 99 17 bd
       -0.026063902 -0.22169945 0.1627738 -0.037011642
0001a0 eb 2e b3 3d 52 17 b5 bc 8e 8e 3f 3e 22 1a 0d be
       0.08749183 -0.022105847 0.18706724 -0.137795
0001b0 ce 47 3f be e9 21 8d 3c bb 30 ca bc ee a3 9a 3c
       -0.18679735 0.017228084 -0.02468144 0.018876996
0001c0 f1 ce c3 3d 8c 4c 47 3e 35 9f c1 bd 0e 54 f3 3c
       0.09560955 0.19462794 -0.094541945 0.029703166
0001d0 1e 40 91 3d a9 1d 23 3e 98 a5 cc 3c 42 35 6a 3d
       0.070923075 0.15929283 0.024981305 0.057179697
0001e0 ff e0 a8 bd 92 a7 e0 bd 0e be 09 bd ac fc 51 bd
       -0.082460396 -0.109694615 -0.033628516 -0.051266357
0001f0 44 51 c0 bd 52 55 33 bd 3e c8 4e 3d 8d e6 db bd
       -0.093905 -0.04378254 0.050483935 -0.107373334
000200 82 61 99 3d 59 ab 1f be 51 f1 0e bc ff fc d1 3d
       0.07489301 -0.15592708 -0.0087245265 0.10253333
000210 36 9e 54 3e d5 aa 8c bd 08 e9 4d 39 c7 e7 05 bd
       0.20763478 -0.06868521 0.00019637134 -0.032691743
000220 9c 6e 85 bd f9 bf 50 bc 7f 27 ee bd 8b df 9b bd
       -0.06515238 -0.012741082 -0.11628627 -0.07610997
000230 9b ed c4 3d b2 3c eb 3d 8c 88 4b 3e 85 e4 95 bd
       0.09615632 0.11486186 0.19876307 -0.07318977
000240 26 7b 93 3d ee 45 dd 3d 67 eb 65 3e 94 c6 00 ba
       0.07201223 0.10804354 0.2245308 -0.0004912403
000250 ac dd 91 bd 44 92 8d bd 36 6b 01 be 59 b3 84 bd
       -0.07122359 -0.069126636 -0.12638554 -0.0647952
000260 b7 28 2c bd 64 e6 88 bd c2 8d 0b 3e 43 92 11 bd
       -0.042031016 -0.066845685 0.13628295 -0.035539877
000270 fc 8c 04 3e 8b 5c 2f 3e 43 9e d7 bc 8c 10 c9 3b
       0.12944406 0.17125146 -0.026320582 0.0061360057

hidden2event.weight f4 [27, 40]
000000 cb b2 31 bd 67 db 2b be 0a 05 ad 3d 2d bf 03 3d
       -0.0433834 -0.16782914 0.08448227 0.03216474
000010 78 3c 46 3e e6 71 a2 bd ce d5 bb 3d 52 2a c7 3d
       0.19359004 -0.07931881 0.091716394 0.09724869
000020 a7 eb 50 3e e0 0d 20 3e b2 48 fa bc 94 24 38 bd
       0.20402394 0.15630293 -0.030552242 -0.04495676
000030 9f 06 91 3c 93 1f 41 3d 61 9e 47 3e 16 df 05 be
       0.017703352 0.047149252 0.1949401 -0.13073382
000040 57 31 83 bd 98 ba 78 bd 69 f5 0e 3e 40 28 17 bd
       -0.06405895 -0.060724825 0.13960804 -0.03690362
000050 77 e4 15 be f7 e3 31 3e 07 e7 84 3d f8 49 62 3d
       -0.14637934 0.17372118 0.064893775 0.055246323
000060 8e 01 2f 3d 07 72 03 3c 62 87 90 3c ad 05 51 3e
       0.042726092 0.008022792 0.01764268 0.20412321
000070 c0 fb e7 3d b8 8d 21 bc a6 70 1d 3e f2 a7 19 3e
       0.113273144 -0.009860449 0.15375003 0.15005472
000080 fe 73 0d bd 95 64 05 bb 09 9d 0d bd be 65 bc bd
       -0.034534447 -0.002035414 -0.03457359 -0.09199093
000090 ba b9 f3 bd cf e2 47 bd 3a 20 0c 3e 8e f5 c8 bc
       -0.11900659 -0.048800286 0.13684168 -0.024531152
0000a0 97 e1 5b 3d 64 d8 00 3e 73 79 3b be 12 1d 07 bd
       0.053681936 0.12582546 -0.18308048 -0.032986708
0000b0 ae 79 4b bd 4a bb 13 be 2e c8 ca 3d fa 30 20 3e
       -0.04967659 -0.14426914 0.099014625 0.15643683
0000c0 0e 0f 2a be 72 d6 3d 3d 06 64 56 3d f6 da 5a 3e
       -0.16607305 0.04634709 0.052341484 0.2137259
0000d0 13 a8 24 3e 6a 55 51 3e 40 2f 24 3d 85 67 43 bb
       0.1607974 0.20442739 0.040084124 -0.002981634
0000e0 82 e3 1d be 36 72 88 bd 10 45 a2 3d 43 8f 96 3d
       -0.15418819 -0.06662409 0.07923329 0.07351544
0000f0 79 ba 14 3d 4a 35 d2 bc 81 aa e2 3c 1b 0c 4d 3d
       0.036310647 -0.025660176 0.027669193 0.050060373
000100 2b 70 12 3e 5a 94 73 3d eb ac 63 3e 62 c2 25 3d
       0.14300601 0.05946765 0.22233932 0.04046858
000110 3b db 38 3d 29 b5 19 bd 08 19 c0 bc 76 a7 26 3d
       0.04513095 -0.037526283 -0.023449436 0.040687047
000120 0b cd e4 bc 8c 26 14 3e fb 86 31 be d6 2a c2 bc
       -0.027929803 0.1446783 -0.17336647 -0.023702066
000130 38 6e c7 3d 25 23 16 3e 95 97 b7 3c a5 cc 94 3a
       0.097378194 0.14661844 0.022411147 0.0011352493
000140 6a e2 04 bc f5 19 96 3c d7 4b 29 bc 58 84 75 3d
       -0.008110622 0.018322924 -0.010333023 0.059940666
000150 3c 15 6f be cf 46 c2 3d 41 ee 18 3d f1 7e 3a 3e
       -0.23347944 0.09486162 0.03733659 0.18212487
000160 16 1d 9b bd 42 c9 c6 3b 10 b6 b9 3d 66 fa 7f bd
       -0.07573907 0.0060664723 0.09067929 -0.062494658
000170 eb b3 6c bd a0 3c 23 3e 75 47 1b be e6 42 96 bd
       -0.05778877 0.15941095 -0.15163977 -0.073369786
000180 4b b5 9b 3d c4 bc 26 be 80 ff ad bd 05 55 35 3c
       0.07602938 -0.16282946 -0.084959984 0.0110676335
000190 ce 5a dc bc fb 4e 94 bd e0 be 08 3b 35 88 4e 3d
       -0.026898768 -0.07241627 0.0020865723 0.050422866
0001a0 ab 47 4b 3d f7 ea cd 3d 2f e7 f3 3d dd 64 5e be
       0.049628895 0.100545816 0.11909329 -0.21718164
0001b0 5d 00 19 be f8 bf 70 3b 71 c9 3a bd ff 4b f5 bd
       -0.14941545 0.0036735516 -0.045602266 -0.11977386
0001c0 7b f6 96 3d e1 74 8b bd 90 66 0e 3d 54 2f 88 bb
       0.07371231 -0.06809402 0.03476578 -0.0041560326
0001d0 60 c5 8b bd f8 36 3e bd 46 79 d2 3c ce 26 da 3c
       -0.06824756 -0.04643914 0.025692593 0.026629832
0001e0 a1 05 9e 3d 9b 17 8a 3d d4 dd 73 bd 7e 0c d9 3c
       0.077159174 0.06742784 -0.059537724 0.026495215
0001f0 5b 0a 97 bd a2 44 28 be 1e d1 89 bd 23 47 5c 3d
       -0.07375022 -0.16432431 -0.06729339 0.05377878
000200 b9 09 e7 bd 9f 2e b9 3d e4 dd 4e 3c 91 39 d2 3d
       -0.11281151 0.090420954 0.012626145 0.10264886
000210 64 75 6a 3c 60 4a b7 3d a3 a7 40 be 5a 63 25 3e
       0.014310215 0.08949733 -0.18813948 0.16151181
000220 f8 67 60 bc 39 28 27 be e6 a2 9f bb 10 94 96 bd
       -0.013696663 -0.16323937 -0.004871714 -0.073524594
000230 88 57 48 3e 63 a2 dd 3b c3 a4 d9 3d d4 d6 31 bb
       0.1956464 0.006763743 0.10627129 -0.0027136104
000240 7d 8b 04 be 71 6d b0 bd 42 4a 50 3d 4a 08 87 bc
       -0.12943836 -0.08614624 0.050852068 -0.016483445
000250 71 15 51 be c0 ca 74 bd 3d 4e d2 3c 50 f0 00 be
       -0.20418335 -0.05976367 0.025672073 -0.12591672
000260 3d 4a 98 bd 73 09 ae 3d 0e 16 65 3d 04 53 bd bd
       -0.07436035 0.08497896 0.055929236 -0.092443496
000270 c7 43 9d bd 31 87 4b 3e b8 36 cd bb 40 be ab bd
       -0.07678943 0.1987579 -0.0062626265 -0.08385897
000280 dd cb 3c 3e 7c 80 17 be 62 44 59 bd 7f 88 5e bd
       0.18437143 -0.14795107 -0.05304373 -0.05432939
000290 3b 35 05 be 5f f6 e1 3d 93 73 a9 3d 93 62 ac 3c
       -0.13008587 0.1103332 0.08273997 0.021043098
0002a0 ae 07 2d bc f0 5a ff 3b fa ba db bd ec dc a5 3d
       -0.010560913 0.007792823 -0.10729022 0.08098778
0002b0 24 80 12 be 7a 99 9c bd f4 d3 03 3d 93 8c 96 bd
       -0.14306694 -0.07646461 0.032184556 -0.07351031
0002c0 5e d9 f3 bc 2e 38 ac 3c 1c eb 5e 3c 00 25 10 be
       -0.029766735 0.021022882 0.013605859 -0.14076614
0002d0 1b f6 8b 3d 7f 93 56 bd c8 6c 5c 3c 06 e5 1d 3e
       0.0683405 -0.052386757 0.01345367 0.15419397
0002e0 76 5c 2f 3e d7 41 8e bd be e4 7e bc db ec 34 3e
       0.17125115 -0.06946152 -0.015557466 0.17668478
0002f0 97 f1 7b bd 49 33 25 bc 49 c7 4f bd c5 15 8a bb
       -0.061509695 -0.010083028 -0.050727163 -0.004214021
000300 f4 05 6f 3b 1d 8e 4c 3b e5 87 fb 3d 12 23 af 3b
       0.0036472054 0.0031212636 0.12281779 0.005344757
000310 e0 66 11 be 7b 4f b4 3c 93 4a 04 3e 8e d7 70 bd
       -0.141994 0.022010555 0.12919073 -0.05879932
000320 22 4d 32 3d 65 c5 a4 bd 19 2d e4 bc 79 06 0e bd
       0.04353059 -0.080454625 -0.027853535 -0.03467414
000330 65 46 50 3e fa 8f 4f 3d c1 80 22 be 81 b1 10 bc
       0.20339353 0.050674416 -0.15869428 -0.008831383
000340 b7 92 4e bd 7f 66 11 bd df 8e 7d bc b6 96 8a bc
       -0.050432887 -0.03549814 -0.015475958 -0.016917568
000350 b4 4b 06 be 33 81 1a be ad 5c f3 bc 29 3d 27 be
       -0.13114816 -0.15088348 -0.029707277 -0.16331924
000360 f5 72 3c 3e 74 b6 30 3e 78 e9 d0 3c 6b da 3e be
       0.18403228 0.172571 0.025501952 -0.18638007
000370 d4 78 3a be 64 83 59 3e 38 68 38 bd a0 5b fb 3c
       -0.18210155 0.21241528 -0.045021266 0.030683339
000380 46 b3 95 3d 62 2a 29 be c6 ca d9 bc 6a 9d 49 3e
       0.07309584 -0.16520074 -0.026585948 0.19688955
000390 1a 84 50 3e 78 31 dc bd 82 4b 8c 3d 62 e0 bb 3c
       0.20362893 -0.10751623 0.068503395 0.022934143
0003a0 7e 81 b3 3b 1c c4 d4 bc 25 ab 56 bd dd 5c bd bd
       0.005478083 -0.025972418 -0.05240931 -0.09246228
0003b0 94 5c 5d be 55 97 30 be 93 f5 e1 bd 6e 07 a9 bb
       -0.21617347 -0.17245229 -0.11033168 -0.0051583564
0003c0 36 35 1b 3e f3 c8 8a 3d 64 fe 76 3e ac 5d 03 3e
       0.15157017 0.06776609 0.2412048 0.12828702
0003d0 65 50 13 3e 31 ad 64 bc ea 91 3b 3d e0 14 4d be
       0.14386137 -0.013957308 0.04579345 -0.20027494
0003e0 22 63 7c 3d 27 9f 21 3c 10 72 e6 bc 7f 75 64 3d
       0.061617978 0.009864605 -0.028130561 0.055776116
0003f0 d4 7e 4b be c7 d2 3e be 27 29 c8 3d cd 15 29 be
       -0.198726 -0.18635093 0.09773474 -0.16512223

hidden2event.bias f4 [27]
000000 3d e1 7b bc ab 9e 7d bd 16 13 1f bd 5a 66 76 bd
       -0.015373525 -0.061918896 -0.03883656 -0.060156204
000010 2d da 3d be 4e 7e 0d be 08 eb 04 be 76 de 0c 3d
       -0.18540259 -0.13817713 -0.12980282 0.034391843
000020 cb d6 94 bd c2 fd d7 bd 60 c6 8d bd 5e 92 8c 3d
       -0.07267531 -0.10546447 -0.06922603 0.06863855
000030 56 3c b1 3d 8a 21 92 3d 28 69 d0 3b 09 1a 07 3e
       0.08654086 0.07135303 0.006360192 0.13193525
000040 d7 36 08 be 7a 6d 57 be d0 80 63 3d b5 b4 ce bd
       -0.1330217 -0.21037856 0.055542767 -0.10093061
000050 46 07 f5 3d 2a 04 21 3d 3a 77 ba bc 34 df 86 bd
       0.11964278 0.03931061 -0.02276193 -0.06585541
000060 54 d3 71 bd 7e 4b 61 be e0 71 24 be
       -0.05903943 -0.22001454 -0.16059065

hidden2time.weight f4 [3, 40]
000000 6b 8b 00 3e 79 37 0f 3e 4a 9f af bc 33 5d db 3c
       0.12553184 0.13986005 -0.02143826 0.02677784
000010 88 ae c9 bd 61 a7 76 bd 7d 3b a0 3d 68 e7 05 3b
       -0.09847742 -0.06021822 0.078238465 0.0020432118
000020 49 e5 e1 bd 71 69 82 bd 57 96 02 be 14 f3 d1 bd
       -0.11030061 -0.063677676 -0.12752663 -0.102514416
000030 ff cc 13 bd 01 d0 20 3e ea 4e 0c bb 1e 66 b2 3d
       -0.03608417 0.15704347 -0.002140934 0.087108836
000040 86 9a 20 bd 43 69 32 3d 0a 73 85 3d a3 18 9f 3d
       -0.039209865 0.043557417 0.065160826 0.07768371
000050 e9 1a 36 bd 69 41 ca bc eb 49 f9 3d c2 9a 0c 3d
       -0.044459257 -0.024689393 0.12172302 0.034327276
000060 41 9a f7 3c 9c 19 1b be 10 db 20 3e b3 59 fd bd
       0.030224921 -0.15146488 0.15708566 -0.123706244
000070 c9 dc 7e bd 73 95 23 3e 53 03 b3 bc 3d 56 bd 3c
       -0.062222276 0.15974979 -0.021852171 0.02311241
000080 3c c1 fe 3d 60 ec ed bd e8 f7 e2 bc 9b 9c d5 3b
       0.124392 -0.116173506 -0.027706102 0.006518913
000090 1f 05 b3 3d ca 45 5c 3e 29 6b 94 bd 6f c3 02 3d
       0.08741211 0.21510997 -0.07247002 0.03192466
0000a0 07 c7 6a bd 83 1a e2 bd ee ad c1 bd db d3 be 3d
       -0.057318714 -0.11040213 -0.094570026 0.09317752
0000b0 1d 36 cb bd 71 53 69 3d 61 67 9b 3d 23 6e 20 3e
       -0.09922431 0.05696434 0.07588077 0.15667014
0000c0 5d 55 0b be 63 01 0d bd 77 d3 08 3e 7c 2c d8 3d
       -0.13606782 -0.03442515 0.13361917 0.1055536
0000d0 f1 52 b1 3d ef d3 42 3d c6 70 d7 3d 7d 65 af 3d
       0.08658398 0.047565397 0.10519557 0.08564279
0000e0 81 26 20 be 05 50 f1 3d ac bc 5a bd e6 1f b1 bd
       -0.15639688 0.11782841 -0.053402588 -0.08648662
0000f0 5c 58 1b 3e 05 4e f9 3c f9 69 9e 3d e1 dd 62 bd
       0.15170425 0.03043271 0.077350564 -0.05538738
000100 dc 91 02 be b2 97 32 3e ea 04 5a 3d 03 ae 24 3d
       -0.12750953 0.1744068 0.053227343 0.040205013
000110 ee 79 cf bd 9a c9 01 be 4d cf 02 be 3d 3f 27 be
       -0.10130678 -0.12674561 -0.12774391 -0.16332717
000120 5e 72 28 3e 80 fd 36 3d b5 1a 9f bd e9 98 b5 bc
       0.16449878 0.04467535 -0.07768766 -0.02216764
000130 82 9c d8 3d f7 e1 40 3e 52 15 f6 3b 0a 38 d6 bd
       0.105767265 0.18836199 0.007509866 -0.10459907
000140 7e 5e 2c 3e 4a cf 53 be 0a b6 72 3e f6 f4 62 3c
       0.16832921 -0.20684543 0.23702255 0.013852349
000150 70 bf cc 3c f9 e2 3d 3e 04 60 69 be 3f 01 b4 bd
       0.024993628 0.18543614 -0.22790533 -0.087893
000160 ea c7 06 3e 29 ed b2 3d b4 9e 41 be 4f 6a e9 bd
       0.13162199 0.08736641 -0.18908197 -0.1139723
000170 7b 4b 74 bd 3a b7 09 be 43 6c af 3d ba 49 69 be
       -0.059642296 -0.13448802 0.08565571 -0.2278203
000180 b7 bf 87 3c 1b 3b 56 3e 5a ab 39 3e a6 d6 3f 3c
       0.016570909 0.20920984 0.18131772 0.011708891
000190 54 0d 5a be 0f 45 8f 3d 39 1e 1c be 16 12 9e 3d
       -0.21294147 0.06995594 -0.15245904 0.07718293
0001a0 8a 41 3b be 30 7f 43 3d ed 0e 39 be 37 9c 4d 3e
       -0.1828672 0.047728717 -0.180721 0.20079122
0001b0 c6 8c 0b bb 90 4c fe bd 14 ac db 3d 99 9a b2 3d
       -0.0021293624 -0.12416947 0.10726181 0.087208934
0001c0 39 bc e9 bd 43 6c 38 be f4 a0 13 3d 42 85 fc bd
       -0.11412854 -0.18010049 0.03604217 -0.123301044
0001d0 ae 3e 57 3d cb e9 9c bc bc 09 3e bd ae c7 6e 3d
       0.05255001 -0.01915445 -0.046396002 0.0582959

hidden2time.bias f4 [3]
000000 9e 07 b7 3d d4 de 8f bd 06 0b e9 bc
       0.08937 -0.07024923 -0.02844764
