events_simulation/models/model_20180507-0812.pt (torch_old, 78354 bytes, 9 tensors)

loss_function_events.weight f4 [27]
00000000: 0000 803f 0000 803f 0000 803f 0000 803f
00000010: 0000 803f 0000 803f 0000 803f 0000 803f
00000020: 0000 803f 0000 803f 0000 803f 0000 803f
00000030: 0000 803f 0000 803f 0000 803f 0000 803f
00000040: 0000 803f 0000 803f 0000 803f 0000 803f
00000050: 0000 803f 0000 803f 0000 803f 0000 803f
00000060: 0000 803f 0000 803f 0000 803f
1.0 1.0 1.0 1.0 1.0 1.0 1.0 1.0
1.0 1.0 1.0 1.0 1.0 1.0 1.0 1.0
1.0 1.0 1.0 1.0 1.0 1.0 1.0 1.0
1.0 1.0 1.0

lstm.weight_ih_l0 f4 [160, 70]
00000000: cd80 0ec0 4ab2 f1bf f023 38c0 468f ba3e
00000010: da5d 26c0 4609 2140 748e 89c0 060d 4dc0
00000020: 215a 8c40 447a f8bf bbf1 26c0 9e40 91bf
00000030: 9ba4 83c0 a669 3bc0 bf82 cabf 9153 c140
00000040: 1573 08c0 4c9f 2640 9b89 a4bf 8f19 d3bf
00000050: 144d 46bf 302f 5ec0 32e8 3cbf 3a30 bf3f
00000060: 5bf8 bf3f 20b0 b1bb c8c1 f4be c4c6 cabf
00000070: 303f b940 a374 7ebe 4c66 3fbe 504f cbbf
00000080: 69a5 3dbd fe05 4abd 5e37 37bf e97c 383e
00000090: a3a0 ebbe d73a d43f 68fe 903f 25c3 eabe
000000a0: 4059 ac3f 1a47 8f3f b5e7 46bf 44b5 bebe
000000b0: d344 0abf 28b9 bd3f a55a d4be f43b 1a3f
000000c0: 633b 023f 8144 7fbf 9387 f2be 7e0b 9cbe
000000d0: 7b44 adbf a8c7 863f 1ce4 f13e 3b3d be40
000000e0: 2978 5b3f 852b 633f 682d 79bf fc8d 10bf
000000f0: 0364 edbc cedb 40bf fec5 003d a4b5 53bf
00000100: d1c3 d33e 7e37 ebbd b88b c03b dcce 693e
00000110: e33c 5bbf 7e1d f03f 91a0 83bf a392 9cbf
00000120: 3779 a8be 4a90 f2bf 7b3f e7bf 5577 3b40
00000130: 66c6 06be 98fa 963f 32c1 7f3f 236d 60c0
00000140: 7653 fe3e 281b 0b3f 7ce4 9240 8e8e 1dbf
00000150: d4ab 9a3f 16c6 ba3f f912 ba3f 0cc4 393f
00000160: 251e 71be a47c 2840 281d 013f 2ec5 c3bf
00000170: de44 0bc0 9900 3b40 f27c c73e 823b 5bbd
00000180: 2dbf 2e3e 3200 28bf cffc 423f b3ec be3d
00000190: 8a33 8f3f a583 51bf 2cf7 94bf cc43 d13f
000001a0: c24d f9bd 630a 223c 7db8 edbd fb3d 9e3f
000001b0: 9a49 45bf 493b 40bf 9b31 12bf 34f5 0f3f
000001c0: fd66 873f 5a91 89be 7c18 db3e e8aa 5e3f
000001d0: b1a6 adbe d628 0f3f cb82 993e f18f 693e
000001e0: 88cc 50be 7b7d e63d f484 bbbe a325 ab3f
000001f0: 363e c73f 8807 0bbd 251e 97be 76fd a23c
00000200: 6709 083f 4e46 7e3f 4a2d a83e f938 a53d
00000210: cf0a 3abf 3d0d b1bf 4fa4 0440 42fd 10c0
00000220: a811 91bf 1eca cebe 04e0 a3bd 9c0b 0c40
00000230: ae9f 9140 6078 2ebe 6e3d 793f 99a5 073e
00000240: 3bdc d1bf b41e 0f40 e125 19c0 13c9 9ebe
00000250: c4a8 f83e f1c6 8d3f f8ff ce3e 87c6 94c0
00000260: cf8a 1640 0891 2c3f e3b9 1e3f 6010 3ec0
00000270: 7548 01c0 b79f 0e40 c9a8 08c0 27ea 613f
00000280: c8d2 04c0 7483 aa3f f9f0 20bf 5972 8ec0
00000290: 07ea 0d40 6606 70bd 238f 4d40 5792 0b3f
000002a0: 39e8 7a3e 414a 5640 b7aa bebe 0076 41bf
000002b0: 8ee2 91be beec 623f 6988 6bbe 17bc c33d
000002c0: 4e3e fc3c 0964 23c0 d08d a7be 2c32 8a3e
000002d0: 30bc 30bd 5d23 e93e 6859 7cbf a1df 023f
000002e0: 19f5 cbbe e896 4d3e a3b4 fcbe d5e3 dfbe
000002f0: 847b c4be 25ec a1be 5f4c e4be 5ea2 41bf
00000300: 8fae e23e ec8d 9f3e 2463 203f 65a9 9abe
00000310: cf04 033e 50e0 81bd 55e4 8d3e 9104 9abf
00000320: 984c c03e 3b30 963e e232 ef3e 2c37 1b3e
00000330: b07a 383e 8413 16bf 8ff6 35bf a55e 213f
00000340: a47a a23e 3453 e13e e97e 1ac0 2124 463f
00000350: 3f90 7a3f fac8 5840 4941 02c0 bcdf 2a40
00000360: 3122 30c0 ecda 3fbf 9598 b93f 7251 f7be
00000370: f906 3f3e 1517 523e 59f5 5140 0f4e 15c0
00000380: 7ef3 c5bf e2a3 90be 3715 ea3f 49c1 cc3f
00000390: 80c8 dcbf 0de4 9abf 1a2d f1bf 5bae 953f
000003a0: a01e 98c0 e319 6cc0 236d 82bd 50fc abbd
000003b0: 1783 16be be00 16bf 6866 ea3e c1f5 26be
000003c0: 94ff 873f f3ec f3be 55a4 843f 05db c6bf
000003d0: b151 f0be 9413 673f 03df 4a3f 7091 fa3f
000003e0: feff 47be d158 043f 3ec2 5e3e bbec 4b3f
000003f0: ba73 2f3b 6f4f 96bf 530b c2be 43d0 0540
-2.2266114 -1.8882535 -2.8771935 0.36437434 -2.5994782 2.516191 -4.2986393 -3.20392
4.386002 -1.9412313 -2.608504 -1.1347845 -4.1138434 -2.9283233 -1.582115 6.041451
-2.132024 2.6034727 -1.2854494 -1.6492175 -0.7746136 -3.47163 -0.737918 1.4936593
1.4997667 -0.005422607 -0.47804093 -1.5841908 5.7889633 -0.24849181 -0.18691367 -1.5883579
-0.046300326 -0.04932212 -0.7156886 0.180164 -0.46020994 1.6580456 1.1327639 -0.45852008
1.3464737 1.1193573 -0.77697307 -0.3724767 -0.5401127 1.482213 -0.41475406 0.6024773
0.50871867 -0.99713904 -0.4736906 -0.30477518 -1.3536524 1.052968 0.47244346 5.9449744
0.85730225 0.8873828 -0.9733491 -0.5646665 -0.028978353 -0.75335395 0.03143882 -0.82699037
0.41360334 -0.11485194 0.005876031 0.22832817 -0.8563978 1.8759 -1.0283376 -1.223225
-0.3290498 -1.8950284 -1.8066248 2.9291584 -0.1316162 1.1795225 0.9990417 -3.5066612
0.4967305 0.5433831 4.590391 -0.61545646 1.2083688 1.4591701 1.453704 0.7256477
-0.23546655 2.6326075 0.50435114 -1.529455 -2.1760783 2.9219115 0.38962513 -0.053523548
0.17065115 -0.656253 0.76167005 0.093224905 1.1187603 -0.818415 -1.1637931 1.6348815
-0.12173034 0.009890172 -0.11607454 1.2362665 -0.7706543 -0.7509046 -0.5710694 0.56233525
1.0578305 -0.26868707 0.42792118 0.8697953 -0.33916238 0.55921686 0.299826 0.22808816
-0.20390522 0.11254402 -0.36624873 1.3370861 1.556586 -0.03394273 -0.29515186 0.01989625
0.53139347 0.99326026 0.32847053 0.08067507 -0.7267274 -1.3832165 2.0725286 -2.2654576
-1.1333513 -0.40388578 -0.08001712 2.1882086 4.550742 -0.17038107 0.9735936 0.13246764
-1.6395334 2.236249 -2.392937 -0.31012782 0.48566258 1.1076337 0.40429664 -4.6492343
2.3522222 0.674088 0.6200239 -2.9697495 -2.0200474 2.2284982 -2.1353018 0.88247913
-2.075365 1.3321366 -0.62867695 -4.4514585 2.217409 -0.058599852 3.2118614 0.5452017
0.24502648 3.348282 -0.3723962 -0.7557068 -0.2849316 0.8864249 -0.23001255 0.0955736
0.030791428 -2.5529807 -0.32725382 0.26991403 -0.04314822 0.45534793 -0.98573923 0.5112248
-0.39835432 0.20077097 -0.49356565 -0.4372851 -0.38375485 -0.31625476 -0.44589517 -0.7563838
0.44273803 0.31162965 0.62651277 -0.30207363 0.12794803 -0.06341612 0.27713266 -1.2032644
0.37558436 0.29333672 0.46718508 0.15157765 0.18015552 -0.5862353 -0.71079344 0.6303504
0.31734192 0.4400879 -2.413996 0.7739888 0.9787635 3.3872666 -2.0352347 2.6699057
-2.7520869 -0.74943423 1.4499689 -0.48304325 0.18655004 0.20516618 3.2805998 -2.3328893
-1.5464933 -0.28250033 1.8287724 1.5996486 -1.7248688 -1.2100846 -1.8841889 1.1693834
-4.7537384 -3.68908 -0.063684724 -0.08397734 -0.14698444 -0.5859488 0.45781255 -0.16304685
1.0624871 -0.47641715 1.036265 -1.553559 -0.46937326 0.9026425 0.7924654 1.9575634
-0.19531247 0.51698023 0.21753785 0.796581 0.002677186 -1.1742991 -0.37899265 2.0908363

lstm.weight_hh_l0 f4 [160, 40]
00000000: 18fa dfbf c39d 87bf ef9b 533f ddc9 4e3f
00000010: 2f8e c53f cb64 603f 2b3c 13bf 89a8 52c0
00000020: 41b1 0c3f c99e c83d 5034 1fbf c2b4 343e
00000030: 5c30 803f 445c 2abf ba63 a93f b0fc 8240
00000040: fbe9 89bf bfd9 9abf fce5 783e e440 54bf
00000050: 3820 973f 6ec6 e73e 7c9c b2be c5d9 a0bd
00000060: fa0c ce3d f573 b6bf 03dd 40bf 730e 4b3f
00000070: fd82 ff3d ae38 b4bf d824 433e 26dd 873e
00000080: ed25 67bf 81b3 9e3e 9446 423f 6783 e2bd
00000090: 59bf 443e c3bf 3dbf 3455 6bbf 496c 3bbf
000000a0: f429 bf3d 335d 40be 9332 873d 8003 7d3f
000000b0: 1b0e 76bf cfd5 17be efca 503f 6800 68bf
000000c0: f27a 8dbf dd26 fdbe 9285 79be 1d14 143e
000000d0: 3e7e b33e a33f 733e 0905 103e 8b95 103f
000000e0: c9d4 f0be 5a96 9ebf 701f 023f ee30 06bf
000000f0: baf7 8e3e 153c 903f 03f5 d33d 9bd4 a8bf
00000100: c82c 9b3d 6605 a33d 922b 2cbf 07c0 2fc0
00000110: 9ca6 1f3f 17e2 db3f 1eba d8be 4be5 793f
00000120: a6ff a5be 3c46 3fbf 431e f43e a144 adbf
00000130: 8754 50bf 8d97 a8bf 6dfb ae3c 0c57 01be
00000140: f352 3e3f e0e7 f5be 5d02 2abf cf35 bdbe
00000150: 647c 0ebf 6a64 903e 86f1 2d3b da05 943e
00000160: 9269 89be 5418 35bf 023b 783e ed02 7cbe
00000170: 6506 153f 409c 32be 0a89 013f 4a48 3cbf
00000180: 5e3e 1dbf 329b c2be 6d27 b6bf c5af 0fbf
00000190: 4196 a5bd 7b0c 1d3f be11 80be 6b44 063f
000001a0: 2e90 8b3d 90a4 523d 3d88 303f 9c9f 693d
000001b0: 8202 433e 0a3a 50bf 8d76 b1be 499d 12bf
000001c0: 799c 193f 82aa 3d3d ea90 3dbf 7aa6 793f
000001d0: 4fbb 2bbe c544 26bf 550c 0cbf f5ce 193f
000001e0: c97f 323e 1ba3 ce3e b763 503f 5ccf 313f
000001f0: b8a9 b83f f699 17be 7159 a5bd cfe2 16bf
00000200: ce7c 8d3f 2f78 1b3f 160d 0f3f 4b6a c63e
00000210: c037 97bf f0b9 78be 42f0 183f ab3e be3d
00000220: 05d3 83be 768b ea3f 21e6 323f ee7c 21c0
00000230: 3d6b e3be 5c41 943f efe2 f8bf 4f50 04be
00000240: e966 b53f 2e75 09bf 32fe 92bf 7db9 47bf
00000250: 5595 7fbe 2a36 69bf 4381 113f 099b c9bf
00000260: 1f38 c7be da87 bdbe 26a9 f83e 68f2 66be
00000270: fd2a b63e c53e 49bf 7798 4b3f b277 ff3e
00000280: dbdf 3c3e 77c2 943f a3ab 1b3e a221 9c3f
00000290: 69c3 b93e ae44 96bc 2c71 49bf fbd1 86be
000002a0: 892c 8e3f 028e efbe 039c 523e 3bce 1b3e
000002b0: a896 803f ddb5 dbbd 8e25 503e f05f 403e
000002c0: dd15 a9be 0bb6 963e 5e75 2b3e 321f 103e
000002d0: 1ed5 1d3d bbde e03e 54a9 453f 846b c33e
000002e0: 9005 823f 4737 5b3e 24e0 653f dbe7 e73e
000002f0: 828f f9bd 08d1 603d 8b76 353f 5aaf 0cc0
00000300: 5ce1 82bf fb85 16bd 52bb 0440 15b7 46bf
00000310: f03d 4abd 1c44 79be 073e febe 70e9 77bf
00000320: 6246 e63e df82 c33e 2bee c9bd dee8 6fbd
00000330: 40e3 bd3e a85f f7bd 87b4 dabe 7f3e 833f
00000340: 8d69 913e ddfe e9bd 4505 9dbe c046 6139
00000350: a87d 29be 4e5f 013f d6a7 06bc c2e0 b73e
00000360: 5e0d c43e 183a af3e 427d b7be eeeb 23bf
00000370: 4e6b 1dbf 0a3b 273f 2524 f6be 99cd de3e
00000380: 34b2 c73e 79df d2be d1dc 8c3e 7a51 1fbe
00000390: 3951 9fbe b964 553e fd04 9cbe 8359 53bc
000003a0: 4ae6 0cbd 0b3b ca3d 3a33 dbbc 5108 ed3e
000003b0: 5f68 acbe 2634 c0be 45eb 6f3f 8513 8c3d
000003c0: e7a3 ddbf b589 483f 4ece 033f e24e 803e
000003d0: 812f 72bf 429f b9bf 60e6 0b3f 4a09 9fbd
000003e0: 4a79 f4bf 6a2b 1a3f 0d35 9ebf 7d67 2ebe
000003f0: 23d3 b73d c759 913f ea95 aa3f 64ac 82bf
-1.7498198 -1.059502 0.8265981 0.8077677 1.5434016 0.876538 -0.57513684 -3.2915366
0.5495797 0.09795911 -0.621892 0.17647079 1.0014758 -0.66547036 1.3233559 4.0933456
-1.077453 -1.2097701 0.24306482 -0.82911515 1.1806707 0.45268577 -0.34885013 -0.07854036
0.10061069 -1.4254137 -0.7533724 0.7931892 0.12476156 -1.4079797 0.19057024 0.2653591
-0.90292245 0.30996326 0.75888944 -0.11060219 0.19213618 -0.7412073 -0.91926885 -0.73212105
0.09334174 -0.18785553 0.06601443 0.98833466 -0.96115273 -0.14827655 0.8155965 -0.9062562
-1.1053145 -0.49443713 -0.2436736 0.14460798 0.35057253 0.23754744 0.14064421 0.56478184
-0.47037342 -1.2389634 0.5082922 -0.5241841 0.27923375 1.1268336 0.10349467 -1.3189882
0.07576901 0.07960014 -0.67253983 -2.7460954 0.623636 1.7178372 -0.42329496 0.976155
-0.32421607 -0.74716544 0.47679338 -1.3536569 -0.8137898 -1.317125 0.021360124 -0.12630862
0.7434532 -0.4802847 -0.66409856 -0.36955115 -0.55658555 0.2820161 0.0026541664 0.28910714
-0.26838356 -0.70740247 0.2424126 -0.24610491 0.5821288 -0.17442417 0.5059973 -0.73547804
-0.6142329 -0.3800903 -1.4230782 -0.5612758 -0.08085299 0.6134717 -0.25013536 0.5244815
0.068146095 0.05142647 0.68957883 0.05703698 0.19043925 -0.8133856 -0.3466076 -0.5727125
0.60004383 0.046305187 -0.74049246 0.9751965 -0.16770671 -0.64948684 -0.5470632 0.60081416
0.17431559 0.40358815 0.8140215 0.6945703 1.4426794 -0.14804825 -0.080737 -0.5893983
1.1053712 0.6073026 0.5587934 0.3875297 -1.1813889 -0.2428968 0.59741604 0.09289297
-0.25746933 1.832381 0.698824 -2.52325 -0.44417754 1.1582446 -1.9444255 -0.1292126
1.4172031 -0.53694427 -1.1483824 -0.7801741 -0.2495931 -0.9109827 0.5683786 -1.5750438
-0.38910004 -0.3701771 0.4856655 -0.22553408 0.35579672 -0.78611404 0.7952952 0.49896008
0.18444769 1.1621846 0.15202193 1.2197764 0.362819 -0.018343296 -0.7868831 -0.26332077
1.1107341 -0.4678803 0.20567326 0.1521539 1.0045977 -0.10728047 0.20326826 0.18786597
-0.33024493 0.29435763 0.16743991 0.140744 0.038533323 0.4391993 0.772115 0.38167965
1.0157948 0.21407805 0.89795136 0.4529408 -0.12185575 0.054886848 0.7088401 -2.1982026
-1.0225024 -0.036748867 2.0739331 -0.7762311 -0.049375474 -0.24342388 -0.49656698 -0.9684057
0.44975573 0.38185784 -0.0985988 -0.05857169 0.3708744 -0.12078792 -0.42715856 1.0253447
0.2840084 -0.114255644 -0.30668083 0.00021484029 -0.1655184 0.5053605 -0.008218726 0.35913664
0.38291448 0.3422401 -0.35837752 -0.64031875 -0.6149186 0.6532446 -0.4807445 0.43516234
0.39003146 -0.4118612 0.2751222 -0.15558425 -0.31116655 0.20839204 -0.30472556 -0.012899759
-0.03439931 0.09874543 -0.026757825 0.46295407 -0.3367338 -0.37539786 0.9371837 0.068396606
-1.7315644 0.78335124 0.5148667 0.25060183 -0.94603735 -1.4501727 0.546484 -0.077654436
-1.9099514 0.60222495 -1.235994 -0.17031665 0.08975818 1.1355523 1.3327 -1.020886

lstm.bias_ih_l0 f4 [160]
00000000: 7384 ed3e 2088 dcbc 8f79 8e3e 895b 7cbe
00000010: ce55 b93c 5bd0 a3bd 4e4f a53e 1f77 04be
00000020: d579 82bc 062d c5bd 6796 febd b565 833e
00000030: 732a 01bf ccf1 363c 2c70 3c3e 4379 b13e
00000040: fa64 49be b981 ac3d a4a5 4fbd 8def 013e
00000050: 88f9 813b 6c3f 7d3e a9f6 95be 6993 d63e
00000060: fc8f ed3c f9a7 693e 19c5 8bbd a8d7 b53e
00000070: b9b6 093e 412c c43d 0b74 82bd b680 bd3d
00000080: 669f 303c 2a6a 7cbc ee36 ddbb 8800 ee3c
00000090: cf43 ce3d 71ee a63c 2484 3c3e 581b 8b3c
000000a0: 50d6 c5bc 6e52 673c dbbc 7c3e a79e 4bbe
000000b0: 42b9 9c3e 1537 7e3e e1d1 923e e089 20be
000000c0: d329 023e 1cfd a6bd d10e 7d3e 1440 a73e
000000d0: 3069 653f c0f9 30be 583b 473e 0b34 74bd
000000e0: 47aa a23e 2543 8dbd 7b6e cf3d 9cb2 123e
000000f0: b2d0 6f3e 3a43 b63e 3fa7 0d3e 3ee0 f0bd
00000100: a43d 1e3e 8985 c63e c0da 0c3d 35e1 8ebd
00000110: 2056 9a3e 651c 493f bff4 713e 8a39 77bd
00000120: 4afe 0e3c 532b 1a3e eac1 b73e df27 f23d
00000130: 1f10 80bd 9176 603e 5b38 453d 462d fd3c
00000140: 8e1d 75be 60c8 88be c807 e33d a545 343e
00000150: aaae ed3d 7647 2c3d 0e89 193e f651 50bd
00000160: 58be 8fbe d98e c4bd 6348 3f3e 1b74 273d
00000170: ce59 383e e92a 34be 7346 20be 29f8 283e
00000180: 3952 2abe 9d6a 483b fcc2 45bc 9dbc 19be
00000190: c769 7bbe 6a9a 7a3e 37a5 54be 15ae b4be
000001a0: a19f 963c 0fa1 823c 05d0 933e 4adf 813e
000001b0: 399e 8dbe c7c9 a1bd 1cb8 38be 0c21 cbbd
000001c0: bea0 adbe 3f2e a13e 04df e43d b012 dd3b
000001d0: 9e1d 8ebe 256d 96be 90a0 443e 6702 08bd
000001e0: a8b8 943e 9172 363d 89e9 3d3e aa57 1dbd
000001f0: 8631 1a3d 9a5b 92bd 6f47 9a3b eafb febd
00000200: ffc9 6f3e 3492 313e 66c5 f03d d678 14be
00000210: 421b ad3e bc26 ebbe c08a cebd 58fa 8d3e
00000220: 9e6c bebc b377 a73d 935e 773e b7f2 e4bc
00000230: cbdf 873d 605b bf3c 9107 0fbe 744c 0a3f
00000240: 3f97 e83d acbd 9abe a72b 51bc 459e 8d3e
00000250: 77b0 b83d 94d7 413e 0d59 72be a4dc a8bd
00000260: 3170 103e c0a6 05bc 3959 113f 1668 36be
00000270: 46b4 6a3e 09f3 a83d d802 19be 3d18 fbbd
0.46390113 -0.026920378 0.27827117 -0.24644293 0.022623923 -0.07998725 0.32287067 -0.12936066
-0.015927235 -0.09627728 -0.12431031 0.25663534 -0.504554 0.011166047 0.18402165 0.34662828
-0.19667426 0.0842318 -0.050695077 0.12689038 0.003966514 0.24731225 -0.2928975 0.4190934
0.028999321 0.22817983 -0.06824703 0.35516095 0.1344861 0.09578753 -0.0636979 0.09253065
0.010780191 -0.015406171 -0.006750933 0.029052988 0.10071527 0.02037737 0.18409783 0.016980812
-0.024150044 0.014118774 0.24681418 -0.1988474 0.3061009 0.248257 0.2867575 -0.15677595
0.12711267 -0.081537455 0.24712683 0.32666075 0.8961363 -0.17282772 0.19456232 -0.059619945
0.31770536 -0.068975724 0.10128494 0.14325947 0.23419455 0.35598165 0.1383333 -0.11761521
0.15453202 0.38773754 0.034388304 -0.069765486 0.30143833 0.7855895 0.2362852 -0.060357608
0.008727619 0.1505559 0.35890132 0.11824011 -0.06253075 0.2192023 0.048149448 0.030905377
-0.23937055 -0.26715374 0.110854685 0.17604692 0.1160558 0.042060338 0.14993688 -0.050859414
-0.28074908 -0.095975585 0.18679957 0.04088221 0.18003008 -0.17594494 -0.15651874 0.16500916
-0.16632928 0.0030581125 -0.012070414 -0.15013357 -0.2455207 0.24472967 -0.2076615 -0.35289064
0.018386664 0.01594594 0.28869644 0.2536567 -0.27659777 -0.07899814 -0.18038982 -0.099184126
-0.339117 0.31480595 0.11175349 0.0067466125 -0.2775697 -0.29380146 0.19201875 -0.033205416
0.29047132 0.044542853 0.18546118 -0.03841368 0.037644885 -0.07146378 0.0047082226 -0.124503925
0.23416899 0.17340928 0.11756401 -0.1449922 0.3380986 -0.4592799 -0.10085058 0.2773006
-0.023245152 0.08177128 0.24157171 -0.027947767 0.06634482 0.023359 -0.1396773 0.5402291
0.11356973 -0.30222833 -0.012766755 0.27659813 0.09018033 0.18929893 -0.23666783 -0.08245209
0.14105298 -0.008157432 0.5677677 -0.17813143 0.22920331 0.0824948 -0.14942491 -0.122604825

lstm.bias_hh_l0 f4 [160]
00000000: 13a6 e23e 2817 0ebe ef4b 553e dffa afbd
00000010: 73d3 453e 6ec5 86bd 0277 913e 7382 1cbe
00000020: a462 223d 9431 9fbd a3f3 f3bd 0f6a 603e
00000030: 5451 0abf ba35 a23e ecb2 d7bd 312c 2a3e
00000040: 1e9d b0be 0f4f 87bd ddb0 863d 3e50 143e
00000050: 6456 c5bc 0d65 a63e 5f79 9fbe c7e3 853e
00000060: 17f7 f7bc e0e1 093e 0b36 88bd 988b b33e
00000070: 98eb d73c 401e 603c 7283 c53d f4ef a7bd
00000080: ef38 2fbe f70c 323e 0446 9abd 23cb d93d
00000090: d7f2 2dbd a67e 7a3e a710 843e ffc6 e5bd
000000a0: ecef 573d 2e39 1a3e 1e4c f03d f71e 98bd
000000b0: 2ae9 ff3d 2999 703e 8c2d 8f3e d545 0ebe
000000c0: 0fb4 62bd 64cf f73d d695 c23d 40c1 ae3d
000000d0: 4e7e 433f 105f 67bc 8cd7 583d 97c8 5fbe
000000e0: 36a1 833e fd2c dcbd 7a6c b03e f158 d63e
000000f0: b13f 143e cda7 923e 6fc5 8b3e a65f 7f3d
00000100: f85b 483d 37ba f93e 9932 773d b4d9 ab3c
00000110: eccd d03e d0bf 103f ba5e 9b3e 925b 0c3e
00000120: 40fc 3a3e 61ec 923e 304c c23e 8efb 9d3d
00000130: 06fe 163e 13f4 583e 776a 5b3e 9395 0d3d
00000140: 50e1 84be ac75 85be e197 a23e 95af c6bd
00000150: 1373 0a3d b90d 883e 082b 1f3e 1f5d a7bd
00000160: c62b 4d3b 5784 33be 4189 b53e 22af a23b
00000170: 33d2 a03d e7f2 5fbe b2fa 943d ba47 e3bd
00000180: f159 a1be 0870 1f3e 07f7 b33d c6c7 b3bd
00000190: 7650 c2bd 9fee 063d 23b6 77bd 238a 8bbe
000001a0: fe2d 9a3e 466d cfbc 7774 903e 8a3c 273e
000001b0: 240f cfbd b244 44be 9f09 80be a051 4f3d
000001c0: 68c4 39be 4e04 6b3e 9ce7 b0bd 4abe 123e
000001d0: c646 78be a684 3fbe 9b65 a33d 1abd aabc
000001e0: 334f e13d cc8d 153e e315 2c3d a958 90bc
000001f0: beef afbd 7666 283e 96c4 12be 7ff1 9abd
00000200: 34db 573e d277 623e 031f dc3d d6f1 25be
00000210: fcce d83e 7e31 f3be 80dc 353c cadd 2b3e
00000220: c279 763d 966e 50bc 7c75 953c eb76 24be
00000230: 2dbd 5d3d ff9b adbc 6d73 87bd 2249 c93e
00000240: 731b 753e 39de a7be ce6b 09bd bfa2 ac3e
00000250: f91c de3d d4f2 0f3e dcae 0f3c c22c 99bd
00000260: 156b aebd f8d3 17ba b7cc f33e a8b8 3abe
00000270: a4d3 2b3e 6b87 883c 9e44 b0be 3d9d 37bd
0.4426733 -0.13876021 0.20829748 -0.08592772 0.19318943 -0.065806255 0.28411108 -0.15284137
0.039644852 -0.07773128 -0.119117044 0.21915458 -0.54030347 0.31681615 -0.105321735 0.1661842
-0.3449487 -0.06606876 0.06576703 0.14483735 -0.024089046 0.3249897 -0.31147286 0.26150343
-0.030269189 0.1346507 -0.06650933 0.3506744 0.026357457 0.013679087 0.09644212 -0.08200064
-0.17111562 0.17387758 -0.07532886 0.106344484 -0.04246792 0.24462375 0.25793955 -0.11219596
0.05271904 0.15060875 0.11733268 -0.07427781 0.124956444 0.23495926 0.27964437 -0.13893826
-0.0553475 0.121001035 0.09501235 0.08532953 0.763646 -0.014121786 0.052939937 -0.21853863
0.25708932 -0.10750768 0.3445776 0.41864732 0.14477421 0.28643647 0.27299067 0.062347077
0.048915833 0.48774883 0.060350988 0.020977832 0.40782106 0.5654268 0.30345708 0.13706806
0.18260288 0.28695968 0.3794875 0.07713996 0.1474534 0.21186857 0.21427332 0.034566473
-0.2595315 -0.2606634 0.317565 -0.09701458 0.03380115 0.2657297 0.15543759 -0.08172058
0.0031306609 -0.17530952 0.3545628 0.004964725 0.07852592 -0.21870004 0.07274379 -0.11097665
-0.31513932 0.1557008 0.08787351 -0.08778338 -0.09488003 0.03294241 -0.060476433 -0.27253827
0.30113214 -0.02532066 0.28213856 0.16331688 -0.1011031 -0.1916683 -0.2500734 0.050614953
-0.1814133 0.22950861 -0.08637926 0.14330402 -0.24245748 -0.18702945 0.07978364 -0.020842124
0.11001434 0.14604872 0.04201306 -0.017620401 -0.08590649 0.16445336 -0.14332804 -0.07565593
0.21079713 0.2211602 0.107481025 -0.16205534 0.42345417 -0.47498697 0.011099935 0.16783825
0.06017471 -0.012721678 0.018244497 -0.16060989 0.05413549 -0.021192549 -0.066138126 0.39313608
0.23936252 -0.3278673 -0.033550076 0.33717915 0.1084537 0.14057475 0.008769717 -0.0747924
-0.08516518 -0.00057917787 0.47617123 -0.18234503 0.16779953 0.016666135 -0.3442735 -0.04482769

hidden2event.weight f4 [27, 40]
00000000: b09b aabf a38c 133e 366c 83bf 9944 463f
00000010: bc39 763f 373b b33e cac0 9f3d 82a6 09bf
00000020: ccba 3fbf e8c0 1c3f b4b3 ad3f 4b2d 493f
00000030: 029a a53d 386a 963f 4793 d0be a661 0cbe
00000040: 3566 6e3d ec90 cb3e deac e23e 9e7a 0b3f
00000050: 8eef b53e 80d3 983e 77df 733e 6ca9 15bf
00000060: 52ef 2abe 5ef5 80be 83f3 d73e 7e34 20bf
00000070: 4eca 36bd 11ea dc3d 00b6 5c3e 266e 113f
00000080: cbee 9f3e e8b8 363f 6879 8a3e 8445 15bf
00000090: 1c22 6c3f e80e 8d3f 3410 b83e 870c e2be
000000a0: 5a9d b1be 1bc7 0b3e 22dc 80be 3e17 933e
000000b0: 737d ec3e a200 4dbe 275b 863e 4dba adbd
000000c0: a12c 0dbf 8040 3d3f 9cc3 073f ea30 cdbe
000000d0: bdee 6cbd e28b e1bc 4574 073e 6d61 88bd
000000e0: 4fb2 f83e ad20 a1be cf29 05be a6c8 483f
000000f0: 5aa3 27bf 96cd 81be a393 693d 4e8f bcbd
00000100: e950 2e3f f47c 34bf 8b7e 54bd f55c 1abe
00000110: 5a9b b5bd c539 7e3d 0e5a 15bf 8175 823e
00000120: 4311 82bb ea5a 413f 8b6c 083e 1819 20be
00000130: 8acf febe ea89 283d a03f 29bd 34b8 93be
00000140: e811 0c3d 3e41 1e3f 6e1d 9cbe 0b09 de3e
00000150: 61a1 a43d 2713 3f3f b152 b73e 0e32 25bf
00000160: 2311 c8be 1a1e 0c3f 2189 8e3d 282f 7d3d
00000170: dd3f 723d 7d77 24bc 5de2 8b3e 2713 a63e
00000180: 4079 1ebf ac83 b5bd 9d6b 413e 7158 bebd
00000190: 8ed0 bfbe 731f a93e ebc0 bebc 406c 17bd
000001a0: f655 c23e 1aac 94be 9a2f bb3e a99b 163e
000001b0: 37b5 4cbe c251 11bb 35c1 03bf 6607 393f
000001c0: 686b 93be fdd7 8fbe 555d b23d 57f2 d4be
000001d0: b1c3 d1be bce4 3d3f 77ee 8b3d 45a6 dfbc
000001e0: 926c f43d 038a 98be 0508 433e 1060 2cbf
000001f0: ff56 973e 553d e1be dafb 503e bb3d 68bf
00000200: 565b 53bf f96e 863b 5b86 313d 1c58 d9bc
00000210: d7be 4e3e 51f7 91be 87a2 c5be 3732 c53e
00000220: 299e f23e ee1c 9d3e 8cde acbe 4fa0 63be
00000230: 7a4c bdbe d354 b23e 7f91 303e 458a 9a3f
00000240: 9b39 573e d04e 42bd 22c3 073f 325f d63e
00000250: e35e 5ebc c4f2 903e e6e6 4bbf 17a3 60bd
00000260: 30ac 5f3e adda 2b3f bad1 a03f 8b1e d93e
00000270: 6272 e7be bf87 f3be 22cd 01bf 8de9 11bf
00000280: 8fd1 15bf 83c9 85bf d8f9 cdbe 104a 76bf
00000290: 7828 99bf 574c 0dbe 24af 1f3d 2e45 c2bc
000002a0: 7df2 833e d546 22bf 4053 043e c653 e33d
000002b0: 84cd 12bf a2a5 91be a996 1e3e c3d9 c83e
000002c0: 715a 233f a70c 6c3f f7a2 a83e 9196 7e3e
000002d0: 78a9 c5be c5a2 0f3e 8579 583e 25f8 523e
000002e0: b513 1cbf d343 5dbe 1322 0340 3c56 e1be
000002f0: 3147 363f f620 81be 6980 443f 2928 593e
00000300: 1fbb 1a3f ae59 8abf f03a 93bf 8f72 b5be
00000310: 6532 593e 4de7 24bf 37a2 f93e 8b54 ab3f
00000320: 8d09 b33f 14b2 7a3d 07f4 69bf 066e 803e
00000330: 1976 68bf 118c afbf 33c1 a2bf e57b 39be
00000340: 2aa1 7a3f d31c 22be 96f7 94bf f1c3 853f
00000350: 2707 0cc0 7b2c 623f b8a7 3dbf 629c 85be
00000360: acc1 723f 14fb 84bf 03d1 443e 4b55 223e
00000370: 6980 343f eb1e aebf a203 03bf b287 203f
00000380: ce34 90bf ec0b 333f 974e 323e b295 643f
00000390: a9b0 ebbe dbf1 9b3e c59f 853f 34ba 12bf
000003a0: c368 b23f bd7e fbbe 30bd c43e a926 49be
000003b0: 928d f73f 11cd 8a3f 05a9 dabe 1f26 3540
000003c0: e506 573f cb51 28bd 6495 9bbf 251e 13bf
000003d0: 5948 a2bf 9c07 fabd d54f dfbf 4c39 883f
000003e0: 0d40 27bf ed7a 113f ee61 04bf 5a67 fc3f
000003f0: 5ae8 fabd 6525 b33f e13b 153f 9457 09bd
-1.3328762 0.14409117 -1.0267398 0.7744842 0.96181846 0.35006115 0.078004435 -0.53769696
-0.74894404 0.6123185 1.3570466 0.78584737 0.08086015 1.1751165 -0.40737364 -0.13709125
0.05820294 0.39759004 0.44272512 0.54483974 0.35534328 0.29848862 0.23815714 -0.5846164
-0.16692856 -0.251872 0.42177972 -0.62580097 -0.044626527 0.10786832 0.21553802 0.568087
0.31236872 0.71375895 0.2704575 -0.583092 0.92239547 1.1020174 0.35949862 -0.44150183
-0.34690362 0.13650171 -0.25167948 0.2872867 0.4618946 -0.20019773 0.2624142 -0.084828
-0.55146223 0.73926544 0.5303285 -0.4007638 -0.057844866 -0.027532522 0.13227947 -0.066592075
0.4857354 -0.31470242 -0.1300423 0.78431165 -0.6548363 -0.25352162 0.057025563 -0.09207021
0.6809221 -0.70503163 -0.051878493 -0.15074523 -0.088675216 0.062066812 -0.5834054 0.25480273
-0.003969343 0.7552935 0.13322656 -0.15634573 -0.49767715 0.04114715 -0.041320443 -0.28851473
0.034196764 0.618183 -0.30491203 0.43366274 0.08038593 0.746386 0.35805276 -0.645295
-0.39075574 0.5473343 0.06959749 0.06181255 0.059142936 -0.010038254 0.2732114 0.32436487
-0.6190376 -0.08863005 0.18888707 -0.092942126 -0.37463802 0.33031806 -0.02328535 -0.03696847
0.37956208 -0.29037553 0.36559755 0.14707817 -0.19991003 -0.0022173976 -0.51466686 0.72276914
-0.28792882 -0.28094473 0.08709208 -0.4159114 -0.40969613 0.74177146 0.06832593 -0.027300963
0.11934771 -0.29792795 0.19046028 -0.6733408 0.2955856 -0.43992105 0.20408574 -0.90719193
-0.8256124 0.0041025844 0.043341022 -0.026531272 0.20189987 -0.28509 -0.3860056 0.38514873
0.47386292 0.30686134 -0.3376354 -0.22229122 -0.3697241 0.3483034 0.17243002 1.2073447
0.21018068 -0.047438443 0.53032124 0.41869503 -0.013572427 0.28310215 -0.796492 -0.054843035
0.21843028 0.6713055 1.2564003 0.42406115 -0.45204455 -0.47564504 -0.5070363 -0.56996995
-0.58522886 -1.0452121 -0.40229678 -0.9620676 -1.1965475 -0.13798653 0.038985386 -0.023714628
0.2577094 -0.6338933 0.12922382 0.11099963 -0.5734484 -0.2844668 0.1548716 0.3922864
0.6380988 0.92206806 0.32936832 0.24862124 -0.38605857 0.14026935 0.21140106 0.20602472
-0.6096757 -0.21607904 2.0489547 -0.44011104 0.7120238 -0.2522046 0.7675844 0.21206726
0.60441774 -1.0808618 -1.1502361 -0.35438964 0.2121063 -0.64415437 0.48756573 1.3385175
1.398729 0.061204985 -0.9138798 0.2508394 -0.908052 -1.371462 -1.271521 -0.18113668
0.97902167 -0.15831308 -1.1638057 1.0450422 -2.1879365 0.8834912 -0.74084044 -0.26095873
0.9482677 -1.0389123 0.19220357 0.15852849 0.7050844 -1.3603185 -0.5117742 0.62707055
-1.1266115 0.69940066 0.17412792 0.89290917 -0.46033219 0.3045796 1.0439383 -0.57315373
1.3938221 -0.4912013 0.3842559 -0.19643654 1.9340079 1.0843831 -0.42707077 2.8304517
0.83994895 -0.04109363 -1.2154965 -0.5746787 -1.2678329 -0.122084826 -1.7446238 1.0642486
-0.6533211 0.56828195 -0.5171193 1.971904 -0.12251349 1.3995787 0.5829449 -0.033530787

hidden2event.bias f4 [27]
00000000: 0321 f3bd 30dc 003f 996b e2bd 2ec7 fd3e
00000010: 1e83 683d 107d 53bf bbcf 1dbd bc05 c6be
00000020: 1bba 9a3d 1e00 d1be 65ca d4be 5237 21bf
00000030: 5c3f 06bf 9121 9c3e db8d 9ebc dace bb3e
00000040: 1b23 c43d b01c 05bf 9869 63bf 5366 6bbf
00000050: f34d 8c3e f850 e0bd 32e2 a8bc e744 16bf
00000060: c1b3 4c3d b1fd 28bf f2d1 35bf
-0.11871531 0.5033598 -0.11055679 0.49566025 0.056765668 -0.82612705 -0.038528185 -0.3867625
0.07555028 -0.40820402 -0.41560665 -0.6297504 -0.5244043 0.3049436 -0.019354751 0.36681253
0.09577008 -0.519969 -0.88833 -0.9195301 0.2740322 -0.109529436 -0.02061567 -0.58698887
0.049976114 -0.660121 -0.71023476

hidden2time.weight f4 [3, 40]
00000000: e562 a63e dcfc 7d3d bb3d abbd 488c bcbb
00000010: fc89 5dbc e72b 3cbd 6454 5a3c 36d2 e5bd
00000020: 48ba eebc 1899 06be bf5f a53d 0bfb 5dbe
00000030: 128e b9bd 80f1 86be 8a46 693d 993f dabc
00000040: 1cdb debd fff7 fabd 33a2 14be e328 8fbe
00000050: 3ae9 6fbe daf1 103e 03af 273e 4237 7e3e
00000060: 2a74 9dbc 9d15 41be 021d 883e 117d 92be
00000070: a4d7 87be d0d8 9ebd c7c9 36bd 87d2 7ebd
00000080: cc58 a0bd d670 a53e 4d38 783d c6b9 113e
00000090: 8c05 32be 9633 7dbd 83ed 3f3e 62dc 4f3d
000000a0: 2329 8fbe 482e 23be b572 b63e 881b 9a3d
000000b0: 6611 b2bc 2a26 5f3e 7ac9 853e 5aea bbbd
000000c0: 378b a1be 6705 c3bc 723a 473e e9b0 023c
000000d0: 9bcb 403e 3eaf 253d 5279 ac3d 3b81 183e
000000e0: d63e c8bd 869e 893d 5a9a 8b3b b7be 8bbd
000000f0: cb1f be3d 03e9 1a3c fa86 1c3e a45e b8be
00000100: be7d 643e 4811 11be 7a0a 0dbe 3fd2 a33e
00000110: fd4a f33d bb4a 19be 821e 573c b659 c2bd
00000120: 465d dbbd 9934 143e f91f a7bd a03d f93c
00000130: 547f 58bd 2da3 19be 629a e73c f889 05be
00000140: d4ea e13f 7f79 273f c660 a1bf 1e36 90bf
00000150: bb77 f9be 7881 b0bf d18f f7be 25ee 4f3e
00000160: ff46 a43f 47b4 5e3f c5b4 01bf 05e0 433f
00000170: 1043 12bf 62a5 503f aa1b 22bf 7db8 89bf
00000180: 831f 1e3f f181 89be 055c 083f 2864 0e3f
00000190: 9b92 003f 7d9e 13bf 45c1 88bf fb19 3040
000001a0: d435 bebe 78f2 053f 4613 2bbf 36aa afbf
000001b0: a466 e03e dd9a 153f 5e13 f63e f308 993f
000001c0: 6ad2 ff3e c261 a7be a91f 3fbe 94c6 28bf
000001d0: d15b 3b3f 2ab7 523f 962a 60bf 514d 9c3f
0.32497326 0.062008724 -0.083613835 -0.0057540275 -0.013521668 -0.045940306 0.013325784 -0.11221735
-0.02914156 -0.13144338 0.08074903 -0.21677797 -0.09060301 -0.26356125 0.056952037 -0.026641654
-0.108816355 -0.12254333 -0.14514999 -0.27960882 -0.23428813 0.14154759 0.16375355 0.24825767
-0.01922043 -0.18855901 0.2658463 -0.28611043 -0.26531708 -0.077561975 -0.044626024 -0.062212493
-0.07829437 0.3231265 0.060600568 0.14231023 -0.17384928 -0.061816774 0.18742947 0.050747283
-0.27961072 -0.15935624 0.3563439 0.075247824 -0.021736812 0.21791902 0.26130277 -0.091755584
-0.31551525 -0.023806287 0.19455889 0.007976749 0.1882767 0.040450327 0.084215775 0.14893048
-0.0977761 0.06719689 0.0042603435 -0.06823485 0.09283408 0.009454968 0.15285864 -0.36009705
0.22313592 -0.14166749 -0.13773528 0.31996343 0.11879537 -0.14969914 0.013129832 -0.09489767
-0.1071115 0.1447319 -0.08160395 0.030424893 -0.052855805 -0.15003653 0.028271858 -0.13040912
1.7649789 0.65419763 -1.2607658 -1.1266515 -0.4872416 -1.3789511 -0.4835191 0.20305689
1.2834166 0.8699383 -0.5066646 0.765137 -0.5713358 0.81502354 -0.6332346 -1.0759426
0.61766833 -0.2685695 0.5326541 0.55621576 0.502237 -0.5766371 -1.0683981 2.7515857
-0.37150443 0.523231 -0.66826284 -1.3723819 0.4382831 0.5843943 0.4806165 1.1955856
0.4996522 -0.3269177 -0.18664421 -0.65928006 0.73186976 0.82310736 -0.8756498 1.2211095

hidden2time.bias f4 [3]
00000000: f814 8c3e 940c ea3b 774d d0be
0.27359748 0.0071426127 -0.406841
