events_simulation/models/all_epochs/model_19_20180529-0828.pt (torch_old, 78354 bytes, 9 tensors)

loss_function_events.weight f4 [27]
0	0x3f800000	1.0
1	0x3f800000	1.0
2	0x3f800000	1.0
3	0x3f800000	1.0
4	0x3f800000	1.0
5	0x3f800000	1.0
6	0x3f800000	1.0
7	0x3f800000	1.0
8	0x3f800000	1.0
9	0x3f800000	1.0
10	0x3f800000	1.0
11	0x3f800000	1.0
12	0x3f800000	1.0
13	0x3f800000	1.0
14	0x3f800000	1.0
15	0x3f800000	1.0
16	0x3f800000	1.0
17	0x3f800000	1.0
18	0x3f800000	1.0
19	0x3f800000	1.0
20	0x3f800000	1.0
21	0x3f800000	1.0
22	0x3f800000	1.0
23	0x3f800000	1.0
24	0x3f800000	1.0
25	0x3f800000	1.0
26	0x3f800000	1.0

lstm.weight_ih_l0 f4 [160, 70]
0	0xbfb80957	-1.437785
1	0xbfde155c	-1.7350268
2	0xc00328bd	-2.0493615
3	0x3f1ab62e	0.60434234
4	0xc0003e6d	-2.0038102
5	0x3e1db909	0.15402617
6	0x3e299ac6	0.16562948
7	0xc0359c00	-2.8376465
8	0x3f2367e7	0.6383042
9	0xbfa1f621	-1.2653238
10	0xbfb4fe18	-1.4140043
11	0x3f45a7be	0.7720908
12	0xbf15665d	-0.5835932
13	0xbfdfceb9	-1.7484962
14	0xbfa1cdb5	-1.2640902
15	0x3f430f88	0.76195574
16	0xc00d083a	-2.203627
17	0xbd5f499c	-0.05451356
18	0x3f63999d	0.8890627
19	0xc019252a	-2.3928933
20	0x3f08f842	0.5350381
21	0xbfb62850	-1.4231052
22	0xbf26210f	-0.64894193
23	0x3f3f094a	0.7462355
24	0xbf26758d	-0.6502312
25	0xbe1458dd	-0.14487024
26	0x3f002990	0.5006342
27	0xbe0a78c2	-0.13522628
28	0x3dfec9aa	0.12440808
29	0x3f0588b4	0.5216172
30	0x3eff4a1a	0.49861223
31	0xbde53ca1	-0.11193205
32	0x3ed53c70	0.41647673
33	0x3ed02eac	0.40660608
34	0xbf106ceb	-0.56416196
35	0xbd7c4875	-0.061592538
36	0x3ecb4230	0.39698935
37	0x3d03e99f	0.03220522
38	0xbbc90882	-0.0061350474
39	0xbf1aa530	-0.60408306
40	0x3e339971	0.17539002
41	0x3f0b0b55	0.54314166
42	0xbe972c12	-0.2952581
43	0xbeaf46ec	-0.34233797
44	0x3db8843e	0.09009598
45	0x3f186705	0.59532195
46	0xbe456147	-0.1927539
47	0x3e20b373	0.15693454
48	0x3ee95df8	0.45579505
49	0x3e3c2c81	0.18376352
50	0x3ef0f713	0.47063503
51	0x3e17ffe3	0.14843707
52	0xbf2d090d	-0.67591935
53	0xbd52438f	-0.05133396
54	0xbd12971b	-0.035788637
55	0x3e9749da	0.29548532
56	0x3cce3f36	0.025176626
57	0xbe43dfad	-0.19128294
58	0xbd8b066c	-0.06788334
59	0x3e27f5ee	0.16402408
60	0x3dd74484	0.10511115
61	0xbe11500b	-0.1419069
62	0x3ec4c21f	0.38429353
63	0x3f5279de	0.82217205
64	0xbebf830b	-0.37404665
65	0x3e40b443	0.18818764
66	0xbf1705a6	-0.58992994
67	0xbb70d503	-0.0036748059
68	0x3f041b36	0.5160402
69	0x3ea38bd7	0.31942627
70	0xc003274b	-2.0492733
71	0xbffa8ff8	-1.9575186
72	0xc00fda0a	-2.247683
73	0x40060d00	2.0945435
74	0xbfbac120	-1.4590187
75	0xbde94091	-0.11389268
76	0xbfaa88b3	-1.3322967
77	0xbfd2b78b	-1.6462263
78	0x3f1adfb7	0.6049761
79	0xc048b024	-3.1357508
80	0xc00b01c4	-2.1719828
81	0xc00fcef0	-2.2470055
82	0xbfd89eb8	-1.6923437
83	0xbfa8f1ca	-1.3198788
84	0xbfc734c1	-1.5562974
85	0x3f0b2b23	0.54362696
86	0xbf483084	-0.7819903
87	0xbdba6bbb	-0.09102579
88	0xbfd8da4e	-1.6941621
89	0xbf8bc15d	-1.0918385
90	0x3ff3fcdd	1.9061543
91	0xbf9cc61d	-1.2247959
92	0xbf9536bf	-1.1657332
93	0x3fa74bf8	1.3070059
94	0x3f1738ef	0.5907125
95	0xba0cdc00	-0.0005373359
96	0x3fca3e3c	1.5800242
97	0xbf81aa70	-1.0130138
98	0x402c30bc	2.6904745
99	0x3fd1ea90	1.6399708
100	0x3e470b5c	0.19437927
101	0x3f0aa79e	0.54162014
102	0xbe71d68e	-0.23617002
103	0xbe3b7a2e	-0.18308327
104	0x3f4d3732	0.80162346
105	0x3f447ed3	0.7675602
106	0x3f2700b0	0.65235424
107	0x3b87dea1	0.0041464125
108	0xbe123501	-0.14278032
109	0xbbf43e06	-0.007453683
110	0x3db91ae5	0.09038333
111	0xbe8e50de	-0.27796072
112	0x3eb9d7c1	0.3629742
113	0x3e012865	0.12613066
114	0x3eccb426	0.39981192
115	0xbf4041e3	-0.75100535
116	0x3ef27707	0.47356436
117	0x3fabde57	1.3427228
118	0x3f60775f	0.87682146
119	0xbe054be7	-0.13017236
120	0xbf0c9483	-0.5491411
121	0x3edc9ff1	0.43090776
122	0x3e9eead4	0.31038535
123	0xbec2a609	-0.380173
124	0xbdaa6adc	-0.08321163
125	0xbea03096	-0.31287068
126	0xbd255d05	-0.040371913
127	0x3ddf0cf1	0.1089114
128	0x3ef89605	0.48551956
129	0xbe03ee42	-0.12883857
130	0x3e778333	0.24171142
131	0xbe9192f6	-0.28432435
132	0x3e894305	0.26808944
133	0x3f1f4b12	0.62223923
134	0xbd8cf764	-0.068831235
135	0xbe6ac1e9	-0.22925533
136	0x3f088487	0.5332722
137	0xbdc2946e	-0.09500967
138	0xbe8a3681	-0.26994708
139	0xbe51e2cb	-0.20496671
140	0xbf1d358f	-0.6140985
141	0x3f817bc8	1.01159
142	0xbfc25efe	-1.5185239
143	0xbec0cdc0	-0.37656975
144	0xbf8522a7	-1.04012
145	0xbe074aef	-0.13212179
146	0xbf9273cb	-1.1441587
147	0xbef40016	-0.47656316
148	0x3fafd015	1.3735377
149	0x3f65bd9a	0.89742434
150	0xbfc11207	-1.5083627
151	0xbee858fa	-0.45380384
152	0xbf9041ba	-1.1270058
153	0x3f7790c5	0.96705276
154	0xc017fcf4	-2.374814
155	0x3e4f32f9	0.20234288
156	0xbf664b31	-0.89958483
157	0xbe1b8f20	-0.15191317
158	0xbf0c1e57	-0.54733795
159	0xbf063ebf	-0.5243949
160	0x3ed739e0	0.42036343
161	0x3f08d3e8	0.53448343
162	0xbf861a97	-1.0476865
163	0xbfd9b7f7	-1.7009267
164	0xbf040d73	-0.5158302
165	0xbd3c34b4	-0.0459487
166	0x3ddedb28	0.108816445
167	0x3f92301b	1.1420931
168	0xbed481f7	-0.41505405
169	0x3bcee773	0.006314212
170	0x3f01aee6	0.506575
171	0xbe5b674f	-0.21426128
172	0x3f250018	0.6445327
173	0xbf2a5fa0	-0.6655216
174	0x3e7b8d20	0.24565554
175	0x3e6900ff	0.22754286
176	0xbe0de455	-0.13856633
177	0x3d12ad5e	0.035809867
178	0xbf3a78cd	-0.7284058
179	0xbd927425	-0.07151059
180	0xbea20ae8	-0.31648946
181	0x3f1df803	0.6170656
182	0xbf19aa6f	-0.60025686
183	0xbf516fce	-0.81811225
184	0xbe630605	-0.22170265
185	0xbee5ec16	-0.44906682
186	0x3e110136	0.14160618
187	0x3ebf498f	0.37360808
188	0xbe45fc06	-0.1933442
189	0xbca34858	-0.019931957
190	0x3dbf508c	0.09341535
191	0x3d96445e	0.07337259
192	0xbe1cba3a	-0.15305415
193	0x3df5034d	0.1196352
194	0xbe807e58	-0.25096393
195	0xbec03158	-0.37537646
196	0x3d011e00	0.03152275
197	0x3ed05ffc	0.4069823
198	0x3f55f0c6	0.83570516
199	0xbd0a8e11	-0.03382689
200	0xbe843880	-0.25824356
201	0x3e2c131c	0.16804165
202	0xbd0b7d9c	-0.034055337
203	0x3cf6ed4d	0.03014245
204	0x3ecfc4a3	0.4057971
205	0xbede179a	-0.43377382
206	0xbf2f0405	-0.6836551
207	0x3ed76650	0.42070246
208	0xbe65c30a	-0.22437683
209	0xbc516bf9	-0.01278209
210	0x3f25a106	0.6469883
211	0x3f162aea	0.5865923
212	0xbe6d2fe5	-0.23162802
213	0x3b7c063b	0.0038455862
214	0xbf87e021	-1.0615274
215	0xbdf2f547	-0.11863189
216	0x3fdd18a8	1.727315
217	0x3f545cd5	0.8295415
218	0xbf5a3e25	-0.85251075
219	0x3f46d5b1	0.7766982
220	0xbf57564d	-0.8411606
221	0x409348ce	4.6026373
222	0x3f94f917	1.1638516
223	0x3f686786	0.90782964
224	0xbfa94197	-1.3223141
225	0x3f24da82	0.64395916
226	0x3fe1b13c	1.7632213
227	0x3d03edcc	0.032209203
228	0xbe38a93e	-0.18033311
229	0x3fc01e5e	1.5009267
230	0xbfd18e16	-1.6371486
231	0x3ee6b821	0.45062354
232	0xbe273552	-0.16328934
233	0x405b156e	3.423183
234	0xbfa0e81a	-1.2570832
235	0x3e0d2f49	0.13787569
236	0x3f61afe0	0.8815899
237	0xbfe5f477	-1.796523
238	0x3eef4a05	0.4673616
239	0x3f3d3974	0.7391579
240	0x3eb614e7	0.35562822
241	0x3e1d2668	0.15346682
242	0xbeeea623	-0.46611127
243	0xbeda7264	-0.42665398
244	0xbd90a81a	-0.07063313
245	0x3da5b704	0.08091548
246	0x3e3385b6	0.17531475
247	0x3ddc65a0	0.10761571
248	0x3cbb752c	0.02288302
249	0xbe2871c2	-0.16449645
250	0xbdc5b48d	-0.09653578
251	0xbeef0adc	-0.46687973
252	0xbd83f4e5	-0.06443194
253	0x3ce33838	0.027736768
254	0x3ea20de3	0.3165122
255	0x3f16fb8f	0.589776

lstm.weight_hh_l0 f4 [160, 40]
0	0xbf1f9b5b	-0.6234643
1	0x3e6b1d4f	0.22960399
2	0x3e38a34f	0.18031047
3	0xbeaff158	-0.34363818
4	0xbed9524b	-0.42445597
5	0x3e28856d	0.16457148
6	0x3e4a8513	0.19777326
7	0x3ee259a0	0.44209003
8	0xbe3fd95c	-0.1873526
9	0x3f1ac7c7	0.60461086
10	0xbe115c89	-0.14195456
11	0x3f15a51d	0.5845507
12	0x3ea4205d	0.3205594
13	0x3f1ec81e	0.62024105
14	0xbd7f1984	-0.062280193
15	0xbe4ad31c	-0.19807094
16	0xbcfe0fc9	-0.031013386
17	0xbe943cfb	-0.28952774
18	0xbd2c1edd	-0.04202162
19	0x3df20ae4	0.118184835
20	0x3de73747	0.1128984
21	0x3d62ff38	0.055419177
22	0x3ec40bd7	0.38290283
23	0x3da0137f	0.078162186
24	0x3e8d1992	0.2755857
25	0x3ec5e001	0.38647464
26	0xbf438d7e	-0.76387775
27	0x3ee15b2a	0.44014865
28	0xbdd3d14a	-0.10342653
29	0x3e712a6b	0.23551337
30	0x3c89a4bc	0.016802184
31	0x3dba4272	0.09094705
32	0xbf0262fb	-0.5093228
33	0xbf243f4c	-0.64159083
34	0x3f0be8aa	0.5465189
35	0xbd7424e3	-0.05960549
36	0xbec8c971	-0.39216188
37	0x3e3e738a	0.18598762
38	0x3e3cb0de	0.18426844
39	0x3e024818	0.12722814
40	0x3f14cfe5	0.5812972
41	0xbf7a3565	-0.97737724
42	0xbe66b69f	-0.22530602
43	0xbf844583	-1.0333713
44	0x3ec64b9f	0.3872957
45	0x3ea5d685	0.32390228
46	0x3eb21316	0.34780186
47	0x3f2ac202	0.6670228
48	0xbf5e5bf5	-0.86859065
49	0x3fa729f2	1.3059676
50	0x3e2e7b90	0.17039323
51	0x3e73b9a3	0.23801284
52	0x3dc63f74	0.096800715
53	0x3fa1f480	1.265274
54	0xbdf9310b	-0.12167557
55	0x3ef7d90e	0.48407787
56	0x3f95ae79	1.169387
57	0xbf66c3ba	-0.90142405
58	0x3eb76e41	0.35826305
59	0xbddd929d	-0.1081898
60	0x3ef84645	0.4849111
61	0x3d9519fc	0.07280347
62	0x3f5f5ae4	0.87248063
63	0x3e4b1bb0	0.1983478
64	0x3e205987	0.15659152
65	0xc0020e9f	-2.0321424
66	0xbf69e55a	-0.9136559
67	0x3c880aad	0.016606653
68	0xbc71c205	-0.0147557305
69	0xbd073f2b	-0.033019226
70	0x3f248cfe	0.64277637
71	0x3e9ae63f	0.3025379
72	0xbdffff7f	-0.12499904
73	0xbfab0364	-1.336041
74	0x3c8b633a	0.017015088
75	0xbf060e19	-0.5236526
76	0xbe5c684a	-0.21524158
77	0xbe08a326	-0.13343486
78	0x3ed48874	0.41510355
79	0x3f1b7ee2	0.6074048
80	0xbdcc1f71	-0.099669345
81	0x3ed96749	0.42461613
82	0x3e5e5140	0.21710682
83	0xbfa4258c	-1.2823958
84	0x3d3226d9	0.04349408
85	0x3e43166f	0.19051526
86	0x3d509c20	0.050930142
87	0x3ec0d36a	0.37661296
88	0xbea40ed5	-0.32042566
89	0xbdb126e4	-0.08649996
90	0xbe047b8e	-0.12937757
91	0x3e0862fc	0.1331901
92	0xbe60aed0	-0.21941686
93	0xbe8ad51a	-0.2711571
94	0x3ebe2c80	0.37143326
95	0xbe0e8fbb	-0.13922016
96	0xbd5fc41f	-0.054630395
97	0x3ea014b0	0.31265783
98	0xbe5e43ca	-0.21705547
99	0xbe481727	-0.19540082
100	0x3ef0887a	0.46979123
101	0xbe119ccb	-0.14219968
102	0xbe2d6d78	-0.1693629
103	0x3efa8ebc	0.48937023
104	0xbca9972d	-0.020701969
105	0xbe0006d7	-0.12502609
106	0xbe8c3e43	-0.27391252
107	0xbe0f0b19	-0.13969077
108	0x3e05a914	0.1305278
109	0x3f13efe8	0.5778794
110	0xbee4d795	-0.44695726
111	0xbedd553a	-0.43229085
112	0xbe485a90	-0.19565797
113	0xbe87df57	-0.26537582
114	0x3e8ea9df	0.27863976
115	0xbf4d39c0	-0.80166245
116	0xbed80999	-0.42194822
117	0x3f1cb597	0.61214584
118	0x3da3ce52	0.07998337
119	0xbe3683dd	-0.1782374
120	0xbead330a	-0.33828002
121	0xbed6d5ac	-0.41959894
122	0x3d7cc2fa	0.06170938
123	0xbd9c7f8d	-0.07641516
124	0x3df82b29	0.12117607
125	0x3ef5b6b5	0.47990957
126	0xbe4bf23d	-0.19916625
127	0xbe3c2964	-0.18375164
128	0xbe0bd5c8	-0.1365577
129	0x3dd02224	0.10162762
130	0x3e9868d7	0.29767486
131	0x3e5e6495	0.21718056
132	0xbdbf4d71	-0.09340943
133	0xbe048ba3	-0.12943892
134	0xbd2fafc1	-0.04289222
135	0x3e232d93	0.15935354
136	0x3eebb007	0.46032736
137	0xbf15ee52	-0.5856677
138	0x3e7b6260	0.24549246
139	0xbe26f4c4	-0.16304308
140	0x3e21f948	0.1581775
141	0x3e691cdd	0.22764917
142	0x3ea45efd	0.3210372
143	0x3d8d9b76	0.069144174
144	0xbe5b7bfa	-0.21434012
145	0xbeda6f54	-0.42663062
146	0x3e9582bf	0.29201314
147	0xbe9ce15b	-0.30640683
148	0x3ec19a3c	0.37812984
149	0x3e664084	0.22485548
150	0x3f2be385	0.6714404
151	0x3e4f95c5	0.20271976
152	0x3df16d4b	0.11788424
153	0x3df9ef71	0.12203873
154	0xbe3de3ec	-0.18543977
155	0x3daa2527	0.083078675
156	0xbe824f6b	-0.25451216
157	0xbed81967	-0.4220688
158	0x3d38ead2	0.045145817
159	0xbe120b59	-0.14262141
160	0xbf9e04ff	-1.2345275
161	0xbe58c764	-0.21169811
162	0x3e2a88ce	0.1665375
163	0x3e6a9d48	0.2291156
164	0x3e14df9a	0.14538422
165	0xbd48a9f1	-0.048990194
166	0xbdce1a36	-0.10063593
167	0x3df4bc37	0.11949962
168	0xbe4a27cf	-0.19741748
169	0x3eb563da	0.35427743
170	0x3d90336e	0.070410594
171	0x3dc143bd	0.09436748
172	0x3eaccdcb	0.33750758
173	0xbda60b09	-0.081075735
174	0x3cc3cba2	0.02390081
175	0xbc4ca5c8	-0.012490697
176	0x3e578b3e	0.2104921
177	0xbf50af42	-0.8151742
178	0x3e9396e2	0.28826052
179	0x3d5edbf2	0.054408975
180	0x3d02d4ff	0.03194141
181	0x3e63f05f	0.22259663
182	0x3d733fc5	0.059386987
183	0x3e090350	0.1338017
184	0xbbeebf4c	-0.007285988
185	0x3e7d1b5b	0.24717467
186	0x3d9ad729	0.0756057
187	0x3cf04cc3	0.029333478
188	0xbda476c8	-0.08030468
189	0x3e21b6b3	0.1579235
190	0x3ced1dc7	0.028944863
191	0xbc17d83c	-0.009267863
192	0x3e12cec2	0.14336684
193	0x3e5a958e	0.21346113
194	0xbdc627f3	-0.096755885
195	0x3e7fa96e	0.24966976
196	0xbdd0747d	-0.101784684
197	0x3d803483	0.06260016
198	0x3e4a39c4	0.19748598
199	0x3e2da1a4	0.16956192
200	0xbf89437d	-1.0723721
201	0xbf797b59	-0.9745384
202	0xbf3b707b	-0.73218507
203	0x3fa03f76	1.2519367
204	0xbef214ef	-0.47281596
205	0xbdbcd9eb	-0.09221252
206	0x3e19e68e	0.15029356
207	0x3eaffcea	0.34372646
208	0x3e9da4e8	0.30789876
209	0x3fc54401	1.5411378
210	0xbe80561e	-0.25065702
211	0x3f0d76a4	0.55259156
212	0x3f16283b	0.58655137
213	0xbd8f0cdb	-0.06984874
214	0xbe8244ca	-0.25443107
215	0xbe8430e8	-0.25818563
216	0x3c884cf6	0.01663826
217	0xbef6aa8b	-0.4817699
218	0xbca4846d	-0.020082677
219	0xbe837767	-0.25677034
220	0xbe844522	-0.25833994
221	0xbefb2b86	-0.49056643
222	0xbecbb33e	-0.39785188
223	0xbe20d7d8	-0.15707338
224	0x3f0a3847	0.5399212
225	0xbf1b7d04	-0.60737634
226	0xbf8350d8	-1.0259047
227	0xbf0ff416	-0.5623182
228	0x3f7c94a7	0.98664325
229	0xbf083bf5	-0.5321649
230	0x3f1f70ab	0.6228129
231	0x3f783a33	0.96963805
232	0x3eec82d1	0.46193555
233	0x3e8976b3	0.26848373
234	0x3de83111	0.11337484
235	0x3eace2d9	0.3376682
236	0xbf82942c	-1.0201468
237	0x3ea836d6	0.32854337
238	0xbe076771	-0.13223054
239	0x3eed0892	0.462956
240	0x3e86f64c	0.26359785
241	0xbe23ff3a	-0.1601533
242	0xbe461cf9	-0.1934699
243	0xbf673226	-0.90310895
244	0x3ce21e1c	0.027602248
245	0xbd7920af	-0.060822185
246	0xbd3f93b7	-0.04677173
247	0xbde5d937	-0.11223071
248	0x3e1488ae	0.14505264
249	0x3d350c07	0.044200923
250	0x3d2c329a	0.042040445
251	0xbeae4241	-0.34034923
252	0x3e022c7c	0.12712282
253	0x3ddda751	0.10822929
254	0x3e83b463	0.25723562
255	0xbe85a89a	-0.26105195

lstm.bias_ih_l0 f4 [160]
0	0x3e30224e	0.17200586
1	0x3ec2175f	0.37908456
2	0xbd972bde	-0.07381414
3	0xbdd6674a	-0.104689196
4	0x3c754d6f	0.014972075
5	0xbd8a1f1b	-0.06744214
6	0x3e19c1c5	0.15015323
7	0x3d93540d	0.07193766
8	0x3e2ec5f7	0.17067705
9	0x39872610	0.00025777565
10	0x3e87992e	0.26484054
11	0x3d5f774d	0.054557133
12	0xbe17ecd3	-0.14836435
13	0x3e0bd95f	0.13657139
14	0x3d9e4f20	0.07729936
15	0x3e00b7ff	0.12570189
16	0x3e5e2c8f	0.21696685
17	0x3e1b2824	0.15152031
18	0x3dee2ae8	0.116292775
19	0xbcdab7d0	-0.026698977
20	0x3dcb3fc7	0.09924274
21	0x3dd8f178	0.105929315
22	0xbd5755b1	-0.052571956
23	0x3d82306d	0.06356893
24	0x3b947acc	0.00453124
25	0x3ce17ab0	0.027524322
26	0x3cc008ce	0.023441698
27	0x3c088245	0.00833184
28	0x3e349036	0.17633137
29	0xbe3641c3	-0.17798524
30	0xbdd2cab9	-0.102925725
31	0x3e6317d6	0.22177061
32	0x3e8f0f22	0.27941233
33	0x3d2b9eff	0.041899677
34	0x3e0c1ed6	0.13683638
35	0x3c9a2433	0.01881609
36	0x3e116c7f	0.14201544
37	0x3cb139ab	0.021633944
38	0x3d19d099	0.03755245
39	0xbd7a9add	-0.061182845
40	0x3deb3bb0	0.11485994
41	0xbd9fe92c	-0.07808146
42	0x3d9593b2	0.07303561
43	0xbd4aa59e	-0.04947435
44	0xbe232205	-0.15930946
45	0x3d869d28	0.06572944
46	0x3e094a0a	0.1340715
47	0xbcec3964	-0.02883596
48	0x3e9491d6	0.29017514
49	0xbe157cf4	-0.14598447
50	0x3d96fbbe	0.07372235
51	0x3e36adce	0.17839739
52	0x3e676ddd	0.22600503
53	0x3daceb45	0.084433116
54	0x3e38c873	0.18045215
55	0x3e368acd	0.17826386
56	0xbd948392	-0.072516575
57	0xbe5490db	-0.20758383
58	0xbe09880b	-0.13430803
59	0xbcad4bab	-0.021154245
60	0x3d191e9d	0.03738271
61	0x3dc7b8c0	0.09752035
62	0x3e88439a	0.26614076
63	0x3e009b46	0.12559232
64	0x3d436463	0.047703158
65	0x3e29a8ba	0.1656827
66	0x3daaa463	0.083321355
67	0x3d1d7b24	0.038447514
68	0x3e02a24e	0.12757227
69	0xbe119877	-0.14218317
70	0xbe153b34	-0.14573365
71	0xbd4a7be0	-0.049434543
72	0x3e81c7a7	0.25347635
73	0xbd5f20e5	-0.05447473
74	0x3e8c2db0	0.27378607
75	0x3db701ed	0.08935914
76	0x3d8b1ef2	0.06793012
77	0x3e4f836c	0.20264977
78	0x3d434916	0.047677122
79	0x3db4674a	0.08808763
80	0x3e0b0cd1	0.13579108
81	0xbe409f26	-0.1881071
82	0x3c8f5242	0.017495278
83	0x3cb5f8c6	0.022213351
84	0xbe8ccc38	-0.27499557
85	0xbe47ad91	-0.19499804
86	0x3e75a305	0.23987968
87	0x3e8c4e15	0.27403322
88	0x3e1407f5	0.1445616
89	0x3d94f612	0.07273497
90	0xbe05150f	-0.12996314
91	0x3e121209	0.14264692
92	0xbc667819	-0.014066719
93	0x3e547b21	0.20750095
94	0x3e06285e	0.13101336
95	0xbe8dd543	-0.27701768
96	0x3e4291bc	0.19000906
97	0x3e01b6e3	0.12667422
98	0x3df78159	0.12085218
99	0xbe7242e5	-0.2365833
100	0x3e8503fb	0.259796
101	0xbde030d0	-0.1094681
102	0xbe16a5a4	-0.14711624
103	0x3e78ae1e	0.2428517
104	0x3e74c71a	0.23904076
105	0xbe0994b5	-0.13435633
106	0xbdf66716	-0.12031381
107	0xbeb94ab7	-0.36189815
108	0x3e57fcfc	0.210926
109	0x3bb81f40	0.0056189597
110	0x3dc1c995	0.09462277
111	0xbd2db7f9	-0.042411778
112	0xbe5378cf	-0.20651554
113	0xbd8c3f4d	-0.06848011
114	0x3e2db46b	0.16963355
115	0xbe87aef2	-0.2650066
116	0xbd3d817c	-0.046266064
117	0x3e6ec558	0.23317468
118	0x3e20ad34	0.15691072
119	0x3d80c2f5	0.06287185
120	0xbcda55b4	-0.026652195
121	0x3e9d2ebf	0.30699727
122	0xbdd6f4ca	-0.104959086
123	0x3d56937d	0.05238675
124	0x3e02247f	0.12709235
125	0x3dab3e1a	0.08361454
126	0x3c8d993e	0.017284986
127	0xbbdf5926	-0.0068160472
128	0xbe11b38e	-0.14228651
129	0xbda48d3f	-0.08034753
130	0x3e0ddd5d	0.13853975
131	0x3c95a3a9	0.018266516
132	0x3e90140b	0.28140292
133	0x3c7e5aac	0.015524548
134	0x3e09abe6	0.1344448
135	0x3b189a7f	0.0023285446
136	0x3e30bc02	0.1725922
137	0x3d16587d	0.036705483
138	0x3d7def44	0.06199576
139	0xbb7e9396	-0.0038845292
140	0xbe1dc515	-0.15407212
141	0xbded8dd0	-0.11599314
142	0xbe01fea7	-0.12694798
143	0x3ce37dab	0.027769884
144	0x3bbfd9f6	0.0058548404
145	0x3e27293e	0.16324326
146	0xbe17dcfc	-0.14830393
147	0x3dbb51e1	0.091464765
148	0xbd203372	-0.039111562
149	0xbd96e7a9	-0.073684044
150	0xbe23d566	-0.15999374
151	0x3e814520	0.2524805
152	0x3d86282f	0.06550633
153	0x3e5e5c2a	0.21714845
154	0xbda40c50	-0.08010161
155	0xbd893a01	-0.067005165
156	0xbe4941ce	-0.19654009
157	0xbd973352	-0.073828354
158	0x3d27047d	0.040775765
159	0xbe1fb48c	-0.15596217

lstm.bias_hh_l0 f4 [160]
0	0x3e7ab4c7	0.24483024
1	0x3ebd3b36	0.36959237
2	0xbdabd45f	-0.08390116
3	0x3dbfe8aa	0.09370549
4	0x3e7b59a1	0.2454591
5	0x3de8f2ed	0.113744594
6	0xbcc2ccad	-0.023779238
7	0x3cf72824	0.030170508
8	0x3e37c1a5	0.17944963
9	0xbbb4b175	-0.0055143186
10	0x3d0be708	0.034155875
11	0xbd68562b	-0.0567228
12	0xbe76d879	-0.24106015
13	0x3d8efc12	0.06981672
14	0x3e15f15a	0.1464285
15	0x3ea4fbe8	0.3222344
16	0x3ec641b7	0.3872201
17	0x3dddd488	0.10831553
18	0x3e5745bf	0.210227
19	0xbd6e223c	-0.058138117
20	0x3e723f0c	0.23656863
21	0x3e6af6ed	0.22945757
22	0xbd1a8181	-0.03772116
23	0x3db2c79d	0.087294795
24	0x3d7a7315	0.061144907
25	0x3ca0686a	0.019581039
26	0x3e0e6741	0.13906576
27	0x3e82957e	0.25504678
28	0x3e59737b	0.21235459
29	0xbe9515ab	-0.29118094
30	0x3c3ddc4e	0.011588169
31	0x3cd6f292	0.026238713
32	0x3d2c6b63	0.0420946
33	0xbd16079e	-0.036628358
34	0x3d99a50d	0.07502184
35	0x3e6d502b	0.23175113
36	0x3e091cca	0.13389888
37	0x3e843255	0.2581965
38	0x3e5df054	0.21673709
39	0x3e336a82	0.17521098
40	0x3e13c3aa	0.14430109
41	0x3dab24cc	0.08356628
42	0x3d19fe24	0.037595883
43	0xbe07febc	-0.13280767
44	0xbe096fb6	-0.1342152
45	0x3e956616	0.29179448
46	0x3e095f2d	0.13415213
47	0x3e340343	0.17579369
48	0x3da49a48	0.08037239
49	0x3cec0395	0.028810302
50	0x3e19df68	0.15026629
51	0x3d50c946	0.0509732
52	0x3e54b0c7	0.2077056
53	0x3c48d64d	0.012258125
54	0x3d9d64a6	0.07685213
55	0x3d65ac43	0.056072485
56	0x3cf4bf5d	0.029876405
57	0xbe40f6c9	-0.18844141
58	0xbda54e4a	-0.08071573
59	0x3d1dc174	0.03851457
60	0x3d37cbff	0.04487228
61	0xbd281002	-0.04103089
62	0xbcbc0682	-0.022952322
63	0x3de4bc57	0.111687355
64	0x3e812f06	0.2523119
65	0x3ed45906	0.4147417
66	0x3e69b0bc	0.22821325
67	0x3b0046ed	0.0019573525
68	0x3e05cf6e	0.1306741
69	0xbe1b0fe9	-0.15142788
70	0xbde3e248	-0.11127144
71	0x3dadd6ab	0.0848821
72	0x3c711671	0.014714823
73	0xbea512e5	-0.32240978
74	0x3df6242e	0.120186195
75	0x3de454f1	0.11149014
76	0x3e8c12dd	0.27358142
77	0x3e536dd7	0.2064737
78	0x3e7ca10d	0.24670811
79	0x3e54108e	0.2070944
80	0x3e03166f	0.12801526
81	0xbdba8d5d	-0.09108994
82	0x3cf5e0e7	0.030014468
83	0xbe77258a	-0.24135414
84	0xbe0d54bb	-0.13801853
85	0xbe2fe11b	-0.17175715
86	0x3e10ed9d	0.14153142
87	0x3e4c830f	0.1997187
88	0x3d73dd05	0.059536953
89	0xbe0b10d7	-0.13580643
90	0xbe19b6ce	-0.1501114
91	0x3da87421	0.08225275
92	0x3c86b31b	0.016442826
93	0x3e83b703	0.25725564
94	0x3e477995	0.19479974
95	0xbd948401	-0.0725174
96	0x3d15c68a	0.036566295
97	0xbd293f4e	-0.041320138
98	0x3e6db63d	0.2321405
99	0xbe8595ff	-0.26091
100	0x3e46ce12	0.19414547
101	0xbe69d2ac	-0.22834271
102	0xbdc25c01	-0.094902046
103	0x3e7951c0	0.24347591
104	0x3e4b792e	0.19870445
105	0x3d0c807f	0.03430223
106	0xbdbb4549	-0.091440745
107	0xbe82c4fe	-0.25540918
108	0x3dfc4e4e	0.12319623
109	0xbd5da1d2	-0.054109402
110	0x3d954a2b	0.07289537
111	0x3b19d63e	0.0023473646
112	0xbd753024	-0.059860364
113	0x3d8a0551	0.06739295
114	0x3df80ead	0.12112174
115	0xbe69f426	-0.22847041
116	0xbe60bd30	-0.2194717
117	0x3e60dcba	0.219592
118	0x3e6d78dd	0.23190637
119	0x3e858a79	0.2608221
120	0xbcfb2624	-0.030657835
121	0x3e9aecf3	0.30258903
122	0xbdfc1d2b	-0.12310251
123	0x3da8cf7f	0.08242702
124	0x3eaea3af	0.34109256
125	0xbc8e2dec	-0.017355882
126	0x3d9e3b52	0.07726158
127	0xbdab1399	-0.08353347
128	0xbd91b63a	-0.07114835
129	0x3da9f2a4	0.08298233
130	0xbdb89af1	-0.09013928
131	0x3c916613	0.017748868
132	0x3e1794d5	0.14802869
133	0xbceafafa	-0.028684128
134	0x3e10ad8c	0.14128703
135	0x3dec08b3	0.11525097
136	0x3e732565	0.23744734
137	0x3e20bff6	0.15698227
138	0x3e8bf3f0	0.27334547
139	0xbe0007df	-0.12503003
140	0xbd476935	-0.048684318
141	0xbe2cfb1a	-0.16892663
142	0xb7173520	-9.0126705e-06
143	0x3dadcfae	0.084868774
144	0x3df6141b	0.120155536
145	0x3e53cfb0	0.20684695
146	0xbdd3593f	-0.10319757
147	0x3ea5a09f	0.32349107
148	0x3d480650	0.048834145
149	0xbe34f13b	-0.17670147
150	0x3dfbc0f3	0.122926615
151	0x3eb74285	0.35792938
152	0xbd834016	-0.06408708
153	0xbc8058da	-0.015667368
154	0xbe07983d	-0.13241668
155	0xbd15620f	-0.03647047
156	0xbe201192	-0.15631703
157	0xbe123984	-0.14279753
158	0xbdabfb20	-0.08397508
159	0xbd268943	-0.040658247

hidden2event.weight f4 [27, 40]
0	0xbf5408cb	-0.82825917
1	0xbecfac9d	-0.4056138
2	0xbdda270d	-0.106519796
3	0x3f69a6e5	0.91270286
4	0x3d7585ad	0.059941936
5	0xbea83724	-0.3285457
6	0xbe67f361	-0.22651435
7	0xbd82ae00	-0.06380844
8	0x3e7940f0	0.24341178
9	0xbfa33258	-1.2749739
10	0x3ea3e4be	0.32010454
11	0x3bd2b071	0.006429725
12	0xbf2c61d1	-0.67336756
13	0x3e5d4a05	0.21610267
14	0xbe4e3ccf	-0.20140384
15	0x3f288201	0.6582337
16	0x3f14c0ca	0.5810667
17	0x3f198c36	0.5997957
18	0x3e957b64	0.29195702
19	0xbd530c29	-0.05152527
20	0x3eabcdf5	0.3355557
21	0x3de94f84	0.113921195
22	0xbef52c96	-0.4788558
23	0x3e9205f2	0.2852016
24	0xbed4e962	-0.41584307
25	0xbdac630c	-0.08417329
26	0xbee3d9a4	-0.44501984
27	0xbf0a4ff0	-0.54028225
28	0xbef30985	-0.474682
29	0x3d241e41	0.040067915
30	0xbe6bfc3b	-0.23045437
31	0x3f0f6620	0.56015205
32	0x3ef96d62	0.48716265
33	0xbf17d1f4	-0.5930474
34	0xbea395b6	-0.31950158
35	0x3ee82b42	0.45345503
36	0xbe03ef83	-0.12884335
37	0xbe480ae3	-0.19535403
38	0xbcab7df0	-0.020934075
39	0xbdd2330e	-0.10263644
40	0xbde6d81a	-0.11271687
41	0xbe5fba96	-0.2184852
42	0x3e5fea8e	0.2186682
43	0x3ca438f4	0.020046689
44	0xbd7ceeea	-0.061751284
45	0xbedcf2fb	-0.4315413
46	0x3e7e3172	0.2482355
47	0xbe5ea542	-0.21742728
48	0x3e9ba4b1	0.30399087
49	0x3e7f5f62	0.2493873
50	0x3e92e296	0.28688496
51	0xbd6bb37b	-0.057544213
52	0xbcbd7272	-0.02312586
53	0x3ed7062c	0.41996896
54	0x3e3d42b3	0.18482475
55	0x3d636eed	0.05552571
56	0x3de965f9	0.11396403
57	0x3e9c09cc	0.30476224
58	0x3e6d0796	0.23147425
59	0xbd9d1a44	-0.076710254
60	0x3ec01047	0.3751242
61	0x3d0d8d2f	0.03455847
62	0x3ded737a	0.11594291
63	0x3e59ce4f	0.21270107
64	0x3cd66e82	0.026175741
65	0xbc805812	-0.015666995
66	0xbe43a8a1	-0.19107296
67	0xbecab4f8	-0.39591193
68	0xbe0ba6c1	-0.1363783
69	0x3ea2b29f	0.31776902
70	0xbf20c648	-0.62802553
71	0xbe35a886	-0.17740068
72	0xbdba1a1d	-0.09087012
73	0xbebdbcc1	-0.3705807
74	0x3e26c3a3	0.16285567
75	0x3da0cdf7	0.07851785
76	0xbe0a2edb	-0.13494436
77	0x3d36d8f3	0.044640493
78	0x3e5a8bc7	0.21342383
79	0x3f137730	0.5760374
80	0xbdb90814	-0.09034744
81	0xbb3a1b8c	-0.0028397767
82	0xbe2af612	-0.16695431
83	0xbdcfbd3a	-0.10143514
84	0x3eb52394	0.35378706
85	0xbf465d90	-0.77486515
86	0xbd8c1440	-0.068398
87	0xbe7d2008	-0.2471925
88	0xbdce68ce	-0.10078584
89	0x3e9536b1	0.2914329
90	0xbf00b7e9	-0.50280625
91	0xbe28a37a	-0.16468611
92	0x3db39ea0	0.0877049
93	0x3ed046b7	0.4067895
94	0xbe822d60	-0.25425243
95	0xbe64a1d5	-0.22327359
96	0x3d6ac8da	0.057320453
97	0x3e8cba6a	0.27485973
98	0x3eebd224	0.46058762
99	0xbc6860e8	-0.0141832605
100	0x3ee43257	0.44569656
101	0x3e901bed	0.28146306
102	0x3ecf0599	0.40433958
103	0x3ea3ee89	0.32017925
104	0x3d3db669	0.046316538
105	0xbd46c8b0	-0.048531234
106	0x3e6c4c7f	0.23076056
107	0xbef62445	-0.48074546
108	0xbdfa468b	-0.12220486
109	0x3e6b784e	0.22995111
110	0xbe316ee7	-0.17327462
111	0x3ef17636	0.471605
112	0x3e170992	0.14749745
113	0xbc8bed2f	-0.017080871
114	0xbb4da5f0	-0.0031379424
115	0x3dd33b13	0.10314002
116	0xbebf9815	-0.37420717
117	0xbde82561	-0.113352545
118	0x3eb5e64b	0.35527262
119	0xbe7c1a14	-0.24619323
120	0x3f7b9cd5	0.9828618
121	0x3f12093a	0.5704533
122	0xbeda7836	-0.4266984
123	0x3d60c262	0.054872878
124	0xbf54b7d5	-0.83093005
125	0xbe811679	-0.25212458
126	0x3e1921d3	0.14954309
127	0x3da3cb1a	0.07997723
128	0x3e911091	0.28332952
129	0x3fd1c813	1.6389183
130	0xbe953ac9	-0.29146412
131	0xbea76a1b	-0.3269814
132	0xbddd2294	-0.10797611
133	0xbe5667c6	-0.20938024
134	0xbe9a088e	-0.30084652
135	0xbe54acc3	-0.20769028
136	0xbefec5ce	-0.49760288
137	0x3f3b1aa3	0.7308752
138	0x3ebc6ecc	0.3680328
139	0x3d8bb7c6	0.068221614
140	0xbef712e3	-0.48256597
141	0xbe25c644	-0.16188914
142	0xbeb18e44	-0.34678853
143	0x3edace61	0.4273558
144	0x3e17db20	0.14829683
145	0x3da1bc38	0.07897228
146	0xbe33ae03	-0.17546849
147	0xbe4310f8	-0.19049442
148	0xbeb5a22f	-0.354753
149	0x3f14881e	0.580202
150	0x3ef7769a	0.48332673
151	0xbee89732	-0.45427853
152	0xbdbcad9f	-0.09212803
153	0x3f911685	1.1334997
154	0x3dedff0d	0.11620913
155	0xbe6b9028	-0.2300421
156	0x3dcfa669	0.10139162
157	0x3dd06f52	0.10177483
158	0xbdc1ab5c	-0.09456512
159	0x3e13b3b6	0.14424023
160	0xbfae6a7a	-1.3626244
161	0x3e840486	0.257847
162	0x3f5a06bd	0.8516653
163	0x3f594bb5	0.84881145
164	0xbf323de0	-0.69625664
165	0x3f1abdaa	0.60445654
166	0x3e45bf77	0.1931132
167	0xbe00101c	-0.12506145
168	0xbd3d278b	-0.04618029
169	0xbf142f45	-0.5788463
170	0x3df07a75	0.11742107
171	0xbc8f1e91	-0.01747063
172	0x3e1c363b	0.15255062
173	0xbe2b7df4	-0.16747266
174	0xbe8d86dd	-0.27641955
175	0xbe9b72dd	-0.3036107
176	0x3e2d6a8a	0.16935173
177	0x3ee16938	0.44025588
178	0xbcfd96ef	-0.03095576
179	0xbede1be1	-0.43380645
180	0xbf425816	-0.7591566
181	0xbf0b506f	-0.54419607
182	0x3f2ce2fe	0.6753386
183	0xbf612933	-0.8795349
184	0x3d4a28ce	0.04935532
185	0xbd83cdab	-0.064357124
186	0x3f179464	0.592108
187	0x3ec32e64	0.3812133
188	0x3decfbca	0.115714625
189	0x3f9df83d	1.2341381
190	0x3f07722e	0.529086
191	0xbf5f91a9	-0.87331635
192	0xbec2b8e0	-0.38031673
193	0x3f7fcff3	0.9992668
194	0x3f1bc36e	0.6084508
195	0x3f5f200b	0.8715827
196	0x3f0591ce	0.52175605
197	0xbf2b5ff5	-0.66943294
198	0xbe0de597	-0.13857113
199	0xbf2814f6	-0.65656984
200	0xbe783aff	-0.24241255
201	0x3f929d7a	1.1454308
202	0x3f13bd92	0.57711136
203	0x3ef4281d	0.47686854
204	0x3f7b480b	0.98156804
205	0x3f1bd172	0.60866463
206	0xbf11082f	-0.5665311
207	0xbe9dc08a	-0.30810958
208	0xbeb2557d	-0.34830847
209	0xbee4b1e6	-0.44666976
210	0x3ec3d89a	0.3825119
211	0xbf52ae57	-0.8229727
212	0xbf172203	-0.5903627
213	0xbf44130c	-0.76591563
214	0xbf1accfa	-0.6046902
215	0x3ed8c3d5	0.42336908
216	0xbf61b9a6	-0.881739
217	0xbdb30afd	-0.0874233
218	0xbe7da71d	-0.2477078
219	0x3f2f65c8	0.6851468
220	0xbea9e001	-0.33178714
221	0x3ec09842	0.37616163
222	0x3ee931d6	0.45545834
223	0xbe67fc97	-0.22654949
224	0xbf3202e9	-0.6953569
225	0x3f86c58e	1.0529039
226	0x3ed9a826	0.425111
227	0x3f63b0e4	0.8894179
228	0xbefb2639	-0.490526
229	0xbf47912d	-0.77955896
230	0x3ebd5701	0.3698044
231	0x3f9834b7	1.1891087
232	0x3f0372f7	0.513473
233	0xbc8b67b3	-0.017017221
234	0xbf2b0971	-0.6681128
235	0x3ed6481a	0.41851884
236	0x3edec498	0.43509364
237	0xbf05e0b6	-0.52296007
238	0xbeba54b1	-0.3639274
239	0xbede3359	-0.4339855
240	0xbf8b649e	-1.0890081
241	0x3ec14281	0.3774605
242	0x3f3fc2f4	0.7490685
243	0x3fe13f70	1.7597485
244	0x3de9b2ff	0.11411094
245	0x3f5bfb84	0.8593066
246	0xbeb4b52c	-0.35294473
247	0xbeb7ae5f	-0.35875222
248	0x3ce5524c	0.027993344
249	0xbfc2d1f7	-1.5220326
250	0x3eec22ea	0.46120387
251	0xbf30e819	-0.6910415
252	0x3ea27d10	0.3173604
253	0xbe275c26	-0.16343746
254	0xbe7fbf67	-0.24975358
255	0x3ded46de	0.115857825

hidden2event.bias f4 [27]
0	0xbd7e6b10	-0.06211382
1	0x3d7a6316	0.061129652
2	0xbd682cbd	-0.05668329
3	0x3cbde5f3	0.023180937
4	0x3d05b2bf	0.03264117
5	0xbe4a7da7	-0.19774495
6	0xbe42fea7	-0.19042455
7	0xbec24a8e	-0.37947506
8	0x3da4dad8	0.08049554
9	0xbe61e4da	-0.22059956
10	0xbe8a06c7	-0.26958296
11	0xbecae72f	-0.39629504
12	0xbd156a43	-0.036478292
13	0x3ebbe287	0.36696264
14	0xbd825933	-0.0636467
15	0x3e342576	0.17592415
16	0xbd5916b1	-0.053000156
17	0xbed4ade7	-0.41538927
18	0xbe3dfd97	-0.18553768
19	0xbe95c988	-0.2925532
20	0x3e650576	0.22365364
21	0x3c7f12e8	0.015568472
22	0xbd990e8f	-0.0747348
23	0xbeba76bb	-0.3641871
24	0x3e0f067b	0.13967316
25	0xbea5ce43	-0.32383928
26	0xbef6b727	-0.4818661

hidden2time.weight f4 [3, 40]
0	0xbece50e4	-0.4029609
1	0x3f57f343	0.8435556
2	0xbf25890f	-0.6466226
3	0xbef860db	-0.48511395
4	0x3e4ebd9a	0.20189515
5	0xba99a798	-0.001172292
6	0x3e2a4013	0.16626005
7	0x3e76416d	0.24048395
8	0xbd0bfc6a	-0.034176268
9	0xbf3bfecd	-0.7343567
10	0x3e008a77	0.1255282
11	0x3ebdc54c	0.37064588
12	0x3e3372e0	0.1752429
13	0x3e9eafd3	0.30993518
14	0x3e521aab	0.20517986
15	0x3ced38d5	0.028957764
16	0xbf454e48	-0.7707257
17	0x3fa36599	1.276538
18	0xbf556624	-0.8335898
19	0xbe8e2e9e	-0.2776994
20	0x3e9de681	0.30839923
21	0xbe05983f	-0.13046359
22	0x3eba7894	0.3642012
23	0xbd8ca0e6	-0.068666264
24	0x3ec28100	0.37989044
25	0x3e3a5cb1	0.18199421
26	0xbe8d3168	-0.27576756
27	0x3ef82ed1	0.48473218
28	0x3e6c56c6	0.23079976
29	0x3f89eebd	1.0775982
30	0xbf3a5c95	-0.7279752
31	0x3d58121e	0.052751653
32	0xbe5bb5fb	-0.21456139
33	0x3f716d83	0.94307727
34	0x3e3f107c	0.18658632
35	0xbebae51b	-0.3650292
36	0xbea469bc	-0.3211192
37	0x3e0f3bd7	0.13987671
38	0x3e116a5f	0.14200734
39	0xbb7c5296	-0.0038501373
40	0x3f0e9b37	0.5570559
41	0xbf4ef209	-0.80838066
42	0x3e7e3480	0.24824715
43	0x3e810d8e	0.25205654
44	0xbed1159c	-0.408368
45	0xbe866421	-0.26248267
46	0x3d6854f6	0.05672165
47	0x3e03393a	0.12814799
48	0x3e3ff9ce	0.18747637
49	0x3f58fd9a	0.84761965
50	0xbed440cd	-0.4145569
51	0xbe88173a	-0.2658022
52	0xbdd5dcdd	-0.10442517
53	0xbe94db3d	-0.29073516
54	0x3e677bf0	0.22605872
55	0xbde5bab4	-0.112172514
56	0x3f35d3ca	0.7102629
57	0xbf7ba238	-0.982944
58	0x3f339c80	0.70160675
59	0xbe009134	-0.1255539
60	0x3de0b06c	0.1097115
61	0x3dfac385	0.12244324
62	0xbf050d24	-0.51973176
63	0x3e92b14a	0.28650886
64	0xbe2fe271	-0.17176224
65	0xbeee2c9c	-0.4651841
66	0x3d36c322	0.044619687
67	0xbf456754	-0.7711079
68	0xbe132645	-0.14370067
69	0xbf352b63	-0.7076933
70	0x3ec9230b	0.39284548
71	0xbdd9d8fb	-0.10637089
72	0xbd29aa56	-0.04142221
73	0xbf5c372e	-0.860217
74	0x3e2f7f6c	0.17138451
75	0x3e09c4ab	0.13453929
76	0x3d1df133	0.038560104
77	0x3e0dfd0d	0.13866062
78	0x3d314128	0.04327503
79	0xbca05786	-0.019572984
80	0xbc42462f	-0.011857553
81	0x3f5b1e5b	0.85593194
82	0x3f302f41	0.68822104
83	0x3f009d62	0.5024015
84	0x3f9af028	1.210454
85	0x3efa02fb	0.488304
86	0xbf035568	-0.51302195
87	0xbe274bc3	-0.16337495
88	0xbec35156	-0.38147992
89	0xbd1fcbb2	-0.03901262
90	0x3eec8dcc	0.46201932
91	0xbfd4d946	-1.6628807
92	0xbf2d4da9	-0.67696625
93	0xbf1710c7	-0.59009975
94	0xbefab95d	-0.48969546
95	0x3f06d020	0.52661324
96	0xbee054cd	-0.43814698
97	0xbf0a13ab	-0.5393626
98	0xbea09401	-0.31362918
99	0x3f0bbf30	0.54588604
100	0xbead41e4	-0.33839333
101	0x3ec87db3	0.391584
102	0x3eb7de81	0.35911945
103	0xbdc27289	-0.09494502
104	0xbf1ece56	-0.62033594
105	0x3f5139a4	0.8172858
106	0x3ee48846	0.44635218
107	0x3f575a93	0.8412258
108	0xbf249cbc	-0.6430166
109	0xbf195748	-0.59898806
110	0x3f250835	0.6446565
111	0x3f907a9d	1.1287419
112	0x3f2b8144	0.6699412
113	0xbd53091e	-0.051522367
114	0xbf28c253	-0.65921515
115	0x3efdae60	0.495471
116	0x3edf29e5	0.4358665
117	0xbf0aed4d	-0.5426834
118	0xbefd702c	-0.49499643
119	0xbeddd63a	-0.43327504

hidden2time.bias f4 [3]
0	0x3e3653bf	0.17805384
1	0xbd7edfb4	-0.06222506
2	0xbec6198c	-0.38691366
