events_simulation/models/all_epochs/model_36_20180531-0620.pt (torch_old, 78354 bytes, 9 tensors)

loss_function_events.weight f4 [27]
0	0x3f800000	1.0
1	0x3f800000	1.0
2	0x3f800000	1.0
3	0x3f800000	1.0
4	0x3f800000	1.0
5	0x3f800000	1.0
6	0x3f800000	1.0
7	0x3f800000	1.0
8	0x3f800000	1.0
9	0x3f800000	1.0
10	0x3f800000	1.0
11	0x3f800000	1.0
12	0x3f800000	1.0
13	0x3f800000	1.0
14	0x3f800000	1.0
15	0x3f800000	1.0
16	0x3f800000	1.0
17	0x3f800000	1.0
18	0x3f800000	1.0
19	0x3f800000	1.0
20	0x3f800000	1.0
21	0x3f800000	1.0
22	0x3f800000	1.0
23	0x3f800000	1.0
24	0x3f800000	1.0
25	0x3f800000	1.0
26	0x3f800000	1.0

lstm.weight_ih_l0 f4 [160, 70]
0	0xbe0f0c89	-0.13969626
1	0xbc391031	-0.011295364
2	0xbe3d6680	-0.18496132
3	0x3da1ac89	0.078942366
4	0x3da96ea0	0.08273053
5	0x3d1a565c	0.037680015
6	0xbddf513e	-0.109041676
7	0xbd3ff4bc	-0.046864256
8	0x3e238d33	0.15971832
9	0x3e338c58	0.17534006
10	0x3cad9cd1	0.02119294
11	0xbd176f08	-0.036971122
12	0x3cc2dafa	0.023786057
13	0xbc143c03	-0.009047511
14	0x3d053b60	0.032527328
15	0x3e025e77	0.12731348
16	0xbe04f3a7	-0.12983571
17	0xbe11d294	-0.14240485
18	0x3da7bfab	0.08190855
19	0xbe3157aa	-0.17318597
20	0xbd0e5ae6	-0.034754656
21	0x3d8af8b9	0.06785721
22	0xbe50176e	-0.20321438
23	0xbd8d3bf7	-0.06896203
24	0x3e0e57ac	0.13900632
25	0x3bb942a0	0.0056536943
26	0x3f433271	0.7624884
27	0xbdb9d55b	-0.090738975
28	0x3d9fc0ce	0.078004465
29	0x3f6f14aa	0.93390906
30	0x3e11a917	0.14224659
31	0xbd3aab19	-0.045573328
32	0x3d65fc11	0.056148592
33	0x3e5fc24c	0.21851462
34	0x3cd561f9	0.026047694
35	0x3daf0ce8	0.085473835
36	0x3c65e0af	0.0140306195
37	0x3e161fac	0.1466052
38	0x3e63a1e5	0.22229727
39	0x3d211ee9	0.03933612
40	0x3e63e715	0.2225612
41	0x3da5c43c	0.08094069
42	0xbdad402c	-0.084595054
43	0x3dc3596c	0.0953854
44	0x3dbf7a1e	0.09349464
45	0x3e2219f8	0.15830219
46	0xbcdadc08	-0.026716247
47	0x3e6137cc	0.21993941
48	0x3dfeac22	0.124351755
49	0x3d25ed78	0.04050967
50	0x3d2204bb	0.039555293
51	0x3dc58737	0.09644931
52	0xbb57d452	-0.003293295
53	0x3db4eb04	0.08833888
54	0xbd90f939	-0.070787854
55	0x3e85c17e	0.26124185
56	0x3daa6eca	0.083219126
57	0xbc814983	-0.015782123
58	0x3e2a6cda	0.16643086
59	0x3e2e872c	0.17043751
60	0x3bd82b4e	0.006596959
61	0x3e2c1324	0.16804177
62	0x3d564a03	0.052316677
63	0xbd64da3f	-0.0558722
64	0x3e0e5724	0.13900429
65	0xbcb6fc40	-0.022337079
66	0x3e152b2a	0.14567247
67	0x3d9f8ceb	0.0779055
68	0xbc18cb6b	-0.009325842
69	0xbdf6c5dd	-0.12049458
70	0xbf855d75	-1.0419146
71	0x3dbc03ae	0.09180389
72	0x3d29d9d7	0.041467514
73	0x3f12ab23	0.57292384
74	0x3d91f3c5	0.071265735
75	0xbe053454	-0.13008243
76	0xbde7904d	-0.1130682
77	0xbdf22dd4	-0.11825147
78	0x3eeabe63	0.4584838
79	0xbded59fb	-0.11589428
80	0x3ecb0f47	0.39660093
81	0xbef6bc60	-0.48190594
82	0xbe8063c3	-0.25076112
83	0xbe990341	-0.29885295
84	0xbe62bc5b	-0.22142164
85	0xbefb49c0	-0.49079704
86	0x3e056c54	0.13029605
87	0xbdfbf34e	-0.12302266
88	0xbd96ebc4	-0.073691875
89	0xbd273698	-0.04082355
90	0xbef02a63	-0.46907339
91	0xbd27113b	-0.040787917
92	0xbedbe01f	-0.42944428
93	0xbe8a11b7	-0.2696664
94	0xbe4a898c	-0.19779032
95	0x3dd1610e	0.1022359
96	0x3f1209bb	0.570461
97	0x3e1a4afc	0.15067667
98	0x3db105be	0.08643673
99	0x3f06c7b2	0.5264846
100	0xbd953e89	-0.07287318
101	0x3e59be0c	0.21263903
102	0xbe464256	-0.19361243
103	0xbe7c5adc	-0.24644035
104	0x3e880ed7	0.26573822
105	0xbe09728d	-0.13422604
106	0x3e8b6647	0.2722647
107	0x3e067ee0	0.13134336
108	0x3eaa9919	0.3331993
109	0xbe08ac30	-0.13346934
110	0x3e7a7b8b	0.2446119
111	0x3eb90619	0.36137465
112	0xbc858cdd	-0.01630252
113	0x3d43af13	0.047774386
114	0x3d590afd	0.052988995
115	0x3dc25fb4	0.0949091
116	0x3e297d43	0.1655169
117	0xbe7a07fb	-0.24417107
118	0x3cae03c7	0.021242036
119	0x3e3778dc	0.17917198
120	0x3e62b414	0.22139007
121	0xbdc0ad31	-0.09408034
122	0x3d814b30	0.06313169
123	0xbbdf9a84	-0.0068238396
124	0x3ea4ccf5	0.3218762
125	0x3eca4923	0.39508924
126	0x3e99f962	0.30073076
127	0x3e85c1ba	0.26124364
128	0x3df8548c	0.12125501
129	0x3e2c4ad3	0.16825418
130	0x3e24e419	0.16102637
131	0x3e7fee45	0.24993236
132	0x3ec49939	0.3839815
133	0x3e102f74	0.14080602
134	0xbdef67bb	-0.11689707
135	0x3ecbd0cc	0.39807737
136	0x3e4dbd51	0.2009175
137	0x3ed02c57	0.4065883
138	0x3ebaa6dc	0.3645543
139	0xbdbc3aea	-0.091909245
140	0x3cee3e24	0.029082365
141	0x3d0e71ed	0.034776617
142	0x3d86b6fd	0.06577871
143	0xbb04179f	-0.002015568
144	0xbd964fd0	-0.07339442
145	0x3cc965d8	0.024584696
146	0xbe31c774	-0.17361242
147	0xbb130661	-0.0022434222
148	0xbda54e5c	-0.080715865
149	0x3e0ac553	0.13551836
150	0xbe54edec	-0.20793885
151	0xbee933e9	-0.45547417
152	0xbe10f5a8	-0.1415621
153	0xbc927746	-0.01787914
154	0xbe5408cb	-0.20706479
155	0xbd9b540f	-0.07584392
156	0x3dcb78bf	0.0993514
157	0xbd711a06	-0.05886271
158	0xbe39ddb2	-0.18150976
159	0x3abfd3a0	0.0014635213
160	0x3d87ee6b	0.066372715
161	0x3de5506b	0.11196979
162	0x3c126e10	0.008937374
163	0xbeba0fcc	-0.36340177
164	0x3d12128d	0.035662223
165	0xbb2a2c40	-0.0025966316
166	0x3efd002c	0.49414194
167	0x3e15f345	0.14643581
168	0x3c84c1a7	0.016205622
169	0x3ef3185b	0.4747952
170	0x3e59e084	0.21277052
171	0x3da425bd	0.080150105
172	0xbc7c25e0	-0.0153898895
173	0x3b9df03b	0.0048198975
174	0x3e425eb5	0.1898144
175	0xbe0c8cd1	-0.13725592
176	0x3de8bc0a	0.113639906
177	0x3e149b05	0.1451226
178	0x3d4393b7	0.047748294
179	0x3c21c7be	0.009874282
180	0xbcba4927	-0.02273996
181	0xbded080d	-0.11573801
182	0x3df0de94	0.117612034
183	0x3e36a3d5	0.17835934
184	0x3c1eeec6	0.009700483
185	0xbc2d65a5	-0.010583316
186	0xbdbe1e68	-0.09283143
187	0x3d277b69	0.040889177
188	0x3da57dd5	0.08080641
189	0x3e206ff2	0.15667704
190	0x3e11ac5b	0.14225905
191	0x3dbd6d87	0.09249406
192	0xbe295e68	-0.1653992
193	0x3c970dfb	0.018439284
194	0xbcb89631	-0.022532554
195	0x3de96b18	0.1139738
196	0xbd5578af	-0.052117046
197	0x3d882048	0.06646782
198	0xbd657637	-0.05602094
199	0x3dfe53ae	0.124183044
200	0xbd67673d	-0.05649494
201	0x3c2f9790	0.010717288
202	0x3e374218	0.17896307
203	0xbd919e8c	-0.071103185
204	0x3c83910d	0.016060377
205	0x3c01f0e7	0.007930971
206	0x3dfa3698	0.12217444
207	0x3e288950	0.1645863
208	0x3e0ff16d	0.1405694
209	0xbdec88db	-0.115495406
210	0xbd4b37d9	-0.049613807
211	0x3d8742fb	0.066045724
212	0x3e0b1b46	0.13584623
213	0x3e567af2	0.20945337
214	0x3e288494	0.16456825
215	0x3dc791d2	0.0974461
216	0x3cf879ee	0.030331578
217	0x3e02d730	0.127774
218	0x3deae364	0.114691526
219	0xbd990710	-0.0747205
220	0x3e31373e	0.1730623
221	0x3d830931	0.063982375
222	0xbe33bbca	-0.17552105
223	0x3d9ba14b	0.075991236
224	0xbd881751	-0.06645072
225	0xbc9336e0	-0.017970502
226	0x3c8717ee	0.016490903
227	0xbc617ce0	-0.013762683
228	0xbcf73281	-0.03017545
229	0xbd94a19c	-0.07257387
230	0x3c854264	0.01626701
231	0x3e0656ae	0.13119003
232	0x3d92b876	0.071640894
233	0xbdfaed42	-0.122522846
234	0x3d266d2e	0.040631466
235	0x3db5a9f0	0.08870304
236	0x3f0bf4e2	0.54670537
237	0x3dd2d8f5	0.102952875
238	0xbd80e5c7	-0.062938266
239	0x3f4809c3	0.78139895
240	0x3cc08aab	0.023503622
241	0x3e11e57d	0.14247699
242	0x3d5b0800	0.053474426
243	0x3e3b1d49	0.1827289
244	0x3d179714	0.037009314
245	0xbc84d8b8	-0.01621662
246	0x3cd12dc6	0.025534522
247	0x3e06b70d	0.13155766
248	0x3e46cc06	0.19413766
249	0xbddd7bc9	-0.10814626
250	0x3e882992	0.26594216
251	0x3d79fd62	0.06103266
252	0x3e2bcea9	0.16778053
253	0x3dd88134	0.105715185
254	0x3e5565f3	0.20839672
255	0x3d92cb6b	0.07167705

lstm.weight_hh_l0 f4 [160, 40]
0	0x3e34caef	0.17655538
1	0xbe22c39e	-0.15894935
2	0x3ca1a991	0.019734176
3	0xbe22966e	-0.15877697
4	0x3dbed283	0.09317496
5	0xbe7d1593	-0.24715261
6	0xbe4fe1d6	-0.20300993
7	0x3d544185	0.051820297
8	0x3d8272e2	0.063695684
9	0x3d98cae1	0.07460571
10	0x3dbb6359	0.091498084
11	0x3e179c17	0.14805637
12	0x3de0f2ff	0.10983848
13	0x3bfd162f	0.0077235918
14	0xbe82fbf6	-0.25582856
15	0xbd606aa9	-0.05478922
16	0xbd6d2fa7	-0.057906773
17	0x3e94a1c5	0.2902967
18	0xbe744220	-0.2385335
19	0x3e409d2e	0.1880996
20	0x3e488cb2	0.19584921
21	0x3d9d2b6b	0.07674297
22	0xbe2f2382	-0.17103389
23	0x3dc84e61	0.097805746
24	0x3da66406	0.08124547
25	0x3e79c0ae	0.24389908
26	0x3e0d763b	0.13814633
27	0xbdace238	-0.08441585
28	0xbd47677d	-0.04868268
29	0x3e8d1a23	0.27559003
30	0x3e8f9b89	0.2804835
31	0x3c32c0a1	0.010910184
32	0xbd3b171d	-0.04567634
33	0x3e27eb45	0.16398342
34	0x3e507311	0.20356394
35	0x3e05709e	0.13031241
36	0x3ddbac3a	0.10726209
37	0xbd8a9b32	-0.067678824
38	0x3dadbc0d	0.084831335
39	0x3e0e9357	0.13923393
40	0x3d290341	0.04126287
41	0x3e86e2ee	0.2634501
42	0x3d2d2bb8	0.04227802
43	0x3b783dc8	0.0037878621
44	0x3e2101b5	0.15723307
45	0xbe128b48	-0.14310944
46	0x3d8fa16c	0.07013211
47	0xbc32affd	-0.010906217
48	0xbd0c243a	-0.034214236
49	0x3e139a35	0.14414294
50	0x3eef3446	0.4671957
51	0x3ea18400	0.3154602
52	0x3ed0ee45	0.40806785
53	0xbd514182	-0.051087864
54	0x3d4042bf	0.046938654
55	0xbe67f973	-0.22653751
56	0x3ecc6545	0.39921013
57	0xbd4ccb6a	-0.04999868
58	0xbda3105b	-0.07962104
59	0xbd0623c2	-0.032748945
60	0xbd487c67	-0.048946764
61	0xbcb25797	-0.021770282
62	0xbd2e8dcd	-0.0426157
63	0xbd2ffac8	-0.042963773
64	0x3df7d998	0.121020496
65	0x3e821197	0.25404045
66	0xbc378492	-0.011201041
67	0xbdc95f0c	-0.09832582
68	0xbd008013	-0.03137214
69	0x3da1216c	0.07867703
70	0x3cf78c2a	0.030218203
71	0x3e30b701	0.1725731
72	0x3d962e64	0.07333067
73	0x3e1d4399	0.15357818
74	0x3d8ad0e3	0.06778123
75	0x3dc6694b	0.09688052
76	0x3e2d5aec	0.16929215
77	0x3cf3c945	0.029759059
78	0xbd0f0aa0	-0.034922242
79	0xbcb38a82	-0.021916632
80	0x3e96f0f5	0.2948071
81	0xbe22b05d	-0.1588759
82	0x3dc85f27	0.09783774
83	0x3bbc7e46	0.0057523577
84	0xbb91b112	-0.0044461573
85	0x3be14de7	0.0068757418
86	0xbd98a82f	-0.074539535
87	0xbd059042	-0.032608278
88	0x3d5fa171	0.054597322
89	0x3dbc4b74	0.09194079
90	0x3e3fafb9	0.18719377
91	0x3e00827d	0.12549777
92	0xbd89b5f3	-0.06724157
93	0xbc848ed8	-0.016181394
94	0xbcff829c	-0.03119021
95	0xbdeb5159	-0.11490125
96	0xbd86963e	-0.06571625
97	0x3e5e5fd0	0.21716237
98	0xbe0617eb	-0.13095061
99	0x3e22b6cf	0.15890048
100	0xbdb7e4b8	-0.089791715
101	0x3ce57a8e	0.02801254
102	0x3b9112f0	0.0044273064
103	0xbe034ed5	-0.12823041
104	0xbcdbb293	-0.02681855
105	0xbd692601	-0.05692101
106	0x3c9059e2	0.017620984
107	0x39e49b9d	0.0004360349
108	0xbddbf03a	-0.10739179
109	0x3e1d7da6	0.15379962
110	0x3dfd60ff	0.12372016
111	0xbdd9c0e8	-0.10632497
112	0xbe0ecd25	-0.13945444
113	0x3d17ee7e	0.03709268
114	0x3e2247c6	0.15847692
115	0x3de60457	0.112312965
116	0xbc749991	-0.014929191
117	0xbe1e1561	-0.15437843
118	0xbe3837d0	-0.17990041
119	0x3d5ef188	0.05442956
120	0x3d90da94	0.070729405
121	0x3d8c2320	0.06842637
122	0x3d595a01	0.05306435
123	0x3bc358ea	0.005961527
124	0xbc8c8201	-0.017151834
125	0xbe2dba5a	-0.16965619
126	0x3dd06ddf	0.10177206
127	0xbe1d370f	-0.15353034
128	0xbdc3b83e	-0.09556626
129	0xbde1253b	-0.10993429
130	0x3ec14d5b	0.3775433
131	0x3e7a4747	0.24441253
132	0x3d47e41f	0.048801538
133	0xbe23fe46	-0.16014966
134	0x3d378c56	0.04481157
135	0xbe1c17e3	-0.15243487
136	0x3d10a9b5	0.035318095
137	0x3eae506f	0.3404574
138	0x3df4a479	0.11945433
139	0x3e357ea6	0.17724094
140	0x3cb413a9	0.021982031
141	0x3e0465d5	0.12929471
142	0xbdb117d1	-0.08647121
143	0x3d934177	0.07190221
144	0x3d89711a	0.067110255
145	0x3d3ec3d4	0.046573475
146	0x3e646680	0.22304726
147	0x3d4ceb14	0.050028875
148	0xbd839dfe	-0.06426619
149	0x3e28b604	0.16475683
150	0xbc7e1612	-0.015508192
151	0xbe0c777d	-0.13717456
152	0xbcdf3d13	-0.027250802
153	0x3e3013af	0.17195009
154	0x3d8a5574	0.0675458
155	0xbe266a23	-0.16251425
156	0x3d77e955	0.060525257
157	0xbd0ed9ae	-0.034875564
158	0x3cfe4fd3	0.031043923
159	0x3e4f9c32	0.20274428
160	0x3d9c7917	0.076402836
161	0xbd04818e	-0.032350115
162	0x3e4c6344	0.19959742
163	0xbde53210	-0.11191189
164	0x3e3c56b3	0.18392448
165	0x3e194a0a	0.1496965
166	0xbd00c23c	-0.031435236
167	0xbe121cde	-0.14268824
168	0x3d92d528	0.071695626
169	0xbdb79697	-0.089642696
170	0x3e55a468	0.20863497
171	0x3e5b15fb	0.21395104
172	0x3e0ab7da	0.13546696
173	0x3cc53b9a	0.024076272
174	0xbe14de4b	-0.14537923
175	0x3d94a5ec	0.072582096
176	0xbd021e0f	-0.031766947
177	0x3e8089ca	0.25105125
178	0xbc0b21c6	-0.008491939
179	0x3dd92fc0	0.10604811
180	0x3e4526a8	0.19253027
181	0x3db2820f	0.08716213
182	0xbabdc942	-0.0014479535
183	0xbdf5fe52	-0.120113984
184	0x3e188734	0.14895326
185	0x3e05cb7c	0.13065904
186	0x3e40561e	0.18782851
187	0x3dabde32	0.0839199
188	0xbcfa4aa7	-0.030553175
189	0x3d0c9905	0.03432562
190	0xbc97fd7f	-0.018553494
191	0x3cf9a522	0.03047425
192	0x3d791b15	0.060816843
193	0x3bd14a36	0.0063870205
194	0x3d961c1b	0.073295794
195	0x3d0ef6be	0.03490328
196	0x3e86f3f4	0.26357996
197	0x3e335267	0.17511903
198	0xbdb72b97	-0.08943861
199	0x3e177a1e	0.14792678
200	0x3eaace7e	0.33360666
201	0xbd89de6b	-0.06731876
202	0xbbc6c6b5	-0.006066168
203	0xbe4f8e51	-0.20269133
204	0x3ebf9270	0.3741641
205	0x3ca5ae2a	0.02022465
206	0x3d583b09	0.052790675
207	0x3e2a45c1	0.16628172
208	0x3dee3ed6	0.11633079
209	0xbb6456c2	-0.003484175
210	0x3f45b7d3	0.7723362
211	0x3d7f3aec	0.06231205
212	0x3d9ee917	0.07759302
213	0x3b6c693d	0.003607347
214	0xbd1df939	-0.038567755
215	0xbd6c1b0d	-0.057642985
216	0x3ea856f1	0.3287883
217	0x3f00a7b8	0.5025592
218	0xbdf083f3	-0.11743917
219	0x3d14f053	0.036362004
220	0xbdc4603b	-0.09588667
221	0x3e43c113	0.1911662
222	0xbd99df30	-0.07513273
223	0x3d945834	0.07243386
224	0x3e7272b6	0.23676571
225	0x3e55f070	0.20892501
226	0xbcc9f2ef	-0.024651973
227	0x3da11ad1	0.07866443
228	0xbd8ea971	-0.06965912
229	0x3e49d24e	0.19709131
230	0x3e0e5846	0.13900861
231	0xbdb3c642	-0.08778049
232	0xbe38356d	-0.1798913
233	0x3e86b4b8	0.26309752
234	0x3e458f27	0.1929289
235	0xbc1d82f5	-0.009613742
236	0x3e08dd13	0.13365583
237	0xbcc5bfda	-0.024139334
238	0xbdc986a5	-0.098401345
239	0xbb8f1fec	-0.004367819
240	0x3e9cf0e0	0.30652523
241	0xbcac77c0	-0.021053195
242	0x3e2cd9f8	0.16880023
243	0x3ca33ec7	0.019927396
244	0x3e9f13b8	0.31069732
245	0xbdc02960	-0.09382892
246	0xbc74cd0e	-0.014941467
247	0x3dab94ee	0.083780155
248	0x3c8ea9f5	0.017415026
249	0x3e3c6729	0.18398727
250	0x3ed734a2	0.42032343
251	0x3e7ac358	0.2448858
252	0x3e991287	0.29896948
253	0x3d1e0fd1	0.038589302
254	0x3e7b95e4	0.24568897
255	0x3d9fe48b	0.07807263

lstm.bias_ih_l0 f4 [160]
0	0xbceed6a8	-0.02915509
1	0x3dbef0fc	0.09323308
2	0x3e401ca8	0.18760931
3	0x3e1c6df8	0.15276325
4	0x3e34bb26	0.17649516
5	0x3dce1294	0.10062137
6	0x3cc2ad2e	0.02376422
7	0xbc4d1246	-0.012516564
8	0x3d458256	0.04822
9	0x3d7b8c8b	0.06141333
10	0x3e9792bd	0.2960414
11	0xbde46951	-0.111529
12	0x3db341c2	0.08752777
13	0x3e17c980	0.1482296
14	0x3e063158	0.1310476
15	0xbd856749	-0.06513841
16	0x3dbcc553	0.09217324
17	0x3e93069f	0.2871599
18	0xbd480a24	-0.048837796
19	0x3d2a447c	0.041569218
20	0x3db1d55c	0.08683273
21	0x3dd91ddd	0.10601399
22	0xbdca3f25	-0.09875325
23	0xbd741367	-0.059588816
24	0x3e2210ed	0.15826769
25	0x3d3a2b71	0.045451585
26	0x3ded69ea	0.11592467
27	0x3ead2c1a	0.3382271
28	0x3df17b7a	0.117911294
29	0xbcd39c38	-0.025831327
30	0x3e739962	0.2378898
31	0x3e7f2df1	0.24919869
32	0x3da6d69f	0.081464045
33	0xbcc944b5	-0.024568895
34	0x3e385b03	0.18003468
35	0x3d9c0478	0.0761804
36	0x3dce99e6	0.100879475
37	0xbc216ae6	-0.009852147
38	0xbd815cee	-0.06316553
39	0x3e4f6822	0.20254567
40	0x3dc6a14b	0.09698733
41	0x3da8e990	0.082476735
42	0xbcf3878c	-0.02972772
43	0xbd9ebc77	-0.077507906
44	0x3ddfd9ba	0.109302
45	0xbcfda73f	-0.030963538
46	0xbd994591	-0.07483972
47	0xbdb780e9	-0.089601345
48	0x3d61a039	0.05508444
49	0x3e4cff3d	0.2001924
50	0x3d0ef85b	0.03490482
51	0xbda31720	-0.07963395
52	0x3d33e5fe	0.04392051
53	0xbdcc29bb	-0.09968897
54	0x3dba0169	0.090823
55	0x3c85cc64	0.016332813
56	0xbe5dea6e	-0.21671459
57	0xbcdd1c7b	-0.02699112
58	0xbda796d5	-0.08183066
59	0x3e5584c8	0.20851433
60	0xbdaf3acb	-0.08556136
61	0x3e0a9a96	0.13535532
62	0x3c72822e	0.014801545
63	0x3dbafec0	0.09130621
64	0x3e4cd5ff	0.20003508
65	0x3daf0717	0.08546274
66	0x3e277c3b	0.16355984
67	0x3dc8a444	0.09796956
68	0x3d26fe36	0.04076978
69	0xbd319284	-0.04335262
70	0x3e035617	0.1282581
71	0x3e3067c9	0.17227091
72	0x3e4f9158	0.20270288
73	0x3cf4ffe8	0.029907182
74	0x3dc6101f	0.096710436
75	0x3d32ffa2	0.04370082
76	0x3d57452e	0.05255621
77	0xbd2017ab	-0.03908507
78	0x3e4dcb44	0.20097071
79	0xbd5d8b7b	-0.054088097
80	0xbd733457	-0.059376087
81	0xbd81d061	-0.06338573
82	0xbdd1a226	-0.102360055
83	0xbd78eece	-0.060774617
84	0xbddabafb	-0.10680195
85	0xbe39fdd8	-0.1816324
86	0xbe308682	-0.1723881
87	0x3cc153b3	0.023599481
88	0x3baf3860	0.0053472966
89	0xbd1c59d0	-0.03817159
90	0xbc3e216d	-0.011604649
91	0x3ddc345a	0.10752173
92	0xbe3a2400	-0.18177795
93	0x3d2e05cd	0.042486
94	0x3d3c40dd	0.045960296
95	0x3d2105e1	0.039312247
96	0xbe1e4189	-0.15454687
97	0xbc8c56ad	-0.017131174
98	0xbe0546d9	-0.13015307
99	0x3cadffc7	0.021240128
100	0xbbb34ecc	-0.00547204
101	0xbd5ebbd6	-0.054378353
102	0xbd8b550f	-0.06803333
103	0xbdd1dd69	-0.10247309
104	0xbc93139f	-0.017953692
105	0x3d8e493d	0.06947563
106	0x3ae17270	0.0017200243
107	0xbe68215d	-0.22668977
108	0xbe29f90c	-0.1659891
109	0x3e481c29	0.19541992
110	0x3c6d0cae	0.014468355
111	0x3d3db693	0.046316694
112	0xbe3b2403	-0.18275456
113	0x3db11372	0.08646287
114	0x3dae09a6	0.08497934
115	0xbe3c7d00	-0.18407059
116	0xbe03719a	-0.12836304
117	0x3dce27ae	0.10066162
118	0xbcb32344	-0.021867402
119	0x3e30919c	0.17243046
120	0xbae96d05	-0.001780898
121	0xbd08b8ac	-0.03337924
122	0x3df686b4	0.12037411
123	0x3e188896	0.14895853
124	0xbb23b64a	-0.002498048
125	0xbe1a60e3	-0.15076022
126	0x3e3b2810	0.18277001
127	0x3dbbb149	0.09164674
128	0xbd71d5fc	-0.059041962
129	0x3e96a206	0.2942049
130	0x3e77dfb0	0.24206424
131	0xbd86f622	-0.06589915
132	0x3e3736ea	0.17892042
133	0x3dbdeb00	0.09273338
134	0x3dcc4f28	0.09976035
135	0x3e828a39	0.2549608
136	0x3dcb3062	0.09921338
137	0x3e598c17	0.21244846
138	0xbbd30d8f	-0.0064408253
139	0x3e60dd09	0.21959318
140	0x3e853eea	0.26024562
141	0x3d204f6d	0.039138246
142	0x3d72cc7b	0.05927704
143	0x3daa5139	0.08316273
144	0x3d189e69	0.037260447
145	0x3c286e2b	0.010280172
146	0x3ad4f72c	0.0016247979
147	0x3e40a825	0.18814142
148	0xbd85c57c	-0.06531808
149	0x3d205d0b	0.039151233
150	0x3dd4a1be	0.103824124
151	0x3e30b084	0.17254835
152	0x3e2d8da9	0.1694857
153	0xbdb43dfc	-0.08800885
154	0x3e0251c8	0.1272651
155	0x3d855c3f	0.06511735
156	0x3c3ee251	0.011650638
157	0xbd19dcc2	-0.037564047
158	0xbd64f176	-0.055894338
159	0x3e373ef2	0.17895105

lstm.bias_hh_l0 f4 [160]
0	0xbd0fa312	-0.035067625
1	0x3e15bc33	0.14622574
2	0xbd2941d9	-0.041322563
3	0xbc31ad49	-0.010844537
4	0x3db03910	0.08604634
5	0x3d2184bc	0.039433226
6	0x3e752986	0.23941621
7	0x3dfcd3ef	0.123451106
8	0x3e527bc8	0.20555031
9	0x3dd48ab7	0.1037802
10	0xbc8e9025	-0.017402718
11	0xbcacfadf	-0.021115718
12	0xbd5ac034	-0.053405955
13	0xbd3dec62	-0.04636801
14	0x3e43b7b0	0.1911304
15	0x3d9ae17d	0.0756254
16	0x3e56f4e2	0.20991853
17	0x3cb0cd6f	0.021582333
18	0x3e776f27	0.24163495
19	0x3e884daf	0.26621768
20	0x3cce8681	0.02521062
21	0x3e20396f	0.15646909
22	0xbd9bb60c	-0.07603082
23	0xbcefdc93	-0.029279983
24	0xbc15563f	-0.009114801
25	0x3d38fab6	0.04516097
26	0xbd6ff200	-0.0585804
27	0x3e1fe5fe	0.15615079
28	0x3e1a8a97	0.1509193
29	0x3e190177	0.14941965
30	0x3d268755	0.040656406
31	0x3e34486b	0.1760575
32	0x3d748a33	0.05970211
33	0x3c48c3de	0.01225373
34	0xbb02e8da	-0.0019975216
35	0x3d9b6873	0.075882815
36	0x3da7b7e7	0.081893735
37	0xbe102257	-0.140756
38	0xbd9cced4	-0.07656637
39	0x3e10c41a	0.14137307
40	0x3e1370b0	0.14398456
41	0x3dc56222	0.09637858
42	0x3cbbbae8	0.022916272
43	0x3dc305a3	0.095225595
44	0xbce335a8	-0.027735546
45	0xba82f6ef	-0.0009991805
46	0x3e42213e	0.18957993
47	0xbcb15551	-0.021647127
48	0xbd960b70	-0.073264
49	0x3e213e29	0.15746368
50	0xbd9ddb21	-0.07707811
51	0x3de83596	0.11338346
52	0xbd18cc02	-0.037303932
53	0xbd09a3ef	-0.033603605
54	0x3b2778da	0.002555421
55	0x3c8510fe	0.016243454
56	0x3d54beb7	0.051939692
57	0x3d2a3ea2	0.041563638
58	0x3e1f3210	0.15546441
59	0xbd1044be	-0.035221808
60	0x3d6ea937	0.058266845
61	0x3d83cd2f	0.0643562
62	0x3cc50297	0.024049086
63	0x3d995442	0.07486774
64	0x3d0a3aba	0.033747412
65	0x3e4aeb1d	0.19816251
66	0xbda217dc	-0.07914707
67	0x3dade3a0	0.08490682
68	0x3dfb5a3f	0.122730725
69	0xbd81a1c4	-0.063296825
70	0xbc37a103	-0.011207822
71	0xbd7540fb	-0.059876423
72	0x3ca78a2b	0.020451626
73	0xbd90fb3d	-0.0707917
74	0x3e2e2140	0.17004871
75	0xbcc8250d	-0.02443173
76	0x3e12c939	0.14334573
77	0x3d4d2265	0.05008163
78	0x3e477e5a	0.19481793
79	0xbd8dccf7	-0.069238596
80	0x3bcfd815	0.0063428977
81	0xbc0d34a1	-0.008618505
82	0x3d80acd8	0.06282967
83	0x3bb2ef4a	0.0054606544
84	0x3e1f7bd1	0.15574576
85	0xbd673ec6	-0.05645635
86	0xbd9442eb	-0.07239326
87	0xbe2595fc	-0.16170496
88	0xbe03ec1d	-0.12883039
89	0xbe4d4229	-0.2004477
90	0x3dd4b973	0.10386934
91	0xbdc9f15e	-0.0986049
92	0x3b8d4c87	0.0043121013
93	0xbde2e2ef	-0.110784404
94	0x3cc573bc	0.024103038
95	0xbd7bfa40	-0.061517954
96	0x3de8caa9	0.11366779
97	0x3e32acb2	0.1744869
98	0xbc33de6f	-0.010978325
99	0x3e17a800	0.1481018
100	0x3dc4e079	0.09613127
101	0x3d9f0deb	0.077663265
102	0x3ddbaa44	0.10725835
103	0xbe521b18	-0.20518148
104	0x3dd8dbe0	0.10588813
105	0xbda27bbb	-0.07933756
106	0x3e05815d	0.1303763
107	0xbdc3e88f	-0.095658414
108	0xbd8c0e85	-0.06838707
109	0x3d1927fc	0.037391648
110	0x3e64f7b5	0.22360118
111	0xbe3ea54f	-0.18617748
112	0x3c2d3f5e	0.01057419
113	0xbda895ea	-0.08231719
114	0x3c23dc91	0.010001318
115	0xbd3ea6c3	-0.046545755
116	0xbdca4046	-0.098755404
117	0x3d249028	0.04017654
118	0xbe4229d7	-0.18961273
119	0xbd4559b1	-0.04818124
120	0xbe256ac7	-0.16154014
121	0x3be1fd16	0.0068966253
122	0xbdcae81a	-0.09907551
123	0xbd6f5e61	-0.058439616
124	0xbd0bdda8	-0.034146935
125	0xbca977d1	-0.020687016
126	0x3cfac510	0.030611545
127	0x3da377a1	0.07981802
128	0x3d808cc5	0.0627685
129	0x3e645e9d	0.22301717
130	0x3e915d77	0.2839162
131	0xbc662395	-0.014046569
132	0x3e3e70c8	0.1859771
133	0x3c1da5f3	0.009622085
134	0x3e6ce5df	0.23134564
135	0x3e7330bd	0.23749061
136	0x3db7cc10	0.08974469
137	0x3e00a723	0.12563758
138	0xbd163bf6	-0.036678277
139	0xbd9ac890	-0.075577855
140	0x3ed3544d	0.41275254
141	0x3dc853de	0.097816214
142	0x3e0304cb	0.12794797
143	0xbcf12da5	-0.02944071
144	0xbda3673d	-0.079786755
145	0x3da254ed	0.079263546
146	0x3cf2e75e	0.02965134
147	0x3e1ca43b	0.15297024
148	0x3ddf53df	0.10904669
149	0x3e506006	0.2034913
150	0xbd3fa741	-0.046790365
151	0x3d186dab	0.037213963
152	0xbdc391d8	-0.09549302
153	0x3d558f45	0.052138586
154	0x3e2add90	0.16686082
155	0xbdd84a5f	-0.1056106
156	0xbd9d7b54	-0.076895386
157	0x3ddd6f00	0.10812187
158	0xbddbcb4e	-0.10732137
159	0x3e317494	0.17329627

hidden2event.weight f4 [27, 40]
0	0x3ebede7c	0.37279117
1	0xbe43e920	-0.19131899
2	0x3e11c230	0.14234233
3	0x3e8b113a	0.2716158
4	0xbe8697b7	-0.26287624
5	0x3d27042e	0.04077547
6	0xbd21b189	-0.03947595
7	0xbdb211fd	-0.08694837
8	0x3e5fe88b	0.21866052
9	0xbeb51c3e	-0.3537311
10	0xbe0e224d	-0.13880272
11	0xbdf6fe51	-0.12060226
12	0x3ea96c1f	0.33090302
13	0x3c58d456	0.013234219
14	0x3f2fa3e5	0.6860946
15	0x3f34bce8	0.7060075
16	0xbea23237	-0.31678936
17	0x3f0d2301	0.55131537
18	0x3ea8c2ff	0.3296127
19	0xbe395df1	-0.18102242
20	0x3eba3bf9	0.3637388
21	0xbd8ec982	-0.06972028
22	0xbe8c5260	-0.27406597
23	0x3d6fa41c	0.058506116
24	0xbe301e57	-0.17199074
25	0xbe85a47c	-0.26102054
26	0xbb945ac3	-0.004527421
27	0x3ec3eda6	0.3826725
28	0x3e3b4d29	0.18291153
29	0x3dd78dea	0.10525115
30	0xbea3dbfa	-0.32003766
31	0x3ddefa0f	0.10887539
32	0xbd0c2c84	-0.03422214
33	0x3e846797	0.25860283
34	0xbd855587	-0.06510454
35	0xbb9d9d17	-0.0048099863
36	0xbe6b441b	-0.22975199
37	0xbc928839	-0.017887222
38	0xbe90e5e5	-0.28300396
39	0xbe3cf7b8	-0.18453872
40	0xbdbf7758	-0.09348935
41	0xbe952804	-0.29132092
42	0x3e421c2a	0.18956056
43	0x3d447335	0.047961432
44	0x3df44565	0.119272985
45	0xbcf9cc58	-0.030492947
46	0x3d90dc00	0.07073212
47	0xbbf25449	-0.0073953015
48	0x3d5a9de8	0.053373247
49	0x3c680dff	0.014163493
50	0xbeaf58ef	-0.34247538
51	0xbca8c697	-0.020602508
52	0x3f294afa	0.6613003
53	0x3da9f87a	0.08299346
54	0x3d8f3cf5	0.069940485
55	0x3ecc2085	0.3986856
56	0xbe49f43f	-0.19722079
57	0x3f107fac	0.5644481
58	0xbe72573d	-0.23666091
59	0xbe3a71f1	-0.18207528
60	0x3e918ad5	0.28426233
61	0x3e0789f8	0.13236225
62	0xbe9f500e	-0.31115764
63	0xbeb3e04e	-0.35132068
64	0x3e201c4c	0.15635794
65	0xbe312adc	-0.17301506
66	0x3e09d06b	0.13458411
67	0xbd0c9766	-0.034324072
68	0xbe65bb34	-0.22434694
69	0x3c778192	0.015106576
70	0xbe3c3f66	-0.1838356
71	0xbeaf878c	-0.34283102
72	0x3c01847a	0.00790512
73	0x3e861b3a	0.26192647
74	0x3e7ca3ae	0.24671814
75	0xbe54082a	-0.2070624
76	0xbdbe914e	-0.093050584
77	0x3cb6b6ac	0.022303902
78	0xbe8b7406	-0.27236956
79	0x3e286644	0.16445261
80	0xbd61ec8e	-0.055157237
81	0xbd34fb0a	-0.044184722
82	0x3dcd217c	0.10016152
83	0x3e83ea3f	0.25764653
84	0x3e54963a	0.20760432
85	0xbe3f1fc2	-0.18664458
86	0x3e8b7659	0.2723873
87	0xbe636852	-0.22207764
88	0x3af5c7af	0.0018751527
89	0xbdff8dce	-0.12478219
90	0x3e2778bc	0.1635465
91	0x3de7b4d1	0.11313785
92	0x3f3cece9	0.73798996
93	0x3e4dd258	0.20099771
94	0x3d8b8e76	0.06814282
95	0x3f0435a8	0.5164437
96	0x3e99ba4b	0.30024943
97	0x3f0324af	0.5122785
98	0xbe11f375	-0.14253028
99	0x3e8f64b1	0.2800651
100	0x3dc84022	0.09777857
101	0xbd9c40ca	-0.07629545
102	0xbe63d73c	-0.22250074
103	0x3e85d713	0.2614065
104	0x3e9ace32	0.3023544
105	0x3e22773b	0.15865795
106	0x3e20651a	0.15663567
107	0x3ef9d7e4	0.48797524
108	0xbe5c32cb	-0.21503751
109	0x3dae550c	0.08512315
110	0x3e23b732	0.15987852
111	0xbe06120b	-0.1309282
112	0x3e993161	0.29920486
113	0xbd7a47bb	-0.061103564
114	0x3d630366	0.055423163
115	0xbe7cf251	-0.24701811
116	0xbf02f55d	-0.51155645
117	0x3ea54cd7	0.32285187
118	0xbe77fd55	-0.24217732
119	0xbe4bed73	-0.19914798
120	0xbf00e9cf	-0.50356764
121	0x3eb18fc5	0.3468
122	0x3cafbb46	0.021451604
123	0x3e109d71	0.14122559
124	0x3e21c041	0.15795995
125	0xbf45d070	-0.77271175
126	0x3dfdc950	0.12391913
127	0x3dea6922	0.11445834
128	0xbe63e687	-0.22255908
129	0x3e2569a3	0.16153578
130	0xbf3f1131	-0.74635607
131	0x3e82e5ae	0.25565857
132	0xbf8c2120	-1.0947609
133	0xbea51cfd	-0.3224868
134	0xbea6db62	-0.3258925
135	0x3ea066ed	0.31328526
136	0x3e4d89d5	0.2007211
137	0xbf33778c	-0.7010429
138	0xbf1b89f9	-0.60757405
139	0x3e82fb09	0.2558215
140	0x3f9e6510	1.2374592
141	0x3ee38e2a	0.444444
142	0x3be3d29d	0.0069525973
143	0xbe53c29a	-0.20679703
144	0x3ec67fe3	0.38769445
145	0xbdaea7ac	-0.085280746
146	0x3e9f20e2	0.31079775
147	0x3e93bd94	0.28855574
148	0xbed44dc8	-0.41465592
149	0x3d98f7f4	0.07469168
150	0x3ebba6ec	0.3665079
151	0x3e9d3770	0.30706358
152	0xbe8b78bb	-0.27240548
153	0x3c1228b6	0.008920839
154	0x3ce820ab	0.02833589
155	0xbcd4e22f	-0.025986759
156	0xbe66b791	-0.22530963
157	0xbe5b7b0b	-0.21433656
158	0xbe048072	-0.12939623
159	0xbe04c128	-0.12964308
160	0xbaa0c4a1	-0.0012265631
161	0xbedbfa46	-0.4296438
162	0xbe813a34	-0.25239718
163	0x3e4e2c3d	0.20134063
164	0xbd4f1e0f	-0.050565775
165	0xbe2b2e18	-0.16716802
166	0x3eac5aea	0.33663112
167	0x3ded0a16	0.11574189
168	0xbed38d62	-0.41318804
169	0x3ea1438a	0.3149684
170	0xbf25fcee	-0.64839065
171	0xbeee3f28	-0.4653256
172	0xbf095501	-0.5364533
173	0xbe6bd6dc	-0.23031181
174	0x3ec1557e	0.37760538
175	0xbf845e8f	-1.0341357
176	0xbde767b1	-0.112990744
177	0xbf166840	-0.5875282
178	0xbd9a062e	-0.0752071
179	0xbdd79135	-0.10525743
180	0xbe44fa1a	-0.19236031
181	0xbf1b39f0	-0.6063528
182	0x3f0f80a5	0.5605567
183	0x3e355aeb	0.17710464
184	0xbe8be629	-0.27324036
185	0xbf03ac51	-0.5143481
186	0x3e9a9da6	0.301984
187	0x3ed846db	0.42241558
188	0x3eb3996e	0.35077995
189	0x3e5f8724	0.21828896
190	0x3e4394af	0.19099687
191	0xbee549ef	-0.4478297
192	0x3ed7066a	0.4199708
193	0x3e6b8d40	0.23003101
194	0x3e1d6054	0.15368778
195	0x3f2e851f	0.68171877
196	0xbee15b4a	-0.4401496
197	0xbf49dff1	-0.7885733
198	0xbeab9169	-0.33509377
199	0x3ea05c0a	0.3132022
200	0xbef89116	-0.48548192
201	0x3e267edd	0.16259332
202	0xbedfcd3f	-0.43711278
203	0x3ecd2355	0.4006602
204	0xbf0e275b	-0.555288
205	0x3ed0cde3	0.4078208
206	0x3eeaf2ff	0.45888516
207	0x3eb20687	0.34770605
208	0x3e908ad3	0.28230914
209	0xbe2935d0	-0.16524434
210	0xbede30ab	-0.43396506
211	0xbe2d1a06	-0.16904458
212	0xbdc95b70	-0.098318934
213	0x3ebcde01	0.36888126
214	0x3ea927c8	0.33038163
215	0xbdba8f8b	-0.0910941
216	0x3f13bd6d	0.57710916
217	0xbf5887b0	-0.8458204
218	0x3f0633b8	0.52422667
219	0xbeb38ec8	-0.3506987
220	0x3e792bb5	0.24333079
221	0xbea1c8b5	-0.3159844
222	0x3e81226f	0.25221583
223	0x3e48a97b	0.19595902
224	0xbee1e75b	-0.44121823
225	0xbeac3709	-0.33635738
226	0xbebe8d61	-0.3721724
227	0x3e898b77	0.26864216
228	0x3ec99482	0.39371115
229	0xbed45bbf	-0.41476247
230	0xbe50745c	-0.20356888
231	0x3ebd51a0	0.36976337
232	0x3e5ed21d	0.2175984
233	0xbed2ab22	-0.4114619
234	0xbed6c57a	-0.41947538
235	0x3e125abc	0.14292425
236	0x3e738c95	0.23784097
237	0x3f015fcd	0.50536805
238	0x3eadb98c	0.33930624
239	0xbe683f5a	-0.22680417
240	0xbe3439a6	-0.17600116
241	0x3de4b3b5	0.11167089
242	0xbe77d2c1	-0.2420149
243	0x3e4d0992	0.20023182
244	0xbc1c7999	-0.0095504755
245	0x3ec8dc95	0.3923079
246	0x3e629d3a	0.2213029
247	0x3e00aeca	0.12566677
248	0xbcb3fb71	-0.021970483
249	0x3dfd596f	0.12370574
250	0xbebf0244	-0.37306416
251	0xbeb7cf03	-0.35900125
252	0xbe38de5c	-0.18053573
253	0x3e1a0bf0	0.15043616
254	0x3ef014b4	0.46890795
255	0xbeed220f	-0.46315047

hidden2event.bias f4 [27]
0	0x3dd218ee	0.10258661
1	0x3cc35fe8	0.023849443
2	0x3e0dd313	0.1385005
3	0x3da13fc9	0.07873494
4	0x3cf29ed7	0.029616756
5	0xbe8c45d9	-0.2739704
6	0xbe4ff005	-0.20306404
7	0xbe8d15a2	-0.27555567
8	0x3dfc2ebe	0.12313603
9	0xbda611d4	-0.08108869
10	0xbbeee84a	-0.0072908746
11	0xbe1283e7	-0.14308129
12	0x3de367f7	0.11103814
13	0x3dd048b9	0.10170121
14	0x3e091e0f	0.13390373
15	0xbd9248fc	-0.07142827
16	0xbcb815b7	-0.022471292
17	0xbe3ca223	-0.18421225
18	0xbcdb0e0f	-0.026740102
19	0xbe4a993a	-0.19785014
20	0x3d8392b3	0.06424465
21	0xbda1c3bd	-0.07898662
22	0x3a670bdc	0.0008813718
23	0xbd016f60	-0.031600356
24	0x3cbbbd1b	0.022917321
25	0xbdd914a7	-0.10599642
26	0xbdcf5562	-0.10123707

hidden2time.weight f4 [3, 40]
0	0x3d8d25f2	0.06892003
1	0xbe412241	-0.18860723
2	0x3e8d3bad	0.27584592
3	0xbda6a972	-0.08137788
4	0x3ded2d2b	0.11580881
5	0xbd2d3693	-0.042288374
6	0xbb404a25	-0.0029341069
7	0xbe3290e5	-0.17438085
8	0xbe5576d4	-0.2084611
9	0x3dc1e1b5	0.09466878
10	0xbd4b4456	-0.049625717
11	0x3e3c11c5	0.18366154
12	0x3d4be056	0.04977449
13	0xbe4310d6	-0.19049391
14	0xbddab360	-0.10678744
15	0xbd4cf867	-0.050041582
16	0xbe3b02c6	-0.18262777
17	0xbe80472b	-0.25054297
18	0xbe08d98c	-0.13364238
19	0xbd4bd495	-0.04976328
20	0xbd91b26f	-0.07114112
21	0x3db93b94	0.09044567
22	0xbd5a631d	-0.053317178
23	0x3cb17b2f	0.021665184
24	0x3ea2c2e1	0.31789306
25	0x3e30d986	0.17270479
26	0x3e34648c	0.1761648
27	0x3d85ce98	0.06533545
28	0xbe658226	-0.22412929
29	0x3e87318f	0.26404998
30	0x3e0bdd0b	0.1365854
31	0x3b84c07f	0.0040512676
32	0xbe51aa3d	-0.20475097
33	0x3d48a968	0.048989683
34	0x3d4f26d2	0.05057413
35	0xbeac516b	-0.33655867
36	0x3c1a6d74	0.00942551
37	0xbe24102e	-0.16021797
38	0xbe5bddd4	-0.2147134
39	0x3c1ba2fd	0.009499309
40	0x3ddb1b3c	0.10698554
41	0xbe294ea9	-0.16533913
42	0xbd120672	-0.035650678
43	0xbd94ebb4	-0.07271519
44	0x3e09fc3d	0.13475128
45	0xbd661652	-0.05617363
46	0xbe2e2565	-0.17006452
47	0xbe52864e	-0.20559046
48	0xbe82bdde	-0.25535482
49	0x3d3118d7	0.04323658
50	0x3deaacd0	0.114587426
51	0x3e5437da	0.2072443
52	0xbe0fbafe	-0.14036176
53	0x3bc22787	0.005925122
54	0x3c096f9a	0.008388424
55	0x3e2dde01	0.16979219
56	0xbdd3cd64	-0.103419095
57	0x3ecb72d8	0.39736056
58	0xbe0ab808	-0.13546765
59	0x3e8229dc	0.2542256
60	0xbbe67573	-0.007033044
61	0x3e852e1d	0.26011744
62	0xbd39c6ec	-0.045355722
63	0xbe104730	-0.14089656
64	0xbdc56b80	-0.096396446
65	0x3e1ee0a0	0.15515375
66	0x3e10606e	0.14099285
67	0xbea29cea	-0.3176034
68	0xbe39ecf8	-0.18156803
69	0x3e349ced	0.17637987
70	0x3ddfc796	0.1092674
71	0xbe864220	-0.26222324
72	0xbe3dc9e7	-0.18534051
73	0x3e6fae86	0.23406419
74	0x3e2ebe9a	0.17064896
75	0x3acc8bfb	0.0015605682
76	0xbd0f4588	-0.03497842
77	0xbe1169f3	-0.14200573
78	0xbc8318ae	-0.01600298
79	0xbcf95849	-0.030437605
80	0xbeea6d4d	-0.45786515
81	0x3e8a793c	0.2704562
82	0xbed8f229	-0.42372254
83	0x3ec2e0b1	0.3806205
84	0xbee142e8	-0.43996358
85	0x3eaa69a5	0.33283725
86	0x3e59d555	0.21272786
87	0x3ec55afa	0.38545972
88	0x3e33ae67	0.17546998
89	0xbe901d7e	-0.281475
90	0xbe94e3d3	-0.29080066
91	0xbed4980f	-0.41522262
92	0x3e5341ef	0.2063062
93	0x3e7b3109	0.24530424
94	0x3ea5c287	0.32374975
95	0x3e06e4ac	0.13173169
96	0x3f0914b1	0.535472
97	0xbf2507e4	-0.64465165
98	0x3ecc07eb	0.3984979
99	0xbe48ef1e	-0.19622466
100	0x3e03037c	0.12794298
101	0xbe131dc1	-0.14366819
102	0x3eb1eba9	0.34750107
103	0x3eb849da	0.35993844
104	0xbe7868c2	-0.24258712
105	0xbd3e2de3	-0.04643048
106	0xbeb66954	-0.35627234
107	0x3e096ca0	0.13420343
108	0x3e1cb50a	0.15303436
109	0xbe9f1f20	-0.31078434
110	0xbed6fbc6	-0.41988963
111	0x3edb2eb0	0.42809057
112	0x3ea05b2a	0.31319553
113	0xbec5ac0b	-0.3860782
114	0xbe83717d	-0.25672522
115	0x3e140a8e	0.14457151
116	0x3e7905fd	0.2431869
117	0x3f21d729	0.63218933
118	0x3e2be6be	0.1678724
119	0xbe9c476a	-0.30523235

hidden2time.bias f4 [3]
0	0xbd7f242d	-0.06229036
1	0x3c8c636d	0.017137254
2	0x3c4557a7	0.012044824
