events_simulation/models/all_epochs/model_8_20180529-0515.pt (torch_old, 78354 bytes, 9 tensors)

loss_function_events.weight f4 [27]
000000 00 00 80 3f 00 00 80 3f 00 00 80 3f 00 00 80 3f
       1.0 1.0 1.0 1.0
000010 00 00 80 3f 00 00 80 3f 00 00 80 3f 00 00 80 3f
       1.0 1.0 1.0 1.0
000020 00 00 80 3f 00 00 80 3f 00 00 80 3f 00 00 80 3f
       1.0 1.0 1.0 1.0
000030 00 00 80 3f 00 00 80 3f 00 00 80 3f 00 00 80 3f
       1.0 1.0 1.0 1.0
000040 00 00 80 3f 00 00 80 3f 00 00 80 3f 00 00 80 3f
       1.0 1.0 1.0 1.0
000050 00 00 80 3f 00 00 80 3f 00 00 80 3f 00 00 80 3f
       1.0 1.0 1.0 1.0
000060 00 00 80 3f 00 00 80 3f 00 00 80 3f
       1.0 1.0 1.0

lstm.weight_ih_l0 f4 [160, 70]
000000 13 5b ff be 76 95 d8 bf 8b 87 02 c0 7c 8e 53 3e
       -0.49874172 -1.6920612 -2.039523 0.20659822
000010 51 6c 07 c0 09 b9 1d 3e 3e b5 84 3e 58 5d 27 c0
       -2.115986 0.15402617 0.25919527 -2.6150723
000020 a2 5d c6 3e 9c 16 84 bf 8d 15 04 bf b3 7b 8e 3e
       0.3874331 -1.03194 -0.51595384 0.2782875
000030 6f 9a 9f 3d db 11 d0 bf f8 b5 2a bf 58 89 43 3f
       0.07793128 -1.6255449 -0.6668391 0.76381445
000040 bc c7 bf bf 9c 49 5f bd 81 a2 f4 3e e0 1a 04 c0
       -1.4982829 -0.05451356 0.4778023 -2.0641403
000050 28 a7 f4 3b d1 28 16 bf d2 18 45 3e 66 28 42 3f
       0.0074662156 -0.5865603 0.1924775 0.75842893
000060 b1 1f 4f 3d dd 58 14 be 85 45 3b 3e d0 b6 01 be
       0.050567333 -0.14487024 0.18288238 -0.12667394
000070 3b 13 f0 3d 03 c2 50 3e 42 6d 0e 3f fa e4 13 be
       0.11722418 0.2038651 0.55635464 -0.14442816
000080 bf 8a c9 3e b6 91 82 3e 45 82 7a be 41 c9 ba bd
       0.39363667 0.25501794 -0.24463756 -0.091204174
000090 20 63 a4 3e f0 14 0e 3d 26 e8 3a bd b5 ba 8d be
       0.32106876 0.034687936 -0.04563155 -0.2768151
0000a0 42 cf 06 3e 89 15 c7 3e 54 3c 11 be 7b 04 3c be
       0.13165 0.38883618 -0.1418317 -0.18361084
0000b0 a9 83 91 3c 86 29 cb 3e bc fd 43 be 16 16 95 3e
       0.017762976 0.39680117 -0.1913976 0.29118413
0000c0 88 95 a3 3e e0 e3 22 3e c8 d6 06 3f 52 2b 19 3e
       0.3195002 0.1590724 0.5267148 0.14957932
0000d0 4f e6 ef bd 5b 24 af 3d 79 88 09 3e 30 94 e8 3e
       -0.1171385 0.08551856 0.13430966 0.45425558
0000e0 97 e8 a9 bd 9d a2 93 bd 04 cc 30 bd b8 19 80 3d
       -0.08296316 -0.072087504 -0.043163314 0.062549055
0000f0 a3 0a 54 3e c5 5d 4f 3d 0a 63 5b 3e c5 b1 14 3f
       0.20707183 0.050626535 0.21424499 0.58083755
000100 56 73 ef bd 0f 47 91 3e 68 d0 d5 be d9 16 0b 3d
       -0.116919205 0.28374526 -0.41760564 0.033957336
000110 e3 fc a2 3e 3f 48 a4 3e e1 b0 cf bf 18 bd 07 c0
       0.31833562 0.3208637 -1.6225854 -2.1209164
000120 50 f4 07 c0 99 15 a9 3f 80 cf c2 bf 91 40 e9 bd
       -2.1242867 1.3209716 -1.5219574 -0.11389268
000130 39 14 4c bf 9a 0e 02 c0 48 91 0a 3f fe f2 14 c0
       -0.7971836 -2.0321412 0.5412793 -2.327331
000140 7d f0 ef bf 75 2f 79 bf 91 12 a7 bf c5 35 b7 bf
       -1.8745266 -0.9733804 -1.3052541 -1.4313284
000150 e0 d8 c8 bf bb 86 e7 3f 64 4e 93 bf bb 6b ba bd
       -1.5691185 1.8087991 -1.1508298 -0.09102579
000160 d7 1f 95 bf 57 46 ad bf f8 06 e2 3f eb 41 89 bf
       -1.1650342 -1.3537091 1.7658377 -1.0723242
000170 eb f0 9b bf f7 a2 85 3f 78 32 ce 3e 00 dc 0c ba
       -1.2182897 1.0440358 0.4027288 -0.0005373359
000180 19 71 82 3f 9e 5a 7e bf bb b9 03 40 6d 1d 8a 3f
       1.0190765 -0.9935702 2.058211 1.079023
000190 57 4a 36 bd 3c 01 e8 3e 94 25 ec bc 76 7f 17 be
       -0.04450449 0.45313442 -0.028826512 -0.14794716
0001a0 14 ff ec 3e cb 44 10 3f ae b7 66 3e 3d 6d 73 bd
       0.4628836 0.5635497 0.22531006 -0.05943035
0001b0 08 fc 4a be a3 2d 24 3e fd 6f 6a 3e 30 f6 8e be
       -0.19822705 0.16033034 0.22894283 -0.279222
0001c0 95 ea 7e 3e ce 6d fc 3d d4 00 b9 3e d0 40 02 bf
       0.24894173 0.12325631 0.36133444 -0.50880146
0001d0 55 b5 ca 3e 57 46 7f 3f 8a ec 01 3f 72 03 9a 3d
       0.3959147 0.99716705 0.50751555 0.075201884
0001e0 61 73 a3 be 5e a8 a0 3e 52 59 0f 3d ef 7a 90 be
       -0.31923965 0.31378454 0.034997292 -0.2821879
0001f0 c8 67 c8 3c 4a 8e 17 3d 4c d2 d7 3b 3d b1 e8 3d
       0.02446355 0.03700093 0.0065863486 0.113619305
000200 0c b1 cb 3e f3 e5 e7 bd 79 39 9f 3e ef af 2a be
       0.39783514 -0.11323156 0.31098536 -0.16668676
000210 e1 ae 77 3e 75 47 f3 3e 7d dd 2d bd 58 35 0a bd
       0.24187805 0.47515455 -0.042447556 -0.03374228
000220 e9 bd aa 3e 3e 8d 70 bd d5 0f 61 be 06 7a 0a be
       0.33348015 -0.05872845 -0.21978696 -0.13523111
000230 a6 e4 7b bd 5b 7e d9 3e 75 34 8a bf c7 f3 36 bf
       -0.061497353 0.42479214 -1.0797259 -0.71465725
000240 74 a9 9c be ef 4a 07 be bb 8d fa be 4e c2 84 3b
       -0.30598032 -0.13212179 -0.48936257 0.0040514832
000250 27 97 9b 3e 95 4c a3 3e f8 ef 2f bf 8a b8 e8 be
       0.30388758 0.31894365 -0.6872554 -0.45453292
000260 78 28 00 bf fe 2b e5 3e 35 6b 49 bf 8e 0d 65 3e
       -0.5006175 0.44760126 -0.7867921 0.22368452
000270 e2 76 b0 3c 20 8f 1b be 38 da 94 be 8b 47 74 3e
       0.021541063 -0.15191317 -0.29072738 0.23855416
000280 6d 0d a4 3e f5 6f c8 be 60 7d d7 bd ca 5d 2a bf
       0.32041493 -0.39147916 -0.1052196 -0.6654936
000290 57 bd 72 be b4 34 3c bd 80 26 3a 3d 3c 6e 8b 3e
       -0.2370504 -0.0459487 0.045446873 0.2723254
0002a0 18 aa c1 bd f2 b2 69 bd d5 28 b9 3c 4c 88 b5 3d
       -0.09456271 -0.05705542 0.022602478 0.08863887
0002b0 e8 c7 cb 3e c3 db 92 be 00 5f fb 3d 4c fc 2a 3c
       0.39800954 -0.2868329 0.12273979 0.010436129
0002c0 28 69 4b 3d 73 ae a6 3c d4 e6 a0 be 02 ca 25 be
       0.04966083 0.020346856 -0.31426108 -0.16190341
0002d0 6b ba 77 bd 50 33 b5 3e 78 ed 22 be 74 98 82 be
       -0.060480516 0.3539071 -0.159109 -0.25506938
0002e0 5f 4a 97 3d 3f 27 1c 3b f2 73 6a 3d 4f 53 3b 3d
       0.07387232 0.0023827103 0.05723948 0.045733746
0002f0 df 81 bb 3d 10 f3 3e 3e cd 0d 25 3e 59 4c e6 bc
       0.0915563 0.18647408 0.16118546 -0.028112577
000300 51 c7 b5 3a 4c 46 da 3e 64 ae 3d be de b4 d9 3d
       0.0013868605 0.42631757 -0.18523556 0.10630201
000310 aa 36 0e bd 71 2a 7b bc a9 6e 30 3e 5d fa 85 3d
       -0.0347201 -0.015329943 0.17229713 0.06541894
000320 ce 0f 9b be 9f 5c bf 3e 07 d0 a1 3d de 35 e8 3d
       -0.30285496 0.37375352 0.07901006 0.11338399
000330 71 56 e8 3c ab d2 31 be 8f 86 6a bd 08 0d ad 3e
       0.028361531 -0.1736552 -0.05725723 0.33799005
000340 dd 70 66 be f2 87 aa 3d 3f 6b 85 3e 0f d0 1c 3f
       -0.22503991 0.08326711 0.26058385 0.6125497
000350 08 3e 43 3e 93 08 fa be ea 60 09 bd 47 f5 f2 bd
       0.19066632 -0.48834667 -0.03353969 -0.11863189
000360 a4 75 82 3e 3f cb 77 3f 48 17 44 bf 1d c4 03 3f
       0.25480378 0.96794504 -0.76598024 0.5147112
000370 d5 4e 92 bf 70 dc 28 40 94 4f a5 3e 7e af 74 3f
       -1.1430308 2.6384544 0.32287276 0.9558028
000380 7f 37 a7 bf 96 54 39 3f a8 85 4b 3f cc ed 03 3d
       -1.3063811 0.7239469 0.7950082 0.032209203
000390 b3 91 e5 be bd 39 98 3f a5 14 ad bf 49 b7 bc 3e
       -0.44837722 1.189262 -1.3521925 0.36858585
0003a0 aa bd c6 be cd e1 20 40 6b eb 57 bf 49 2f 0d 3e
       -0.38816577 2.5137818 -0.84343594 0.13787569
0003b0 4b ad a2 3f f3 f0 ca bf 86 b2 aa 3e 11 72 90 3f
       1.2709135 -1.5854782 0.33339328 1.128481
0003c0 24 c5 a6 3e e2 c2 02 3e bc 49 93 be f9 a9 c4 be
       0.3257228 0.12769654 -0.28767192 -0.3841093
0003d0 9e c3 2c 3e f6 6c ca 3b de 0f 9b bc 40 07 d3 bd
       0.16871497 0.00617754 -0.018928465 -0.10304117
0003e0 61 ba 9a 3d f3 c6 73 bd 00 60 d0 bd 20 41 09 be
       0.0755508 -0.059515905 -0.101745605 -0.1340375
0003f0 38 60 39 bc ca 6f a8 bc f1 2f 9b 3d 95 a1 e9 bd
       -0.011314444 -0.020561118 0.075775035 -0.114077725

lstm.weight_hh_l0 f4 [160, 40]
000000 36 87 3c bf 3e a9 9b 3e ff 59 81 bd 6a 8a b0 be
       -0.73643816 0.3040256 -0.063159935 -0.34480602
000010 4c 2e 9e be a0 7e 89 3e 4e ce ab 3d 7c 2a e4 3e
       -0.30894697 0.2685442 0.08388959 0.44563663
000020 ff 60 3c be 95 e6 45 3f 68 d0 45 bc e6 47 1d 3f
       -0.18396376 0.77304965 -0.012073614 0.61437833
000030 b3 b7 94 3e 4c 94 c6 3e 80 d4 50 be 9e 70 4c bc
       0.290464 0.38785017 -0.20393562 -0.012478022
000040 31 9a 1c bd 67 12 2e bf b3 84 ac be 86 46 12 be
       -0.038232986 -0.6799683 -0.3369499 -0.14284715
000050 7e c6 ae 3e b7 9e 2a be 3f e6 9d 3e 90 9d 31 3d
       0.34135813 -0.16662107 0.30839726 0.043363154
000060 db 5c 0b 3e be fd 01 bc a8 0c e2 be ab 0d b7 3e
       0.1360964 -0.007934032 -0.4415028 0.35752615
000070 fc c6 d0 bc 6a 81 09 3f 9b 72 a0 3c f3 8e 4f 3e
       -0.025485508 0.53713095 0.019585898 0.20269375
000080 ec 75 a4 be fe de 35 bf 23 95 ed 3e ec 25 05 be
       -0.32121217 -0.71043384 0.46402845 -0.13002747
000090 b7 48 da be 59 99 85 3d 94 dd 57 3e 0f 92 76 3e
       -0.42633602 0.06523389 0.21080619 0.24079154
0000a0 0a 9f 81 3e d8 1c 09 bf b4 01 26 be 60 6e f2 bd
       0.2531665 -0.5355964 -0.16211587 -0.118374586
0000b0 99 31 75 3e 3d 8e 16 3e 3d 01 a0 3e ab 85 ba 3e
       0.23944701 0.14702697 0.31250945 0.36430106
0000c0 e1 16 8a be b0 a4 38 3f 2a 57 07 3d 41 d3 13 3e
       -0.2697058 0.72126293 0.03304211 0.14436056
0000d0 de 34 85 bd a0 43 41 3f 8c 83 9a 3d ff 2e c1 3d
       -0.06504224 0.7549381 0.07544622 0.09432792
0000e0 9e d7 82 3f 7d f3 e3 be 59 26 b6 3e 71 61 3f bd
       1.0222051 -0.44521704 0.35576132 -0.046723787
0000f0 4e 5e b1 3e 5b 91 78 be 0b 67 c2 3e a7 77 c5 3d
       0.3464226 -0.24274199 0.3796924 0.096419625
000100 e9 cd 49 3e 50 04 44 bf 08 44 b9 be 8e 8e 3b be
       0.19707455 -0.7656908 -0.36184716 -0.18316099
000110 a6 ad 10 3e cc 2d b5 3d 66 1d 04 3f 1d 9a 1c 3e
       0.14128742 0.08846626 0.5160736 0.15293165
000120 a9 44 02 be f7 2c 60 bf a7 ed 4e 3d 74 5b 14 be
       -0.12721504 -0.8756861 0.05051961 -0.14488012
000130 97 cd 1e be 7b d6 f9 bc 98 b1 98 3e 68 58 a6 3e
       -0.15508114 -0.03049778 0.29822993 0.32489324
000140 43 9f ca 3d fc 24 d0 3d 77 f6 d8 3c 83 7a 2a bf
       0.09893658 0.10163304 0.026484711 -0.6659319
000150 bb 8b ec bc 80 64 f5 3d e1 1c 82 3c 30 ea 04 3d
       -0.028875222 0.119820595 0.015882911 0.0324499
000160 4d f8 a1 bc 4b 70 3a be 77 56 47 be 30 57 99 3e
       -0.01977172 -0.18206899 -0.19466577 0.2994933
000170 26 22 65 bc 9b 83 44 be 65 b7 5d 3e 5f 98 2a bd
       -0.013985192 -0.19190829 0.2165199 -0.04164922
000180 57 52 17 be 36 ad d0 3e 23 ea 68 be 14 fa 4a be
       -0.14777504 0.4075715 -0.22745566 -0.1982196
000190 4b 2d b4 3d f9 a0 3e be 09 29 da 3c c6 f5 3e 3e
       0.087977014 -0.18616094 0.026630895 0.18648443
0001a0 4b 96 4e bd c7 73 50 3e 66 0d 77 be f2 e5 22 be
       -0.0504363 0.20356666 -0.24126205 -0.1590803
0001b0 24 11 88 bd 7a 1f d2 3e 50 5f cd be eb 52 56 be
       -0.06643894 0.4103964 -0.4011178 -0.20930068
0001c0 c2 44 11 be e9 23 c1 bd 16 eb a1 3e b0 4d bc be
       -0.14186385 -0.094306774 0.3162467 -0.3677802
0001d0 4b 62 44 be 8b e8 b9 3e 84 67 09 be 67 80 1f bc
       -0.19178121 0.3631023 -0.13418394 -0.009735203
0001e0 9c 90 7f bd 59 c5 f6 be 7b e1 15 3e 93 ac ea bd
       -0.06239377 -0.4819744 0.14636795 -0.11458697
0001f0 43 e8 c3 3c 74 99 db 3d 9b 67 ef bd fa b7 fa bc
       0.023914462 0.10722628 -0.11689683 -0.030605305
000200 ec 0c 62 3d 55 01 79 3e fd 06 20 3e 39 2c 30 3e
       0.055188105 0.24316914 0.15627666 0.1720437
000210 fc 9b f9 be 81 60 47 3e 5b 3a 90 bd 47 57 37 3c
       -0.4875182 0.19470407 -0.070423804 0.011190242
000220 ab a2 f9 3e 6d de 96 be b5 04 09 3f 5d 06 51 bd
       0.48756918 -0.29466572 0.5352281 -0.05103146
000230 b3 b8 44 3e 60 25 98 3c 51 50 5a 3e 52 3e cc 3d
       0.19211082 0.01857251 0.21319701 0.09972824
000240 7e 0a 5c be 8e ed 42 be 3e f7 5d 3e 94 6a 8b be
       -0.21488377 -0.19035932 0.21676347 -0.2722975
000250 82 02 88 bd aa e1 74 3d e1 2d b9 3e 71 1d 00 3e
       -0.06641103 0.059785523 0.36167815 0.12511231
000260 a9 c4 1d 3e 8a e0 5d 3e 13 c1 cb bd 4a 77 46 3d
       0.15407051 0.21667686 -0.09948935 0.048453607
000270 a8 b6 fd bd 6b e0 3c be 39 0d 08 3e bf 28 8d be
       -0.123883545 -0.18444984 0.13286294 -0.2757015
000280 19 f8 1d bf c0 6f 7c be b1 b9 78 3d 46 39 62 3e
       -0.6170669 -0.24652004 0.060723964 0.2209216
000290 b0 b5 7a 3d 55 92 24 3e fd 83 d7 bd b9 5d 9c 3d
       0.061208427 0.16071446 -0.10523222 0.07635064
0002a0 13 7c 68 bd 3a 8c b1 3e f4 20 56 3c 85 49 ba bd
       -0.05675895 0.34677297 0.01306938 -0.09096054
0002b0 8a b4 73 3e 73 cb b6 3d d5 26 52 3d fe 5d 2d 3d
       0.23799339 0.089255236 0.051306564 0.042325966
0002c0 8e 2b 5d 3d b2 7a f4 be 94 b0 88 3e 66 03 b0 3d
       0.053996615 -0.4774986 0.26697218 0.08594398
0002d0 30 7d 28 be 43 3e 1d 3e 69 a2 d6 3d bd 02 9a bc
       -0.16454005 0.15355782 0.10480196 -0.018800134
0002e0 32 b5 0c 3c 98 cb 0a 3e b8 40 32 bd 3e 83 c6 3c
       0.008588122 0.13554227 -0.04351875 0.024232503
0002f0 f8 4d dd 3c 35 2d 30 3e 43 a3 63 3e 06 49 23 3d
       0.027014717 0.17204745 0.22230248 0.039864562
000300 45 1a 13 3e f0 98 48 3d 67 3b c5 bd d0 ed 1e 3e
       0.1436549 0.048973978 -0.09630471 0.15520406
000310 1e ba 7c bb 77 d5 90 bc cf 5c 52 3e 3a 99 07 3e
       -0.0038563083 -0.017679913 0.20543216 0.13242045
000320 62 54 69 3e c2 b2 eb be 2e b6 1f bf 3a ab 34 3f
       0.22786096 -0.4603482 -0.6238736 0.7057377
000330 0d ad 24 be 83 7d a0 be 44 c0 c9 3c 4c 48 78 3e
       -0.16081639 -0.31345758 0.024627812 0.24246329
000340 ab f2 98 3e 42 6d 72 3f 0f ad b0 bd 6b 25 8d 3d
       0.2987264 0.94697964 -0.08626758 0.068919025
000350 d4 1f 9b 3e 1a 9e 53 3e ca 60 2c 3d 59 85 22 be
       0.3029772 0.2066578 0.042084493 -0.1587118
000360 4f a5 a3 bd 61 52 6f be 4b 8c 90 bc cc 85 71 be
       -0.079905145 -0.23371269 -0.017645022 -0.23586196
000370 61 f8 e4 bc 14 09 a3 be 71 40 90 be cd 93 88 bd
       -0.027950468 -0.31842864 -0.28174165 -0.06668816
000380 34 d9 85 3e b8 e2 41 bf 1f ed 83 be f3 a8 f8 be
       0.26142275 -0.7573657 -0.25766847 -0.48566398
000390 63 70 b8 3e c9 4a ff bd ae 4b 9a 3e bb 99 65 be
       0.36023244 -0.12465436 0.30135864 -0.22421925
0003a0 c0 62 b6 3c e7 54 df 3d 34 b3 94 3e b7 41 ec 3d
       0.022263885 0.10904866 0.2904297 0.115359716
0003b0 5f db ea be 3b 86 6b 3d 31 02 95 bb da 10 2a 3e
       -0.45870492 0.05750106 -0.0045473804 0.16607991
0003c0 3c 16 91 3e a4 c8 3a be 0d 06 06 be 79 c1 2d be
       0.28337276 -0.18240601 -0.13088246 -0.16968335
0003d0 1f e8 39 3c 5a b2 36 bd e2 62 ad bb 61 35 31 bd
       0.011346846 -0.044603683 -0.0052913288 -0.043263797
0003e0 b9 eb 20 3e 2c f1 34 3e d2 c9 40 3d 8c 88 b9 bc
       0.15714921 0.17670125 0.04706747 -0.022648118
0003f0 ec bb 52 3e 56 e9 b0 3e a1 15 84 3e 28 08 7d be
       0.20579499 0.3455302 0.25797752 -0.24710143

lstm.bias_ih_l0 f4 [160]
000000 d0 38 17 3e 3f 32 a0 3e 51 70 63 bd 84 80 26 be
       0.14767766 0.31288335 -0.055527035 -0.16259962
000010 1e 54 eb bc 82 61 73 bc 31 88 45 3e 7e b2 9a 3d
       -0.028726634 -0.014854791 0.19290234 0.07553576
000020 27 2c fe 3d c6 1b e5 3c 52 68 55 3e 81 2d e9 3d
       0.12410765 0.027967345 0.20840576 0.11385632
000030 0a ab 05 bd 5b ec c8 3d 56 56 b8 3d 95 87 e6 3d
       -0.03263382 0.09810706 0.09000842 0.11256329
000040 b9 96 03 3e 19 f1 f8 3d d5 88 4d 3e d8 a3 03 bb
       0.12850465 0.12155361 0.20071729 -0.0020086672
000050 c5 29 b5 3d 21 20 d2 3d bd de b4 bc 6c 1b 35 3d
       0.088458575 0.10260034 -0.022078866 0.044215605
000060 e8 7f 8e 3d 39 b8 54 bb df 09 14 3d 31 ac 03 bd
       0.0695799 -0.0032458438 0.036142226 -0.032146636
000070 89 f9 d5 3d fe 8e 1c be 39 8f b8 bd af 2a 22 3e
       0.10447986 -0.15288922 -0.090116926 0.15836595
000080 f6 65 94 3e 7f a0 03 3e 40 ce 0e 3e 34 dd 93 3b
       0.2898404 0.12854193 0.13945866 0.0045124535
000090 4a 67 13 3e 4e 8f 0a 3d f5 04 76 3d 39 2c 8a bc
       0.1439487 0.033828072 0.06006332 -0.01686679
0000a0 72 1e 8a 3d fb 87 9e bd c6 21 96 bc 9f a2 aa bc
       0.06744088 -0.0774078 -0.018326651 -0.020829497
0000b0 5b 46 00 be ef 44 20 bd c1 4f 11 3e 43 49 c0 bc
       -0.12526838 -0.03912824 0.1419058 -0.023472434
0000c0 95 b6 5d 3e 21 f9 db bd 7c c5 46 3d 2a 70 aa 3d
       0.21651681 -0.10740877 0.04852818 0.08322175
0000d0 70 90 82 3e 6d 96 e6 3c 25 e9 46 3e 13 77 36 3e
       0.25500822 0.0281479 0.19424875 0.1781886
0000e0 4a ab 83 bd f1 c1 13 be 29 cc 2b be bd c7 a9 bc
       -0.06429155 -0.14429452 -0.167771 -0.020725125
0000f0 e3 36 07 3d 6d 6e ca 3d d3 59 80 3e a8 a5 fe 3d
       0.03301133 0.09884343 0.2506853 0.1243394
000100 83 be 7c 3d 12 2c 95 3d 53 b7 ed 3d b0 70 9d 3d
       0.061705124 0.07283796 0.11607232 0.07687509
000110 01 11 09 3d 7c bb 14 be 0d 95 0c be ba aa 77 bd
       0.03346348 -0.14524645 -0.13728733 -0.060465552
000120 37 82 7f 3e b4 92 0c 3d 43 ac 89 3e d9 70 af 3d
       0.24952017 0.034319595 0.26889238 0.08566446
000130 52 6d 57 3d a4 ed 4e 3e 15 2b 59 3d 20 5f b9 3d
       0.05259449 0.2020784 0.0530196 0.09051347
000140 73 07 f2 3d ad 7b 11 be 4a 2c 11 3d 2e 41 39 3d
       0.11817827 -0.14207335 0.035442628 0.045228176
000150 0b eb 4c be 8a 6d 48 be 2b 1f 75 3e 33 95 8b 3e
       -0.20011537 -0.19573036 0.23937671 0.27262267
000160 9c 1a 16 3e 48 70 36 3d 44 f2 f0 bd 37 9b 0a 3e
       0.14658588 0.044540673 -0.117649585 0.13535772
000170 61 d1 5d 3d 07 9e 0b 3e 18 a3 fa 3d 57 e0 8a be
       0.054154757 0.13634501 0.12238139 -0.27124283
000180 96 17 42 3e 15 b2 db 3d 29 fb b4 3d c4 92 73 be
       0.1895431 0.10727326 0.088369675 -0.23786455
000190 2c 62 83 3e 93 fd da bd f9 7e 0c be 5d 18 74 3e
       0.25660837 -0.10692897 -0.13720311 0.23837419
0001a0 31 6c 76 3e cb 5e 4d be ec f0 f9 bd 03 d7 84 be
       0.24064709 -0.20055692 -0.12204155 -0.2594529
0001b0 cb c8 51 3e a0 63 32 3d 22 0a 5d 3d 02 96 af bd
       0.20486753 0.04355204 0.05396474 -0.085735336
0001c0 eb 32 55 be 12 73 b7 bd 38 d4 42 3e 7b 5e 86 be
       -0.20820205 -0.08957495 0.19026268 -0.26243958
0001d0 25 51 39 bd d8 d0 6d 3e ce 89 22 3e 0b 32 82 3d
       -0.0452434 0.23224199 0.15872881 0.06357201
0001e0 6f 9a 30 3e 94 0d 88 3e 4b f0 f3 bd b3 93 43 3a
       0.17246412 0.2657286 -0.119110666 0.00074606686
0001f0 9d c6 a5 3d 5c 67 51 3d fe 78 24 3d 4a e3 4a 3d
       0.08094523 0.05112396 0.04015445 0.049533166
000200 32 f7 ea bd 6a be 52 3d bf 6c 25 3e 02 85 6e bc
       -0.1147293 0.051451124 0.16154765 -0.014558079
000210 25 49 94 3e 78 5e 19 3c da f4 fc 3d bd 8e f1 bc
       0.28962055 0.009360902 0.12351389 -0.029487008
000220 58 f2 51 3e 1f 69 19 3e f4 ea 2f 3d d4 aa a0 3d
       0.20502603 0.14981507 0.042948678 0.07845083
000230 e6 f5 03 be bc f6 9b bd 03 17 f2 bd da 79 d0 3c
       -0.12886772 -0.0761542 -0.118207954 0.025448728
000240 58 7d 9c 3c 73 61 e4 3d a8 88 e0 bd 81 20 3f 3d
       0.019102737 0.111513995 -0.10963565 0.046661858
000250 79 36 4a 3b 9a 05 94 bd 30 7c 27 be 0c d9 45 3e
       0.0030855222 -0.07227631 -0.16355968 0.19321078
000260 8b 9a 1d 3e fb 42 6d 3e b2 30 0e bd 55 3c 6a bd
       0.15390985 0.23170082 -0.03471441 -0.057186443
000270 8f e5 0e be ae bc ba bc 04 d1 89 3d 5b ee 95 bd
       -0.13954757 -0.022795048 0.0672932 -0.07320853

lstm.bias_hh_l0 f4 [160]
000000 4a cb 61 3e 15 56 9b 3e a5 60 86 bd e7 9d 12 3d
       0.22050205 0.30339113 -0.06561402 0.03579512
000010 4e 9a 4e 3e e2 52 2a 3e 70 66 9b 3c 01 51 0a 3d
       0.2017605 0.1663318 0.018969744 0.033768658
000020 bc 11 08 3e d0 d2 b5 3c 65 82 b6 bc 35 da 28 3b
       0.13288015 0.02219525 -0.022278974 0.0025764827
000030 78 56 00 be 59 6b 00 3d ed f4 22 3e d1 41 9e 3e
       -0.12532985 0.031352375 0.15913744 0.3090959
000040 c0 f6 98 3e 26 75 a0 3d 94 dc 96 3e 96 00 09 bd
       0.29875755 0.07834844 0.29465163 -0.033447824
000050 09 34 67 3e 39 8e 67 3e ad d9 ec bb ea 24 8b 3d
       0.22578444 0.22612847 -0.0072280974 0.0679415
000060 e4 38 01 3e ad 52 37 bc 99 68 1b 3e b2 b7 5b 3e
       0.12619358 -0.011189145 0.1517662 0.21456793
000070 0c e0 0f 3e 39 3c 88 be 43 dc c7 3c 0f 3b 18 bd
       0.14050311 -0.26608446 0.024397021 -0.037165698
000080 d0 21 57 3d 66 db 4c 3d ff 03 9f 3d 9f aa 5e 3e
       0.05252248 0.050013922 0.07764434 0.21744774
000090 95 17 0b 3e b4 70 8a 3e 69 fd 74 3e ad cb 60 3e
       0.13583215 0.2703911 0.23924793 0.21952696
0000a0 28 6a c6 3d fd 85 ac 3d 0d 3a 5c bd 4d 53 d5 bd
       0.096882164 0.08423994 -0.0537663 -0.10416279
0000b0 0c 28 cd bd 63 6c 3f 3e e4 64 11 3e 47 81 39 3e
       -0.10017404 0.1869369 0.14198643 0.18115722
0000c0 69 01 dc 3b bb 01 8a 3d da 12 00 3e 9f 0d 35 bd
       0.0067140353 0.06738611 0.12507191 -0.044202443
0000d0 c6 63 72 3e c2 55 34 bd ea a5 b9 3d 3a 5d 65 3d
       0.23670873 -0.044027098 0.09064849 0.05599711
0000e0 35 10 1c 3d dd 27 00 be 9e d6 e9 bd 77 83 1f 3d
       0.038101394 -0.12515207 -0.11417888 0.038943734
0000f0 45 e4 25 3d 89 a4 22 bd 7f 51 1d bd 6f 2b e2 3d
       0.040500898 -0.039707694 -0.0384078 0.110434406
000100 47 5a 88 3e ac cf a4 3e 1f 9d 85 3e a5 6a 25 3d
       0.26631376 0.3218969 0.26096436 0.040384907
000110 7f c5 15 3d ed 32 1e be d0 95 d2 bd 37 3f 97 3d
       0.0365653 -0.15449114 -0.10282481 0.07385104
000120 d2 44 30 3c ef 38 6f be a6 1e ec 3d de c3 dc 3d
       0.010758596 -0.23361562 0.11529283 0.10779546
000130 b8 38 84 3e 0f d8 52 3e c6 0c 81 3e 7a 8c 56 3e
       0.25824523 0.20590232 0.25205058 0.20952025
000140 bf 1a e2 3d 00 8d 38 bd 9c 73 44 3d 4c 94 5f be
       0.11040258 -0.045056343 0.047961816 -0.21833915
000150 b9 4e 81 bd 14 a1 30 be c3 69 10 3e 5d 11 4b 3e
       -0.06313843 -0.17248946 0.14102845 0.19830842
000160 b1 27 7c 3d be ef 27 be e1 1a 0d be 87 86 99 3d
       0.06156129 -0.16400048 -0.13779785 0.07496362
000170 78 64 ad 3d ee 90 3e 3e c9 a2 3e 3e 12 b0 88 bd
       0.084664285 0.18609974 0.18616785 -0.06674208
000180 18 de 13 3d ac b6 78 bd 23 73 4c 3e e9 3d 86 be
       0.036100477 -0.060721084 0.19965796 -0.2621911
000190 7a 8a 43 3e 1a 39 67 be ad 0e ae bd ff bb 74 3e
       0.19095793 -0.22580376 -0.08498893 0.2389984
0001a0 45 1e 4d 3e e2 a7 02 bd 1f cf be bd 92 a2 1c be
       0.20031078 -0.031898387 -0.09316849 -0.1529639
0001b0 1c e6 ef 3d 46 84 84 bc 57 0b 04 3d b7 d6 27 bd
       0.11713812 -0.016176354 0.032237377 -0.040976252
0001c0 98 18 7c bd 22 a3 3d 3d 1d 27 11 3e 3c 53 67 be
       -0.061546892 0.046298154 0.14175077 -0.22590345
0001d0 0c b1 5f be 3a e8 5f 3e 77 55 6f 3e 35 e6 85 3e
       -0.21844882 0.21865931 0.23372446 0.26152197
0001e0 67 80 2c 3e c5 cb 85 3e 57 8c 0c be c0 33 fc 3c
       0.16845857 0.26132026 -0.1372541 0.030786395
0001f0 1f 03 97 3e ea 2b 4c bd 7f 11 cd 3d 54 b1 de bc
       0.2949457 -0.049846567 0.10013103 -0.027184166
000200 6e 8c 32 bd 8d ef 5b 3e 12 7c 89 bd 26 00 77 bc
       -0.043590955 0.214781 -0.06713118 -0.015075719
000210 fc fe 1f 3e 82 bc 0e bd 12 7c 05 3e 3c e0 aa 3d
       0.15624613 -0.034847744 0.1303561 0.083435506
000220 db 2d 8a 3e 7b 49 8a 3e 69 33 82 3e cc e0 2e bd
       0.2698811 0.27009186 0.25429848 -0.04269485
000230 36 59 c0 bc 7b 2f 04 be 33 0c 0f 3c b5 0e a9 3d
       -0.02348004 -0.12908737 0.008730936 0.08254758
000240 f0 9a 08 3e 2d d7 1e 3e 08 28 84 bd 32 b0 8e 3e
       0.13340354 0.1551177 -0.06452948 0.278688
000250 94 6e ba 3d 33 80 33 be 61 73 f4 3d d8 e9 98 3e
       0.09103122 -0.17529373 0.11936069 0.2986591
000260 35 33 c7 3c 57 25 92 ba 75 3c b2 bd b0 54 da bc
       0.02431641 -0.0011150044 -0.087029375 -0.02665171
000270 ac 6a cb bd f7 ee bb bd df 58 6b bd 46 6c 2c 3d
       -0.099324554 -0.09176438 -0.0574578 0.042095445

hidden2event.weight f4 [27, 40]
000000 3a 7a 32 bf fc 40 0c bf 72 c0 d8 bc d0 c8 ef 3e
       -0.6971775 -0.5478666 -0.026458953 0.46832895
000010 0e b9 37 bd a3 ff 9e be ae 1d 0e be 5a 2a a6 bd
       -0.044854216 -0.3105441 -0.1387851 -0.08113547
000020 e6 df f4 3d 00 d7 9f bf 27 13 75 3e 1d 66 59 3d
       0.11956768 -1.2487488 0.23933087 0.0530759
000030 ff fc d8 be 03 36 cd 3e 1f be 7c be e5 66 04 3f
       -0.4238052 0.4008027 -0.246819 0.51719505
000040 fb 61 da 3e f7 79 04 3f 0b 92 39 3e be de c1 3d
       0.42652878 0.51748604 0.18122117 0.09466313
000050 21 90 45 3e 51 f2 09 3e a4 98 5e be 21 db 64 3e
       0.19293262 0.13471343 -0.21737915 0.22349216
000060 5c 40 b3 be e2 23 a7 be 1a d0 9e be 87 fe 16 bf
       -0.3501004 -0.32644564 -0.31018144 -0.5898213
000070 c2 93 a6 be 31 56 66 bd 57 7a 10 be 6b bf fc 3e
       -0.32534605 -0.056234542 -0.14109169 0.4936479
000080 f2 99 a7 3e e3 49 2f bf 6a 48 8f be ca 2e ba 3e
       0.32734638 -0.6847212 -0.27984935 0.36363822
000090 37 b0 22 bd 51 4c 5b bd 92 38 b1 3d f0 4a 2a be
       -0.039718833 -0.053539578 0.08653368 -0.16630149
0000a0 97 98 61 bd c5 57 88 be 9a 8f 9e 3e 71 15 d0 bd
       -0.05507716 -0.26629463 0.30968934 -0.101603396
0000b0 93 d3 88 bd 70 9e bc be 4c 93 45 3e e0 60 3c be
       -0.066809796 -0.36839628 0.1929447 -0.1839633
0000c0 68 3f 4c 3e 14 2e 8e 3e 7f df 8b 3e f8 3a bd bd
       0.19946063 0.2776953 0.2731895 -0.09239763
0000d0 1e 82 39 3c 1a 21 e1 3e 2f a1 cd 3d 66 a7 04 3e
       0.011322526 0.43970567 0.10040509 0.12954482
0000e0 6d db 8c 3b 9c a6 94 3e 57 bc c1 3d 75 1f fb bc
       0.0042986185 0.29033363 0.09459751 -0.030654648
0000f0 6c 19 9d 3e e2 36 98 bc 9b 7a eb 3d 16 45 a2 3d
       0.30683458 -0.018580858 0.114979945 0.07923333
000100 68 3b e8 3c 89 5a 64 be 97 1b 0c be 63 7a f4 be
       0.02834864 -0.22300161 -0.136824 -0.47749624
000110 71 68 d3 bd 0f 3c 8f 3e 32 18 12 bf 0d 1a 50 be
       -0.10322655 0.2797551 -0.5706817 -0.20322438
000120 1e a3 da bd aa e4 77 be a1 97 15 3e 98 62 67 3b
       -0.106756434 -0.24208322 0.14608623 0.003530657
000130 34 9b d4 bc 55 b2 9b 3d fb 55 87 3e b1 54 b9 3e
       -0.025952913 0.076023735 0.26432785 0.36197427
000140 c7 a7 3b be 29 90 0a bd 48 c6 90 be 35 ad 37 bd
       -0.1832572 -0.033828888 -0.28276277 -0.044842917
000150 6a a8 8c 3e 1f 8e 25 bf 27 e8 b8 bc 0e 1c 40 be
       0.2747224 -0.64669985 -0.022571636 -0.18760702
000160 48 89 30 be 94 c0 69 3e a1 75 ad be 19 7d b6 bd
       -0.17239869 0.22827369 -0.33878806 -0.08910579
000170 68 09 fe bc 0f 18 d2 3e c0 45 8a be d3 08 69 be
       -0.031010345 0.4103398 -0.2700634 -0.22757272
000180 78 99 8d 3d ae ce 41 3e a7 6e eb 3e a0 a6 a6 3d
       0.069140375 0.18926498 0.4598286 0.0813725
000190 01 a2 a3 3e b7 d4 07 3e d1 cc b5 3e 22 5c 9b 3d
       0.31959537 0.13264738 0.35507825 0.07585932
0001a0 0f 2d 9b bc 7f 05 93 be 61 24 cc 3d a4 fb dc be
       -0.018942384 -0.2871513 0.09967876 -0.43160737
0001b0 d6 7a 13 be 8e cf 8c 3e d1 11 28 be 8a d5 00 3f
       -0.14402327 0.27502102 -0.16413046 0.50325835
0001c0 db ce 12 3e 47 c2 ed bd 60 d5 de 38 9c 23 e9 3d
       0.14336722 -0.11609321 0.00010625529 0.11383745
0001d0 54 a7 98 be 4d ed 69 bd e0 5c a1 3e be d0 01 be
       -0.2981516 -0.057111073 0.3151617 -0.12677285
0001e0 13 38 66 3f d1 0c e7 3e 2a 06 c5 be 0c f0 62 3e
       0.8992931 0.45126966 -0.38481265 0.22161883
0001f0 ee 95 4f bf 24 0b a3 bd 9f 85 33 3e da fb 2d 3d
       -0.8108815 -0.07961109 0.17531441 0.042476512
000200 c9 ed 67 3e ff ea ab 3f 7b d2 68 be 06 75 9c be
       0.22649302 1.343109 -0.22736542 -0.30558032
000210 cf 8f 0d bc 31 9b 28 be 2b 81 8d be 50 47 80 be
       -0.008640244 -0.16465451 -0.2763761 -0.25054407
000220 e7 ce ed be 78 a7 51 3f e9 c7 a7 3e 24 0f 44 3d
       -0.46446916 0.8189616 0.32769707 0.047866
000230 fb 9a a2 be 5a 8b 6a be ed 7e 5d be ec 2f 71 3e
       -0.31758866 -0.22904721 -0.2163045 0.23553437
000240 e8 12 2a 3e c5 7d 05 3e fe 91 2e bd e1 8d 08 be
       0.16608775 0.13036259 -0.042619698 -0.13335373
000250 f2 84 ab be ec d6 ee 3e c0 a9 17 3f da f1 f2 be
       -0.33499867 0.46648347 0.5924339 -0.47450143
000260 ba 9f 3c be a7 91 6f 3f 10 9e 02 3e 66 7e 21 be
       -0.18420306 0.9358162 0.12755609 -0.15770873
000270 31 85 ab 3d b4 e7 da 3d 95 e3 39 bd c1 e6 fb 3d
       0.083750136 0.10688725 -0.045383055 0.12299872
000280 25 cd 9b bf 6f e2 bd 3e 07 35 40 3f 86 54 37 3f
       -1.217198 0.37086818 0.75080913 0.7161335
000290 6c bc f3 be 19 9e 01 3f 66 37 99 3d 2b cb 8a bd
       -0.47604692 0.5063186 0.074812695 -0.067770325
0002a0 35 ed 0e 3e 70 d0 f2 be 9c 99 0f 3e 9d e6 59 be
       0.13957675 -0.4742465 0.14023441 -0.21279378
0002b0 eb 82 ae 3e 49 87 5c 3d 8d b9 e7 bd 86 0f 71 be
       0.34084257 0.053839955 -0.11314688 -0.23541078
0002c0 38 3d 86 bd 6a 81 5e 3e 11 fe 60 3d 65 93 a8 be
       -0.06554645 0.21729055 0.054929797 -0.32924953
0002d0 86 dd c6 be f2 36 d6 be f5 c5 dd 3e 07 55 59 be
       -0.38840884 -0.41838795 0.43315092 -0.21223842
0002e0 a8 98 9f 3c bd 8c aa bd a8 b1 c7 3e 62 83 5c 3e
       0.019481972 -0.08327625 0.39002728 0.21534494
0002f0 0a ff 32 bd 39 85 4a 3f 32 fe 2d 3f 76 32 3e bf
       -0.043700255 0.7910953 0.67965996 -0.7429575
000300 12 33 80 be 13 95 84 3f 0e 17 b3 3e 3a 45 0d 3f
       -0.25038964 1.0357994 0.34978527 0.55183756
000310 45 c7 94 3e 4d 99 c8 be 4e 50 83 be 81 16 99 be
       0.2905828 -0.3917946 -0.25647205 -0.29899982
000320 d0 72 f3 bd 09 4b 13 3f 1e d7 b3 3e 5f 56 5a 3e
       -0.11887133 0.5753637 0.3512506 0.2132201
000330 f6 a0 18 3f ed d3 ea 3e 10 21 f2 be 91 60 8d be
       0.59620607 0.45864812 -0.4729085 -0.27612737
000340 9e ee 8c be 8b 24 7c be f6 9b 90 3e f1 4f 0b bf
       -0.275258 -0.24623315 0.2824399 -0.54418856
000350 1b 94 dc be c6 bd 12 bf 9c d7 fc be 5f ec 98 3e
       -0.43081746 -0.5732082 -0.49383247 0.29867837
000360 dd 11 3c bf a8 ab d1 bd d7 32 cc bd ff cd 16 3f
       -0.7346476 -0.10237819 -0.099706344 0.58908075
000370 bd e7 88 be ad 47 a8 3e 99 37 c4 3e d6 2f 3f be
       -0.26739302 0.32867184 0.38323668 -0.18670592
000380 09 b7 14 bf f3 eb 29 3f 87 4b c1 3e a9 24 20 3f
       -0.5809179 0.66375655 0.37752935 0.6255594
000390 06 ad dc be 92 72 0d bf b2 fd 84 3e 2b 36 41 3f
       -0.43100756 -0.55252945 0.25974804 0.7547328
0003a0 fd 45 d9 3e 0d 59 cd bc 7e 2d 04 bf 7d f6 b7 3e
       0.4243621 -0.025066877 -0.51631916 0.35930243
0003b0 85 ec bc 3e 38 4f db be 43 2a 8f be 5b 5a be be
       0.368992 -0.42833877 -0.2796193 -0.3717831
0003c0 f8 81 46 bf f4 c5 3e 3e aa 50 bc 3e c4 e7 8e 3f
       -0.77542067 0.186302 0.36780292 1.1164479
0003d0 91 60 d9 3d 6f 87 d7 3e 8e ab 98 be 0a d4 a4 be
       0.10614122 0.42095515 -0.29818386 -0.32193023
0003e0 3e e7 b3 bd 37 2a 9f bf 21 38 9f 3e e6 3b a7 be
       -0.0878434 -1.2434758 0.3109751 -0.32662886
0003f0 a5 6e 1f be 34 92 77 be 3c aa 30 be 9a 73 00 3e
       -0.15569551 -0.24176866 -0.1725244 0.12544098

hidden2event.bias f4 [27]
000000 29 ca 5a bd ce 07 cc bb 23 b5 6b bd 92 b8 0c bd
       -0.05341545 -0.0062265163 -0.057545792 -0.034355707
000010 0e ec c8 bc e9 fe dd bd 94 fa d4 bd 7d 56 72 be
       -0.024526622 -0.10839636 -0.103993565 -0.23665805
000020 6d c7 8a 3d 9e b9 fe bd 99 26 60 be 96 82 a6 be
       0.06776319 -0.124377474 -0.21889724 -0.32521504
000030 2f f5 17 bd 20 d4 a1 3e ac 10 23 3b 5c 5a f2 3d
       -0.03709906 0.3160715 0.0024881763 0.11833641
000040 76 d1 78 bc 09 bf 9f be 87 4a 27 be de df 16 be
       -0.015186658 -0.31200436 -0.16337024 -0.14733836
000050 df 59 29 3e ab 4c fa 3c 51 bf b3 bd ca 98 80 be
       0.1653819 0.030554136 -0.08776725 -0.2511657
000060 fc ac 1a 3e 4c 33 5f be 28 e0 c4 be
       0.15105051 -0.21796912 -0.38452268

hidden2time.weight f4 [3, 40]
000000 45 9f ab be 71 19 42 3f 9a 42 0c bf d2 23 d6 be
       -0.3351995 0.7582007 -0.54789126 -0.41824204
000010 d0 71 cb 3d fc 95 06 3d f3 2c 28 3e 05 22 82 3e
       0.099338174 0.03285788 0.16423397 0.2541658
000020 33 01 4e bd ba 50 23 bf 82 a6 ef 3d c3 55 9a 3e
       -0.050294112 -0.63795054 0.11701681 0.30143556
000030 b7 d2 3a 3e 7f 65 83 3e 0b 5e 07 3e ac 97 6b bb
       0.18244444 0.25663373 0.13219468 -0.0035948558
000040 9d 11 5a bf 87 28 8e 3f 48 68 42 bf 68 ea 8a be
       -0.85183126 1.1106118 -0.7594037 -0.27131963
000050 3b 77 8f 3e 5c 73 9b bd b5 ca 86 3e bc df 83 bd
       0.28020653 -0.075903624 0.26326528 -0.06439158
000060 89 45 a0 3e f8 24 02 3e 47 d7 3c be 7e 05 e2 3e
       0.3130305 0.12709415 -0.18441497 0.44144815
000070 31 b4 33 3e 13 16 5b 3f a8 b7 15 bf 7d 3e eb 3c
       0.17549206 0.8558056 -0.5848336 0.02871632
000080 cc 1f 3f be 63 1a 5d 3f 99 b8 4a 3e 4f f4 9a be
       -0.18664473 0.8636839 0.19796981 -0.30264518
000090 65 4d 93 be 65 8c d8 3d ab 53 a1 3d 75 49 eb bc
       -0.28769985 0.10573653 0.078772865 -0.02872155
0000a0 67 d1 fa 3e 4d b4 33 bf 06 4c 32 3e 1c 70 54 3e
       0.48987886 -0.7019699 0.17411813 0.20745891
0000b0 d2 52 8e be 47 a1 8e be 08 b3 1f 3d d1 9c d2 3d
       -0.27797562 -0.2785742 0.038989097 0.102838166
0000c0 c3 6f 3e 3e 72 11 3d 3f 5c ec c5 be 87 46 62 be
       0.18597321 0.73854744 -0.3865689 -0.22097217
0000d0 d4 79 06 be a4 b2 83 be 4c 44 8c 3e 5d b3 67 bd
       -0.13132411 -0.2572223 0.27395856 -0.05656754
0000e0 f6 af 49 3f 2c 12 54 bf f4 dc 1c 3f a9 da ec bd
       0.7878412 -0.8284023 0.6127465 -0.115651436
0000f0 14 20 f3 3d 92 af ad 3d 8f b2 cd be 03 3a 89 3e
       0.11871353 0.08480753 -0.40175292 0.26802072
000100 21 67 03 be b8 df c3 be 05 5c 13 bd 65 27 34 bf
       -0.1283231 -0.3825662 -0.03597643 -0.7037261
000110 f0 bf d2 bd fa 42 03 bf b3 73 88 3e 41 48 56 bd
       -0.102905154 -0.51274073 0.26650771 -0.052315
000120 51 fa 5b bd ca ae 4c bf b1 a9 0d 3e 85 1c b1 3d
       -0.053705517 -0.79954207 0.13834263 0.08648018
000130 20 10 bb 3c 89 88 1f 3e c6 20 b4 3d 7f 67 0a bc
       0.022834837 0.15579428 0.087953135 -0.008447527
000140 5d 82 12 bc c4 e8 01 3f 27 1f d5 3e e0 43 89 3e
       -0.008942214 0.507458 0.4162533 0.26809597
000150 e9 cc 46 3f 4c e8 a7 3e 8c 1d d4 be af dc 07 be
       0.7765642 0.32794416 -0.41428792 -0.13267778
000160 69 76 9e be 06 9b ed 3c fa 10 c3 3e 87 e0 8e bf
       -0.30949715 0.029004585 0.3809889 -1.116227
000170 45 34 f1 be 4e 41 e0 be ee ea c4 be f5 49 d2 3e
       -0.4711019 -0.43799824 -0.38460487 0.4107205
000180 6b 46 d1 be 15 04 af be 92 7d 3e be fe 1c e8 3e
       -0.40874037 -0.34182802 -0.18602589 0.4533462
000190 af c7 85 be b8 13 ae 3e 21 c7 9a 3e 70 b4 80 bd
       -0.2612891 0.3399942 0.30230048 -0.06284416
0001a0 3a 6a 01 bf cc ac db 3e e9 59 c9 3e b7 e7 0c 3f
       -0.50552714 0.4290527 0.39326409 0.5504107
0001b0 6a 19 0e bf 10 21 ce be 57 95 fe 3e 02 4d 32 3f
       -0.5550753 -0.402596 0.49723312 0.69648755
0001c0 77 cf 11 3f 4d 41 b8 3c bc b2 02 bf 7f 2f dc 3e
       0.5695719 0.022492075 -0.51053977 0.43004987
0001d0 d1 d9 b7 3e b4 d1 e8 be 0b b2 cb be 0d bf c3 be
       0.35908368 -0.4547249 -0.39784274 -0.38231698

hidden2time.bias f4 [3]
000000 fb d2 0c 3e 1a 67 56 bd 33 07 a9 be
       0.13752358 -0.05234442 -0.33013305
