events_simulation/models/all_epochs/model_16_20180530-2301.pt (torch_old, 78354 bytes, 9 tensors)

loss_function_events.weight f4 [27]
1.0 1.0 1.0 1.0 1.0 1.0 1.0 1.0
1.0 1.0 1.0 1.0 1.0 1.0 1.0 1.0
1.0 1.0 1.0 1.0 1.0 1.0 1.0 1.0
1.0 1.0 1.0
00000000: 0000 803f 0000 803f 0000 803f 0000 803f
00000010: 0000 803f 0000 803f 0000 803f 0000 803f
00000020: 0000 803f 0000 803f 0000 803f 0000 803f
00000030: 0000 803f 0000 803f 0000 803f 0000 803f
00000040: 0000 803f 0000 803f 0000 803f 0000 803f
00000050: 0000 803f 0000 803f 0000 803f 0000 803f
00000060: 0000 803f 0000 803f 0000 803f

lstm.weight_ih_l0 f4 [160, 70]
-0.16384684 -0.008703138 -0.19337982 0.07039977 -0.02907132 0.037680015 -0.091035046 -0.022184279
0.16877532 0.15809874 0.058780305 -0.11417086 0.053327404 -0.01460902 0.048753027 0.14469676
-0.12590173 -0.14240485 0.06917629 -0.14784454 -0.035253543 0.08408219 -0.14069042 -0.119149156
0.141294 0.0056536943 0.71271676 -0.08149673 0.0754335 0.8841374 0.15062638 -0.059982423
0.045200292 0.21261156 0.039678697 0.085473835 0.013041435 0.15697578 0.20561479 0.02843532
0.2319045 0.07847122 -0.078277975 0.096842006 0.09471792 0.17409745 -0.025568573 0.21128398
0.14649096 0.0275634 0.0020858927 0.08535747 -0.0064179604 0.098403655 -0.06923241 0.21604109
0.05667391 0.015141009 0.14480254 0.15785056 -0.01534618 0.099418566 0.009981837 -0.05817784
0.1148929 -0.057803884 0.15491918 0.0713031 -0.0054801432 -0.10073211 -0.29125968 0.033585586
-0.0016908298 0.01953454 0.004134898 -0.13008243 -0.13818964 0.034666948 0.094551094 0.1583461
0.11273276 -0.19473548 0.036055233 -0.05685978 0.10923576 -0.20121308 0.08539005 -0.12302266
-0.005268756 -0.03826837 -0.069364585 0.12914072 -0.15649126 0.06238879 0.12993447 0.1022359
0.28631666 -0.032015003 0.15743235 0.2423407 -0.21481125 0.08406684 -0.07995722 -0.12175391
0.19360547 -0.13422604 0.1488548 0.0018075737 0.23462926 -0.22614682 0.25095582 0.21493872
-0.008776328 -0.06263798 0.053731646 0.0412583 0.0958406 -0.10417358 0.07646737 0.16050363
0.16749948 -0.16672793 -0.0016849773 -0.1055067 0.2143095 0.28045455 0.28193173 0.1316738
0.09002443 0.057195414 0.045811433 0.20952633 0.21901906 0.080570035 -0.05447248 0.3535763
0.1316071 0.19163898 0.30224797 -0.10205336 -0.06682498 0.04541797 0.05254581 0.047982868
-0.028294353 0.024584696 -0.025406454 -0.0038161378 -0.10609842 0.14334552 -0.02246336 -0.1724167
-0.041572943 -0.050570365 -0.12901504 -0.079496905 0.13417144 -0.05886271 0.111247905 0.0059735123
0.05052983 0.05625256 0.042542964 -0.19502498 0.022365356 -0.0025966316 0.5389775 0.15495399
0.011762573 0.51963174 0.20297852 0.0950763 -0.0278392 -0.0028934274 0.22176674 -0.13725592
0.1199861 0.19892359 0.088815495 -0.0250221 -0.018869087 -0.07213946 0.11738935 0.17824651
0.03247292 0.02399757 -0.078831844 0.039599273 0.10119091 0.14944345 0.12723584 0.07721594
-0.105614886 0.042314243 0.03922655 0.12763691 -0.007904203 0.12736312 -0.03805518 0.14043538
-0.06737191 0.015636334 0.15325087 -0.06342153 -0.0036398538 -0.034572337 0.15142614 0.18834583
0.13703501 -0.08561893 -0.015987467 0.06209437 0.14018174 0.19396281 0.1623879 0.0974461
0.03233261 0.13762191 0.08866213 -0.0579031 0.13212188 0.07529032 -0.11572888 0.07453567
-0.07720461 -0.012016861 0.020352585 -0.013762683 -0.031839985 -0.073984355 0.01896028 0.14321323
0.059739262 0.03952433 0.03462973 0.08870304 0.44072786 0.09918714 -0.06904037 0.6754225
0.036329642 0.111586355 0.06409589 0.16820112 0.031706188 -0.01621662 0.011523054 0.11036402
0.15904841 -0.080147356 0.23966253 0.029039228 0.14826095 0.108539715 0.1924722 0.055696987
00000000: 77c7 27be 9b97 0ebc 5c05 46be c12d 903d
00000010: fa26 eebc 5c56 1a3d 9570 babd cebb b5bc
00000020: 70d3 2c3e a3e4 213e 9ec3 703d 69d2 e9bd
00000030: d66d 5a3d ac5a 6fbc 41b1 473d 632b 143e
00000040: 62ec 00be 94d2 11be 4cac 8d3d 8f64 17be
00000050: 0566 10bd 4933 ac3d 2611 10be 7904 f4bd
00000060: 60af 103e a042 b93b 9b74 363f c2e7 a6bd
00000070: e17c 9a3d d456 623f cd3d 1a3e 21b0 75bd
00000080: f123 393d d8b6 593e 2186 223d e80c af3d
00000090: beab 553c 42be 203e af8c 523e 30f1 e83c
000000a0: 6078 6d3e 85b5 a03d 3450 a0bd 1a55 c63d
000000b0: 78fb c13d 9a46 323e 2f75 d1bc d45a 583e
000000c0: ba01 163e a4cc e13c 79b3 083b e6cf ae3d
000000d0: c14d d2bb db87 c93d b9c9 8dbd e039 5d3e
000000e0: e722 683d ff11 783c 1e47 143e 94a3 213e
000000f0: 8b6e 7bbc f69b cb3d dc8a 233c e34b 6ebd
00000100: f84c eb3d c4c3 6cbd 22a3 1e3e 5c07 923d
00000110: c692 b3bb a34c cebd fd1f 95be 0a91 093d
00000120: d59e ddba e606 a03c 0a7e 873b 5434 05be
00000130: 9681 0dbe eefe 0d3d 01a4 c13d 7b25 223e
00000140: 6fe0 e63d bd68 47be a7ae 133d cde5 68bd
00000150: 00b7 df3d cd0a 4ebe fbe0 ae3d 4ef3 fbbd
00000160: 87a5 acbb 4bbf 1cbd 050f 8ebd 773d 043e
00000170: 3f3f 20be 638b 7f3d 8b0d 053e 0e61 d13d
00000180: 1998 923e 2a22 03bd f235 213e 2928 783e
00000190: 7bf7 5bbe 3c2b ac3d 9cc0 a3bd 1d5a f9bd
000001a0: 8340 463e 8d72 09be 656d 183e 1cec ec3a
000001b0: a742 703e 0893 67be 487d 803e e518 5c3e
000001c0: 96ca 0fbc 5748 80bd b715 5c3d 77fe 283d
000001d0: 1448 c43d f558 d5bd ed9a 9c3d 105b 243e
000001e0: fc84 2b3e baba 2abe 75da dcba e613 d8bd
000001f0: f373 5b3e bd97 8f3e 5b59 903e 7fd5 063e
00000200: ba5e b83d bd45 6a3d c5a4 3b3d 128e 563e
00000210: 8846 603e e701 a53d 891e 5fbd f407 b53e
00000220: 03c4 063e 023d 443e 3fc0 9a3e 5a01 d1bd
00000230: 89db 88bd 3108 3a3d 463a 573d af89 443d
00000240: 8fc9 e7bc d865 c93c 3221 d0bc 2b18 7abb
00000250: 214a d9bd 2bc9 123e 1505 b8bc 018e 30be
00000260: 6448 2abd df22 4fbd 851c 04be 46cf a2bd
00000270: 3d64 093e 061a 71bd f1d5 e33d 74bd c33b
00000280: 5ef8 4e3d 1669 663d 8841 2e3d a1b4 47be
00000290: 8d37 b73c 402c 2abb 6efa 093f 42ac 1e3e
000002a0: cfb7 403c 9606 053f 9ad9 4f3e 5db7 c23d
000002b0: 090f e4bc a89f 3dbb d216 633e d18c 0cbe
000002c0: 46bb f53d a0b2 4b3e e6e4 b53d 26fb ccbc
000002d0: 5893 9abc dabd 93bd d469 f03d 4186 363e
000002e0: 5302 053d 8d96 c43c 9772 a1bd d932 223d
000002f0: 2e3d cf3d b407 193e 1d4a 023e 6423 9e3d
00000300: 9e4c d8bd b351 2d3d 05ac 203d 40b3 023e
00000310: a180 01bc 7a6b 023e c0df 1bbd 4bce 0f3e
00000320: 49fa 89bd c517 803c cced 1c3e 26e3 81bd
00000330: 9d8a 6ebb b99b 0dbd 740f 1b3e bbdd 403e
00000340: e852 0c3e fa58 afbd 26f8 82bc ab56 7e3d
00000350: cd8b 0f3e 309e 463e 0349 263e d291 c73d
00000360: 336f 043d c2ec 0c3e 7e94 b53d cd2b 6dbd
00000370: f54a 073e d031 9a3d 4303 edbd 28a6 983d
00000380: 731d 9ebd 5ee2 44bc 77ba a63c e07c 61bc
00000390: a56a 02bd 1c85 97bd 9752 9b3c 7da6 123e
000003a0: 28b1 743d 44e4 213d e7d7 0d3d f0a9 b53d
000003b0: 15a7 e13e a122 cb3d 0a65 8dbd 7de8 2c3f
000003c0: 64ce 143d 6387 e43d b544 833d ea3c 2c3e
000003d0: 59de 013d b8d8 84bc 31cb 3c3c 8806 e23d
000003e0: 96dd 223e 4c24 a4bd 186a 753e ade3 ed3c
000003f0: b8d1 173e 124a de3d 6f17 453e 8622 643d

lstm.weight_hh_l0 f4 [160, 40]
0.16645256 -0.16404377 0.021841794 -0.16614762 0.11126932 -0.23565912 -0.20293051 0.05739645
0.04026189 0.097582184 0.12564681 0.16620922 0.11501959 0.008929407 -0.23724395 -0.0410835
-0.060352262 0.24837473 -0.23666166 0.19202052 0.12170854 0.07736448 -0.18251461 0.09579247
0.08837892 0.21621214 0.1191808 -0.054086618 -0.0814407 0.2698351 0.27322724 -0.035460666
-0.10125756 0.17455772 0.19070697 0.09698289 0.111880556 -0.077879965 0.09185346 0.15201248
-0.15743504 0.19937527 0.075345516 -0.05103582 0.17737041 -0.15339127 -0.04304249 -0.13479719
-0.08677908 0.056991898 0.5213307 0.27894157 0.12947577 -0.12159564 -0.09165765 -0.14252985
0.2512612 0.17881675 -0.2071656 -0.034573168 -0.117553644 -0.00023630874 -0.07722552 -0.057477262
0.075145 0.21531153 0.0060953633 -0.11178492 -0.12890631 0.021757688 0.07077654 0.07293291
-0.01208561 0.16437009 -0.0077079837 0.041560467 -0.049940165 0.0839702 -0.06462693 -0.07447474
0.29270568 -0.1509468 0.09401848 0.0051082 0.00030757755 0.0049411883 -0.07232854 0.0027886166
0.07128775 0.096635446 0.21625091 0.14369868 -0.04269894 -0.015376247 -0.007202216 -0.10605591
-0.046239413 0.26476976 -0.10821726 0.14275579 -0.093257934 0.019743066 0.025567483 -0.11845116
-0.0002782718 -0.056466818 0.038265333 0.0151538765 -0.09893914 0.15951769 0.105418615 -0.10080601
-0.14732584 0.03895664 0.15212321 0.10006794 -0.00889624 -0.1459179 -0.17799029 0.05976415
0.0723034 0.050607603 0.047709316 0.009484276 -0.029021233 -0.15227756 0.10535926 -0.15639016
-0.10501534 -0.097182065 0.23619033 0.2162048 0.029445568 -0.14199817 0.046243604 -0.16154663
0.009993892 0.27453735 0.12043027 0.1574932 0.01168226 0.12113294 -0.08842492 0.08310965
0.040655356 0.027859382 0.20423329 0.05569493 -0.06536452 0.15206948 -0.023013217 -0.13735455
-0.03225856 0.14959824 0.0575782 -0.16754673 0.060379677 -0.05149113 0.022168126 0.19785962
0.052981276 -0.028434753 0.15510395 -0.11140113 0.16065745 0.08298941 -0.016851172 -0.0944729
0.06978818 -0.06717714 0.40204883 0.20604989 0.18885744 0.0051293517 0.026501926 0.02528885
0.020539232 0.36312687 -0.05408811 0.103571266 0.12654826 0.07595515 -0.0010347249 -0.11030596
0.16733748 0.14660387 0.17240772 0.08484546 -0.039822534 0.0028447758 -0.054952532 0.043657467
0.039402127 -0.0053321975 0.06462998 0.03870168 0.15305099 0.14144425 -0.07129279 0.16714257
0.35508004 -0.083192565 -0.031563047 -0.17159373 0.30570373 0.046731815 0.070124686 0.1344099
0.105859675 0.008978174 0.6201474 0.03739664 0.071483165 0.029566603 -0.019478014 -0.07935659
0.22217888 0.34789896 -0.105650604 0.033253543 -0.044204228 0.19233046 -0.09631577 0.09823355
0.17566366 0.19031453 -0.04870343 0.075440444 -0.0592574 0.17666824 0.15192766 -0.01161101
-0.16952659 0.2520753 0.17237766 0.0018684772 0.021996487 0.026111383 -0.11776419 -0.02209731
0.25453776 -0.0011967104 0.14968093 0.020718044 0.2837191 -0.061484154 0.014798085 0.08528906
0.02346399 0.18991041 0.35864028 0.23952937 0.2932353 0.020358928 0.23864119 0.03937223
00000000: 8a72 2a3e 17fb 27be 90ed b23c 9a22 2abe
00000010: 2be1 e33d a050 71be 04cd 4fbe 8a18 6b3d
00000020: a7e9 243d 2bd9 c73d 8fa9 003e c032 2a3e
00000030: 648f eb3d a64c 123c 14f0 72be 2c47 28bd
00000040: ef33 77bd f255 7e3e 6f57 72be 07a1 443e
00000050: 5442 f93d 4571 9e3d 1ce5 3abe d82e c43d
00000060: 0200 b53d b766 5d3e 1015 f43d ee89 5dbd
00000070: 62ca a6bd d427 8a3e 71e4 8b3e 343f 11bd
00000080: 2060 cfbd 42bf 323e b048 433e f79e c63d
00000090: a221 e53d 887f 9fbd ab1d bc3d 29a9 1b3e
000000a0: a736 21be 0829 4c3e c04e 9a3d f00a 51bd
000000b0: 97a0 353e 9a12 1dbe 524d 30bd 4608 0abe
000000c0: 3bb9 b1bd 5670 693d ee75 053f 6ed1 8e3e
000000d0: 4c95 043e 2307 f9bd 02b7 bbbd 58f3 11be
000000e0: 4fa5 803e bd1b 373e 3823 54be 989c 0dbd
000000f0: f7bf f0bd a5c9 77b9 6a28 9ebd 476d 6bbd
00000100: 9fe5 993d a07a 5c3e 9dbb c73b 7eef e4bd
00000110: 0400 04be 2e3d b23c 4af3 903d d95d 953d
00000120: b902 46bc a250 283e 4193 fcbb 4f3b 2a3d
00000130: 0f8e 4cbd 91f8 ab3d 205b 84bd 3686 98bd
00000140: 85dd 953e cc91 1abe c38c c03d b062 a73b
00000150: 5c42 a139 b1e9 a13b fc20 94bd 39c1 363b
00000160: 50ff 913d cee8 c53d e170 5d3e bf25 133e
00000170: 15e5 2ebd a8ec 7bbc 9100 ecbb d733 d9bd
00000180: 8a65 3dbd e78f 873e 03a1 ddbd 932e 123e
00000190: 04fe bebd 36bc a13c e672 d13c 8696 f2bd
000001a0: 02e5 91b9 c049 67bd 1cbc 1c3d f747 783c
000001b0: 9ba0 cabd 9b58 233e b7e5 d73d 6273 cebd
000001c0: 96dc 16be ff90 1f3d 30c6 1b3e 6cf0 cc3d
000001d0: 89c1 11bc 816b 15be 1643 36be 41cb 743d
000001e0: ce13 943d eb49 4f3d d86a 433d f063 1b3c
000001f0: f0bd edbc a6ee 1bbe 99c6 d73d be24 20be
00000200: 4812 d7bd 6407 c7bd e1db 713e cb64 5d3e
00000210: d537 f13c f867 11be ef69 3d3d 7b6c 25be
00000220: 6cbd 233c 2990 8c3e 25a4 f63d e645 213e
00000230: f366 3f3c 8c14 f83d 2018 b5bd 6435 aa3d
00000240: 3b86 263d 5c39 e43c 8822 513e 5e20 643d
00000250: d5dd 85bd 1ab8 1b3e 3786 bcbc aca6 0cbe
00000260: 8d21 04bd 4830 193e 1ed7 6b3d 5f91 2bbe
00000270: ae50 773d 5de8 52bd ee99 b53c b69b 4a3e
00000280: e502 593d 00f0 e8bc 92d3 1e3e 4726 e4bd
00000290: 6383 243e 5af6 a93d 780b 8abc 027b c1bd
000002a0: 1bed 8e3d 2b94 89bd 58d9 cd3e befe 523e
000002b0: d863 413e 1f14 a83b 911a d93c 902a cf3c
000002c0: e441 a83c c4eb b93e 7e8b 5dbd 2c1d d43d
000002d0: de95 013e 608e 9b3d 9b9f 87ba 17e8 e1bd
000002e0: 845a 2b3e 531f 163e a68b 303e 75c3 ad3d
000002f0: f41c 23bd 6b6f 3a3b e815 61bd 2cd2 323d
00000300: 2064 213d b7b9 aebb b95c 843d a785 1e3d
00000310: 66b9 1c3e c3d6 103e f401 92bd 6c27 2b3e
00000320: 0dcd b53e dd60 aabd 4148 01bd 44b6 2fbe
00000330: 3385 9c3e dc69 3f3d 889d 8f3d c0a2 093e
00000340: f5cc d83d 3119 133c fbc1 1e3f 382d 193d
00000350: c465 923d a935 f23c 5b90 9fbc b585 a2bd
00000360: dc82 633e d01f b23e 585f d8bd de34 083d
00000370: 7e0f 35bd 47f2 443e 3441 c5bd ac2e c93d
00000380: 2de1 333e d0e1 423e 3f7d 47bd 8580 9a3d
00000390: e3b7 72bd 85e8 343e ed92 1b3e 1b3c 3ebc
000003a0: 6198 2dbe 0410 813e c583 303e b1e7 f43a
000003b0: fa31 b43c 8ae7 d53c 5a2e f1bd 6b05 b5bc
000003c0: c652 823e f0da 9cba f545 193e e3b8 a93c
000003d0: a143 913e cfd6 7bbd ab73 723c 08ac ae3d
000003e0: 8e37 c03c e077 423e b39f b73e 3047 753e
000003f0: f022 963e c4c7 a63c 5b5e 743e c744 213d

lstm.bias_ih_l0 f4 [160]
-0.031882215 0.00769297 0.1954371 0.13809034 0.15798688 0.083469346 0.011735027 0.020800581
0.05158069 0.053088974 0.2984488 -0.0904048 0.20664474 0.14287275 0.13028084 0.05302141
0.06326552 0.25655183 -0.11591998 0.030488072 0.20122044 0.092183046 -0.06809264 -0.07826999
0.14507301 0.044205166 0.10777507 0.29879558 0.11188824 -0.019007882 0.2293289 0.23852855
0.068037786 -0.023919575 0.16350475 0.067822546 0.052023184 0.0020322793 -0.08000888 0.1967087
0.10837973 0.08028472 -0.022906953 -0.07741967 0.13958436 -0.040433604 -0.09195414 -0.08404118
0.057084948 0.2459109 0.052154694 -0.09455473 0.037270673 -0.0912274 0.045061823 0.032560255
-0.17536475 -0.09062322 -0.07594654 0.20725216 -0.080799535 0.124740824 0.007912433 0.09144459
0.19193955 0.079468995 0.15892118 0.11586936 0.041700747 -0.04374996 0.12511972 0.16486874
0.19219168 0.0349495 0.089419104 0.05990425 0.04612816 -0.065474525 0.19524267 -0.05460068
-0.06268541 -0.082098596 -0.0999124 -0.055776868 -0.08416925 -0.17665945 -0.16842103 0.016329706
0.0036676838 -0.021087017 -0.0135278 0.11621778 -0.18174063 0.041778535 0.05092032 0.035432123
-0.17941004 -0.023717726 -0.15474561 0.020992799 -0.0051171468 -0.06286692 -0.08811891 -0.095485754
-0.023475105 0.06948116 0.00025448916 -0.21540608 -0.16316564 0.19942838 0.008923579 0.052149896
-0.17849153 0.10083151 0.07933504 -0.18222879 -0.11351255 0.089356996 -0.0216499 0.17000596
0.006670765 -0.02841158 0.12851164 0.16096136 0.016850475 -0.12434951 0.16351281 0.102187544
-0.03857122 0.24141183 0.26489502 -0.077725194 0.28573045 0.10535952 0.030039558 0.24739367
0.0987516 0.21086954 -0.011547284 0.21002004 0.21228534 0.034926765 0.06911211 0.07923278
0.06957034 0.01745067 0.013700343 0.16818023 -0.056613334 0.06417428 0.118165895 0.15700862
0.17713565 -0.08199497 0.13094454 0.08001047 0.0065634702 -0.04814525 -0.038976967 0.19866468
00000000: ed96 02bd 4f15 fc3b aa20 483e 8e67 0d3e
00000010: 50c7 213e faf1 aa3d 4544 403c fb65 aa3c
00000020: 4646 533d d373 593d 48ce 983e 2726 b9bd
00000030: ae9a 533e 3c4d 123e 5768 053e fa2c 593d
00000040: 5a91 813d c35a 833e 7467 edbd 1fc2 f93c
00000050: bb0c 4e3e 77ca bc3d 2774 8bbd 044c a0bd
00000060: 058e 143e 7a10 353d 2db9 dc3d bcfb 983e
00000070: a925 e53d 6bb6 9bbc 32d5 6a3e d440 743e
00000080: 6557 8b3d fcf2 c3bc ca6d 273e 8ce6 8a3d
00000090: 4316 553d fd2f 053b b2db a3bd 016e 493e
000000a0: 31f6 dd3d 516c a43d 5da7 bbbc 348e 9ebd
000000b0: 34ef 0e3e b59d 25bd 7452 bcbd c81d acbd
000000c0: e8d1 693d 11d0 7b3e 29a0 553d e9a5 c1bd
000000d0: 22a9 183d 6ed5 babd bf92 383d e75d 053d
000000e0: d192 33be ab98 b9bd dc89 9bbd e939 543e
000000f0: 3a7a a5bd 1e78 ff3d 26a3 013c 4d47 bb3d
00000100: cd8b 443e a4c0 a23d 3cbc 223e ea4c ed3d
00000110: 67ce 2a3d 2833 33bd 621f 003e 5ad3 283e
00000120: e5cd 443e 3527 0f3d 5d21 b73d 295e 753d
00000130: e2f0 3c3d 8217 86bd b2ed 473e f6a4 5fbd
00000140: 3561 80bd 4f23 a8bd df9e ccbd 4976 64bd
00000150: ee60 acbd 37e6 34be 9076 2cbe e0c5 853c
00000160: 865d 703b aebe acbc b5a3 5dbc 9603 ee3d
00000170: 371a 3abe f81f 2b3d d391 503d 4621 113d
00000180: 44b7 37be ad4b c2bc a275 1ebe 17f9 ab3c
00000190: bdad a7bb 5fc0 80bd b077 b4bd 098e c3bd
000001a0: dd4e c0bc 234c 8e3d f56c 8539 6993 5cbe
000001b0: e514 27be f436 4c3e 3434 123c 219b 553d
000001c0: 7cc6 36be c080 ce3d 697a a23d 2f9a 3abe
000001d0: 4579 e8bd cd00 b73d 225b b1bc 0b16 2e3e
000001e0: 6f96 da3b 67bf e8bc 8e98 033e 0ed3 243e
000001f0: 020a 8a3c f5aa febd e76f 273e b447 d13d
00000200: dbfc 1dbd aa34 773e 52a0 873e 632e 9fbd
00000210: 434b 923e bbc6 d73d 8515 f63c c454 7d3e
00000220: 473e ca3d 2fee 573e d230 3dbc 7e0f 573e
00000230: 5461 593e 5e0f 0f3d a68a 8d3d cc44 a23d
00000240: e57a 8e3d b5f4 8e3c 6777 603c 7037 2c3e
00000250: 62e3 67bd ce6d 833d f600 f23d dec6 203e
00000260: 0c63 353e fbec a7bd 5316 063e 87dc a33d
00000270: 6112 d73b f433 45bd 50a6 1fbd c16e 4b3e

lstm.bias_hh_l0 f4 [160]
-0.037794765 0.060685612 -0.033494655 -0.025517602 0.06753788 0.022281304 0.22738689 0.15676841
0.20891097 0.09545581 -0.014996202 8.488274e-06 0.06571122 -0.051724922 0.19036363 0.19378522
0.18101047 -0.009025638 0.17455287 0.25513625 0.13959819 0.14263816 -0.045370266 -0.047961164
-0.022309152 0.043914553 -0.066729926 0.116719685 0.14489599 0.15624288 0.03209538 0.16538736
0.046276 0.012903039 -0.0185275 0.06752496 0.03303751 -0.1288716 -0.09340972 0.13553609
0.15537673 0.09418657 0.029737037 0.09531383 0.0025467067 -0.010469335 0.17246582 -0.016087024
-0.07126344 0.20318216 -0.05982833 0.09846268 -0.04395377 -0.025142051 -0.043205712 0.032470908
0.09328952 -0.02206848 0.16134878 -0.036484275 0.063028544 0.053741574 0.017159991 0.07500612
0.025651863 0.1921689 -0.08378608 0.10280661 0.123661645 -0.06369428 -0.014346335 -0.06727871
0.00994029 -0.06574918 0.16275765 -0.008228318 0.13691738 0.023692237 0.1890899 -0.069751374
0.003033629 -0.02733137 0.06527733 0.010458385 0.17837827 -0.051483393 -0.0684263 -0.16897464
-0.13051 -0.18336335 0.10194591 -0.08990885 0.0043492857 -0.11149208 0.029063143 -0.06539834
0.08880468 0.16790068 -0.035570867 0.14785443 0.09648597 0.069174565 0.08717277 -0.19819432
0.1003667 -0.07933203 0.12891069 -0.084374696 -0.0655636 0.041400306 0.21805644 -0.18034466
0.014837452 -0.06794855 0.0043568457 -0.044703756 -0.083904974 0.02887206 -0.18939517 -0.05060552
-0.15308848 0.011864296 -0.090937756 -0.046436932 -0.014798453 0.005723413 0.0113543095 0.09035882
0.08323928 0.17022449 0.30674696 -0.025872365 0.29278705 0.022248192 0.16162519 0.2299236
0.08928291 0.12405888 -0.041784804 -0.08515105 0.36479166 0.09360454 0.13778275 -0.033370733
-0.0474769 0.08643421 0.041726887 0.13300905 0.117751464 0.22851442 -0.032448754 0.021674208
-0.087843165 0.058152515 0.17054026 -0.09071749 -0.08198248 0.097540975 -0.09040389 0.1930099
00000000: afce 1abd 7a91 783d b131 09bd 4a0a d1bc
00000010: 4d51 8a3d 4887 b63c 1cd8 683e e687 203e
00000020: c2ec 553e 567e c33d a1b2 75bc dc68 0e37
00000030: 9b93 863d 83dd 53bd afee 423e a26f 463e
00000040: cf5a 393e 45e0 13bc fdbd 323e 38a1 823e
00000050: d4f2 0e3e bd0f 123e 2cd6 39bd ed72 44bd
00000060: afc1 b6bc bfdf 333d b3a9 88bd bb0a ef3d
00000070: 9d5f 143e 22fe 1f3e 7276 033d 4e5b 293e
00000080: e78b 3d3d 4567 533c fcc6 97bc 874a 8a3d
00000090: 5752 073d ebf6 03be 984d bfbd f9c9 0a3e
000000a0: 141b 1f3e e3e4 c03d 169b f33c e633 c33d
000000b0: a6e6 263b 9387 2bbc e19a 303e efc8 83bc
000000c0: 91f2 91bd fc0e 503e 8d0e 75bd cda6 c93d
000000d0: de08 34bd b4f6 cdbc 79f8 30bd 3700 053d
000000e0: 930e bf3d f5c8 b4bc 9d38 253e 8970 15bd
000000f0: 1c15 813d 2020 5c3d 1c93 8c3c cf9c 993d
00000100: db23 d23c edc7 443e 0998 abbd 468c d23d
00000110: 5142 fd3d 2672 82bd e40c 6bbc 6cc9 89bd
00000120: 99dc 223c 82a7 86bd f1a9 263e 11d0 06bc
00000130: 1234 0c3e 3916 c23c c8a0 413e cfd9 8ebd
00000140: d9cf 463b 0ae6 dfbc 1fb0 853d a559 2b3c
00000150: cba8 363e 40e0 52bd 1723 8cbd b007 2dbe
00000160: 6aa4 05be 9ac3 3bbe 04c9 d03d 2222 b8bd
00000170: 7484 8e3b f655 e4bd d415 ee3c 91ef 85bd
00000180: 3adf b53d 28ee 2b3e c2b2 11bd 2767 173e
00000190: 709a c53d 65ab 8d3d a387 b23d 74f3 4abe
000001a0: 0e8d cd3d d578 a2bd 2a01 043e a4cc acbd
000001b0: 3546 86bd 5e93 293d 304a 5f3e 45ac 38be
000001c0: c918 733c 9c28 8bbd dfc3 8e3b 491b 37bd
000001d0: 5fd6 abbd 1985 ec3c cff0 41be bc47 4fbd
000001e0: 3ac3 1cbe 7762 423c 933d babd a734 3ebd
000001f0: 3675 72bc 788b bb3b 6d07 3a3c 0c0e b93d
00000200: 5b79 aa3d 544f 2e3e f00d 9d3e 48f2 d3bc
00000210: 2fe8 953e d741 b63c 1381 253e 1871 6b3e
00000220: f5d9 b63d 9512 fe3d 8b26 2bbd ac63 aebd
00000230: f9c5 ba3e bdb3 bf3d ec16 0d3e c0af 08bd
00000240: 2377 42bd 6b04 b13d d0e9 2a3d 8633 083e
00000250: ae27 f13d afff 693e fce8 04bd 1c8e b13c
00000260: 1ee7 b3bd 5531 6e3d 1ba2 2e3e 17ca b9bd
00000270: 6ee6 a7bd 90c3 c73d ad25 b9bd 63a4 453e

hidden2event.weight f4 [27, 40]
0.16204649 -0.09244181 0.069869146 0.21236761 -0.12927398 -0.02367681 -0.0115123335 -0.011744178
0.16229296 -0.060663998 -0.14380908 -0.07211401 0.3469668 -0.015986795 0.33625847 0.6587909
-0.18857245 0.41530123 0.12452176 -0.16367109 0.2202757 -0.0857263 -0.19013977 0.044624012
-0.14460802 -0.15921946 0.043794375 0.30493426 0.14027943 0.04769814 -0.2308704 0.12624733
-0.045248035 0.16025415 -0.0021974077 0.039996643 -0.19656609 -0.048630062 -0.16034418 -0.17933871
-0.08577994 -0.26077473 0.15790376 0.024077727 0.08760715 -0.056322288 0.044535853 -0.025095152
0.02806103 -0.059988078 -0.36226398 -0.079723716 0.52317953 0.06782337 0.18356514 0.42914578
-0.18808694 0.718999 -0.30120277 -0.18268043 0.28971845 0.08833835 -0.26945686 -0.27780464
0.14515573 -0.12851073 0.124191806 -0.017222129 -0.17761375 -0.0008463775 -0.12153126 -0.30339825
-0.005086134 0.24756874 0.20109417 -0.14275874 -0.028497377 0.006204038 -0.21491268 0.14104466
0.0120899 -0.0020543823 0.074401654 0.20005171 0.13410316 -0.17488243 0.23556852 -0.19127284
0.014763889 -0.09144168 0.13428937 0.11881177 0.6570794 0.13307132 0.07101771 0.5042261
0.2743165 0.6420218 -0.06293321 0.22742112 0.12710585 -0.08364102 -0.22059394 0.17622758
0.251686 0.12314289 0.10299395 0.4577793 -0.16897506 0.07687687 0.1279997 -0.08248242
0.2266074 -0.052987568 0.015487222 -0.2503163 -0.43515185 0.29461545 -0.19096638 -0.18208495
-0.44480044 0.28477475 0.075151525 0.18988496 0.12718941 -0.5460776 0.122037776 0.10378486
-0.18911798 0.2300272 -0.7639217 0.28983998 -0.9180821 -0.27716446 -0.14145046 0.21822913
0.12872157 -0.7812581 -0.43114975 0.2657673 0.98790777 0.44417515 0.001831629 -0.23125087
0.33395952 -0.114205845 0.26548874 0.27854502 -0.39542645 0.08070683 0.33874464 0.30715698
-0.24561924 0.034129366 0.04720266 -0.15221448 -0.2314575 -0.1854881 -0.15188669 -0.1417724
-0.01725208 -0.2940838 -0.15397105 0.11719568 0.13517047 -0.08973859 0.22050862 0.004467195
-0.3328877 0.33785492 -0.6289928 -0.42930394 -0.42861238 -0.054930877 0.07349407 -0.9321294
0.023280183 -0.6647477 -0.08469405 -0.07875048 -0.24569865 -0.4019379 0.40584585 0.23270534
-0.20637618 -0.29481944 0.23528963 0.287772 0.23558334 0.18523762 0.18786345 -0.36254832
0.37121755 0.121387504 0.13829415 0.615688 -0.12975554 -0.7461814 -0.26087755 0.19301665
-0.34912318 0.09155628 -0.32974938 0.33389553 -0.42203078 0.3547721 0.35665086 0.24387383
0.18575148 -0.11444585 -0.30755296 -0.07739746 -0.13307145 0.3111814 0.32817885 -0.06622351
0.37041104 -0.568648 0.40392956 -0.2654908 0.22831643 -0.24019073 0.18841347 0.12931485
-0.3754351 -0.28803203 -0.2938522 0.18779914 0.3273348 -0.31944552 -0.105118245 0.23614274
0.14403707 -0.32131103 -0.35540628 0.08927371 0.12456487 0.32453898 0.28209433 -0.17933035
-0.23622161 0.11039034 -0.21618067 0.16098523 -0.037247907 0.2842298 0.17521153 0.22517331
0.056053013 -0.027959934 -0.21240489 -0.2701652 0.016197432 0.1071598 0.25504032 -0.11180092
00000000: 84ef 253e 2252 bdbd 8e17 8f3d e576 593e
00000010: 6660 04be dff5 c1bc 3a9e 3cbc a76a 40bc
00000020: 2030 263e d07a 78bd b042 13be 83b0 93bd
00000030: a2a5 b13e bdf6 82bc 122a ac3e 85a6 283f
00000040: 2319 41be 5da2 d43e 4405 ff3d 6599 27be
00000050: f48f 613e 4591 afbd 00b4 42be abc7 363d
00000060: 2014 14be 6d0a 23be bb61 333d 5820 9c3e
00000070: 69a5 0f3e 205f 433d 4a69 6cbe fb46 013e
00000080: 0156 39bd aa19 243e 6202 10bb 85d3 233d
00000090: 9f48 49be 5130 47bd 4431 24be 91a4 37be
000000a0: 65ad afbd 4484 85be 86b1 213e a73e c53c
000000b0: 616b b33d 33b2 66bd 3a6b 363d 5994 cdbc
000000c0: 3fe0 e53c 0fb6 75bd aa7a b9be 3046 a3bd
000000d0: 18ef 053f fbe6 8a3d 80f8 3b3e ffb8 db3e
000000e0: dd99 40be 5210 383f 4037 9abe 9410 3bbe
000000f0: fa55 943e bdea b43d 40f6 89be 693c 8ebe
00000100: b4a3 143e 5198 03be 4658 fe3d 6c15 8dbc
00000110: 61e0 35be 6fdf 5dba 62e5 f8bd 0457 9bbe
00000120: 96a9 a6bb a982 7d3e a1eb 4d3e 592f 12be
00000130: 5573 e9bc 3e4b cb3b 1212 5cbe 036e 103e
00000140: b714 463c d1a2 06bb e55f 983d 5bda 4c3e
00000150: 5752 093e 6114 33be e038 713e 07dd 43be
00000160: 3de4 713c c745 bbbd 2783 093e 9653 f33d
00000170: 5b36 283f d943 083e bc71 913d f614 013f
00000180: 3673 8c3e 8a5b 243f 20e3 80bd 15e1 683e
00000190: 0928 023e fc4b abbd 61e3 61be 0175 343e
000001a0: fddc 803e 5732 fc3d 7eee d23d 0c62 ea3e
000001b0: cc07 2dbe 9f71 9d3d 5a12 033e 8bec a8bd
000001c0: c50b 683e 7e09 59bd 1ebe 7d3c 7529 80be
000001d0: 39cc debe d6d7 963e b18c 43be 7a74 3abe
000001e0: e2bc e3be ffcd 913e 0be9 993d 3471 423e
000001f0: f13d 023e becb 0bbf f1ee f93d 288d d43d
00000200: 25a8 41be 408c 6b3e 5f90 43bf e865 943e
00000210: 6e07 6bbf 80e8 8dbe 64d8 10be 7577 5f3e
00000220: 96cf 033e 8800 48bf a9bf dcbe a712 883e
00000230: 86e7 7c3f ed6a e33e 4513 f03a 07cd 6cbe
00000240: befc aa3e c1e4 e9bd 24ee 873e 749d 8e3e
00000250: 5675 cabe 9f49 a53d f06f ad3e ae43 9d3e
00000260: 9c83 7bbe 3ccb 0b3d 9457 413d 1dde 1bbe
00000270: 3203 6dbe 98f0 3dbe 2f88 1bbe c92c 11be
00000280: 3c54 8dbc 2792 96be 96aa 1dbe 4a04 f03d
00000290: 216a 0a3e dec8 b7bd 03cd 613e 8c61 923b
000002a0: 4270 aabe 52fb ac3e ac05 21bf bacd dbbe
000002b0: 1573 dbbe 33ff 60bd 0f84 963d 08a0 6ebf
000002c0: 15b6 be3c e82c 2abf 1374 adbd ef47 a1bd
000002d0: 6d98 7bbe ceca cdbe 07cb cf3e 4f4a 6e3e
000002e0: 4754 53be 93f2 96be c4ef 703e da56 933e
000002f0: c23c 713e eeae 3d3e 475f 403e ef9f b9be
00000300: 3a10 be3e 039a f83d fb9c 0d3e bb9d 1d3f
00000310: a3de 04be bf05 3fbf be91 85be 28a6 453e
00000320: 46c0 b2be dc81 bb3d e9d4 a8be 5bf4 aa3e
00000330: 6b14 d8be b0a4 b53e f19a b63e 10ba 793e
00000340: a335 3e3e 9662 eabd 9577 9dbe 8f82 9ebd
00000350: e243 08be 2b53 9f3e 0f07 a83e 31a0 87bd
00000360: 84a6 bd3e ea92 11bf dbcf ce3e 69ee 87be
00000370: c8cb 693e 8ff4 75be 76ef 403e 1d6b 043e
00000380: 0839 c0be ef78 93be cc73 96be 6b4e 403e
00000390: 6d98 a73e 5d8e a3be 3c48 d7bd 67cf 713e
000003a0: 747e 133e e182 a4be d0f7 b5be 23d5 b63d
000003b0: de1b ff3d f929 a63e ab6e 903e 60a2 37be
000003c0: 14e4 71be 5514 e23d 775e 5dbe 50d9 243e
000003d0: 4391 18bd 9186 913e a76a 333e d593 663e
000003e0: d897 653d 3b0c e5bc ab80 59be 1853 8abe
000003f0: 7ab0 843c 9976 db3d a594 823e e1f7 e4bd

hidden2event.bias f4 [27]
0.053568166 0.009096446 0.1298534 0.083480984 0.027614182 -0.23560436 -0.20494197 -0.23495166
0.13280931 -0.080259554 -0.011899587 -0.13346544 0.073037155 0.09174316 0.10862623 -0.06129267
-0.06877734 -0.13909803 -0.041132297 -0.1419651 0.07598824 -0.0755575 -0.0051349583 -0.019811612
0.02280289 -0.060001448 -0.05903305
00000000: 4b6a 5b3d 4309 153c 4af8 043e 14f8 aa3d
00000010: 2337 e23c 4542 71be 4fdc 51be 2b97 70be
00000020: 2aff 073e 1f5f a4bd 7cf6 42bc 2aab 08be
00000030: 8194 953d d6e3 bb3d 6e77 de3d 060e 7bbd
00000040: 22db 8cbd b76f 0ebe 577a 28bd 4d5f 11be
00000050: b99f 9b3d e4bd 9abd 2743 a8bb f64b a2bc
00000060: 20cd ba3c 14c4 75bd a4cc 71bd

hidden2time.weight f4 [3, 40]
0.021645278 -0.18354452 0.2527296 -0.05252052 0.092155434 0.006530672 0.019670771 -0.15186341
-0.2004111 0.08819887 -0.023665242 0.16900204 0.06812828 -0.21039663 -0.12344753 -0.012429294
-0.20534246 -0.28518853 -0.11368733 -0.041671924 -0.10503123 0.08815573 -0.049979858 0.030473104
0.3035972 0.13029626 0.15663803 0.095245905 -0.22718883 0.25647858 0.13866965 -0.028252892
-0.17383018 0.029735057 0.024271509 -0.280719 0.005611724 -0.100539096 -0.22181393 -0.02444288
0.13297878 -0.1472249 -0.038285743 -0.08005249 0.13602439 -0.08644261 -0.16619883 -0.20390567
-0.23988234 0.036034733 0.06365353 0.19761595 -0.14879052 0.049443584 0.03265482 0.108390726
-0.055201404 0.40652242 -0.13138777 0.21950164 0.032691855 0.23787539 -0.024751686 -0.12732336
-0.1031556 0.1786573 0.13689868 -0.32174352 -0.15307605 0.15756078 0.08307108 -0.20318511
-0.193296 0.22711684 0.17562439 -0.035308246 -0.0062063336 -0.17656362 0.014673862 -0.016657501
-0.35575265 0.19796176 -0.31857675 0.31882444 -0.31095985 0.27353194 0.12576582 0.27651894
0.09547074 -0.25272632 -0.20400718 -0.33511657 0.16220786 0.19100459 0.30059835 0.15969858
0.32236123 -0.38857442 0.27670643 -0.12359921 0.11636341 -0.08195576 0.2925569 0.3079211
-0.1781295 -0.0056372196 -0.29488134 0.06571189 0.1011376 -0.24166381 -0.32779908 0.27849567
0.2519014 -0.31185287 -0.196706 0.10234641 0.16384804 0.4496315 0.121678784 -0.26738027
00000000: 7051 b13c 18f3 3bbe c665 813e c21f 57bd
00000010: fdbb bc3d 3fff d53b 9924 a13c 1582 1bbe
00000020: 9138 4dbe 9ca1 b43d 9cdd c1bc df0e 2d3e
00000030: d786 8b3d 3772 57be 0fd2 fcbd 3da4 4bbc
00000040: 4b45 52be 3b04 92be e7d4 e8bd 2eb0 2abd
00000050: 9d1a d7bd fe8a b43d aeb7 4cbd bba2 f93c
00000060: 1871 9b3e 626c 053e b865 203e 4910 c33d
00000070: 30a4 68be 2951 833e 6bff 0d3e 9c72 e7bc
00000080: 8a00 32be ef96 f33c 0bd5 c63c 67ba 8fbe
00000090: 8ee2 b73b 71e7 cdbd 3123 63be 6f3c c8bc
000000a0: 972b 083e 20c2 16be 83d1 1cbd 8ff2 a3bd
000000b0: fa49 0b3e d308 b1bd 0730 2abe a6cc 50be
000000c0: b7a3 75be 2899 133d c85c 823d d65b 4a3e
000000d0: 8b5c 18be 5b85 4a3d 0fc1 053d f5fb dd3d
000000e0: de1a 62bd b523 d03e 848a 06be 0ac5 603e
000000f0: e5e7 053d 9b95 733e 0cc4 cabc 0e61 02be
00000100: 3e43 d3bd f0f1 363e 2b2f 0c3e 91bb a4be
00000110: f8bf 1cbe 9d57 213e 2c21 aa3d c20f 50be
00000120: 63ef 45be 5191 683e e1d6 333e 619f 10bd
00000130: 805e cbbb 18cd 34be a36a 703c 5075 88bc
00000140: 3625 b6be 7db6 4a3e 7e1c a3be f53c a33e
00000150: 2136 9fbe 610c 8c3e c1c8 003e e493 8d3e
00000160: 2a86 c33d 5865 81be 42e7 50be 6694 abbe
00000170: d119 263e b596 433e 07e8 993e 0688 233e
00000180: 880c a53e 3af3 c6be 77ac 8d3e 9521 fdbd
00000190: f14f ee3d 6cd8 a7bd 05ca 953e d6a7 9d3e
000001a0: 9467 36be 6db8 b8bb b0fa 96be f593 863d
000001b0: 3b21 cf3d b876 77be 48d5 a7be fc96 8e3e
000001c0: 38f9 803e 2eab 9fbe 4c6d 49be ff9a d13d
000001d0: c8c7 273e 1a36 e63e ba32 f93d 11e6 88be

hidden2time.bias f4 [3]
-0.06475692 -0.0032738866 0.03486832
00000000: 479f 84bd b48e 56bb 15d2 0e3d
