events_simulation/models/all_epochs/model_7_20180529-0457.pt (torch_old, 78354 bytes, 9 tensors)

loss_function_events.weight f4 [27]
00000000: 0000 803f 0000 803f 0000 803f 0000 803f
00000010: 0000 803f 0000 803f 0000 803f 0000 803f
00000020: 0000 803f 0000 803f 0000 803f 0000 803f
00000030: 0000 803f 0000 803f 0000 803f 0000 803f
00000040: 0000 803f 0000 803f 0000 803f 0000 803f
00000050: 0000 803f 0000 803f 0000 803f 0000 803f
00000060: 0000 803f 0000 803f 0000 803f
1.0 1.0 1.0 1.0 1.0 1.0 1.0 1.0
1.0 1.0 1.0 1.0 1.0 1.0 1.0 1.0
1.0 1.0 1.0 1.0 1.0 1.0 1.0 1.0
1.0 1.0 1.0

lstm.weight_ih_l0 f4 [160, 70]
00000000: d74b c1be b304 d0bf a8f3 f3bf 8fd2 ff3d
00000010: 943e 04c0 09b9 1d3e 8d05 813e ec40 24c0
00000020: 32d2 aa3e dd82 7ebf 952a f1be 9446 4a3e
00000030: d74a 0e3e bab2 c3bf e538 18bf 030c 473f
00000040: 58cf b3bf 9c49 5fbd 04ab cc3e 6405 f3bf
00000050: e299 7bbd 3df0 ebbe 4bc8 c23e 9913 363f
00000060: 948b 283e dd58 14be e016 263e ec61 fdbd
00000070: 4ab4 fa3d 5e93 3b3e 0240 143f 3bf7 01be
00000080: 5ff2 bd3e 7cc1 783e 0d20 64be a6c2 a8bd
00000090: 88aa a03e 39f3 c53c a4ba f5bc 8eb5 6bbe
000000a0: eacb 063e 31db c33e 4585 f9bd 0917 1fbe
000000b0: b637 153d 0f5c c73e d06d 53be ce1b 893e
000000c0: 90aa 983e 5f28 153e ba1d fa3e df15 113e
000000d0: 6a09 0cbe b77d bc3d a2ca 253e e43e f13e
000000e0: 8e74 d2bd bf69 88bd feed adbc 1594 9d3d
000000f0: bc2f 853e 8b7c 523d 7794 5d3e 8e8b 063f
00000100: 1bf3 8bbd 3faa 9c3e 07a6 c2be 83d7 673c
00000110: f99e 993e 3774 983e 122d c6bf 7547 06c0
00000120: 7c8d 07c0 03df 9a3f 01de bbbf 9140 e9bd
00000130: 90e4 41bf 0987 01c0 8741 0b3f 94a2 0ec0
00000140: 5c57 e5bf 08d7 5dbf 60d3 9bbf 4273 bdbf
00000150: ff91 c6bf a04c eb3f a9fd 94bf bb6b babd
00000160: f93a 82bf 00a5 b4bf 58a6 d93f 021e 85bf
00000170: 041e 9cbf 9fc2 683f f34d d13e 00dc 0cba
00000180: 682d 783f 845c 7bbf c50e fc3f 0ec3 833f
00000190: a18d 0a3c 4966 e53e 2a6f 8c3b e99a f8bd
000001a0: a822 e03e af93 043f 7840 553e fed9 83bd
000001b0: d3c2 3ebe 8817 303e 330b 723e 0e90 87be
000001c0: e7c6 7e3e d0e4 053e ee6b ac3e eee0 f7be
000001d0: 5f33 bd3e 8696 6f3f 5d00 f43e a8ca cb3d
000001e0: 3426 85be ae5d 903e 49e1 aa3c c59b 82be
000001f0: 68ee 513d 1907 433d 6888 333d db3d 043e
00000200: 6473 cb3e b950 cfbd 14a6 9c3e 59fd e9bd
00000210: 14ce 733e b143 e03e bb62 07bd d404 0dbc
00000220: ffdf a63e ef9f d4bc 0450 47be d1a7 c0bd
00000230: ed63 89bd 0529 bd3e cd45 80bf af96 2fbf
00000240: ce05 85be ef4a 07be 9a49 bbbe f769 9a3d
00000250: 89bb 893e 7b8d 863e 7cf6 14bf 2086 f3be
00000260: 94a8 dfbe 8af4 ca3e fd7a 16bf 9c12 553e
00000270: f92a b93d 208f 1bbe c381 88be 13c1 733e
00000280: 94f0 963e 5ad2 c5be d722 7ebd 12b4 11bf
00000290: 2896 6cbe b434 3cbd 5cc5 8b3d a332 7a3e
000002a0: 727e abbd b84e 0cbd 8971 fe3c 7db5 913d
000002b0: 3f44 c73e 92ab 71be 6308 e63d 9a6c bdba
000002c0: a2cc 833d 4e5a 6f3d d688 9ebe 1649 1ebe
000002d0: 8dd5 14bd e2b3 b13e b595 11be d7ba 6ebe
000002e0: 0467 933d 4a46 7f3c 119a 9f3d 2cae 8e3d
000002f0: 89d2 c33d 7260 4a3e 07c6 293e 7dda f4bc
00000300: 179c a73b be30 e03e 2e86 fcbd 72c3 193e
00000310: 6c5d d9bc 2daa 9abc 204f 0e3e 9485 a63d
00000320: a649 88be 071a c73e 404d 813d e3d7 d13d
00000330: fc33 143c e267 e5bd 58e3 03bd 012a a73e
00000340: 30e9 34be 47d4 ab3d 0cfc 3e3e 6a1d 153f
00000350: 054f 843e 5b81 03bf d46d 5c3e 47f5 f2bd
00000360: 8231 f03d 404f 4e3f a425 41bf 579f 003f
00000370: bcf8 6dbf eeb2 0f40 b2bf 833e 8bf1 763f
00000380: 991d 9dbf 307a 383f 0325 4f3f cced 033d
00000390: 38d1 cbbe e888 7a3f fcd2 a1bf a9a3 c33e
000003a0: 8c1d 98be 9305 0740 0565 43bf 492f 0d3e
000003b0: 92ed a83f 5179 c2bf 23f3 9c3e 58b2 963f
000003c0: 92da 9f3e f5c5 dc3d bd81 81be 1d70 c5be
000003d0: f6f8 123e 3799 0abd 4a13 88bc eeb9 02be
000003e0: 39ec 8a3d 76c4 83bd e910 c9bd fed4 19be
000003f0: cff9 63bc fe39 e6bc 44bf 543d aa71 2dbe
-0.37753174 -1.6251434 -1.9058733 0.12491333 -2.0663195 0.15402617 0.25199547 -2.5664625
0.3336349 -0.9941843 -0.471028 0.19753486 0.13895737 -1.5288918 -0.59461814 0.77752703
-1.4047651 -0.05451356 0.39974225 -1.898602 -0.06142605 -0.46081725 0.38043436 0.71123654
0.16459495 -0.14487024 0.16219664 -0.12372193 0.12241419 0.18317935 0.5791017 -0.12691967
0.37098977 0.24292558 -0.22277851 -0.08240251 0.31380105 0.02416383 -0.029996224 -0.23018476
0.13163725 0.38253167 -0.12183622 -0.15536131 0.036430083 0.38937423 -0.20647359 0.26779026
0.2981763 0.14566182 0.48850805 0.141685 -0.13675466 0.09203666 0.1619058 0.47118294
-0.10276137 -0.066607945 -0.021231648 0.0769426 0.2601298 0.051388305 0.21638666 0.52556694
-0.06833478 0.30598637 -0.38017294 0.014150503 0.300041 0.29776165 -1.5482504 -2.0981114
-2.1180105 1.2099308 -1.4677125 -0.11389268 -0.75739384 -2.023867 0.5439686 -2.228673
-1.7917285 -0.86656237 -1.2173882 -1.4800799 -1.5513304 1.8382759 -1.1639911 -0.09102579
-1.0174247 -1.4112854 1.7003889 -1.0399783 -1.219666 0.9092197 0.40879783 -0.0005373359
0.96944284 -0.9818804 1.9692007 1.0293901 0.0084566185 0.448046 0.0042857127 -0.12138922
0.4377644 0.5178785 0.20825374 -0.06438063 -0.18629007 0.17196476 0.23637085 -0.26477093
0.24880563 0.13075566 0.33676094 -0.48413795 0.36953256 0.93589056 0.47656527 0.09950763
-0.2600571 0.28196472 0.020859377 -0.25509468 0.051252753 0.04761419 0.04383126 0.12914221
0.39736474 -0.101228185 0.30595458 -0.11425275 0.23809081 0.43801644 -0.03305314 -0.008607108
0.3259277 -0.025955169 -0.19464117 -0.094070084 -0.067085125 0.36945358 -1.0021302 -0.685893
-0.2598099 -0.13212179 -0.3657959 0.075397424 0.2690089 0.26279816 -0.58188605 -0.47563267
-0.43683302 0.39639693 -0.58781415 0.2080788 0.090413995 -0.15191317 -0.266615 0.2380412
0.29480422 -0.38637048 -0.062044945 -0.5691539 -0.23104155 -0.0459487 0.06824753 0.24433379
-0.08373727 -0.03425476 0.031059997 0.07114694 0.38919255 -0.23600605 0.112320684 -0.0014451921
0.06435515 0.05843573 -0.30963773 -0.15457568 -0.03633647 0.34707552 -0.14217265 -0.23313461
0.07197383 0.015580723 0.07793058 0.069668144 0.09561641 0.19763353 0.16579448 -0.02988934
0.005115043 0.43787187 -0.1233028 0.15015963 -0.026533805 -0.018879974 0.13897371 0.08130947
-0.2661869 0.38887045 0.063135624 0.10246255 0.009045597 -0.11201455 -0.032199234 0.32649234
-0.17667079 0.08390098 0.18650836 0.5824801 0.25841537 -0.51369256 0.21526271 -0.11863189
0.11728193 0.80589676 -0.7544806 0.50243133 -0.92957664 2.245296 0.2573219 0.96462315
-1.2274657 0.72061443 0.8091585 0.032209203 -0.3980806 0.9786515 -1.2642512 0.382108
-0.29710042 2.1097152 -0.7632602 0.13787569 1.3197501 -1.5193273 0.3065425 1.1773176
0.31221443 0.10779945 -0.25294295 -0.38562098 0.14352784 -0.033837523 -0.01661076 -0.12766239
0.06783337 -0.06433956 -0.098176785 -0.15022656 -0.0139145395 -0.028103825 0.051940218 -0.1693789

lstm.weight_hh_l0 f4 [160, 40]
00000000: 23d2 3ebf a5f9 a33e c8e4 b2bd d9fc a6be
00000010: f118 93be 3b48 733e 77a7 cb3d 6640 d83e
00000020: c7d6 20be ea1c 4e3f 5cc7 54bc 4b61 213f
00000030: e013 a53e 69bb c33e 2d8f 4dbe 1486 12bb
00000040: 6a2f 59bd ef98 3cbf 22cd b1be d2fa 26be
00000050: 7b7e c33e 3112 1dbe fd99 8e3e d7ad eb3c
00000060: fbd9 043e 77fd 54bd 89c1 c3be 880c b03e
00000070: 8703 c03c 8e02 123f 8e62 babc ba71 4d3e
00000080: d6ce 9ebe a3f1 30bf 4577 e33e ba19 20be
00000090: 5c5b e0be cc41 903d 5541 763e 98ed 6e3e
000000a0: 417a 6d3e d337 03bf 8ccd 1cbe 521b 32bd
000000b0: b4aa 623e 92cd 033e 758d 973e ba70 b13e
000000c0: 6aba 56be 2441 1e3f 8c2d c13b fe13 043e
000000d0: f5f3 2fbd 04fd 2e3f 7d08 df3d 1dd0 693d
000000e0: 9121 803f 49dd b9be fe0e c03e 36d2 67bd
000000f0: 71d3 ac3e 6001 8bbe 0c8a ab3e f53c 6b3d
00000100: 77c7 4e3e 55f0 18bf 2032 93be aa9b 4dbe
00000110: 4b95 1f3e 63fd b73d ccd9 fc3e 0e2c 033e
00000120: 07f3 00be 2a4a 47bf 564b 903d 64b8 00be
00000130: 4a2f 16be 1204 15bc 79cf 893e 6849 9d3e
00000140: 3758 073e 15f4 4c3d 902a 6f3c 8796 19bf
00000150: 02db 2ebd 41ec bd3d 2287 073d 1bed 143d
00000160: 5099 0dbc b8d5 2bbe 0205 3dbe 1377 843e
00000170: e2c8 88bc 071d 20be 12a9 563e b8b1 21bd
00000180: 9d71 0dbe cd99 db3e 0cd8 4cbe 3861 3dbe
00000190: 647b a93d c58a 3abe 1c5a cc3c bfee 3f3e
000001a0: 6b08 33bd 35de 653e cf66 68be e7f5 19be
000001b0: 71cf 98bd cbbd c03e 19f8 c1be 271c 3cbe
000001c0: ccfc 14be 11e1 eabd b78a 9e3e 3200 aebe
000001d0: eae0 39be 18eb b73e e365 fabd d770 263b
000001e0: bdaf cabc fe9d f9be beba 233e e536 15be
000001f0: dcc9 293c 8d6a c33d 2514 d8bd 87ae 873b
00000200: f091 7e3d 64c1 943e d4d3 1b3e 939c 303e
00000210: 6f43 0dbf 3313 863e c3dc abbd efcb bf3b
00000220: 2211 fa3e 0ece 82be dfed 0c3f 9fe4 eebc
00000230: d3f3 3f3e 0aee 23bc c670 4e3e dc5b f63d
00000240: 943c 63be 21ad 4fbe 4201 423e 9497 81be
00000250: 650b cebd b4e0 7a3d d4c1 b83e 4b07 033e
00000260: db48 223e 5d0c 373e 0ca5 a9bd 5a40 f83c
00000270: b4c8 12be 5371 20be 651f 193e 416c 8ebe
00000280: 46e6 0cbf 39b7 80be 9ffb 643d a723 603e
00000290: c8de 663d 5cd3 343e 89fc ddbd 1c81 863d
000002a0: fcea 4fbd 3ce1 a93e dcc6 e63b 0c3b e2bd
000002b0: 3a6c 653e c989 c53d f9b8 673d fc72 373d
000002c0: 4755 1c3d 83cd d0be 15ed 8b3e fa90 b43d
000002d0: 05e3 37be ed23 1f3e 22a8 e03d 57ef fdbc
000002e0: 2ea2 fb3b 3ccd 263e 24b3 0fbd 7c7e 6b3c
000002f0: 679a d33c 28e1 1d3e e0d6 6e3e eb5f 3e3d
00000300: 6b07 163e 3f8c 823d 512d d6bd 972f 1a3e
00000310: a7c7 3f3c f8ee cbbc 9291 493e 05b1 023e
00000320: 805c 533e f208 b5be e665 12bf 483d 173f
00000330: aa82 ecbd caa5 8bbe 3419 0fb9 7a7a 643e
00000340: 2478 933e 1564 623f 5913 b8bd 3308 893d
00000350: bb06 913e de05 313e ebf5 923d e690 0ebe
00000360: 8a1c a0bd b81a 5cbe baed 45bd a57e 5ebe
00000370: 368d abbc 6eaa 95be 23f2 86be b408 82bd
00000380: c4ad 5f3e c683 3cbf 60e3 49be 2f88 d5be
00000390: ca63 a33e d72c f3bd e356 803e a47d 81be
000003a0: 0726 493c 360e dd3d dd53 8f3e a4a3 ba3d
000003b0: c064 ccbe 6a52 4e3d 47c7 80bb 3e99 1f3e
000003c0: 2e1e 913e 945a 3cbe 6e28 03be 19c9 19be
000003d0: d07e 3f3c 0217 38bd 8843 90bb 641c 2abd
000003e0: 8d74 203e 9336 373e 6659 403d c343 b2bb
000003f0: d07a 513e 2b68 ae3e d5b2 833e 4c5a 7cbe
-0.74539393 0.320264 -0.08735043 -0.32614782 -0.28729966 0.23758022 0.09944051 0.42236632
-0.15706931 0.8051287 -0.012986984 0.6303908 0.32241726 0.3822892 -0.20074148 -0.0022357749
-0.053023733 -0.7367086 -0.34726816 -0.16306618 0.38182434 -0.1533897 0.2785186 0.028769417
0.12973778 -0.051999535 -0.38233593 0.3438456 0.023439182 0.5703515 -0.022752073 0.20062914
-0.31017178 -0.6911871 0.44426933 -0.15634814 -0.43819702 0.070438 0.2404836 0.23332822
0.23191167 -0.51257056 -0.15312785 -0.043483086 0.2213543 0.12871388 0.2960011 0.34656316
-0.20969549 0.61818147 0.005895322 0.12898251 -0.042957265 0.6835482 0.10890291 0.057083238
1.0010244 -0.3630164 0.37511438 -0.056596957 0.33755067 -0.27149487 0.3350376 0.05743118
0.20193277 -0.5974172 -0.2874918 -0.20078912 0.15584294 0.089838766 0.49384916 0.12809774
-0.12592708 -0.7784754 0.07045619 -0.1257034 -0.14666477 -0.009095209 0.26916102 0.30720067
0.13217245 0.050037462 0.01459755 -0.5999531 -0.04268933 0.092735775 0.033087857 0.036358934
-0.00864251 -0.16780746 -0.18458942 0.25872096 -0.01669735 -0.15636073 0.20962933 -0.039476126
-0.13812871 0.42890778 -0.2000429 -0.18494117 0.08275488 -0.18216999 0.024945311 0.18743418
-0.0437092 0.22448047 -0.22695468 -0.1503521 -0.07461441 0.376448 -0.37884596 -0.18370114
-0.1454956 -0.11468709 0.30965206 -0.33984524 -0.18152204 0.3592155 -0.122264646 0.0025396848
-0.024742002 -0.4875335 0.15989205 -0.14571722 0.010363068 0.09541807 -0.10550717 0.0041406783
0.062150896 0.29053795 0.15217525 0.17247228 -0.5518102 0.26186523 -0.08391716 0.005853168
0.48841196 -0.25547832 0.5505046 -0.02916175 0.18745355 -0.010005483 0.20160207 0.120292395
-0.22191077 -0.20280887 0.18945792 -0.25310957 -0.10060767 0.06124945 0.3608538 0.12795751
0.15848105 0.1787581 -0.08283433 0.030304123 -0.14334375 -0.1566823 0.14953382 -0.27816966
-0.5503887 -0.25139788 0.055904027 0.218886 0.056364805 0.17658752 -0.10839183 0.065675944
-0.050761208 0.33179653 0.007042749 -0.110464185 0.22404566 0.09645421 0.056572888 0.044787392
0.038167264 -0.40781793 0.27329317 0.088167146 -0.17957695 0.15541048 0.10969569 -0.030997915
0.0076792454 0.16289228 -0.03508295 0.014373418 0.02583046 0.15417922 0.23324156 0.046478193
0.14651267 0.06374406 -0.10457862 0.15057217 0.011705316 -0.024894223 0.19684437 0.1276284
0.20640755 -0.35358387 -0.57186735 0.5907788 -0.1154836 -0.27274925 -0.00013646932 0.22312346
0.28802598 0.88433963 -0.08988065 0.06691017 0.28325447 0.17287394 0.071758114 -0.13922462
-0.078179434 -0.21494567 -0.048322417 -0.21727999 -0.020941358 -0.2923159 -0.2635661 -0.06349316
0.2184363 -0.7363857 -0.19715643 -0.41705462 0.3191207 -0.11873787 0.2506629 -0.2529117
0.012277133 0.10793726 0.2799367 0.09113243 -0.39920616 0.050371565 -0.0039300057 0.15585801
0.28343338 -0.18393928 -0.12808391 -0.15018119 0.011687949 -0.044943817 -0.0044025816 -0.04153098
0.1566946 0.17891912 0.046960257 -0.0054402067 0.20457006 0.3406385 0.25722376 -0.2464382

lstm.bias_ih_l0 f4 [160]
00000000: 1927 1b3e 5d14 9e3e 5e96 46bd 8a03 29be
00000010: 9321 13bd e3f9 2ebc c03f 463e 69be 9b3d
00000020: fc4b f83d ffae 0f3d da3c 513e d4df ed3d
00000030: 2eaf c4bc f6c8 b43d ac19 bd3d c264 e43d
00000040: bd97 e83d c212 f83d 778e 483e cd47 a8ba
00000050: f27e b13d 0e80 d13d 659f a6bc 2aae 2e3d
00000060: 3262 903d 36e8 b13b 9e7a 163d f6b0 14bd
00000070: 97b7 e73d 31ab 1abe 4f44 b8bd 4332 1f3e
00000080: d151 943e e6b3 0c3e 8de1 0f3e 8232 383b
00000090: 9c2e 133e 3891 0e3d d994 733d 0fbe 31bc
000000a0: 5c8f 753d f65a a5bd 8dc1 7bbc eefa e3bc
000000b0: 2191 fbbd b565 58bd ac60 113e cf6c bdbc
000000c0: 9dfa 593e 75e0 d3bd ef07 4d3d b1ea a83d
000000d0: 12dd 7c3e dccf b33c de84 473e c9eb 363e
000000e0: dc1e 86bd bd65 0dbe 9450 3fbe 3a43 a6bc
000000f0: 38f6 063d a881 cb3d 9f44 7f3e cf53 ff3d
00000100: d0e7 7f3d 7098 563d 6c84 eb3d def9 a43d
00000110: 12b2 0b3d 6a16 19be c79a 08be 0d31 64bd
00000120: 1b7b 7f3e c1bf 293d 2c90 893e 7e9f af3d
00000130: c2a0 563d 10e1 4e3e 8a85 593d a989 ba3d
00000140: 17f0 e93d 347f 0dbe 8ea5 103d fbec 483d
00000150: 9a24 4abe 6c80 47be e7fc 743e 008c 8b3e
00000160: c403 173e e188 303d 2273 eebd aa1d 0f3e
00000170: 3e30 873d 66c5 043e 6375 fa3d 0db4 8abe
00000180: 6690 453e fd62 d63d 0612 b03d e25b 73be
00000190: 7e2d 833e ec68 dabd fe29 0cbe 08d5 733e
000001a0: 1a8b 763e 4c8f 4abe f92f fabd 0c07 7dbe
000001b0: 7c0b 523e e3f3 413d aa9a 393d 23b2 e1bd
000001c0: 5204 55be fbfa bebd 016b 433e 694b 86be
000001d0: 977d 38bd f9fa 6d3e 297e 223e c019 833d
000001e0: 25fa 3f3e e53e 843e 7448 fbbd 34d4 bcbc
000001f0: 6732 933d 213a 4c3d 594a 243d 5c7c 6b3d
00000200: 049f d9bd a097 9c3d 1416 2a3e 654c 8fbc
00000210: 9f80 8b3e 76e3 bc3b e0f3 fa3d 7324 f0bc
00000220: d2cd 4c3e 8291 253e ad3f 2f3d fbb3 c53d
00000230: 417b 02be 6638 9dbd 61fd e9bd b681 ce3c
00000240: 085b bf3c 800e ca3d 6b3d d9bd a28f 213d
00000250: 9785 123c 6ed8 97bd 651b 26be 792b 403e
00000260: d491 303e a10f 683e e4fc d7bc ea79 7cbd
00000270: 33d3 08be 5642 a6bc 633f 913d 0e5a 8abd
0.15151633 0.3087491 -0.048483245 -0.16505256 -0.03592069 -0.010679695 0.19360256 0.07604677
0.12123868 0.035079 0.2043337 0.116149575 -0.024009313 0.08827393 0.09233412 0.111520305
0.11357067 0.12112953 0.19585596 -0.0012838781 0.08666791 0.102295026 -0.020339677 0.042646565
0.07049979 0.005429293 0.03673803 -0.036301576 0.11314314 -0.15104367 -0.08997404 0.15546517
0.2896867 0.13740501 0.14050885 0.0028106277 0.14373249 0.03480646 0.059468124 -0.010848536
0.05995117 -0.0807399 -0.01536597 -0.027829614 -0.122835405 -0.05283137 0.14197034 -0.023123173
0.21287008 -0.10345546 0.050056394 0.08247889 0.24693707 0.021949701 0.19484279 0.17863382
-0.06548855 -0.13808341 -0.18683082 -0.020295728 0.032949656 0.09936839 0.2492852 0.12467157
0.062476933 0.05239147 0.11499867 0.08055471 0.034105368 -0.14949957 -0.13340293 -0.05571084
0.24949305 0.041442636 0.26867807 0.085753426 0.052399404 0.20203042 0.05310587 0.09108288
0.11422747 -0.13818055 0.035314135 0.049054127 -0.19740525 -0.19482583 0.239246 0.2725525
0.1474753 0.043099288 -0.116430536 0.1397616 0.06600998 0.12965927 0.12229421 -0.27090493
0.19293365 0.10468099 0.08597188 -0.2376552 0.25620645 -0.106645435 -0.13687894 0.23811734
0.240765 -0.19781226 -0.12216181 -0.2470972 0.20512193 0.04735173 0.045313515 -0.11020305
-0.2080243 -0.093252145 0.19083788 -0.26229408 -0.045041647 0.2324027 0.15868439 0.06401396
0.18747766 0.25829235 -0.12269679 -0.023050405 0.07187348 0.049860124 0.040109966 0.057491645
-0.10626033 0.07646108 0.16609985 -0.017492482 0.27246568 0.00576442 0.12253547 -0.029314255
0.20000389 0.16168788 0.042785335 0.09653469 -0.1274233 -0.07676773 -0.11425281 0.025208335
0.023358837 0.09866047 -0.10607418 0.03944362 0.008942983 -0.074143276 -0.16221388 0.18766584
0.17243129 0.22662212 -0.026365705 -0.061639704 -0.13361816 -0.020295303 0.07092168 -0.06755458

lstm.bias_hh_l0 f4 [160]
00000000: 94b9 653e 3338 993e 55e7 6fbd b891 083d
00000010: 653c 473e 5999 2e3e ee22 a13c da68 0c3d
00000020: a621 053e 0715 f03c 19de d7bc 5092 9f3b
00000030: 3703 efbd 2149 b03c 9d56 253e 1fb9 9d3e
00000040: 4a51 913e c596 9f3d 655f 943e 9708 06bd
00000050: 9d5e 653e 323e 673e 49dc b3bb 47ee 873d
00000060: 0e2a 023e 15c2 24bb c704 1c3e 8076 573e
00000070: 12bf 183e 4f4a 87be ec07 c93c b71c 24bd
00000080: aa80 563d 0529 713d 922a a13d 82ec 5c3e
00000090: e7de 0a3e eff0 8a3e 6161 743e 54f5 663e
000000a0: 6113 b73d 01b3 a53d 8f19 50bd 63a9 e3bd
000000b0: 772c c8bd 3564 313e cf75 113e d3dc 393e
000000c0: b404 493b 691a 923d 72a3 013e 9418 38bd
000000d0: f91f 6a3e 08b9 4dbd 54dd ba3d 1130 673d
000000e0: 1529 173d 5297 f3bd b76f 08be b645 213d
000000f0: 9aa3 253d 107e 20bd a70d 23bd 96d9 e23d
00000100: 72bf 883e b457 9a3e 6a10 853e 037d 343d
00000110: 9066 183d db8d 22be 49a1 cabd 0efc a03d
00000120: 04d3 2f3c aaed 67be 48ae eb3d 83f2 dc3d
00000130: 291f 843e 7bcb 523e 1418 813e c121 573e
00000140: 6303 da3d 369b 28bd e0ec 433d 59a9 5bbe
00000150: b083 77bd f6b3 2fbe 7f47 103e f2fe 4a3e
00000160: 52cc 7f3d 9469 29be 50db 0bbe 668b a23d
00000170: 02ac c53d 4ab8 373e ee8b 3e3e f9fe 87bd
00000180: 59c1 213d 73aa 81bd 8dfe 493e 7822 86be
00000190: 1e21 433e c0ee 66be ba64 adbd aa78 743e
000001a0: 2e3d 4d3e b2d3 eebc 2c0e bfbd 99fb 0fbe
000001b0: 826b f03d 88c7 4abc b437 c13c 8007 86bd
000001c0: 275e 7bbd 5193 2e3d e6bd 113e 0b2d 67be
000001d0: 2a7c 5fbe 5b12 603e d249 6f3e 1e20 863e
000001e0: 1de0 3b3e 18fd 813e 6f38 10be b80b e53b
000001f0: 145e 923e 2559 51bd 32fa cc3d 2a7f 9dbc
00000200: 15dc 0fbd c08b 753e 6329 80bd f789 93bc
00000210: f36d 0e3e b277 1dbd 987b 043e d03a ab3d
00000220: 999b 873e aa5d 903e 031e 823e ff9c c9bc
00000230: 1684 b4bc 4fd0 04be 4bd9 4f3c ac90 a83d
00000240: a8f6 0c3e b4ad 113e 9ab9 79bd 14fe 8a3e
00000250: 926d c63d 9f69 35be fc34 f73d 1013 963e
00000260: ce76 2f3d aef4 cabb 5523 a1bd dccf febc
00000270: f245 bfbd 60d0 b6bd 237c 5cbd d994 433d
0.22434074 0.2992569 -0.058570225 0.033342093 0.19456632 0.17050685 0.019669976 0.03427968
0.13001117 0.029306902 -0.026351022 0.0048697367 -0.11670535 0.021519246 0.16146322 0.308053
0.2838233 0.07792429 0.2897903 -0.032723036 0.22399373 0.2258232 -0.0054889065 0.06637245
0.12711355 -0.0025140096 0.15236197 0.21041298 0.14916638 -0.2642388 0.02453991 -0.040066447
0.052368797 0.05887701 0.07869448 0.21574596 0.13561593 0.27136943 0.23865272 0.22554523
0.08939243 0.08090783 -0.050805625 -0.11116292 -0.09774106 0.17323382 0.14205097 0.18150644
0.003067297 0.071339436 0.12660006 -0.044945315 0.22863759 -0.050225288 0.09124246 0.056442324
0.036904413 -0.118940964 -0.13323866 0.039373122 0.040439226 -0.039182723 -0.03980794 0.110766575
0.2670856 0.30145037 0.25989085 0.044064533 0.037207186 -0.15874426 -0.09894044 0.078605756
0.010731462 -0.22649255 0.11507851 0.10788443 0.25805023 0.20585434 0.25213683 0.2100897
0.10645177 -0.041163646 0.047833323 -0.2145132 -0.06042832 -0.17158493 0.14089774 0.19823816
0.062450714 -0.16544181 -0.1365788 0.079367444 0.096519485 0.17941394 0.18608066 -0.06640429
0.03949103 -0.06331339 0.1972601 -0.26198173 0.19055602 -0.22552013 -0.08466478 0.23874155
0.2004287 -0.029153679 -0.09328875 -0.1406082 0.117392555 -0.0123766735 0.023586132 -0.06544399
-0.061369088 0.04262096 0.14232597 -0.22575776 -0.21824709 0.21882002 0.23368004 0.26196378
0.18347211 0.25388408 -0.14084028 0.0069899224 0.285874 -0.051110405 0.100086585 -0.019225676
-0.035121996 0.23979092 -0.06257894 -0.018010123 0.1390913 -0.03844423 0.12937772 0.08360827
0.264859 0.2819646 0.25413522 -0.024610994 -0.02203564 -0.12970088 0.012686084 0.08230719
0.13765967 0.14226419 -0.06096802 0.2714697 0.09688868 -0.17716072 0.12070653 0.2931142
0.04283791 -0.006193719 -0.07868067 -0.031104974 -0.09339513 -0.08926463 -0.053829324 0.047749374

hidden2event.weight f4 [27, 40]
00000000: c94a 2bbf f100 0abf ffb5 a9bc af62 ba3e
00000010: 8cb5 30bd b3aa 94be 7e4a efbd 0ca1 a8bd
00000020: 1bb6 de3d 33c5 97bf bfe4 673e 6eb5 413d
00000030: 1add c0be 0683 d63e 0c53 85be aad7 f73e
00000040: 36f7 bf3e 9563 023f c317 3f3e 05f9 cf3d
00000050: 12e8 3a3e ff99 e83d 1079 2fbe 5814 4e3e
00000060: 6fae a8be 8395 aebe 85ee 92be 2492 14bf
00000070: 3d07 a2be fd60 1cbd 0dc8 10be 0587 ed3e
00000080: 5c3d 9d3e 5c0c 30bf 97ff 87be 0df7 b23e
00000090: 665c 31bd d979 59bd 93bf d33d 1db9 2ebe
000000a0: bbba 5ebd 3a29 8bbe f3d4 a23e b00f d5bd
000000b0: 5f85 8fbd f9f1 b3be 281b 3d3e 542c 3abe
000000c0: 9254 433e e5ac 8c3e 0344 8b3e 6a98 cbbd
000000d0: 1b69 ca3c 3555 e23e b77e c23d 0ca8 083e
000000e0: 43ed 06bc a181 993e 3024 9a3d 15ef f4bc
000000f0: 12f6 983e bfd6 7fbc 3671 e13d 5fc1 8f3d
00000100: cf31 c23c 75f2 88be 32d6 03be 8a3b f6be
00000110: 04aa cabd 512a 8c3e a2fd 0dbf 00b3 4ebe
00000120: 50e6 ddbd ddc1 6cbe 3f32 113e 1672 21bc
00000130: a1be 8bbc 4424 993d b969 853e b699 b23e
00000140: 6194 4bbe a86b 3fbd 2d07 98be 0c85 cabc
00000150: 9416 883e 0fac 1fbf a102 8dbc edb7 41be
00000160: f447 31be 7266 713e 7073 a8be 8f55 a5bd
00000170: 7ac9 35bd 1fc2 d63e 3de5 87be 1f7b 63be
00000180: 6517 9c3d eb24 453e 2da5 ee3e e88e ab3d
00000190: bf79 9a3e fcac 083e 1c95 ae3e 858d 813d
000001a0: 3400 99bc d83c a9be 3e9d ba3d 3c77 d8be
000001b0: 8ed5 0fbe 6a52 853e 5156 24be 74b8 013f
000001c0: 64f9 153e 4f02 e9bd 60c3 103b 87c0 f63d
000001d0: b1ce 90be 48b2 65bd 5740 9c3e 420b ecbd
000001e0: 7ce2 603f 4b22 da3e 2e19 c2be f8dc 7e3e
000001f0: ad81 4ebf b409 69bd 11f5 343e 5b5f 363d
00000200: dd2b 673e 0f4a a63f 8da9 64be 26f1 9fbe
00000210: dc73 1b3d 3d28 21be 896d 8cbe b27a 7fbe
00000220: 9638 ebbe dde7 543f c736 a53e 0686 4b3d
00000230: 3349 9ebe 0200 6cbe 2c92 4bbe 3a6d 613e
00000240: afa0 283e 5637 123e 6e2e 05bd d901 f8bd
00000250: efdf a5be 368e e73e e51c 1d3f a4da eebe
00000260: 99f1 3abe eed0 663f ed65 033e dbf3 16be
00000270: 0947 ae3d 1728 db3d 1517 29bd 2394 f33d
00000280: 7520 95bf 5634 d23e 95d0 3a3f 241a 383f
00000290: 06d3 e5be 54db ee3e ed30 5a3d 7a07 83bd
000002a0: a5f8 253e e38b f6be 4aea f43d b2a6 65be
000002b0: 01fd dc3e 3bf3 643d a947 9cbd ab19 6ebe
000002c0: 931e a3bd b8fd 303e d341 a43d 1a9c 99be
000002d0: 3e58 b8be 2ad3 c2be f1f5 cd3e de88 4dbe
000002e0: 2513 b73c 47d1 63bd a267 bb3e 1696 573e
000002f0: 6203 25bd 2ffd 2d3f 6b28 2c3f d792 3cbf
00000300: 412b 68be 261d 853f a033 a13e 17e1 053f
00000310: a229 943e b769 b7be 69e4 73be 6a9e 96be
00000320: 182a dabd c1d8 033f 493f a73e 77aa 413e
00000330: ae5b 0e3f 7803 e23e f600 edbe e330 8bbe
00000340: f52b 88be e1ad 66be 236f 8a3e 1ed5 02bf
00000350: 0cfa d1be 31ea 0cbf cebe f5be 963f 923e
00000360: 73f1 35bf ab37 d0bd 2311 a5bd 9f6d 133f
00000370: 1c24 85be 6dd4 a43e 6297 bf3e a54f 3abe
00000380: c2cd 10bf 255a 203f c167 be3e be8b 183f
00000390: 01b0 d8be a9a8 06bf ecf3 7c3e 3ec0 333f
000003a0: 4d56 d13e 375f d3bc b589 febe 6627 b43e
000003b0: 6694 b83e f24a d5be b6f5 89be 095c babe
000003c0: c4cf 38bf 4ea5 2e3e 8cf4 a83e bda2 803f
000003d0: 5187 f03d 34b1 be3e 99c2 90be 54c2 a3be
000003e0: 17e8 d5bd 11ce 90bf a062 9d3e f989 91be
000003f0: 2f83 89be 427c 6ebe af8b 30be 1ddb fd3d
-0.6691099 -0.53907686 -0.020716665 0.36403415 -0.043141887 -0.29036483 -0.1168413 -0.08233842
0.108745776 -1.1857055 0.22645853 0.047292165 -0.37668687 0.41896838 -0.26039922 0.48406726
0.37493294 0.509332 0.18661408 0.101549186 0.1825259 0.113574974 -0.17136025 0.20124948
-0.32945582 -0.34098443 -0.286976 -0.5803549 -0.31646147 -0.038178433 -0.14138813 0.46392074
0.30710876 -0.6876886 -0.26562187 0.3495411 -0.04330101 -0.05309472 0.10339274 -0.17062803
-0.0543773 -0.2717989 0.31803092 -0.10403383 -0.070078604 -0.35145548 0.1846739 -0.18180972
0.1907523 0.27475658 0.27200326 -0.0994118 0.024708321 0.44205633 0.09496825 0.13345355
-0.008235279 0.29981712 0.075264335 -0.02989916 0.29875237 -0.015615164 0.110079214 0.070193045
0.023705391 -0.2674748 -0.12874678 -0.480923 -0.09895709 0.27376035 -0.5546514 -0.2018547
-0.10834944 -0.23120828 0.14179324 -0.00985386 -0.017058672 0.0747762 0.26057222 0.34882897
-0.19880821 -0.04673353 -0.29692975 -0.024721645 0.26579726 -0.62371916 -0.017213168 -0.18917818
-0.17312604 0.23574236 -0.32900572 -0.0807296 -0.044381596 0.41944978 -0.26542082 -0.22214936
0.0762165 0.19252364 0.46610394 0.083768666 0.3017101 0.13347238 0.34098136 0.06325821
-0.018676855 -0.33054233 0.09112023 -0.4227847 -0.14046308 0.2603944 -0.16048552 0.5067208
0.14645916 -0.113773935 0.0022089109 0.120484404 -0.28282693 -0.056078225 0.30517837 -0.11525585
0.8784559 0.42604288 -0.37909836 0.2488898 -0.8066662 -0.05689402 0.1767161 0.04452453
0.22575326 1.2991351 -0.22330303 -0.3123867 0.03795229 -0.15738006 -0.2742732 -0.24949148
-0.4594161 0.83166295 0.32268354 0.04968836 -0.30915222 -0.23046878 -0.19879979 0.22014323
0.16467546 0.14278921 -0.032514982 -0.121097274 -0.3239741 0.45225686 0.61372215 -0.46651185
-0.18256225 0.9016255 0.1283185 -0.14741461 0.08509643 0.10701006 -0.04128178 0.11893489
-1.165053 0.41055554 0.7297452 0.7191489 -0.4488756 0.4665171 0.053269316 -0.063979104
0.16208132 -0.481536 0.119587496 -0.2242687 0.43161777 0.055896025 -0.076308556 -0.23251979
-0.07964816 0.17284286 0.080203675 -0.3000191 -0.36004823 -0.3805173 0.402267 -0.20071742
0.022347996 -0.055619504 0.36602503 0.21053347 -0.04028643 0.6796445 0.6724917 -0.7366156
-0.2267275 1.039952 0.314847 0.52296585 0.28938013 -0.35822842 -0.238176 -0.29417735
-0.1065256 0.51502615 0.3266547 0.18912683 0.5560864 0.4414327 -0.46289796 -0.27185735
-0.26596037 -0.22527267 0.27037916 -0.5110644 -0.41011083 -0.5504485 -0.47997135 0.28564137
-0.7107155 -0.10166868 -0.08059909 0.57589144 -0.26004112 0.32193318 0.37420183 -0.18194444
-0.5656396 0.6263755 0.37188533 0.5958823 -0.4232178 -0.52601105 0.24702424 0.70215213
0.40886155 -0.025802238 -0.49714437 0.3518631 0.3605072 -0.4165874 -0.26945275 -0.36398342
-0.72192025 0.17055246 0.32999074 1.0049664 0.117445596 0.3724457 -0.28273466 -0.31984198
-0.10444658 -1.1312886 0.30739307 -0.28425577 -0.26857898 -0.23289588 -0.17240785 0.12395308

hidden2event.bias f4 [27]
00000000: a8d7 6ebd 2c43 34bc efa9 60bd ac17 26bd
00000010: 1d57 16bd 47fc cabd 2a6e c8bd 366a 49be
00000020: 9768 813d 9189 e9bd 3cdc 5cbe bead a3be
00000030: 4fe3 62bd ab5d 9d3e 821b 943b f918 ec3d
00000040: 1c19 9bbc b326 9abe f3b3 26be be6e ccbd
00000050: ff4e 223e d353 f53c a6e1 b1bd e2d1 78be
00000060: 9548 1b3e 18fd 53be 2c9e bfbe
-0.058311135 -0.011002343 -0.05484956 -0.04054992 -0.03670417 -0.09911399 -0.09786637 -0.19669423
0.06318777 -0.11403192 -0.21568388 -0.31968492 -0.05539256 0.30735525 0.0045198807 0.11528201
-0.018932872 -0.3010765 -0.16279583 -0.0998206 0.15850447 0.029947197 -0.08685617 -0.24298814
0.15164407 -0.20702016 -0.37425363

hidden2time.weight f4 [3, 40]
00000000: 50b6 9fbe c627 423f a77d 08bf 4cdd cfbe
00000010: f982 b53d 8314 113d cfcd 253e f188 813e
00000020: 744d 5cbd d66a 19bf eeaf e63d bdf1 933e
00000030: d0a1 3b3e 9da2 7d3e d79d 013e 2292 beba
00000040: afaa 59bf 9338 893f 7261 41bf 2e7c 89be
00000050: 2d7a 893e 411a 83bd 69b5 813e cb16 89bd
00000060: 5d85 9c3e 31cb ca3d eaa0 33be 2767 d83e
00000070: 4c2f 273e d190 523f 2b4e 10bf 4eb8 063d
00000080: 6179 3ebe e16d 573f 0a2b 4a3e 6199 99be
00000090: dbf6 8ebe 8676 da3d 8869 8b3d 1db8 eebc
000000a0: bb66 ef3e 89f2 32bf 83ff 263e e803 4b3e
000000b0: 28a2 86be 2583 8ebe e3a1 1f3d 5779 d13d
000000c0: e375 3f3e 8c4b 333f cb24 c2be 0c4e 59be
000000d0: ad5c 0bbe 0daf 80be dc25 8d3e b1b4 63bd
000000e0: 7722 493f 05a3 4abf 7e3c 1b3f 2250 edbd
000000f0: e805 033e 9b90 9a3d b14e c7be 798b 893e
00000100: 3b24 ffbd d178 b3be 4570 32bd 1c5c 2ebf
00000110: 25b7 bdbd e472 f7be 15b5 7d3e 5f28 53bd
00000120: 55ce 52bd 53cc 47bf 64cf 0a3e 66d7 af3d
00000130: a812 8a3c 2e03 1c3e 41c2 c43d 8185 23bc
00000140: 2f05 22bc 7d41 f23e 1aaf c63e 06c0 7e3e
00000150: dc20 3b3f 5b7e 9e3e 61ed cebe 93c0 03be
00000160: 0cf1 99be 034d 0b3d c2c2 bd3e 3ba5 86bf
00000170: e7e7 e2be 0937 d7be 176d bebe 32ef cb3e
00000180: 21d1 cebe 5615 a4be 494a 2dbe 4f7c e13e
00000190: b563 81be 9181 aa3e acca 963e 70d5 72bd
000001a0: f366 fbbe 5c60 c93e da1d c63e b896 043f
000001b0: b74a 0bbf 7f95 c2be c1b7 f53e 9c19 253f
000001c0: cb7d 0d3f c700 003d d3ce fbbe d213 d83e
000001d0: 1510 b33e be5d e3be 0d39 c6be d264 c0be
-0.3119378 0.7584194 -0.5331673 -0.40598524 0.08862872 0.035419952 0.16191791 0.2529979
-0.053784803 -0.59928644 0.11264025 0.2889537 0.18323445 0.24769063 0.12657867 -0.00145394
-0.8502607 1.072039 -0.75539315 -0.26852554 0.26851025 -0.06401492 0.25333717 -0.066938005
0.30570498 0.09902037 -0.17541853 0.422662 0.16326636 0.8225222 -0.56369275 0.03289061
-0.1860099 0.84152037 0.1974298 -0.2999983 -0.2792271 0.10667138 0.06807238 -0.029140526
0.46758065 -0.6990133 0.16308407 0.19825709 -0.2629559 -0.2783443 0.038972747 0.10228222
0.18697314 0.7003715 -0.37918696 -0.21221179 -0.13609572 -0.25133553 0.27567947 -0.055592243
0.78568214 -0.79155 0.6063918 -0.1158755 0.12795222 0.075471126 -0.38927224 0.26864222
-0.12458082 -0.35053113 -0.0435641 -0.681093 -0.09263448 -0.48329842 0.24776109 -0.051552173
-0.051466305 -0.7804615 0.13555676 0.08586006 0.0168546 0.15235588 0.096073635 -0.00998056
-0.009888931 0.4731559 0.38805467 0.24877939 0.73097014 0.30955777 -0.4041548 -0.1286643
-0.30066717 0.03400899 0.3706265 -1.0519174 -0.44317552 -0.42034176 -0.37192604 0.3983093
-0.40393928 -0.32047528 -0.16922869 0.44040152 -0.25271383 0.33301976 0.294515 -0.05928558
-0.49101982 0.3933133 0.3869465 0.5179248 -0.5441088 -0.3800468 0.47991756 0.644922
0.5527007 0.03125074 -0.49181232 0.42202622 0.34973207 -0.44407457 -0.387154 -0.3757692

hidden2time.bias f4 [3]
00000000: e2c3 063e ba1c 51bd 7101 a6be
0.13160661 -0.051052786 -0.32422975
