events_simulation/models/all_epochs/model_9_20180530-2026.pt (torch_old, 78354 bytes, 9 tensors)

loss_function_events.weight f4 [27]
1.0 1.0 1.0 1.0 1.0 1.0 1.0 1.0
1.0 1.0 1.0 1.0 1.0 1.0 1.0 1.0
1.0 1.0 1.0 1.0 1.0 1.0 1.0 1.0
1.0 1.0 1.0
00000000: 0000 803f 0000 803f 0000 803f 0000 803f
00000010: 0000 803f 0000 803f 0000 803f 0000 803f
00000020: 0000 803f 0000 803f 0000 803f 0000 803f
00000030: 0000 803f 0000 803f 0000 803f 0000 803f
00000040: 0000 803f 0000 803f 0000 803f 0000 803f
00000050: 0000 803f 0000 803f 0000 803f 0000 803f
00000060: 0000 803f 0000 803f 0000 803f

lstm.weight_ih_l0 f4 [160, 70]
-0.1660926 -0.010999398 -0.19852479 0.06352775 -0.031695325 0.037680015 -0.09173951 -0.015074666
0.1687435 0.1512977 0.05369918 -0.11837176 0.056608997 -0.018752774 0.04760862 0.1423729
-0.1234128 -0.14240485 0.060971677 -0.14809842 -0.03533319 0.09001626 -0.13818528 -0.12189042
0.13837157 0.0056536943 0.5515639 -0.08250603 0.07067469 0.72298455 0.14930753 -0.082661815
0.041540235 0.20086594 0.022408228 0.085473835 -0.006026066 0.14068487 0.18645585 0.024117067
0.21472076 0.052095022 -0.08789293 0.08228533 0.0807511 0.14702605 -0.042513233 0.19883756
0.14066151 0.005278642 -0.019980907 0.06632416 -0.037287187 0.08063445 -0.090178795 0.19014002
0.023298407 -0.011165208 0.12957858 0.13943626 -0.031896982 0.07754023 -0.013996182 -0.07865263
0.11054281 -0.07827965 0.14315793 0.051333852 -0.029254945 -0.11027733 -0.17487767 0.031325713
-0.0134012215 -0.006675417 -0.012752176 -0.13008243 -0.14191195 0.06504538 0.087514415 0.15712091
0.08499241 -0.11701801 0.13450703 -0.029244222 0.10874821 -0.15908845 0.08669782 -0.12302266
-0.002242679 -0.040050343 -0.026452735 0.15496187 -0.1252023 0.11054785 0.14896339 0.1022359
0.38080183 -0.039307367 0.1655818 0.33682582 -0.01827364 0.006985892 0.10014602 -0.08819135
0.21153036 -0.13422604 0.15431003 -0.02429332 0.13559613 0.035547953 0.18913913 0.13761921
-0.013212658 0.050316684 0.07116263 0.046752773 0.029674191 -0.05647579 0.11631901 0.14133543
0.18858261 -0.048983213 -0.0040778583 -0.0249199 0.20222738 0.17245561 0.22774775 0.08015867
0.12826772 0.13338888 0.15533984 0.13870619 0.09561709 0.013745216 0.076423526 0.2443518
0.20355009 0.21551114 0.23638642 0.016089292 -0.08535224 0.046637725 0.04938547 0.057354044
-0.02679962 0.024584696 -0.021487875 -0.0048366906 -0.10842227 0.150472 0.0016989566 -0.1342331
-0.03572539 -0.052553285 -0.12177753 -0.0793183 0.13510768 -0.05886271 0.13426796 0.005596898
0.04505408 0.05107488 0.050896782 -0.1748549 0.024159597 -0.0025966316 0.43997693 0.15542975
0.012144226 0.42063123 0.18248127 0.09051798 -0.044825945 -0.013585905 0.21786632 -0.13725592
0.11340443 0.19688867 0.08874968 -0.05135037 -0.024170915 -0.06891258 0.10901105 0.16651385
0.02627912 0.025491418 -0.08311381 0.028627805 0.092670396 0.14306748 0.11600985 0.06512469
-0.10461547 0.03586036 0.04176904 0.12345672 -0.007831125 0.13436788 -0.04499212 0.13016023
-0.080697596 0.010600407 0.14238013 -0.068119615 -0.021471094 -0.047749035 0.14319515 0.18342929
0.13270369 -0.0940403 -0.010538951 0.060813088 0.14031398 0.18942107 0.16193348 0.0974461
0.03176161 0.13979407 0.083570965 -0.052742828 0.11929207 0.08816915 -0.099989966 0.07330557
-0.082454674 -0.010435652 0.02079628 -0.013762683 -0.034589425 -0.0744016 0.019019121 0.14498608
0.05839871 0.0813158 0.032296978 0.08870304 0.3547212 0.0978228 -0.07110386 0.58941615
0.04573942 0.09353108 0.07219618 0.16090631 0.022213448 -0.01621662 0.0028320167 0.097898036
0.1408897 -0.06602262 0.22271703 0.012860812 0.13700059 0.107440755 0.18418269 0.043268085
00000000: 2e14 2abe d236 34bc 154a 4bbe d61a 823d
00000010: f5d2 01bd 5c56 1a3d ede1 bbbd bbfb 76bc
00000020: 19cb 2c3e c9ed 1a3e acf3 5b3d e56c f2bd
00000030: d6de 673d 6b9f 99bc 4201 433d 34ca 113e
00000040: dabf fcbd 94d2 11be 70bd 793d 1da7 17be
00000050: 89b9 10bd 725a b83d 7180 0dbe afa1 f9bd
00000060: 47b1 0d3e a042 b93b 4b33 0d3f ecf8 a8bd
00000070: e4bd 903d 8415 393f 13e4 183e 994a a9bd
00000080: 1826 2a3d cdaf 4d3e 7691 b73c e80c af3d
00000090: 4e76 c5bb b20f 103e 48ee 3e3e 2891 c53c
000000a0: c2df 5b3e 9761 553d 3501 b4bd 3685 a83d
000000b0: d560 a53d ff8d 163e 5b22 2ebd 139c 4b3e
000000c0: 9209 103e 75f8 ac3b 00af a3bc f6d4 873d
000000d0: 73ba 18bd ad23 a53d a9af b8bd 11b4 423e
000000e0: 4ddc be3c 47ee 36bc 3fb0 043e 61c8 0e3e
000000f0: 69a6 02bd 69cd 9e3d 3e50 65bc a114 a1bd
00000100: 4564 e23d 1551 a0bd fe97 123e 7243 523d
00000110: 11a8 efbc 15d9 e1bd 2213 33be 644f 003d
00000120: cc90 5bbc 75bd dabb 81ee 50bc 5434 05be
00000130: 5e51 11be 8336 853d c23a b33d 4ee4 203e
00000140: 8010 ae3d 23a7 efbd 36bc 093e 9491 efbc
00000150: 62b7 de3d 15e8 22be a08e b13d 4ef3 fbbd
00000160: e9f9 12bb d40b 24bd 68b3 d8bc 53ae 1e3e
00000170: 0835 00be e966 e23d dc89 183e 0e61 d13d
00000180: 75f8 c23e c300 21bd 468e 293e 6f74 ac3e
00000190: 9ab2 95bc e9e9 e43b 5b19 cd3d ab9d b4bd
000001a0: 6a9b 583e 8d72 09be 7303 1e3e c902 c7bc
000001b0: b6d9 0a3e bb9a 113d b0ad 413e 0dec 0c3e
000001c0: e879 58bc de18 4e3d b7bd 913d d67f 3f3d
000001d0: 4a17 f33c 2853 67bd a938 ee3d 3cba 103e
000001e0: cd1b 413e 9fa2 48bd 8e9f 85bb d124 ccbc
000001f0: b214 4f3e 3498 303e b536 693e 3b2a a43d
00000200: 9d58 033e 1897 083e 6811 1f3e ff08 0e3e
00000210: e5d2 c33d 9d33 613c f083 9c3d 5c37 7a3e
00000220: 6f6f 503e f4ae 5c3e 480f 723e b1cd 833c
00000230: 28cd aebd 3307 3f3d 6b48 4a3d 13ec 6a3d
00000240: e08a dbbc d865 c93c 5707 b0bc 1a7d 9ebb
00000250: 7f0c debd 5515 1a3e 86af de3a 6774 09be
00000260: c954 12bd 1d42 57bd 7f66 f9bd a271 a2bd
00000270: ab59 0a3e 061a 71bd 8a7d 093e 2f66 b73b
00000280: a18a 383d e533 513d 2579 503d 2a0d 33be
00000290: 59ea c53c 402c 2abb a844 e13e fa28 1f3e
000002a0: 93f8 463c fa5c d73e 5fdc 3a3e 7e61 b93d
000002b0: 699b 37bd 6a97 5ebc 5918 5f3e d18c 0cbe
000002c0: 9540 e83d 2f9d 493e 64c2 b53d c454 52bd
000002d0: 1502 c6bc 0a22 8dbd 2f41 df3d 9b82 2a3e
000002e0: 4f47 d73c 61d3 d03c 9337 aabd dc84 ea3c
000002f0: fac9 bd3d 4880 123e 9296 ed3d 1860 853d
00000300: a340 d6bd 50e2 123d 0316 2b3d e0d6 fc3d
00000310: 1e4e 00bc bc97 093e a849 38bd b948 053e
00000320: c844 a5bd 54ad 2d3c 19cc 113e 4c82 8bbd
00000330: 26e4 afbc 7e94 43bd c0a1 123e e3d4 3b3e
00000340: 7ae3 073e 3398 c0bd 90ab 2cbc 2517 793d
00000350: 78ae 0f3e 99f7 413e e4d1 253e d291 c73d
00000360: 7618 023d 2d26 0f3e 4127 ab3d dd08 58bd
00000370: 674f f43d 0792 b43d 8ac7 ccbd 3b21 963d
00000380: ffdd a8bd 4cfa 2abc f65c aa3c e07c 61bc
00000390: a4ad 0dbd de5f 98bd fdcd 9b3c 3b77 143e
000003a0: 7c33 6f3d e688 a63d d649 043d f0a9 b53d
000003b0: 049e b53e 5257 c83d e79e 91bd fae3 163f
000003c0: 4259 3b3d 398d bf3d 97db 933d a0c4 243e
000003d0: faf8 b53c b8d8 84bc 5b99 393b c47e c83d
000003e0: 6445 103e de36 87bd ef0f 643e 28b6 523c
000003f0: e249 0c3e e609 dc3d 639a 3c3e e039 313d

lstm.weight_hh_l0 f4 [160, 40]
0.15525472 -0.18090741 0.010807826 -0.1664158 0.09212334 -0.22466005 -0.21901987 0.050504256
0.029882016 0.09995544 0.08939051 0.12922923 0.11607511 0.0011018247 -0.24511126 -0.06078874
-0.07275514 0.20460314 -0.23230863 0.16626234 0.07237785 0.05627937 -0.19043913 0.091979116
0.060016997 0.1918439 0.08955654 -0.06857704 -0.08601266 0.24568486 0.25206316 -0.040858608
-0.11613873 0.1430869 0.17952408 0.088644445 0.10910761 -0.098768875 0.068783194 0.13651647
0.15355009 0.15174112 0.16035081 -0.0424848 0.1944366 -0.16201161 -0.047166843 -0.16738005
-0.13844985 0.07805167 0.39052433 0.24221112 0.062301513 -0.057879154 -0.08940617 -0.12105434
0.09452789 0.3139156 -0.19278379 -0.03180016 -0.10415511 0.067210376 -0.08509281 -0.01958231
0.07676843 0.19406717 -0.013266614 -0.13491665 -0.12311245 0.06083326 0.16162261 0.019014955
-0.058135185 0.13213211 0.03393617 0.0014094092 0.046502344 0.13340497 -0.091982596 -0.024669686
0.2527085 -0.15573359 0.08932463 -0.0012653462 -0.0011663684 0.0032466373 -0.0783096 0.00015973435
0.069608696 0.09305766 0.19424132 0.14411178 -0.062918216 -0.022508435 -0.021140732 -0.10572698
-0.06030111 0.23566166 -0.11350762 0.13830641 -0.10298362 0.01564515 0.025868472 -0.121334456
0.0014319941 -0.057577822 0.0386334 0.015565943 -0.10275273 0.1546211 0.09677106 -0.1074863
-0.15190743 0.03526316 0.1468188 0.095268786 -0.033781137 -0.15648934 -0.17933534 0.0569877
0.07594031 0.04145847 0.047251515 0.009160219 -0.03835046 -0.14593561 0.102497235 -0.16154058
-0.11101796 -0.094364196 0.16240923 0.20354356 0.013991462 -0.13946697 0.040445816 -0.16873188
-0.022205811 0.2401318 0.119323485 0.14901696 0.0056497646 0.11940991 -0.09005119 0.08632879
0.02916755 0.020153696 0.19484018 0.05376257 -0.06664749 0.14743921 -0.025680074 -0.14093761
-0.03622826 0.13703372 0.0543699 -0.17130987 0.05200903 -0.06106847 0.015532925 0.19601376
0.057976026 -0.04314369 0.15753734 -0.11093692 0.15077092 0.09152244 -0.024145368 -0.10206665
0.05888708 -0.059350904 0.33468118 0.18787797 0.18805093 0.0114301685 0.027957706 0.013247093
-0.00031785015 0.33276072 -0.051102504 0.0934804 0.12658408 0.078885674 -0.009219604 -0.10045452
0.15485534 0.13542134 0.15044491 0.08211534 -0.04708112 -0.002418901 -0.06074158 0.03705242
0.03216475 -0.02642891 0.0556201 0.02980674 0.12199583 0.11579339 -0.08229268 0.16253313
0.3333763 -0.09284735 -0.045492206 -0.16450316 0.2761382 0.06168151 0.06799229 0.12684283
0.100555666 0.012115883 0.508021 0.016278487 0.07056442 0.034307692 -0.020732861 -0.09749787
0.18805483 0.25237134 -0.102831036 0.019434849 -0.044458598 0.1819329 -0.10163789 0.10318727
0.14737958 0.17786999 -0.06721664 0.07248501 -0.056983206 0.16226307 0.13945106 0.007993843
-0.16682765 0.23435457 0.16122974 0.0044570393 -0.016073467 0.019825967 -0.12990594 -0.03303851
0.21391734 -0.0068461224 0.13544858 0.021936648 0.2590605 -0.041700773 0.013420175 0.080734424
0.022376847 0.19127725 0.29378122 0.22077136 0.29068527 0.011064252 0.2302886 0.0162637
00000000: 18fb 1e3e cb3f 39be 4f13 313c e768 2abe
00000010: 29ab bc3d 490d 66be bf46 60be 8ddd 4e3d
00000020: 21cb f43c 70b5 cc3d 5f12 b73d ab54 043e
00000030: cab8 ed3d 1a6b 903a 72fe 7abe 9dfd 78bd
00000040: a600 95bd 7c83 513e 50e2 6dbe ad40 2a3e
00000050: d73a 943d 3285 663d 7a02 43be 8c5f bc3d
00000060: 62d4 753d ba72 443e 6b69 b73d 1f72 8cbd
00000070: 6827 b0bd d094 7b3e 6c0e 813e 5b5b 27bd
00000080: 24da edbd 5f85 123e 29d5 373e 388b b53d
00000090: d073 df3d 5647 cabd 34de 8c3d f9ca 0b3e
000000a0: 3c3c 1d3e 0662 1b3e 0133 243e 8b04 2ebd
000000b0: 631a 473e 5fe6 25be 0532 41bd ad65 2bbe
000000c0: ccc5 0dbe 8ed9 9f3d cef2 c73e 3106 783e
000000d0: df2f 7f3d b112 6dbd 951a b7bd 56eb f7bd
000000e0: d797 c13d 8cb9 a03e 1d69 45be e240 02bd
000000f0: 464f d5bd 98a5 893d 2445 aebd 156b a0bc
00000100: c438 9d3d 8bb9 463e 365c 59bc 9727 0abe
00000110: 6122 fcbd 4c2c 793d 6680 253e 40c5 9b3c
00000120: 291f 6ebd a44d 073e a700 0b3d edbb b83a
00000130: 3e79 3e3d 509b 083e 5f61 bcbd 1518 cabc
00000140: 0263 813e a078 1fbe d5ef b63d f9d9 a5ba
00000150: d4e0 98ba 89c5 543b c960 a0bd 5d7e 2739
00000160: 018f 8e3d 0495 be3d 32e7 463e 0a92 133e
00000170: 44db 80bd 9c63 b8bc 542f adbc 6387 d8bd
00000180: 4cfe 76bd 4a51 713e af76 e8bd 32a0 0d3e
00000190: 13e9 d2bd 422a 803c 1eea d33c 337e f8bd
000001a0: c0b1 bb3a b9d6 6bbd 0e3e 1e3d 4c08 7f3c
000001b0: 0670 d2bd fe54 1e3e e82f c63d c721 dcbd
000001c0: 9f8d 1bbe 1a70 103d ab57 163e 481c c33d
000001d0: 175e 0abd be3e 20be afa3 37be ef6b 693d
000001e0: 9886 9b3d 5bd0 293d ce8a 413d be14 163c
000001f0: 5f15 1dbd 2570 15be 12ea d13d e56a 25be
00000200: 625d e3bd 0442 c1bd 9b4e 263e b96d 503e
00000210: 723c 653c 6ed0 0ebe 83aa 253d 0dc8 2cbe
00000220: f6e8 b5bc 1ce5 753e df5f f43d e797 183e
00000230: a921 b93b 2f8d f43d c26c b8bd 26cd b03d
00000240: c9f0 ee3c 5d19 a53c 2f84 473e 2436 5c3d
00000250: 7b7e 88bd 4efa 163e 055f d2bc f351 10be
00000260: 1564 14bd 9152 0c3e f9b2 5e3d db6b 2fbe
00000270: 6c07 553d ef22 7abd cf7d 7e3c d5b7 483e
00000280: 4578 6d3d 70b7 30bd 7851 213e e532 e3bd
00000290: b163 1a3e 1e70 bb3d 82cc c5bc 5208 d1bd
000002a0: 9433 713d ef19 73bd 555b ab3e 1563 403e
000002b0: 6c90 403e 9a45 3b3c 8f07 e53c 560a 593c
000002c0: 20a5 a6b9 9d5f aa3e dc50 51bd a772 bf3d
000002d0: 429f 013e d08e a13d d20d 17bc 19bb cdbd
000002e0: 6692 1e3e e4ab 0a3e 3b0e 1a3e 162c a83d
000002f0: 22d8 40bd 6d86 1ebb 2acc 78bd 47c4 173d
00000300: 2fbf 033d 7181 d8bc e7d1 633d 442d f43c
00000310: f3d8 f93d 1625 ed3d 1189 a8bd 166f 263e
00000320: 4cb0 aa3e c026 bebd 0956 3abd 8473 28be
00000330: fc61 8d3e c0a5 7c3d 8b3f 8b3d 16e3 013e
00000340: 21f0 cd3d b281 463c aa0d 023f 765a 853c
00000350: 1484 903d 3986 0c3d f6d7 a9bc f7ac c7bd
00000360: 7291 403e d136 813e 1499 d2bd d535 9f3c
00000370: 381a 36bd 9e4c 3a3e 8727 d0bd d953 d33d
00000380: acea 163e 8d23 363e e1a8 89bd 0573 943d
00000390: 3967 69bd 4a28 263e 42cc 0e3e 9cf8 023c
000003a0: ded4 2abe a5fa 6f3e 6919 253e 5b0c 923b
000003b0: 81ac 83bc 116a a23c 1006 05be 6353 07bd
000003c0: 260d 5b3e 7055 e0bb 08b3 0a3e 7cb4 b33c
000003d0: 94a3 843e 6ece 2abd 4be0 5b3c 1758 a53d
000003e0: a64f b73c 2fde 433e 7e6a 963e e311 623e
000003f0: b3d4 943e d646 353c c6d0 6b3e 733b 853c

lstm.bias_ih_l0 f4 [160]
-0.052039064 0.03420958 0.18750554 0.12970218 0.14150329 0.06259742 -0.0031376074 0.011399124
0.046662338 0.009416691 0.29483476 -0.08772978 0.24708468 0.13140154 0.07473487 0.062562615
0.10974818 0.37056658 -0.08278011 0.019379675 0.19337642 0.087979816 -0.06254694 -0.0804995
0.13684493 0.03796026 0.10332444 0.27518764 0.10708003 -0.023163892 0.21856967 0.23078592
0.060456056 -0.029006276 0.15174727 0.06716693 0.042125896 0.03332468 -0.074955694 0.18744129
0.10274151 0.08833685 -0.026831586 -0.07727108 0.13325715 -0.045971803 -0.091977686 -0.0786154
0.05732449 0.21840487 0.065233305 -0.08658603 0.05269586 -0.090096824 0.022825914 0.051837966
-0.13770916 -0.12061338 -0.05658522 0.20146197 -0.073418185 0.12081208 0.006604146 0.09115282
0.18903534 0.07518764 0.15706845 0.12285911 0.043629188 -0.04449753 0.12166884 0.15678583
0.1897671 0.03207935 0.08421331 0.06039969 0.04542866 -0.07476592 0.19281067 -0.056868088
-0.06755542 -0.09189887 -0.10217027 -0.052991144 -0.08871528 -0.17037284 -0.16398232 0.019177949
0.0057852003 0.03544038 -0.018156288 0.11848095 -0.1836809 0.04786558 0.054179046 0.029509658
-0.18393238 -0.015968356 -0.16239536 0.016509205 -0.0014011461 -0.0669631 -0.09029636 -0.0944187
-0.027919512 0.0662808 -0.0018243608 -0.2081204 -0.16168834 0.19756095 0.0026459047 0.055053353
-0.17572078 0.099628545 0.07516182 -0.18107332 -0.11530544 0.09176265 -0.025705606 0.16660623
0.007021906 -0.023692958 0.12490126 0.15212117 0.05235653 -0.11043164 0.14293163 0.09994595
-0.043817826 0.14553304 0.25590843 -0.08019717 0.28730538 0.09637961 -0.02196049 0.23673637
0.08900719 0.20216699 -0.01911364 0.19911346 0.18124107 0.027369589 0.07374969 0.07963236
0.086602986 0.010265133 0.022393404 0.1513857 -0.06007004 0.060959015 0.1276193 0.14411171
0.1713452 -0.09070026 0.124120936 0.087780215 -0.0006739987 -0.06408857 -0.0282663 0.20086618
00000000: ea26 55bd 581f 0c3d 7401 403e a6d0 043e
00000010: 3de6 103e 1333 803d 51a0 4dbb 64c3 3a3c
00000020: 0221 3f3d 7748 1a3c 95f4 963e acab b3bd
00000030: c403 7d3e 208e 063e 980e 993d d420 803d
00000040: a7c3 e03d e7ba bd3e 9e88 a9bd 20c2 9e3c
00000050: 7804 463e c32e b43d 9c18 80bd ecdc a4bd
00000060: 1421 0c3e 387c 1b3d c49b d33d 65e5 8c3e
00000070: c64c db3d 34c2 bdbc bad0 5f3e 2553 6c3e
00000080: c5a0 773d 929e edbc a363 1b3e d18e 893d
00000090: 348c 2c3d 767f 083d 5f82 99bd 9cf0 3f3e
000000a0: 246a d23d f3e9 b43d eacd dbbc 4d40 9ebd
000000b0: 9074 083e ee4c 3cbd cc5e bcbd 1c01 a1bd
000000c0: 16cd 6a3d 87a5 5f3e 0a99 853d 0454 b1bd
000000d0: 9dd7 573d af84 b8bd 69fd ba3c 0c54 543d
000000e0: a103 0dbe 2604 f7bd e7c5 67bd 0c4c 4e3e
000000f0: 465c 96bd 536c f73d 9867 d83b 54ae ba3d
00000100: 7b92 413e fafb 993d 8dd6 203e 8f9d fb3d
00000110: 85b4 323d 0b43 36bd 832d f93d 778c 203e
00000120: 4f52 423e a365 033d 0778 ac3d aa65 773d
00000130: 6713 3a3d e01e 99bd 2970 453e 83ee 68bd
00000140: 7f5a 8abd 7a35 bcbd a63e d1bd 3e0d 59bd
00000150: 5bb0 b5bd 3876 2ebe fbea 27be 131b 9d3c
00000160: c791 bd3b ef29 113d 7fbc 94bc 24a6 f23d
00000170: d916 3cbe b30e 443d d9ea 5d3d 3dbe f13c
00000180: c558 3cbe 12d0 82bc f84a 26be 503e 873c
00000190: a9a6 b7ba f323 89bd 4ced b8bd 975e c1bd
000001a0: 76b7 e4bc 3abe 873d 641f efba 841d 55be
000001b0: a191 25be 6b4d 4a3e ea66 2d3b a07f 613d
000001c0: 26f0 33be 0d0a cc3d 71ee 993d 496b 39be
000001d0: 4225 ecbd 0eee bb3d 9094 d2bc d39a 2a3e
000001e0: 0418 e63b bc17 c2bc 3bcc ff3d a7c5 1b3e
000001f0: cd73 563d fc29 e2bd ab5c 123e 76b0 cc3d
00000200: 527a 33bd 9d06 153e 6e06 833e 6a3e a4bd
00000210: b119 933e ac62 c53d 7ce6 b3bc 056b 723e
00000220: 6749 b63d dd04 4f3e 3594 9cbc 66e4 4b3e
00000230: 4297 393e 3036 e03c 140a 973d 4a16 a33d
00000240: e85c b13d 172f 283c 5f72 b73c da04 1b3e
00000250: 010c 76bd 29b0 793d a2ae 023e 0592 133e
00000260: 1e75 2f3e 0fc1 b9bd 1e33 fe3d 1dc6 b33d
00000270: 49af 30ba de40 83bd ba8e e7bc ddaf 4d3e

lstm.bias_hh_l0 f4 [160]
-0.057951614 0.08720215 -0.041426364 -0.033905827 0.05105415 0.0014093895 0.21251422 0.14736685
0.20399277 0.051783532 -0.018610066 0.0026833457 0.10615113 -0.06319613 0.13481766 0.20332621
0.22749323 0.10498881 0.20769274 0.244028 0.13175417 0.1384349 -0.039824564 -0.050190706
-0.030537033 0.037669647 -0.07118055 0.09311233 0.14008777 0.15208688 0.021336306 0.15764473
0.038694408 0.007816358 -0.03028503 0.06686935 0.023140177 -0.097579226 -0.08835653 0.12626868
0.14973861 0.10223869 0.025812404 0.09546242 -0.0037802337 -0.016007561 0.17244233 -0.01066126
-0.07102396 0.17567614 -0.046749733 0.10643138 -0.028528582 -0.024011541 -0.06544166 0.05174862
0.13094512 -0.052058674 0.18070996 -0.04227425 0.070409894 0.049812883 0.01585171 0.07471435
0.022747738 0.18788725 -0.08563874 0.10979637 0.12559016 -0.0644419 -0.017797135 -0.07536189
0.007515782 -0.068619445 0.15755188 -0.007732856 0.136218 0.014400821 0.18665789 -0.07201885
-0.0018365104 -0.037131798 0.063019454 0.01324412 0.17383254 -0.045196686 -0.06398738 -0.16612642
-0.12839252 -0.12683581 0.0973174 -0.08764568 0.0024087974 -0.10540507 0.032321904 -0.071320795
0.08428224 0.17565012 -0.043220896 0.14337085 0.10020199 0.065078385 0.08499532 -0.19712728
0.09592229 -0.08253239 0.12683173 -0.07708896 -0.064086154 0.03953309 0.21177892 -0.1774413
0.017608257 -0.06915151 0.00018360121 -0.043548107 -0.08569786 0.031277694 -0.19345088 -0.05400535
-0.15273748 0.016582914 -0.094548054 -0.055277135 0.02070762 0.019641275 -0.009226696 0.08811723
0.07799269 0.07434555 0.29776037 -0.028344402 0.29436198 0.013268278 0.109625064 0.21926631
0.079538494 0.115356304 -0.04935117 -0.09605744 0.33374813 0.08604746 0.14242008 -0.03297117
-0.03044429 0.07924868 0.050419964 0.11621446 0.11429471 0.22529912 -0.022995366 0.008777174
-0.09363366 0.04944717 0.16371663 -0.08294773 -0.08921993 0.08159755 -0.07969314 0.1952114
00000000: ac5e 6dbd 0a97 b23d b1ae 29bd d6e0 0abd
00000010: 281e 513d 44bb b83a 549d 593e 56e7 163e
00000020: 7be3 503e f81a 543d 2374 98bc 12db 2f3b
00000030: c365 d93d f96c 81bd a40d 0a3e bf34 503e
00000040: fcf3 683e 6004 d73d 68ad 543e 7ae2 793e
00000050: 91ea 063e e1c1 0d3e 151f 23bd c594 4dbd
00000060: cd28 fabc 7d4b 1a3d 1cc7 91bd adb1 be3d
00000070: 2b73 0f3e aabc 1b3e 7ac9 ae3c 9f6d 213e
00000080: 077e 1e3d 2e10 003c 5018 f8bc ccf2 883d
00000090: 7890 bd3c 9ed7 c7bd 45f4 b4bd 944c 013e
000000a0: 1455 193e 8562 d13d 8974 d33c cd81 c33d
000000b0: ccbd 77bb 4a22 83bc b994 303e 91ac 2ebc
000000c0: 0375 91bd 72e4 333e a67c 3fbd b2f8 d93d
000000d0: c6b4 e9bc dab3 c4bc 4706 86bd 5cf6 533d
000000e0: 7a16 063e 7a3b 55bd 080c 393e c427 2dbd
000000f0: 1033 903d 9808 4c3d 72db 813c d603 993d
00000100: 7759 ba3c 8465 403e 5d63 afbd ebdc e03d
00000110: b59a 003e 1dfa 83bd 4ccb 91bc 5657 9abd
00000120: f346 f63b 5a88 8cbd 4855 213e e663 fdbb
00000130: bb7c 0b3e 6cf1 6b3c 3f23 3f3e 9e7e 93bd
00000140: 10b7 f0ba 8317 18bd 5810 813d defd 583c
00000150: 2801 323e 2920 39bd d10b 83bd 0b1d 2abe
00000160: 5479 03be 3fe1 01be 584e c73d 947f b3bd
00000170: eadc 1d3b 9dde d7bd f963 043d a310 92bd
00000180: 2b9c ac3d a0dd 333e 6508 31bd cfcf 123e
00000190: b336 cd3d d147 853d 0712 ae3d bcdb 49be
000001a0: e872 c43d be06 a9bd 2de0 013e d1e0 9dbd
000001b0: 9a3f 83bd 73ed 213d 93dc 583e 2cb3 35be
000001c0: 313f 903c 4f9f 8dbd 1385 4039 805f 32bd
000001d0: 5c82 afbd 0a1d 003d fd17 46be b734 5dbd
000001e0: 3767 1cbe e4d8 873c 69a2 c1bd 476a 62bd
000001f0: 07a3 a93c bde6 a03c 912b 17bc ce76 b43d
00000200: a2ba 9f3d 7b42 983d 0c74 983e 8532 e8bc
00000210: 9db6 963e 3163 593c 1b83 e03d 5987 603e
00000220: 14e5 a23d ed3f ec3d 7424 4abd c3b9 c4bd
00000230: 09e1 aa3e a739 b03d 92d6 113e c70c 07bd
00000240: 4e66 f9bc 224d a23d 2a85 4e3d d901 ee3d
00000250: 5813 ea3d d0b4 663e c760 bcbc 23ce 0f3c
00000260: 01c3 bfbd 1e89 4a3d 55a5 273e 80e0 a9bd
00000270: f0b8 b6bd 9e1c a73d 2836 a3bd 7fe5 473e

hidden2event.weight f4 [27, 40]
0.12958317 -0.071891256 0.057770267 0.17225386 -0.12582836 -0.025029378 -0.018342273 0.002137517
0.14152819 0.0253194 -0.14263079 -0.06976404 0.2594491 -0.027411843 0.23239137 0.54064894
-0.15161163 0.35338724 0.106826544 -0.14244649 0.07734965 -0.076058544 -0.13107355 0.048939433
-0.14243312 -0.11974313 0.052438278 0.26598945 0.12209647 0.037214722 -0.18671952 0.123486154
-0.047669865 0.12797365 0.011543262 0.060763534 -0.15994321 -0.072328694 -0.1368263 -0.16170734
-0.0684869 -0.23793422 0.12715697 0.016502935 0.074091785 -0.06997924 0.05443071 -0.06405629
-0.0040399977 -0.108419314 -0.35648993 -0.0694637 0.4718124 0.073562585 0.15297906 0.4859589
-0.16124463 0.74867034 -0.2721729 -0.13167636 0.18279015 0.05239815 -0.2302621 -0.22372043
0.12268096 -0.071443476 0.12474064 0.023676371 -0.15246546 -0.009308812 -0.047802627 -0.25134203
0.015148329 0.22054969 0.1661413 -0.117982395 -0.01171298 0.031197648 -0.17832048 0.13645004
0.025444781 0.0027992574 0.04985707 0.14897022 0.100398034 -0.1388861 0.20476183 -0.11912925
0.046401404 -0.012571542 0.119925775 0.092388295 0.60872954 0.086444326 0.1210001 0.4753044
0.22388507 0.6401983 -0.035180844 0.15158139 0.13111988 -0.07382728 -0.23034695 0.10073398
0.23013417 0.09108965 0.071259685 0.39648414 -0.14256223 0.05307814 0.06681341 -0.060279008
0.16625395 -0.045970783 0.018501686 -0.23271976 -0.3869143 0.28274834 -0.14871459 -0.16751938
-0.3625888 0.21895348 0.068491295 0.17095722 0.12855357 -0.4627293 0.096030876 0.088131815
-0.18973733 0.27821562 -0.72515863 0.25262338 -0.8110018 -0.25735763 -0.103844106 0.018581523
0.09281174 -0.7892101 -0.39084542 0.2353182 0.8000814 0.39531225 0.02356282 -0.21666196
0.27934077 -0.099875756 0.26470476 0.25698617 -0.3584379 0.08343554 0.30333367 0.2535734
-0.21797119 0.038221236 0.08878878 -0.1288555 -0.22680433 -0.19203953 -0.17311363 -0.11156796
-0.062764816 -0.20761816 -0.07489977 0.08628021 0.1327319 -0.0036826595 0.17479372 -0.030617038
-0.26233765 0.12731075 -0.46859503 -0.3419466 -0.44305733 -0.01592332 -0.0588133 -0.69907653
-0.0089369165 -0.58116984 -0.10312176 -0.05960505 -0.14194259 -0.271909 0.30837148 0.19313383
-0.12667072 -0.225321 0.17497784 0.22857185 0.16564947 0.17015786 0.17549634 -0.28337443
0.318859 0.0787882 0.090934485 0.48062167 -0.008115618 -0.6217222 -0.19949627 0.12677626
-0.28239542 0.058436546 -0.2835671 0.30226597 -0.3472894 0.3275941 0.31703308 0.19569913
0.1413783 -0.09325481 -0.239919 -0.04012609 -0.15592982 0.28613338 0.30315113 -0.0572697
0.27668706 -0.3801634 0.3408115 -0.23091695 0.22153525 -0.20746422 0.1589234 0.10021943
-0.33906832 -0.2652536 -0.25581855 0.15653907 0.2983215 -0.27832147 -0.060776584 0.18090348
0.11055701 -0.2839713 -0.32571045 0.0626318 0.07737869 0.24682078 0.25523382 -0.15529212
-0.23898482 0.10489027 -0.20878659 0.14956404 -0.031139001 0.25694337 0.16529007 0.23688613
0.06470158 -0.060282256 -0.14698839 -0.24684352 0.04394886 0.09435371 0.22668603 -0.038705997
00000000: 73b1 043e b93b 93bd 84a0 6c3d 5163 303e
00000010: 26d9 00be 690a cdbc 8942 96bc 9615 0c3b
00000020: c4ec 103e a16a cf3c ce0d 12be 73e0 8ebd
00000030: 83d6 843e cd8e e0bc 01f8 6d3e f867 0a3f
00000040: 1440 1bbe 2cef b43e e0c7 da3d 7edd 11be
00000050: 7e69 9e3d 95c4 9bbd 2538 06be b774 483d
00000060: fdd9 11be e33b f5bd 85c9 563d c52f 883e
00000070: b70d fa3d 776e 183d 6733 3fbe 4fe6 fc3d
00000080: 7a41 43bd 860b 033e f31f 3d3c 2fe3 783d
00000090: 27c8 23be 1121 94bd 321c 0cbe 9c96 25be
000000a0: dc42 8cbd 07a5 73be 7035 023e 2a31 873c
000000b0: 6fbd 973d 4751 8fbd bcf2 5e3d f22f 83bd
000000c0: f561 84bb f20a debd d985 b6be fc42 8ebd
000000d0: 6591 f13e fba7 963d 8ba6 1c3e 9bcf f83e
000000e0: 501d 25be dca8 3f3f 3f5a 8bbe 2bd6 06be
000000f0: 572d 3b3e 719f 563d d4c9 6bbe f816 65be
00000100: 2840 fb3d f550 92bd 0578 ff3d f3f4 c13c
00000110: e81f 1cbe fd83 18bc b0cc 43bd e7af 80be
00000120: b230 783c c7d7 613e f220 2a3e c1a0 f1bd
00000130: cde7 3fbc 3692 ff3c a599 36be 8fb9 0b3e
00000140: 9371 d03c bf73 373b ed36 4c3d a68b 183e
00000150: 7c9d cd3d 2838 0ebe 16ad 513e 09fa f3bd
00000160: 660f 3e3d def8 4dbc a59b f53d 1336 bd3d
00000170: b3d5 1b3f b909 b13d e7ce f73d 195b f33e
00000180: 2142 653e 09e4 233f ca19 10bd 2738 1b3e
00000190: 4a44 063e c232 97bd 12e0 6bbe 9e4d ce3d
000001a0: 4ba8 6b3e 368d ba3d 99f0 913d f8ff ca3e
000001b0: d5fb 11be 7768 593d 78d5 883d 1fe7 76bd
000001c0: 7a3e 2a3e dc4b 3cbd d990 973c 174e 6ebe
000001d0: a219 c6be 64c4 903e a348 18be 338a 2bbe
000001e0: 3da5 b9be 5735 603e 2a45 8c3d 690f 2f3e
000001f0: 8ca3 033e dbea ecbe d6ab c43d 747e b43d
00000200: 814a 42be 4772 8e3e ffa3 39bf da57 813e
00000210: d09d 4fbf 61c4 83be 38ac d4bd 4738 983c
00000220: 1514 be3d ac09 4abf e41c c8be 41f7 703e
00000230: 22d2 4c3f 5e66 ca3e d106 c13c a2dc 5dbe
00000240: c105 8f3e a98b ccbd 6287 873e b193 833e
00000250: 2c85 b7be 41e0 aa3d 8d4e 9b3e 5fd4 813e
00000260: d733 5fbe df8d 1c3d e4d6 b53d b2f2 03be
00000270: 653f 68be 03a6 44be b344 31be be7d e4bd
00000280: d78a 80bd db99 54be 0d65 99bd aeb3 b03d
00000290: dfea 073e c658 71bb 20fd 323e 95d0 fabc
000002a0: 1f51 86be c05d 023e b0eb efbe a013 afbe
000002b0: 69d8 e2be 9f71 82bc 37e6 70bd aef6 32bf
000002c0: 256c 12bc 8cc7 14bf 8031 d3bd 6d24 74bd
000002d0: 6659 11be a837 8bbe dee2 9d3e e0c4 453e
000002e0: f8b5 01be 8cba 66be 642d 333e bd0e 6a3e
000002f0: 04a0 293e dd3d 2e3e 50b5 333e 7416 91be
00000300: 7d41 a33e b55b a13d dc3b ba3d 0b14 f63e
00000310: 5ef7 04bc 3029 1fbf c048 4cbe a3d1 013e
00000320: 2296 90be 295b 6f3d b52f 91be 9bc2 9a3e
00000330: ebcf b1be 6aba a73e 2952 a23e 5a65 483e
00000340: 79c5 103e 61fc bebd 54ad 75be 415b 24bd
00000350: 11ac 1fbe 1380 923e a036 9b3e a293 6abd
00000360: eda9 8d3e c7a4 c2be d87e ae3e 7e75 6cbe
00000370: 23da 623e 8071 54be d1bc 223e d83f cd3d
00000380: 5d9a adbe 52cf 87be a6fa 82be c74b 203e
00000390: 98bd 983e 2780 8ebe def0 78bd c33e 393e
000003a0: b76b e23d b064 91be 85c3 a6be 1a45 803d
000003b0: b878 9e3d 96be 7c3e 02ae 823e e604 1fbe
000003c0: 70b8 74be b6d0 d63d 27cc 55be 5127 193e
000003d0: 3817 ffbc 158e 833e cd41 293e 4792 723e
000003e0: 4382 843d 87ea 76bd 2084 16be 8cc4 7cbe
000003f0: b803 343d 853c c13d 6220 683e 2e8a 1ebd

hidden2event.bias f4 [27]
0.047216743 0.0037131677 0.11062909 0.084025405 0.022711847 -0.2193631 -0.20185694 -0.19908682
0.14562707 -0.08410832 -0.009980555 -0.13054225 0.070715435 0.07417414 0.0869434 -0.053769313
-0.074504785 -0.11891726 -0.041296534 -0.10052824 0.07073104 -0.07610159 -0.004835349 -0.01695409
0.018479388 -0.04056344 -0.04113731
00000000: 5866 413d 9e58 733b 8191 e23d 8315 ac3d
00000010: 320e ba3c b8a0 60be 96b3 4ebe 6add 4bbe
00000020: 431f 153e fc40 acbd 7b85 23bc deac 05be
00000030: 41d3 903d 9de8 973d 620f b23d 363d 5cbd
00000040: f795 98bd e48a f3bd 8e26 29bd c0e1 cdbd
00000050: 6fdb 903d 27db 9bbd d971 9ebb 4ee3 8abc
00000060: 1662 973c da25 26bd 997f 28bd

hidden2time.weight f4 [3, 40]
0.010392016 -0.19083366 0.23938671 -0.042795297 0.08563551 0.044850025 0.044140264 -0.13216268
-0.19723253 0.12453353 0.018971305 0.15445936 0.08169286 -0.20204334 -0.10178239 0.0013731364
-0.19713035 -0.2995081 -0.08945032 -0.042494852 -0.105265364 0.07948319 -0.030419389 0.047230918
0.28120127 0.11113337 0.15053505 0.09686121 -0.21563208 0.24953388 0.14108919 -0.034825623
-0.15403794 0.022065362 0.01229038 -0.25389335 0.022146383 -0.074364856 -0.22610945 -0.03320773
0.1276069 -0.12098454 -0.044955283 -0.073367365 0.12049639 -0.11207243 -0.17269257 -0.2040224
-0.22385359 -0.016970035 -0.0037676361 0.1949066 -0.15251043 0.055769484 0.022430753 0.07883128
-0.040818904 0.39555117 -0.1336365 0.20000799 0.035558794 0.22856478 -0.027078534 -0.12929235
-0.09707995 0.18438712 0.12380416 -0.30274352 -0.14684395 0.14306173 0.061650984 -0.17603017
-0.19578719 0.21493475 0.17215835 -0.047831114 -0.003708785 -0.18093246 0.037224058 -0.024300827
-0.30459577 0.16299623 -0.27216136 0.2890083 -0.23592104 0.24274023 0.09136961 0.22380386
0.057136297 -0.23859614 -0.1597991 -0.3013433 0.13267456 0.1669106 0.26930445 0.17109105
0.22148257 -0.23692694 0.21220477 -0.09315064 0.11158306 -0.05469386 0.26625925 0.28446454
-0.1426832 0.01399763 -0.26426935 0.038585026 0.07794673 -0.21096288 -0.28435838 0.21495081
0.2234879 -0.2801193 -0.16806473 0.0809098 0.12963797 0.36764657 0.09974235 -0.24770978
00000000: 4643 2a3c e669 43be ca21 753e 1f4a 2fbd
00000010: ac61 af3d a9b4 373d 6ccc 343d a755 07be
00000020: 53f7 49be 6f0b ff3d b669 9b3c 982a 1e3e
00000030: 964e a73d 73e4 4ebe 4973 d0bd d0fa b33a
00000040: 8adc 49be 2059 99be bb31 b7bd 150f 2ebd
00000050: 5e95 d7bd 15c8 a23d 1532 f9bc 3575 413d
00000060: 9df9 8f3e e499 e33d dc25 1a3e 2c5f c63d
00000070: a8ce 5cbe cf85 7f3e af79 103e 50a5 0ebd
00000080: 1fbc 1dbe 6bc2 b43c 975d 493c 4ffe 81be
00000090: 556c b53c 9a4c 98bd 3c89 67be d404 08bd
000000a0: 62ab 023e bec6 f7bd 0823 38bd a141 96bd
000000b0: d0c6 f63d 3b86 e5bd 52d6 30be 3feb 50be
000000c0: e039 65be be04 8bbc 72ea 76bb 9995 473e
000000d0: b22b 1cbe 8b6e 643d b3c0 b73c 4b72 a13d
000000e0: b931 27bd af85 ca3e 02d8 08be e5ce 4c3e
000000f0: 19a6 113d e30c 6a3e cdd3 ddbc 3765 04be
00000100: dad1 c6bd facf 3c3e 098d fd3d 3301 9bbe
00000110: 435e 16be c67e 123e be85 7c3d 4141 34be
00000120: 707c 48be db17 5c3e 474a 303e 8fea 43bd
00000130: 160f 73bb 5c46 39be 4178 183d 8712 c7bc
00000140: faf3 9bbe 7ce8 263e bc58 8bbe e5f8 933e
00000150: 4995 71be e590 783e fd1f bb3d d72c 653e
00000160: c007 6a3d 8c52 74be 60a2 23be ab49 9abe
00000170: d7db 073e 9dea 2a3e 46e2 893e 7e32 2f3e
00000180: 54cc 623e fa9c 72be 354c 593e c3c5 bebd
00000190: a985 e43d ab06 60bd 2253 883e 56a5 913e
000001a0: 8b1b 12be 5156 653c 504e 87be 550b 1e3d
000001b0: 89a2 9f3d a706 58be 6c97 91be 111c 5c3e
000001c0: 03da 643e cc6b 8fbe 2919 2cbe 0ab4 a53d
000001d0: d1bf 043e 2c3c bc3e b845 cc3d a2a7 7dbe

hidden2time.bias f4 [3]
-0.06977157 -0.01300531 0.044843763
00000000: 66e4 8ebd 3914 55bc 18ae 373d
