events_simulation/models/all_epochs/model_27_20180608-1057.pt (torch_old, 78237 bytes, 9 tensors)

loss_function_events.weight f4 [27]
000000 00 00 80 3f 00 00 80 3f 00 00 80 3f 00 00 80 3f
       1.0 1.0 1.0 1.0
000010 00 00 80 3f 00 00 80 3f 00 00 80 3f 00 00 80 3f
       1.0 1.0 1.0 1.0
000020 00 00 80 3f 00 00 80 3f 00 00 80 3f 00 00 80 3f
       1.0 1.0 1.0 1.0
000030 00 00 80 3f 00 00 80 3f 00 00 80 3f 00 00 80 3f
       1.0 1.0 1.0 1.0
000040 00 00 80 3f 00 00 80 3f 00 00 80 3f 00 00 80 3f
       1.0 1.0 1.0 1.0
000050 00 00 80 3f 00 00 80 3f 00 00 80 3f 00 00 80 3f
       1.0 1.0 1.0 1.0
000060 00 00 80 3f 00 00 80 3f 00 00 80 3f
       1.0 1.0 1.0

lstm.weight_ih_l0 f4 [160, 70]
000000 06 a5 86 3d 1c a0 76 bd 54 e6 84 be 67 b9 cc 3d
       0.065744445 -0.060211286 -0.25956976 0.099963
000010 6b 25 63 bc 10 05 21 bd 9e 44 03 be 95 c8 be 3c
       -0.013863902 -0.03931147 -0.12819144 0.023289004
000020 2a f7 e5 3c 74 1c 50 be f3 c4 ca 3d a8 e8 2c 3c
       0.028071959 -0.20323354 0.09900846 0.010553516
000030 80 f7 ab 3d 39 bb 96 bd 03 34 2a 3e d6 4a aa 3d
       0.08396816 -0.07359929 0.16621403 0.08315055
000040 03 ba e6 bd a8 8a 2d 3d 22 51 9e 3b 05 39 4f 3d
       -0.11265948 0.04236856 0.004831449 0.050591487
000050 80 88 30 3e da 3c a2 3c ba dd 24 3e d3 10 dd 3c
       0.1723957 0.019804407 0.16100207 0.026985561
000060 1e 8c 91 3c 1a 46 94 3d f1 b6 a4 3e 10 4d 0f 3d
       0.017767008 0.07239933 0.32170823 0.034985602
000070 f3 71 97 3d 79 20 8a 3e 0a 13 5b bd 2b b1 ff 3d
       0.07394781 0.269779 -0.053484954 0.12484964
000080 81 6c b3 bc 94 35 38 3e 9d 4e 9c bc 65 80 0e be
       -0.021902325 0.17989188 -0.019080454 -0.13916166
000090 5d c9 38 3e 50 70 60 3e 1a 1f 67 3e ff 35 a6 3d
       0.18045564 0.21917844 0.22570458 0.08115768
0000a0 e1 b4 17 3e 9d 32 b2 3d 55 a4 94 3d 4d 7e 20 bc
       0.14815094 0.0870106 0.07257906 -0.009795737
0000b0 f9 88 03 3e ad 4c 82 3e 99 c6 c6 3d d9 02 30 3d
       0.1284522 0.25449124 0.09705848 0.042971466
0000c0 2d 88 b1 bd 2b 6a 0c bd 4e ff 06 be 5d 96 dd bd
       -0.086685516 -0.034280937 -0.13183329 -0.10819695
0000d0 f9 15 02 3e 63 0f 86 3c 9e 49 b9 3d 4c 7c b4 3d
       0.12703694 0.016364759 0.090472445 0.0881277
0000e0 11 f4 5d 3e 6a 2b 34 3e e7 fc db ba 38 65 44 3e
       0.21675135 0.17594686 -0.0016783745 0.19179237
0000f0 a9 41 a6 bc 1e 8f f0 bb 07 3c 08 3e 2f 26 db bc
       -0.020294981 -0.0073412796 0.13304149 -0.026751606
000100 87 f7 d5 3d 10 e3 09 bc 31 8f bb 3d a2 7e 07 bc
       0.10447603 -0.008415952 0.09158171 -0.008269938
000110 2a 28 7e bd 9d c2 63 3e 37 24 09 be 58 38 e9 3d
       -0.062050022 0.22242208 -0.13392721 0.113877
000120 bc ec 3b 3e 43 0b 15 bd 40 4b ce bd a4 46 92 3d
       0.18352026 -0.036387693 -0.100729465 0.0714238
000130 8f 04 9c 3e 32 37 dc 3e 84 5b 47 3e 42 c0 bd 3d
       0.30472228 0.4301086 0.19468504 0.09265186
000140 56 bd 1b be a6 18 f5 3c fe b1 1f 3e af 5e 30 be
       -0.15208945 0.02991898 0.15595242 -0.17223619
000150 90 8b e2 be 12 d5 60 bd 74 98 6e 3e a0 9a 65 3d
       -0.44247103 -0.0548907 0.23300344 0.056055665
000160 e9 d3 a3 bd 26 f0 3d 3e e8 6a 50 3d ea 68 0f 3e
       -0.07999403 0.1854864 0.050883204 0.14004865
000170 c5 f7 51 3d 61 fc 05 bf 73 83 4f bd 80 2c d3 3b
       0.051261682 -0.52338225 -0.05066247 0.006444514
000180 24 96 3b 3f 6b 4b 71 be 81 2b 8e bd 70 55 1a 3f
       0.7327597 -0.23563926 -0.069418915 0.6028662
000190 30 b3 c9 bc cb eb 45 3e b7 28 01 3e 0a 91 90 3d
       -0.024621576 0.19328229 0.12613188 0.07058914
0001a0 f1 43 fd 3d 04 73 db bd eb ac 18 3e 90 28 d2 3d
       0.123664744 -0.10715297 0.14909713 0.10261643
0001b0 67 45 77 bd e6 4f 98 bd e6 df a1 3c 8e 41 27 bd
       -0.06036892 -0.074371144 0.019760083 -0.040834002
0001c0 81 b0 ca 3b 0a 7c c9 3d cf 1d 3a 3d be 8d 9d 3d
       0.0061855917 0.09838112 0.045438584 0.07693051
0001d0 a8 25 8b bd f3 bb e6 3d 63 b9 14 3e e8 c3 63 3d
       -0.06794292 0.11266317 0.14523844 0.055606753
0001e0 e3 2c da 3d 0e 2c 5c 3d eb 22 6d 3d 7f 89 ec 3b
       0.10653093 0.05375295 0.05789463 0.0072185392
0001f0 dd d8 04 3e 35 6b 7c bd 1e 80 3e 3e 43 23 bf bd
       0.12973352 -0.061625678 0.1860356 -0.093328975
000200 e6 46 13 3e 2e de db 3d fb a8 1c 3e 47 2a 55 3e
       0.14382514 0.10735737 0.15298836 0.20816909
000210 79 9a 72 3e cf 0f 83 3d 7b 9d 0b 3e 11 84 d7 3d
       0.23691739 0.063994996 0.13634293 0.105232365
000220 76 aa 7c 3d 1a 90 03 3e 61 7d 95 bc 09 0a e4 3d
       0.061686 0.12847939 -0.018248262 0.111347266
000230 8d a5 b2 bd ef bf 52 3d 02 9a 0c bd 12 85 ab be
       -0.087229826 0.051452573 -0.03432656 -0.33499962
000240 eb b8 d4 bd b4 cb 94 3d 58 d9 07 be c0 b3 06 3e
       -0.10386833 0.07265416 -0.13266504 0.13154507
000250 cb d1 dc 3d cb 06 20 be 33 56 8f 3c 94 57 a0 be
       0.10782202 -0.15627591 0.017497158 -0.31316817
000260 2a 3f d5 bd 44 98 64 bd ee 17 4d 3d 02 15 89 be
       -0.10412438 -0.055809274 0.05007165 -0.2677384
000270 f5 d8 04 be 60 26 66 bd e9 09 16 3e ac 0b 05 3d
       -0.12973388 -0.05618894 0.14652218 0.032481834
000280 4c 7c 85 3e 18 49 12 3d c1 a2 97 3d 1b 42 a8 bc
       0.26071393 0.03571424 0.0740409 -0.020539334
000290 5b 61 d7 3d 97 6e a7 bd 36 14 0e 3f b5 02 aa 3d
       0.10516616 -0.0817539 0.5549959 0.083012976
0002a0 c5 d2 90 3c 31 cc 27 3f 8f d7 0e be a1 96 cf 3c
       0.017678628 0.65545946 -0.13949417 0.02534038
0002b0 8e de 49 be ee d3 b6 bd 56 ad e0 ba 15 30 17 3e
       -0.19713804 -0.08927141 -0.0017141502 0.14764436
0002c0 62 38 e6 bc 02 b2 1f 3e b7 fe d6 3d 64 1b 84 3d
       -0.028103057 0.15595248 0.10497802 0.06450537
0002d0 67 44 0c 3e 73 01 76 3e 19 9d 4d 3d 6e 5a f9 3c
       0.13697968 0.2402399 0.050198648 0.030438628
0002e0 3f 75 b2 3d 17 dc 4f 3e 25 c0 05 3e 49 6f 57 3d
       0.08713769 0.20298801 0.13061579 0.052596364
0002f0 4f b5 ba bd b2 b6 85 3d de 0a bc 3c c3 86 a6 3d
       -0.09116613 0.06528987 0.0229544 0.081311725
000300 d5 8e df 3d e1 70 d3 3d 28 b3 03 3d ae 8f 91 3e
       0.10915915 0.10324264 0.03215328 0.2842993
000310 37 b9 c1 3c 2e 60 0b 3e bf 38 18 3e b7 43 e2 3d
       0.023647888 0.13610908 0.14865397 0.11048072
000320 7a 68 78 bc 93 34 82 3e 4c b0 27 3e 5c e4 ab 3c
       -0.015161628 0.25430736 0.16375846 0.020982914
000330 8d 92 04 3e 08 16 16 3e d1 3b fb 3d cd 52 61 3e
       0.1294653 0.14656842 0.122672684 0.22004242
000340 4e a2 e7 3d 63 a3 d2 bd 7a dd 84 bc 88 06 87 3d
       0.11310254 -0.1028507 -0.01621889 0.065930426
000350 ed 77 49 bd 5d d6 9c 3d c3 b2 5d 3d fc 26 89 bd
       -0.049186636 0.07658074 0.05412556 -0.06696889
000360 02 65 bb 3d f5 d0 bd 3d 67 16 34 be 12 70 20 3e
       0.09150125 0.09268371 -0.17586671 0.15667751
000370 0a b8 af bd d9 38 1c 3e 3d 2e c5 3d 12 ad 96 bd
       -0.085800245 0.1525606 0.0962796 -0.07357229
000380 3d e0 40 be 60 be c0 bb dd d1 87 bd 86 a6 14 be
       -0.1883554 -0.0058820695 -0.06631825 -0.14516649
000390 b2 c0 a0 3c 78 24 73 bb b7 36 95 3d be bd 16 3e
       0.019623134 -0.0037100594 0.07285827 0.14720818
0003a0 27 6c b0 bd fb 18 9a be 4b ee a1 bd 25 54 12 3e
       -0.086143784 -0.30097184 -0.07906779 0.14289911
0003b0 a5 64 38 3f 73 08 f6 bd 38 eb bb bd 97 e9 3b 3f
       0.7202857 -0.1201333 -0.09175724 0.73403305
0003c0 a5 cd cf 3d 3d fa 0d bd bc d4 e8 3d 19 6e 1a 3e
       0.101466455 -0.034662474 0.11368701 0.15081061
0003d0 4d c1 a2 bc a0 1c dc bd 76 46 47 3e 97 4d 13 bb
       -0.019867564 -0.10747647 0.19460472 -0.0022476667
0003e0 a0 cc 52 3d 79 95 27 3e 1e e6 49 3e 91 38 9f bc
       0.051464677 0.16365613 0.19716689 -0.019436153
0003f0 65 5d 60 3d 9f 95 de 3d 44 4e 45 bd c7 4e 08 bd
       0.054776568 0.10868382 -0.048170343 -0.033278253

lstm.weight_hh_l0 f4 [160, 40]
000000 16 aa 45 bc e4 32 88 3e 76 08 c4 bd 1e ce 37 3e
       -0.012064477 0.26601326 -0.09571926 0.17949721
000010 61 fd 06 be 4e ab a5 bc 0f ba 87 3d 89 09 59 3c
       -0.13182594 -0.020223286 0.06627285 0.013246902
000020 6b 67 8e bd 6f e4 f8 3b 3d f4 0f 3d f5 ba 9d 3d
       -0.06953319 0.007595591 0.035145033 0.07701675
000030 9c f9 00 be e2 51 c9 3d fe 8e d0 bc 19 00 fe bd
       -0.12595218 0.09830071 -0.025458809 -0.124023624
000040 dd e3 5a 3e 96 06 76 3d ec 6c 9d 3d 39 b3 d4 3d
       0.21375985 0.060064875 0.07686791 0.103857465
000050 0c 4d 51 be b5 6f ba bd b3 e1 28 3d 77 4f 28 3e
       -0.20439547 -0.09103338 0.04123087 0.16436563
000060 31 1b cb 3d 51 7c 55 be ed 63 11 3e 11 3a 1b 3e
       0.09917296 -0.20848204 0.14198275 0.1515887
000070 f5 e3 2a bd e2 bd 3b bc b5 f5 26 bd c2 41 cb bc
       -0.041721303 -0.011458846 -0.04076167 -0.02481163
000080 35 cb 0d bd ba a0 13 3e ed 9d 91 3d 76 7d 6d 3d
       -0.03461762 0.14416781 0.071102 0.057980977
000090 7e c8 fe 3c 31 ee bc 3d 3e 2a 3e 3e ef 25 a3 bd
       0.031101461 0.09225119 0.18570802 -0.0796622
0000a0 a4 6f 3c bd 89 9d 33 3e 2e 27 92 3d 20 e5 53 3e
       -0.046004906 0.17540564 0.07136379 0.20692873
0000b0 75 45 cc bd cc d8 a2 3d cb 90 a9 bd a0 18 ed 3d
       -0.099741854 0.07951507 -0.0827957 0.115769625
0000c0 91 14 47 bd 03 8b 71 bd e1 a0 78 bd c5 ea ba bc
       -0.048603598 -0.058970463 -0.0607003 -0.022817025
0000d0 49 1c d6 3d 57 1e 7d 3e 41 7f 88 bc 46 df 61 3d
       0.10454614 0.24718605 -0.016662242 0.05514457
0000e0 54 7b bc 3b 00 70 48 3d 74 35 0c 3f 28 00 d2 bd
       0.0057520065 0.048934937 0.54769063 -0.10253936
0000f0 31 36 be 3d 3a 14 64 3e 01 78 98 3d fb 6d 56 3e
       0.0928768 0.22273341 0.07444764 0.20940392
000100 62 85 05 3e e2 3d 6f 3d 43 11 92 3d 1c f6 75 bd
       0.13039163 0.058408625 0.07132199 -0.06004916
000110 60 1a 17 3d 4d 8d 02 be 64 a3 d5 bd e3 cc e1 3d
       0.036890388 -0.12749214 -0.10431555 0.11025407
000120 e6 d7 f8 3d 89 e9 bf 3e 28 67 ba bd d5 ed 88 3d
       0.12150554 0.3748286 -0.09101707 0.06685988
000130 12 4e 26 3e 8c a7 8b bd 47 35 44 3e c1 29 90 3d
       0.16240719 -0.068190664 0.19160949 0.07039214
000140 60 08 1f bb 2a d5 90 3e c8 87 c1 bc db 85 93 bd
       -0.0024266466 0.2828763 -0.023624316 -0.07203265
000150 89 f9 d4 bd 35 cf de bd 5a 73 dc bd de 39 e9 3d
       -0.103991576 -0.10879365 -0.10764189 0.113879904
000160 0b a2 fd bd 74 1f 05 3c 73 8b bb ba 38 91 ed 3d
       -0.12384423 0.008125175 -0.0014308527 0.11599964
000170 1a 0d f8 3d 12 c4 50 3e 51 8a 0a bc f2 8e 3f 3c
       0.12111874 0.20387295 -0.008455829 0.011691796
000180 f9 76 e3 3d 15 c8 2f 3e f4 c7 17 3e 87 9d cf 3d
       0.111066766 0.17166169 0.1482237 0.10137468
000190 9d a2 0b 3d 46 e8 77 bd f6 fd b1 bc 44 a2 0f 3e
       0.034090627 -0.060524248 -0.021727543 0.14026743
0001a0 b9 3f fa 3d b2 6a ee bd b4 5b 26 3e e4 4c 82 bd
       0.122191854 -0.11641444 0.1624592 -0.06362322
0001b0 3a dc 62 bd c2 05 26 3d 9c 57 03 be 20 51 fe 3d
       -0.055385806 0.040532835 -0.12826389 0.12417817
0001c0 a5 94 81 3c 1b 2a 8e 3e ff 74 9c bd 3a d0 30 be
       0.01581795 0.277665 -0.07639503 -0.17266932
0001d0 ba f4 52 3e 55 85 25 3d e2 42 5d 3e 03 80 a6 bd
       0.20601168 0.04041036 0.21607545 -0.08129885
0001e0 0e bd e6 3d 3a 04 bc 3c c4 41 b9 bb 04 ca a7 bd
       0.11266528 0.022951234 -0.005653592 -0.08192828
0001f0 f1 ab af 3d 1a b7 4d 3e 6a c3 90 3d 42 67 0c 3e
       0.08577717 0.20089379 0.07068522 0.13711265
000200 13 bd 84 bd 3f e2 a6 3d 22 fa d8 bd c3 fe c8 3d
       -0.064813755 0.08148622 -0.10594584 0.09814217
000210 65 cd 85 3d 91 f8 29 3e 8d 29 0a bb 02 a9 ab bd
       0.065333165 0.16598727 -0.0021081895 -0.08381845
000220 87 eb bc 3d 36 5d 4d 3b d9 4b ab 3e 3c bf ae bd
       0.09224611 0.0031336076 0.33456305 -0.08532569
000230 b9 aa cb bd 6e 92 ae 3e 4d 7e b8 bc 5f 82 cb bc
       -0.09944672 0.34096092 -0.022521162 -0.02484244
000240 4e 05 3d 3e 39 01 8f 3d fb d1 d4 bd 74 b2 9d 3d
       0.18459055 0.06982655 -0.10391613 0.07700053
000250 08 2b 40 3d 8a 31 b7 3d 66 40 12 3e 18 23 bf bd
       0.046916038 0.08944996 0.14282379 -0.093328655
000260 5b cc 50 bc a3 ef da 3d 79 4c 07 3e 73 cc a4 3d
       -0.012744035 0.10690238 0.13212766 0.08046808
000270 f2 0e 6b bd cf 21 d9 3c 35 2d 9b bd 5a 62 83 3d
       -0.0573873 0.026505379 -0.07576982 0.064152434
000280 a2 db 86 3d b5 a6 92 3e 81 e9 31 be 37 91 64 3e
       0.065848604 0.28642812 -0.17374231 0.2232102
000290 65 04 72 be 11 1d 9c 3e 60 ac 92 be d2 07 74 be
       -0.23634489 0.30490926 -0.28647137 -0.23831108
0002a0 25 ad 0e be c1 49 da 3e 8d da 81 3e f1 05 60 3e
       -0.13933237 0.42634395 0.25362054 0.21877266
0002b0 8e 92 64 3d 58 ca d3 3e cc 47 4a 3e 1c 55 c8 bd
       0.055803828 0.41365314 0.19753951 -0.09781858
0002c0 f3 e3 8f 3e 65 16 b3 3e 76 9b ef 3d 18 1f 25 be
       0.281036 0.34978023 0.11699574 -0.16125143
0002d0 54 9e 4e be a1 1d bf 3e a5 bc 0b be a8 de b7 3e
       -0.20177585 0.37327293 -0.13646181 0.3591206
0002e0 6b 18 36 3e 96 b6 3b be 60 80 bc 3e 25 3a fb 3d
       0.17782752 -0.1833137 0.36816692 0.122669496
0002f0 57 3b 09 be 1a ee 8c be 33 9a 1b be f2 17 4f bd
       -0.13401543 -0.27525407 -0.15195541 -0.050559945
000300 f0 cd 11 3e 67 2f a6 be 7f 66 69 3c f4 28 b3 be
       0.14238715 -0.3245804 0.014245628 -0.34992182
000310 eb dc c2 3d 2a ef 32 be ef 6c 9c 3e b8 91 ee bd
       0.09514793 -0.17474046 0.3055186 -0.116488874
000320 74 2b 33 3e 10 d6 21 3e 60 39 19 3e ad d5 cc 3c
       0.17497045 0.15804315 0.14963293 0.025004232
000330 4c 92 31 be f0 76 cb 3a f5 82 b3 3d 2c 8d b4 bd
       -0.17340964 0.0015523117 0.087652124 -0.08815989
000340 e0 2e 80 bd 66 b4 2a 3e bc af ea bc 34 1e 85 3d
       -0.06258941 0.16670379 -0.02864825 0.064999014
000350 ab 7d e1 bd 52 07 95 3d d9 b9 d6 3c 4e 71 90 3d
       -0.110102974 0.07276787 0.026211666 0.07052861
000360 45 8d 3e 3e 49 33 8b 3d b0 44 d0 bc 5b e7 9c bd
       0.18608578 0.06796891 -0.025423378 -0.07661315
000370 3c dc a8 3d ee ee 7e 3e ac ac 83 bd 1e 52 6e bc
       0.082451314 0.24895832 -0.06429419 -0.014545945
000380 a5 2a 7d 3d 40 6e d0 bd 46 ad db 3d a0 34 c9 bd
       0.061808247 -0.101772785 0.10726409 -0.098244905
000390 02 ad 21 be e0 5d 61 3e ec e0 ca 3d 08 fc 02 be
       -0.15788653 0.22008467 0.09906182 -0.12791455
0003a0 79 7b 08 3e b3 27 9d bd 8d 80 df bc 48 90 0f 3e
       0.13328351 -0.07673588 -0.027282977 0.14019883
0003b0 6b ce 41 3e 99 b9 ea 3c d3 6a 77 bd a4 79 78 3d
       0.18926398 0.028652953 -0.06040461 0.06066288
0003c0 09 79 e0 bd 3f 85 c8 3e 1a 6c 81 be bf 95 18 3e
       -0.109605856 0.3916416 -0.25277787 0.14900874
0003d0 97 c0 07 be 91 bd 0e 3d be 44 07 be 3d 33 17 bd
       -0.13257061 0.034848753 -0.13209817 -0.0369141
0003e0 31 07 d5 3c 43 6a a7 bd 48 f6 0d 3e 8d c4 66 3e
       0.026004406 -0.08174565 0.1386348 0.22535916
0003f0 bf 5b 81 3d f6 e5 5b 3d 27 c2 6d 3d c2 2f e0 bc
       0.06316327 0.053686105 0.058046486 -0.027366523

lstm.bias_ih_l0 f4 [160]
000000 87 52 60 bd a5 1e 7f 3d b4 87 33 3e 4c bd c2 bc
       -0.054766204 0.062285084 0.17532235 -0.023771904
000010 10 6d b7 3d d5 74 55 3e 17 20 2d 3e 60 1c 65 3e
       0.08956349 0.20845349 0.16906773 0.22374105
000020 fd ce ad 3d d2 52 9d 3d 4b 5d f0 3d fa 95 1c 3e
       0.084867455 0.07681812 0.11736544 0.15291587
000030 1c 1a 1e 39 33 2d 51 bb 1d 01 cb bc b7 53 90 bd
       0.0001507778 -0.003191781 -0.024780804 -0.07047217
000040 20 21 52 3d aa e3 38 3e 2b 3a 24 3e bc 85 43 3d
       0.05130112 0.18055597 0.16037814 0.04773496
000050 24 03 8b 3d e1 7e 20 3e de f8 18 3d 2f f5 a7 3c
       0.067877084 0.156734 0.037346713 0.020502655
000060 7d b3 80 3e cf 48 cc 3c b6 08 ce 3d 58 99 73 bd
       0.2513694 0.024937062 0.10060255 -0.059472412
000070 26 69 88 bd dd fd 2e 3e 31 85 87 3d 06 53 1f bd
       -0.066606805 0.17089029 0.06617201 -0.038897537
000080 b4 e4 8b 3d 45 e1 53 3e 25 bd 34 3e 57 57 80 3e
       0.06830731 0.20691402 0.17650278 0.25066635
000090 11 94 31 3e 09 34 7b 3d 2a a0 e0 3d 25 10 31 3e
       0.17341639 0.06132892 0.10968049 0.17291315
0000a0 9e 04 05 3e a5 f7 6c 3d 3b 60 51 3d f6 28 5b 3e
       0.12990043 0.05785336 0.051117163 0.21402344
0000b0 70 3a 62 bc 57 3f 0d 3e d7 0c c7 bd 51 46 20 3e
       -0.013807878 0.13793693 -0.09719246 0.15651824
0000c0 ce 85 f2 bb 5e cd 5a 3e ca e0 c5 3d d4 3e 04 3e
       -0.0074012047 0.21367404 0.09662016 0.12914592
0000d0 dd fc b5 3c 5a b4 f4 3d 91 81 be 3d e3 72 f0 3d
       0.022215301 0.11948462 0.093020566 0.11740663
0000e0 c6 c8 a1 bc 71 ac 97 bc f2 11 d8 3d 4e 5c 0b 3e
       -0.019749057 -0.018514844 0.10550298 0.1360943
0000f0 27 a5 06 3e ab 96 50 3a d0 f6 f0 bd 72 1c fd 3c
       0.13148938 0.00079570216 -0.11765826 0.030897353
000100 d8 9a 96 3d 4a 48 cb bd 69 ca 1e 3e c8 11 68 3c
       0.07353753 -0.099258974 0.15506901 0.014164396
000110 de a4 e9 3d da 5e 01 be 8a 57 6b 3a 98 e5 2f bc
       0.11408399 -0.12633839 0.0008977583 -0.010735892
000120 10 0c de 3d 2b c2 07 be 95 5a a1 bc bb 9d 29 bc
       0.108421445 -0.13257663 -0.019696513 -0.010352547
000130 f8 48 a5 bd 6b 3a 4d bd b7 1f 79 bc 08 10 a0 bd
       -0.08070558 -0.05010454 -0.015205315 -0.07815558
000140 78 b6 c8 3d c9 09 bd b9 7e a8 8e 3c c9 37 84 bd
       0.09800428 -0.0003605618 0.017414328 -0.06455953
000150 62 ee b1 bd b0 e5 e9 3d c4 3a 4b be 1b 96 1d be
       -0.08688046 0.114207625 -0.19846636 -0.15389292
000160 07 64 f0 bd d6 e8 1a 3e 1d 3b 88 3d 98 6c d2 3c
       -0.11737829 0.15127882 0.066519 0.025686547
000170 1f c5 01 be 75 0b b0 bd b4 28 a2 3d 14 05 96 3d
       -0.12672852 -0.08595935 0.0791792 0.07325187
000180 76 bb 9f bd 7a db 42 3e 05 bb 4f 3e 6a 38 35 be
       -0.07799427 0.19029036 0.20286186 -0.17697302
000190 61 35 9d 3c 70 b5 29 3d 5c a4 fe bd ba 3c 3d 3e
       0.019190492 0.041432798 -0.12433693 0.18480197
0001a0 67 81 aa bd 29 f2 b4 bd 2c 98 d5 3d 08 06 80 3d
       -0.08325463 -0.08835251 0.10429415 0.0625115
0001b0 75 2b 7e 3d be f7 a0 3d c0 07 d1 bd 17 0f 2c be
       0.062053163 0.07859753 -0.10206556 -0.16802631
0001c0 97 51 05 bd ee ab 32 be 3f 07 7e 3d cd 22 20 be
       -0.032548513 -0.17448398 0.06201863 -0.15638275
0001d0 0d 67 9f 3d 5c d5 26 bd a2 df ac 3c e4 60 7f bd
       0.07783327 -0.04073082 0.02110273 -0.06234826
0001e0 d8 44 06 3e 07 3f 30 3e df ec 0d 3e 55 f0 96 3c
       0.131122 0.17211543 0.1385989 0.018425146
0001f0 a7 72 c7 3e fc 53 dd 3d ec c5 22 3e 5d f3 db 3d
       0.3895466 0.108070344 0.15895814 0.10739777
000200 8a ee 9d bd d7 5e f6 3c 52 9e 32 bd da 9d fd 3d
       -0.07711513 0.03007452 -0.043608017 0.123836234
000210 23 ed a5 3e fb 1c 10 3e a7 37 f8 3d 3a ae 28 3e
       0.32407483 0.14073555 0.1211999 0.16472712
000220 9d 0e 4e bd a4 06 24 3e 1f 2c 2b 3e ed c7 2b bd
       -0.050306905 0.16018158 0.1671605 -0.04193871
000230 59 d9 27 3e 96 35 1a 3e 62 d5 8f 3d 09 ca 93 3c
       0.16391505 0.15059504 0.070231214 0.018040674
000240 a5 86 c0 3d 92 f4 61 bd 92 8d e2 3d a8 3a 92 3d
       0.094006814 -0.05516488 0.11062159 0.07140094
000250 39 85 56 bd 13 55 a6 3e 8a 4a b0 3d 39 84 94 bd
       -0.052373145 0.3248678 0.08607967 -0.07251782
000260 fc 06 03 bd 38 c6 6b 3e af 33 80 3e 81 f7 50 3e
       -0.031989083 0.23024833 0.2503943 0.20406915
000270 97 44 02 3e 50 54 b6 3c 0a a6 7e 3d 5b 10 f5 3d
       0.12721477 0.022257 0.062170066 0.1196601

lstm.bias_hh_l0 f4 [160]
000000 95 55 f4 3d cd 5b 9d bb 4f 02 ac 3d e5 09 64 bb
       0.11930386 -0.0048022033 0.08398878 -0.0034795937
000010 24 c7 dd 3d b9 28 c3 3c 9a e0 64 bd 55 41 11 b9
       0.10828999 0.023823129 -0.05587826 -0.00013852616
000020 39 2f a8 3d b2 f7 c6 3d f7 98 43 bc 10 32 05 3e
       0.08212132 0.09715213 -0.011938325 0.13007379
000030 29 e5 d4 bc 09 4a 5e 3e 1f 72 61 3e 12 2f 12 3e
       -0.025988178 0.2170793 0.2201619 0.14275768
000040 ba 27 36 3e f8 ff 1d 3e 09 ee 04 3e 70 38 5d bd
       0.17788592 0.15429676 0.12981428 -0.0540089
000050 b6 ba 4e 3d 34 a6 03 3e 83 e4 11 bc 8c f2 21 3e
       0.05047103 0.1285637 -0.008904579 0.1581518
000060 46 35 4b 3e c8 da 61 3d 76 0f 23 3d 9f eb 18 3e
       0.19844541 0.055140287 0.039809667 0.14933632
000070 44 ac 95 3d 79 17 b8 3e 1b 3b 48 3e 2f 11 ed 3d
       0.07308248 0.35955408 0.19553797 0.11575543
000080 f4 69 19 3e 21 37 57 3e 3b 69 8b 3d 80 be 8b bb
       0.14981824 0.21017124 0.068071805 -0.0042646527
000090 bc 60 79 bc 29 24 67 bd be 39 db 3d 2d 2b 12 3e
       -0.015220817 -0.05643097 0.10704373 0.14274283
0000a0 36 9c 89 3c 6c 25 7b bc 6d e1 0b 3b 88 2f 94 bd
       0.01679812 -0.015328746 0.002134408 -0.07235628
0000b0 b1 3c a9 bd 27 99 ad 3d cd e9 20 3d a2 ba ba 3d
       -0.08263529 0.08476477 0.03928547 0.09117629
0000c0 44 a6 10 be 1d fe 33 3e b5 cc ee 3c 90 1f 33 3e
       -0.14125925 0.17577405 0.029150346 0.17492509
0000d0 7e 55 f9 bc ec 04 5e 3e b3 ca d2 3d f3 87 0f bd
       -0.030436274 0.21681565 0.10292568 -0.03504176
0000e0 9c 41 3d 3d fe e7 1c 3e c6 0a 6f 3d b3 50 f1 bd
       0.046205148 0.15322873 0.058359884 -0.1178297
0000f0 5e a8 31 3d 51 cc 85 bd 73 53 0e 3e 63 7f b0 3d
       0.043373458 -0.06533111 0.13899021 0.08618047
000100 32 02 05 3e d8 eb 5d bd 00 fe b9 3d 7b c2 9b bd
       0.12989119 -0.054179996 0.0908165 -0.076054536
000110 0c 51 04 3e 72 1c 6d 3d 9d ab a0 bb d1 fe 95 bd
       0.12921542 0.057888456 -0.0049032704 -0.07323993
000120 36 57 f4 3d 5a 95 3d 3d bf 67 0c be 6b 6f fa 3d
       0.11930697 0.04628501 -0.13711451 0.122282825
000130 62 a6 96 bd 96 91 d1 bc c9 38 50 3e 8a df 14 3e
       -0.07355954 -0.025582116 0.20334162 0.14538398
000140 ed 11 fb 3b 74 23 8f bd b9 4b 67 3d fc 6c 38 3e
       0.007662049 -0.06989184 0.0564687 0.18010324
000150 5e d4 db ba f8 34 51 3e 5a 77 cf bd 75 73 fe bd
       -0.0016771664 0.20430362 -0.101301864 -0.124243654
000160 ff ee 8e 3d 42 19 30 3e 5a 6b 26 3e cd 19 97 bc
       0.06979179 0.17197135 0.16251889 -0.01844492
000170 8e 57 d4 3d 01 85 6a 3d de ec 9a bd 8f 67 a3 bd
       0.10368262 0.05725575 -0.0756471 -0.079787366
000180 e1 86 30 bb 5c 14 de bd c3 0f c8 bc 55 9a 26 be
       -0.0026935863 -0.10843727 -0.024421578 -0.1626981
000190 c1 1b 08 be e9 f9 63 3e 59 88 43 be e5 c1 80 3d
       -0.13291837 0.22263302 -0.19094981 0.062869824
0001a0 3c 0a 07 3e e7 65 0f be ca 93 32 3d 7b ea 44 3e
       0.13187498 -0.14003716 0.043597974 0.19230072
0001b0 08 68 34 be 26 70 d6 bd 82 79 f4 bd 93 ab 2b 3d
       -0.1761781 -0.10470609 -0.11937238 0.041911673
0001c0 86 37 d6 3d d8 43 cb bd 47 cf a8 bd 99 0a 3b be
       0.10459809 -0.099250495 -0.0824266 -0.18265761
0001d0 05 26 2b bd 9a 98 c4 3d 1f 7c 2e 3e 8f a5 c3 bd
       -0.041784305 0.09599419 0.17039536 -0.09553062
0001e0 d6 58 04 3e d1 64 3c 3e 27 b4 22 be 04 0c 4c 3d
       0.12924513 0.18397833 -0.15889035 0.049816146
0001f0 19 f8 a4 3e 34 95 17 3e 14 8e 21 3e dd 90 47 3e
       0.32220533 0.1480301 0.15776855 0.19488855
000200 d4 e0 a8 bc 59 d3 33 3e ac 28 23 3e 00 0d be 3d
       -0.020615019 0.17561091 0.15933484 0.09279823
000210 8a 24 29 3e 15 29 15 be 73 73 0f 3c fd ee 53 3d
       0.16517845 -0.14566453 0.008755553 0.05174159
000220 20 6a 2e 3e 29 58 71 bc c9 c4 94 3e 62 6e 53 3c
       0.17032671 -0.014730492 0.29056385 0.012904735
000230 fc 2e a5 ba e4 d8 50 3e 32 37 95 bd 65 20 13 3e
       -0.0012602503 0.20395237 -0.07285918 0.14367826
000240 0b d5 b8 3b 2a e2 13 3e 8c c6 00 3e 3d 9c 63 3d
       0.005640631 0.14441743 0.1257574 0.055568922
000250 12 d3 ab bd ee 46 c3 3e 9a dd 92 bd 45 14 8d 3d
       -0.08389868 0.38140053 -0.071711734 0.06888632
000260 e0 14 da bd e6 f7 63 3e 09 5c ab 3e 28 43 5f 3d
       -0.10648513 0.22262534 0.33468655 0.054507405
000270 87 9d 20 3e 13 a3 d2 3d e1 63 8d 3c 3d b7 2c 3e
       0.15685092 0.1028501 0.01725954 0.16866775

hidden2event.weight f4 [27, 40]
000000 46 58 a1 be 62 06 cf bd 77 6d 7e 3e 88 ed a0 be
       -0.3151266 -0.10108639 0.24846445 -0.31431222
000010 c4 dc 72 be 76 6f 8b bd 15 87 0b bd cc 34 92 3e
       -0.23717028 -0.06808369 -0.03406437 0.28555906
000020 8f d2 bb bd 5b 0d 84 be 72 6d 27 3c c0 1b 1e be
       -0.0917102 -0.2579144 0.010218965 -0.15440273
000030 ad 6b 07 bf 8b 53 02 3e 6b 52 a5 be 4d 27 8f be
       -0.52898675 0.12727182 -0.32289442 -0.27959672
000040 f2 6f ff bd 68 0f 43 3e cc 6d 63 3f 81 bd f4 3d
       -0.12472524 0.19048846 0.8883941 0.119502075
000050 ac 80 fe 3d 09 95 b0 3e b3 55 34 be c0 96 c1 3d
       0.12426886 0.34488705 -0.17610817 0.094525814
000060 d7 82 5f bd 9d 99 ad 3d 93 b0 cd bb b9 13 98 be
       -0.054568138 0.08476565 -0.006277153 -0.29702547
000070 34 c6 b7 3e 04 5f 38 bd e3 67 a7 bd 86 9c 9d 3e
       0.35893404 -0.04501249 -0.08174112 0.3078348
000080 d0 5a 1a be d7 5a a3 be 08 4b 45 be 14 fe 2f be
       -0.15073705 -0.31905243 -0.19266903 -0.17186767
000090 30 47 96 3d f7 b5 22 be 4f 7c 8c 3d b6 98 b4 bd
       0.07337797 -0.15889727 0.068596475 -0.0881819
0000a0 d1 5d 4b be 86 2d a7 3e bf 88 92 3e cb a1 02 3d
       -0.19860007 0.3265192 0.28619954 0.03189258
0000b0 1a 0e 1f be 44 b5 89 3d 3d e7 e9 3d ae 3b 64 be
       -0.15532723 0.06724027 0.11421058 -0.22288391
0000c0 43 9c 5a be 13 ab 74 3e 31 11 18 3e 09 3a 09 be
       -0.21348672 0.23893385 0.14850308 -0.13401045
0000d0 c8 a4 1f bf 7f b8 9b 3d 73 ec c4 bd 83 cf 79 be
       -0.6236081 0.07603549 -0.096154116 -0.24395566
0000e0 f1 c6 53 be 44 f4 bb 3d b7 d5 29 3f 72 a2 63 3e
       -0.20681359 0.09177449 0.6634173 0.22229937
0000f0 42 9e 09 3e a7 fc e3 3e 6b a8 5a be a6 55 6c 3e
       0.13439277 0.44528696 -0.21353309 0.23079547
000100 8c 1a 23 3e 3e 8a b0 bd 1c 0e 8d 3d b0 65 58 be
       0.15928096 -0.086201176 0.06887457 -0.2113254
000110 d7 9e 95 3e 46 dc c5 bd 95 de 18 be 48 57 62 be
       0.29222748 -0.096611544 -0.14928658 -0.22103608
000120 db 1e 1a 3e d2 6a a5 be de ce 85 bd f1 11 56 be
       0.15050833 -0.3230806 -0.065335974 -0.20905282
000130 be 21 3a 3d 4e f3 23 be e6 81 ba 3e a8 56 ff bc
       0.045442335 -0.16010782 0.3642723 -0.03116925
000140 53 57 7a be 64 c4 c5 bd 1d 17 8d be 23 d7 5b bd
       -0.24447374 -0.09656599 -0.27556697 -0.053671967
000150 90 e4 5e 3e c6 e3 7a 3e ce f6 44 be ee 02 33 be
       0.21766877 0.24500951 -0.19234774 -0.17481586
000160 70 c1 3a 3e 90 f8 4c 3d 37 06 28 3d e3 aa 25 be
       0.18237853 0.050041735 0.041021552 -0.1617847
000170 7b b5 2b bf 21 21 2e be 3b 58 32 bd ed 59 48 be
       -0.6707379 -0.17004825 -0.043541174 -0.19565554
000180 61 ed c0 3d 8d 4a 5a 3e 0e 12 11 3f 61 1f 92 3e
       0.094202764 0.21317501 0.56668174 0.28539565
000190 6a 69 45 bd 0b b5 31 3f 3f f4 9a 3c f5 c0 1d 3e
       -0.048196234 0.69416875 0.018915294 0.15405639
0001a0 1e 16 b3 bd 31 fc 5c be e1 5e 12 3e f1 9c eb bd
       -0.08744453 -0.21580578 0.14294006 -0.115045436
0001b0 9b d4 6e 3e 59 88 79 bd 4b f1 9b 3e 8a 48 ad 3e
       0.2332329 -0.060921047 0.3045753 0.33844405
0001c0 8d 54 36 3e 8a ee d9 be 91 dc 4e be 66 f4 28 be
       0.17805691 -0.42564803 -0.20201327 -0.1649948
0001d0 86 80 50 3e 9f b5 d7 3d 23 a1 c7 be 98 11 e9 bd
       0.20361528 0.10532688 -0.38990125 -0.11380309
0001e0 c2 a5 c9 3e 1d d4 aa 3e 54 4b de be 18 a4 31 be
       0.39384276 0.33364955 -0.43416846 -0.17347753
0001f0 0d 9a 57 bf 8f a6 75 be ef dd c7 3e 31 b4 91 bd
       -0.8421944 -0.23989318 0.3903651 -0.07114447
000200 36 1f fe bd 2d af e9 3e e8 87 df 3e aa 0c 5c 3e
       -0.12408297 0.4564146 0.43658376 0.21489206
000210 52 23 5f 3d 23 31 fb 3e f7 53 98 bc ce ed d9 be
       0.054477043 0.49060926 -0.018594725 -0.42564243
000220 ee a7 73 be 9f 8f 2e 3d c7 4c 04 bf 0f 6a 02 be
       -0.23794529 0.042617436 -0.5167965 -0.1273577
000230 b4 73 98 be 88 c0 5f 3f b4 af 9a 3e 77 60 ec 3e
       -0.29775774 0.87403154 0.30212176 0.46167347
000240 16 d0 83 be e1 0b 04 bf 25 b0 4c be df 1a 7b 3e
       -0.25744694 -0.51580626 -0.19989069 0.2452197
000250 77 6f 42 be be a0 72 3f 41 2b c6 bd 01 7d 8c 3e
       -0.18987833 0.94776523 -0.09676219 0.2743912
000260 8e 07 16 bd e0 c7 19 bf 52 da ee bd 7b aa dd 3e
       -0.0366283 -0.6007061 -0.11662735 0.4329413
000270 45 12 bc 3d 9a 9e 9d 3e a1 38 a0 3e 03 f4 af 3e
       0.09183172 0.30785066 0.31293204 0.34365854
000280 9f 29 ab 3d b3 70 04 3f 74 ce 41 3e 8d f1 1b 3e
       0.08357548 0.51734465 0.18926412 0.15228863
000290 fe 6b 57 3f f2 31 8f 3e b0 3e e5 bd a8 97 97 3e
       0.8414916 0.27967793 -0.11193597 0.29607892
0002a0 3a ea 84 bd a5 23 29 bf 64 13 09 bf 94 f5 bb bd
       -0.06489988 -0.66070014 -0.5354521 -0.091777
0002b0 25 35 3e 3d e9 df b2 3d 9b ff b2 be d3 e8 4d be
       0.0464374 0.08734114 -0.34960636 -0.20108347
0002c0 2f 92 e4 3d 7e 35 e6 3c 9c 80 ba bf ec be e4 be
       0.11160695 0.028101679 -1.4570498 -0.44676912
0002d0 9a 64 60 3e 1b 2c 9e 3e 3f 9f cc 3c de 04 64 3e
       0.21913376 0.30893025 0.024978278 0.22267482
0002e0 46 4f f8 be 64 2f 2f 3e d2 66 55 be 48 bc 4b 3d
       -0.4849798 0.17107922 -0.20840004 0.049740106
0002f0 e6 e7 13 bf c9 28 1b 3f 26 a6 ed 3e a5 93 be bc
       -0.57775724 0.6060911 0.46415824 -0.023263762
000300 23 83 47 be b0 96 2e be 81 b1 84 3e d4 39 0a bf
       -0.19483618 -0.1704967 0.25916675 -0.5399449
000310 7f 0e 27 bc 3a 26 7f 3a c8 fa c3 3e c6 08 51 3e
       -0.010196327 0.0009733174 0.38277268 0.20413503
000320 7c ae 56 be 61 73 ce be 0a 3d ec 3e 80 22 2c be
       -0.20964998 -0.40322402 0.4614032 -0.16810036
000330 4f 81 8a 3e f7 ff 40 be f8 47 c4 3d 4b 3d ac 3e
       0.2705178 -0.18847643 0.095840394 0.33640513
000340 80 85 9c 3e 4b 46 2f be da 7b 6c be 8d 0c 5a be
       0.30570602 -0.17116658 -0.2309412 -0.2129385
000350 96 9c 31 bd cd ed ec be 63 61 88 be 23 a0 7a 3e
       -0.043362223 -0.46275178 -0.266368 0.2447515
000360 fe 7d 0a be f3 3d 93 be 1e 19 b1 be e7 a4 d3 3e
       -0.13524625 -0.287582 -0.34589475 0.41336748
000370 94 f4 aa 3e 65 11 1e bf d6 d7 27 3e fd 48 f0 bd
       0.33389723 -0.6174529 0.16390929 -0.117326714
000380 ae 1f bd bd 34 75 a0 3e b8 69 b4 bd 49 4a bd be
       -0.09234558 0.3133942 -0.08809227 -0.36970738
000390 94 c1 63 3e 2a a7 ac 3e 2d 97 77 3e e2 b8 4d 3e
       0.22241813 0.33721286 0.24178763 0.20090058
0003a0 e3 cc cc bd dd 62 6f 3f 34 87 06 be 09 35 e4 3e
       -0.100000165 0.9351023 -0.13137513 0.44571713
0003b0 ce 06 d8 bd 19 09 d6 3e e6 d5 aa be 93 af ae 3e
       -0.10548173 0.41803816 -0.33366317 0.34118327
0003c0 82 25 ae bd 4a 8a 2b be 2f 44 7e 3e 92 34 84 be
       -0.08503248 -0.16751972 0.24830697 -0.25821358
0003d0 76 5f 97 3e 5d d4 76 be 39 7e 59 3e 20 c3 83 3e
       0.29565018 -0.24104448 0.21239556 0.25734806
0003e0 ab 7e 97 3e ef d4 c3 be 83 80 73 be 1c c7 33 be
       0.29588827 -0.38248393 -0.23779492 -0.17556423
0003f0 be 9a 93 3e e5 be 86 be e5 ab ac be 18 d7 b3 3d
       0.28828996 -0.26317516 -0.33724895 0.0878126

hidden2event.bias f4 [27]
000000 3b c6 8d bd 52 f7 5d bd 53 c5 55 3d 76 f2 f7 3d
       -0.06922575 -0.05419094 0.052190136 0.12106793
000010 6f c4 0a 3e 4d f7 8f be 78 d5 ee bd 60 48 09 be
       0.13551496 -0.28118363 -0.1166181 -0.13406515
000020 ac 48 74 3e 2d 79 b8 3d 3b 50 cb bd 56 5f 1e bd
       0.23855847 0.090074874 -0.09927412 -0.03866514
000030 d7 f5 20 be b1 6f 54 3e 51 3e 39 3b 50 25 73 3e
       -0.1571878 0.20745732 0.0028265903 0.23744702
000040 41 50 76 bd b9 40 fb bd 2d 0e 8a 3d d0 9a a4 3d
       -0.06013513 -0.12268204 0.06740985 0.08037341
000050 87 26 6b bd 62 80 37 3d ef 7b be bd ea 74 e5 bd
       -0.05740979 0.04480017 -0.09300982 -0.1120394
000060 93 81 82 3c f3 8a 82 be 69 89 e1 bd
       0.015930926 -0.25496635 -0.11012537

hidden2time.weight f4 [3, 40]
000000 d8 24 a9 bd bd b5 7d bd b6 4d 56 be 54 87 44 3e
       -0.082589805 -0.061940897 -0.20928082 0.19192249
000010 eb b0 61 be a4 c1 40 3e 34 0b 76 bd d6 23 ea bd
       -0.22040145 0.18823868 -0.060069278 -0.114326164
000020 31 88 d5 bd 3e 7d 12 3e 60 61 19 3e 6c 6b 0d 3e
       -0.10426367 0.14305589 0.14978552 0.1381051
000030 8d 89 3f be 44 e7 12 3e 03 19 23 3d ca c1 73 bd
       -0.18704815 0.14346033 0.039818775 -0.059510984
000040 19 36 69 3e 3b 2f 99 3e 3d 84 a1 be cc 25 48 be
       0.22774543 0.29918846 -0.31546202 -0.19545668
000050 62 f7 25 be 10 1e 5a be 8e e2 6c be 0b c3 97 3d
       -0.1620765 -0.2130053 -0.23133299 0.07410248
000060 e0 57 03 3e 47 0d 4a be b7 13 11 3e 4e 4b 41 3e
       0.1282649 -0.19731627 0.14167677 0.18876383
000070 39 86 fe 3d 22 48 76 3e 30 e7 9a 3d 45 30 38 bc
       0.12427945 0.24050954 0.07563627 -0.011241977
000080 db c9 38 3e 0c 47 88 3d 9d f8 61 3e 95 cc c0 bc
       0.18045752 0.06654176 0.22067495 -0.023535052
000090 53 34 e6 3d 26 39 7d bd 07 ca 13 3e 61 05 1a 3d
       0.11240449 -0.06182208 0.14432536 0.037602786
0000a0 3c e9 0c 3d 68 80 53 bd 10 d3 d7 bd 48 11 1c 3e
       0.034402117 -0.05163613 -0.10538304 0.15240967
0000b0 96 0e 2e be 30 68 a6 bd b2 b1 40 be 4e a0 27 bb
       -0.16997752 -0.08125341 -0.18817785 -0.0025577727
0000c0 37 19 88 3d 8b 34 a4 3d 96 e2 ae 3d ae fc 83 3e
       0.06645434 0.08017834 0.085393116 0.25778717
0000d0 23 46 34 3e de 0b 9c bd ed 2c b0 3c aa 9c 2b be
       0.1760488 -0.07619451 0.021505797 -0.16758981
0000e0 2a 2e 5b bc 35 42 05 bd 6f 06 d8 3e 54 27 c9 3b
       -0.013377706 -0.032533843 0.42192408 0.0061387215
0000f0 28 b4 c5 bd 16 4b 2e 3e 8e 3e 12 be 5c 15 bd 3d
       -0.09653503 0.1702083 -0.14281675 0.092325896
000100 e6 e3 32 bd b1 bd 2e 3d b3 dd 1b 3e 03 79 15 be
       -0.043674372 0.042661373 0.1522129 -0.14596944
000110 f1 4c 18 be b8 7e dd be b4 05 2f be d3 cd 40 3b
       -0.14873101 -0.4326074 -0.1709202 0.0029419556
000120 73 8a c5 3d 3e 17 b0 be 27 a9 0f 3e ae 01 7e be
       0.09645548 -0.34392732 0.1402937 -0.24805328
000130 c1 a2 5d 3e 18 14 17 be 1c b7 d1 bb be ff 3a be
       0.21644117 -0.14753759 -0.006400002 -0.1826162
000140 9c bc 8a be 8a de a0 be 13 5b 0a 3f d6 74 4f be
       -0.27097023 -0.31419784 0.5404522 -0.20259413
000150 8a fd 07 3e 4c 30 6a be 45 73 2c 3e 80 b1 b6 3e
       0.13280311 -0.22869986 0.16840847 0.35682297
000160 3b 8d 07 3f e6 02 44 be fa d8 9a bd e7 a7 7b be
       0.52949876 -0.1914173 -0.07560916 -0.24575768
000170 7c f3 bf 3d 52 f3 9c be 75 d1 ad be 75 0f 8e 3e
       0.09372613 -0.3065439 -0.33948866 0.27746168
000180 58 88 55 be 53 b7 a3 be bc c6 1d be 27 37 f3 3e
       -0.20852792 -0.31975803 -0.15407842 0.47503015
000190 ce cf d1 3d 58 32 46 bf df 2e 95 3e a8 92 cd be
       0.10244714 -0.7742057 0.29137322 -0.40150952
0001a0 06 52 b9 be 5a 99 b9 3e 1a af b1 be f9 7b a6 be
       -0.3619539 0.3624981 -0.34703904 -0.3251646
0001b0 20 8d e3 3e 7d b6 e2 3e 93 a3 83 3e 1a 37 d5 3e
       0.44443607 0.44279853 0.25710735 0.41643602
0001c0 d6 09 9b be be 0b e6 3e 37 fd 81 be 73 95 f9 3e
       -0.30280942 0.44930834 -0.253885 0.48746833
0001d0 11 ca fc bd 3e d0 8f 3e d2 cc 7e be 9f 70 a2 3e
       -0.123432286 0.28088564 -0.2488282 0.31726548

hidden2time.bias f4 [3]
000000 4b a8 98 3b 2a 14 37 3e 79 a9 37 bd
       0.004658734 0.17878786 -0.044839356
