events_simulation/models/all_epochs/model_2_20180530-1753.pt (torch_old, 78354 bytes, 9 tensors)

loss_function_events.weight f4 [27]
0	0x3f800000	1.0
1	0x3f800000	1.0
2	0x3f800000	1.0
3	0x3f800000	1.0
4	0x3f800000	1.0
5	0x3f800000	1.0
6	0x3f800000	1.0
7	0x3f800000	1.0
8	0x3f800000	1.0
9	0x3f800000	1.0
10	0x3f800000	1.0
11	0x3f800000	1.0
12	0x3f800000	1.0
13	0x3f800000	1.0
14	0x3f800000	1.0
15	0x3f800000	1.0
16	0x3f800000	1.0
17	0x3f800000	1.0
18	0x3f800000	1.0
19	0x3f800000	1.0
20	0x3f800000	1.0
21	0x3f800000	1.0
22	0x3f800000	1.0
23	0x3f800000	1.0
24	0x3f800000	1.0
25	0x3f800000	1.0
26	0x3f800000	1.0

lstm.weight_ih_l0 f4 [160, 70]
0	0xbe27ba3a	-0.16379634
1	0xbc01ed85	-0.007930164
2	0xbe3d0298	-0.1845802
3	0x3ada3efe	0.0016650853
4	0xbcd924b2	-0.026506756
5	0x3d1a565c	0.037680015
6	0xbdb3f6af	-0.087872855
7	0xbc0494bd	-0.008092103
8	0x3e17729a	0.14789811
9	0x3e155900	0.14584732
10	0x3d621576	0.055196248
11	0xbe08303d	-0.13299651
12	0x3d7ad1e3	0.06123532
13	0xbc94bfca	-0.018157858
14	0x3d6803af	0.056644138
15	0x3db89e98	0.09014624
16	0xbdeff677	-0.11716931
17	0xbe11d294	-0.14240485
18	0x3d4ce689	0.050024543
19	0xbe138816	-0.14407381
20	0xbca96dcf	-0.020682244
21	0x3dd82b72	0.105551615
22	0xbe0d7295	-0.13813241
23	0xbdfe63c4	-0.124213725
24	0x3e013020	0.12616014
25	0x3bb942a0	0.0056536943
26	0x3e48577a	0.1956462
27	0xbda9d938	-0.08293384
28	0x3d258f50	0.040419877
29	0x3ebbf019	0.36706617
30	0x3e0b48dc	0.13602012
31	0xbe05d077	-0.13067804
32	0x3cdebe3a	0.027190316
33	0x3e2e7526	0.17036876
34	0xbcd5bfd8	-0.026092455
35	0x3daf0ce8	0.085473835
36	0xbd34b414	-0.04411705
37	0x3dd3c0ec	0.10339531
38	0x3e1b980f	0.15194725
39	0x3c54aafe	0.012980221
40	0x3e3051c6	0.17218694
41	0x3c098e5f	0.00839576
42	0xbdf5ccc9	-0.1200195
43	0x3d4205fc	0.04736899
44	0x3d44cf3a	0.04804919
45	0x3db5c931	0.08876265
46	0xbda1ae92	-0.07894625
47	0x3e2a94ad	0.16658278
48	0x3de3e8de	0.111284
49	0xbd05b2a7	-0.03264108
50	0xbd6a0ae5	-0.057139296
51	0x3cf5deac	0.030013405
52	0xbdc15470	-0.09439933
53	0x3d0f1f4e	0.034941964
54	0xbe07743f	-0.13227938
55	0x3e19c65b	0.15017073
56	0xbd01a3b0	-0.031650245
57	0xbd8846d3	-0.06654134
58	0x3dd2f896	0.1030132
59	0x3dce7a4c	0.1008192
60	0xbd81c81c	-0.06336996
61	0x3d4b28cf	0.049599465
62	0xbd5fcdbe	-0.05463957
63	0xbdfdfb46	-0.12401442
64	0x3dc16954	0.09443918
65	0xbde82f68	-0.11337167
66	0x3dea055b	0.11426803
67	0x3c0e11f0	0.008671269
68	0xbda51752	-0.080610886
69	0xbe1347e7	-0.14382897
70	0xbe06ec9c	-0.13176197
71	0x3cc7a440	0.024370313
72	0xbc726ebd	-0.01479691
73	0xbd791e48	-0.060819894
74	0xbc85b857	-0.016323252
75	0xbe053454	-0.13008243
76	0xbe0e0dbe	-0.1387243
77	0x3d9022b5	0.0703787
78	0x3d8c0088	0.06836039
79	0x3e0bdaa3	0.13657622
80	0x3d60a62c	0.054845974
81	0xbd6e3d72	-0.058164068
82	0x3e15d49b	0.14631884
83	0xbcca4938	-0.024693117
84	0x3dea2ca7	0.11434298
85	0xbdb504ed	-0.0883883
86	0x3daf5e45	0.08562902
87	0xbdfbf34e	-0.12302266
88	0x39436a46	0.00018636239
89	0xbd26f416	-0.040760122
90	0x3cdfed83	0.027334934
91	0x3e250158	0.16113794
92	0xbddc90e2	-0.10769822
93	0x3df26533	0.118357085
94	0x3e0b6340	0.1361208
95	0x3dd1610e	0.1022359
96	0x3e8fea7b	0.28108582
97	0xbd36f3a7	-0.04466596
98	0x3e1c6ea4	0.15276581
99	0x3e72cce9	0.2371098
100	0x3cba09a5	0.022709677
101	0xbd812834	-0.06306496
102	0x3e11a3f3	0.14222698
103	0xbdd17603	-0.10227587
104	0x3e41a66f	0.18911146
105	0xbe09728d	-0.13422604
106	0x3df0b690	0.11753571
107	0xbd9191ec	-0.071079105
108	0x3d6e82fe	0.058230393
109	0x3df5636f	0.11981856
110	0x3e04bbb7	0.12962233
111	0x3da53dc5	0.08068422
112	0xbd4223b3	-0.047397327
113	0x3d87e45b	0.06635352
114	0x3d3720bb	0.04470895
115	0x3cb7c9a5	0.022435019
116	0xbcbf7571	-0.02337143
117	0xbd86f32e	-0.065893516
118	0x3dc53d1e	0.09630798
119	0x3dc7b1d7	0.09750717
120	0x3e2748da	0.16336384
121	0xbd070798	-0.032966226
122	0xbd248061	-0.040161494
123	0xbc91a239	-0.01777755
124	0x3e2f36e4	0.17110783
125	0x3dc332c3	0.095311664
126	0x3e3226f0	0.17397666
127	0x3d06028c	0.032717273
128	0x3ddffa3a	0.10936399
129	0x3e05104d	0.129945
130	0x3e2d9384	0.16950804
131	0x3da40e64	0.08010557
132	0x3c1b56f9	0.009481185
133	0xbd3cec65	-0.04612388
134	0x3dc0fd8d	0.09423361
135	0x3e2c6326	0.16834697
136	0x3e439e88	0.19103444
137	0x3e464719	0.19363059
138	0x3e35d7e8	0.17758143
139	0x3d0bb32e	0.034106426
140	0xbddef97c	-0.10887429
141	0x3d32db38	0.043666095
142	0x3d1c325f	0.038133975
143	0x3dba8384	0.09107116
144	0xbcd258f6	-0.025677186
145	0x3cc965d8	0.024584696
146	0xbcb841a1	-0.022492232
147	0xbb8e0cc3	-0.0043350174
148	0xbdf0c2d2	-0.11755909
149	0x3e149486	0.14509782
150	0x3c85e294	0.016343392
151	0xbdecb4ad	-0.11557899
152	0xbd100a17	-0.035165872
153	0xbd6e8324	-0.058230534
154	0xbe00bc47	-0.12571822
155	0xbdb228c6	-0.08699183
156	0x3e0a383a	0.13498011
157	0xbd711a06	-0.05886271
158	0x3e0eaa20	0.13932085
159	0x3ba3411f	0.0049821283
160	0x3d1df04c	0.038559243
161	0x3d1e9ffb	0.038726788
162	0x3d4e2fe7	0.050338652
163	0xbe1e4581	-0.15456201
164	0xbb465047	-0.0030260251
165	0xbb2a2c40	-0.0025966316
166	0xbd1caa3a	-0.03824828
167	0x3e1df137	0.15424047
168	0x3a91bdcf	0.001111919
169	0xbd6be7b9	-0.057594035
170	0x3e120733	0.14260559
171	0x3d630eeb	0.05543415
172	0xbd9c6f6f	-0.07638442
173	0xbd4b4707	-0.049628284
174	0x3e3e4b52	0.1858342
175	0xbe0c8cd1	-0.13725592
176	0x3d9f1e26	0.07769422
177	0x3e287830	0.16452098
178	0x3d7ad5d5	0.061239082
179	0xbdb674ac	-0.08908972
180	0xbd73bcce	-0.05950623
181	0xbdcdd4f3	-0.100503825
182	0x3da1fdcb	0.07909735
183	0x3e02b105	0.1276284
184	0xbbd27684	-0.0064228196
185	0xbb91ba5e	-0.0044472655
186	0xbdf3db94	-0.119071156
187	0xbb10a010	-0.002206806
188	0x3d8191e5	0.06326655
189	0x3dd72ebf	0.10506963
190	0x3d9dc0d9	0.077027984
191	0x3d09a0f1	0.03360075
192	0xbe036ac2	-0.12833694
193	0x3c38131e	0.011235027
194	0x3c4fd843	0.012685838
195	0x3db24870	0.087052226
196	0xbd0e2840	-0.034706354
197	0x3ddbd6d3	0.10734334
198	0xbda249e7	-0.07924252
199	0x3dc1f62f	0.09470784
200	0xbdeaa117	-0.11456507
201	0xbcb8876a	-0.022525508
202	0x3dc91a8e	0.09819518
203	0xbdd2a514	-0.102853924
204	0xbd7a6442	-0.06113077
205	0xbdc1b24d	-0.09457836
206	0x3ddc9490	0.107705235
207	0x3e1bc5c4	0.1521216
208	0x3dc55d88	0.0963698
209	0xbdfd6286	-0.123723075
210	0xbc5c66be	-0.01345223
211	0x3d6b4121	0.05743516
212	0x3e0f3d88	0.13988316
213	0x3e324962	0.17410806
214	0x3e255b49	0.16148104
215	0x3dc791d2	0.0974461
216	0x3cfecb0c	0.03110268
217	0x3e101c01	0.14073183
218	0x3d8c87f1	0.06861866
219	0xbd6df8c0	-0.058098555
220	0x3dc760be	0.09735249
221	0x3ded218b	0.115786634
222	0xbdd16cab	-0.10225805
223	0x3d8d0f1b	0.06887647
224	0xbdb9ba0d	-0.090686895
225	0xbbb2c4df	-0.005455598
226	0x3ca51b62	0.020154659
227	0xbc617ce0	-0.013762683
228	0xbd1c07bd	-0.038093317
229	0xbd995402	-0.07486726
230	0x3cb0a461	0.021562757
231	0x3e128d5b	0.14311735
232	0x3d5b58d9	0.05355153
233	0x3df72fd0	0.120696664
234	0x3cbb943a	0.022897828
235	0x3db5a9f0	0.08870304
236	0x3dec12a3	0.11526992
237	0x3dc12ea0	0.09432721
238	0xbda3e476	-0.0800256
239	0x3eb32e93	0.3499647
240	0x3d044a20	0.032297254
241	0x3d816e8c	0.06319913
242	0x3d7cf1d4	0.061754063
243	0x3e0dcfd2	0.13848808
244	0xbb8e6426	-0.0043454347
245	0xbc84d8b8	-0.01621662
246	0xbca7d7ad	-0.020488584
247	0x3d90ca85	0.070698775
248	0x3de8271d	0.11335585
249	0xbd9b9c49	-0.075981684
250	0x3e453bd8	0.1926111
251	0xbc5d0d1e	-0.013491897
252	0x3de72153	0.11285653
253	0x3db13315	0.08652321
254	0x3e24ca89	0.16092886
255	0x3c8533da	0.016260076

lstm.weight_hh_l0 f4 [160, 40]
0	0x3dd409d5	0.10353438
1	0xbe3c6833	-0.18399124
2	0xbcf47f61	-0.029845895
3	0xbe0e2407	-0.13880931
4	0x3c9dc461	0.01925868
5	0xbe33642c	-0.17518681
6	0xbe4cccfb	-0.20000069
7	0x3d9a1af9	0.07524676
8	0x3d5cbb45	0.05388953
9	0x3d9a6c71	0.07540215
10	0xbb7a1d31	-0.0038164372
11	0x3d5d69c8	0.05405596
12	0x3e03de48	0.12877762
13	0x3bcaeb56	0.006192605
14	0xbe62b1b7	-0.22138105
15	0xbdacf9ae	-0.0844606
16	0xbd8565b4	-0.06513539
17	0x3abaea94	0.0014260584
18	0xbe518a7f	-0.20462988
19	0x3dcdf658	0.10056752
20	0x3ca0f06c	0.019645892
21	0xb9b3c542	-0.0003428851
22	0xbe2c729e	-0.16840598
23	0x3de36bd6	0.111045524
24	0xbc987a04	-0.01861287
25	0x3e05ead1	0.13077857
26	0x3c97e10a	0.018539924
27	0xbd43248a	-0.04764227
28	0xbd77a196	-0.060456835
29	0x3e39a878	0.18130672
30	0x3e3d2467	0.18470918
31	0xbad2eb78	-0.0016091904
32	0xbdc5f52d	-0.09665904
33	0x3d7600e8	0.060059458
34	0x3e01618c	0.12634867
35	0x3dd61959	0.104540534
36	0x3e02f58f	0.12788986
37	0xbdd54a93	-0.104146145
38	0x3d2e166c	0.042501852
39	0x3d991ce7	0.07476216
40	0x3e468ac5	0.19388874
41	0x3dfab0cc	0.122407526
42	0x3e294b5e	0.16532657
43	0xbd05c0ac	-0.03265445
44	0x3e22ac12	0.15885952
45	0xbe0ccd30	-0.13750148
46	0xbd3f1418	-0.046650022
47	0xbe33578e	-0.17513868
48	0xbe1dbd2c	-0.15404195
49	0x3da8e784	0.08247283
50	0x3de95e54	0.11394945
51	0x3e4e9fb1	0.20178105
52	0x3ce1e5a1	0.027575316
53	0xbcf86650	-0.030322224
54	0xbdb6ed37	-0.08931964
55	0xbe048246	-0.1294032
56	0x3d288894	0.041145876
57	0x3e2c84b1	0.16847493
58	0xbe3dce5a	-0.18535748
59	0xbd6ff39c	-0.058581933
60	0xbdf37bc9	-0.118888445
61	0x3d87fe12	0.06640257
62	0xbdacfbfb	-0.08446499
63	0xba7150ef	-0.00092054805
64	0x3d2299cd	0.039697457
65	0x3e2b785e	0.16745135
66	0xbd50639b	-0.05087624
67	0xbe0b4e01	-0.13603975
68	0xbded6e6d	-0.11593328
69	0x3d4976e4	0.04918565
70	0x3e21ac45	0.15788372
71	0x3ca9e8ff	0.020740984
72	0xbd8d03d3	-0.06885495
73	0x3dafef36	0.08590548
74	0x3cd57deb	0.026061019
75	0xbbb53000	-0.0055294037
76	0x3de15e93	0.11004367
77	0x3e0a36fb	0.13497536
78	0xbde2d2c8	-0.110753596
79	0xbcd7bb60	-0.026334465
80	0x3e0bcf6f	0.13653348
81	0xbe2c3aa7	-0.16819249
82	0x3d946c03	0.07247164
83	0xbc106112	-0.008812206
84	0xbcdf8a00	-0.027287483
85	0x3c707064	0.0146752335
86	0xbdb242cf	-0.08704149
87	0xbba885fa	-0.0051429244
88	0x3d88c469	0.06678087
89	0x3daec738	0.08534092
90	0x3d1b2615	0.037878115
91	0x3df9f10e	0.12204181
92	0xbdd1b566	-0.10239677
93	0xbd0e6de0	-0.034772754
94	0xbd3fe0a0	-0.04684508
95	0xbdec9f47	-0.11553817
96	0xbdc8b4c8	-0.09800106
97	0x3cc92ac7	0.02455653
98	0xbdf54149	-0.11975343
99	0x3de8220d	0.1133462
100	0xbe051364	-0.12995678
101	0xbb5286e7	-0.0032123865
102	0x3cebf464	0.028803058
103	0xbdfa8a68	-0.1223343
104	0xbcb17141	-0.021660449
105	0xbd94fbb0	-0.07274568
106	0x3c9e91e8	0.019356683
107	0x3c85d8ca	0.016338725
108	0xbddcdb1a	-0.10783978
109	0x3e060d86	0.13091096
110	0x3d859b36	0.06523745
111	0xbde5e005	-0.11224369
112	0xbe1f527d	-0.1555881
113	0x3be62682	0.0070236335
114	0x3e01afa4	0.12664658
115	0x3dbcc447	0.092171244
116	0xbd9edb2c	-0.077566475
117	0xbe425a1f	-0.18979691
118	0xbe401eb4	-0.18761712
119	0x3d28a115	0.041169245
120	0xbbd0664c	-0.006359851
121	0x3d005715	0.031333048
122	0x3cfecae8	0.031102613
123	0x3c2f1bf8	0.010687821
124	0xbd91e0df	-0.07122969
125	0xbe0156a2	-0.12630704
126	0x3dcbdecf	0.09954607
127	0xbe26385a	-0.16232434
128	0xbde3e64e	-0.111279115
129	0xbdcc94f1	-0.09989346
130	0x3c777ae2	0.015104981
131	0x3e363a91	0.17795779
132	0xbbf028e8	-0.007329095
133	0xbe12b1fd	-0.1432571
134	0x3d0292f0	0.03187841
135	0xbe3a0ead	-0.18169661
136	0xbd440aa4	-0.04786171
137	0x3d87d2ee	0.066320285
138	0x3df85142	0.12124874
139	0x3e01f450	0.12690854
140	0xbc499138	-0.012302689
141	0x3dd14227	0.10217696
142	0xbdb38091	-0.087647565
143	0x3db81957	0.08989208
144	0xba3fc5bf	-0.0007315538
145	0x3b9a9524	0.004717486
146	0x3e31f11e	0.17377135
147	0x3d604bc1	0.054759745
148	0xbd876c40	-0.06612444
149	0x3e03efef	0.12884496
150	0xbd580d08	-0.052746803
151	0xbe05dfd9	-0.13073672
152	0xbd10ac9b	-0.03532086
153	0x3de24a85	0.1104937
154	0x3d1a8d7e	0.037732594
155	0xbe2df109	-0.16986479
156	0x3d1a7689	0.0377107
157	0xbda78164	-0.08178976
158	0x3bde695d	0.0067874626
159	0x3e3b2315	0.18275101
160	0x3d7ac5ee	0.061223917
161	0xbd5c049d	-0.053715337
162	0x3e21a920	0.15787172
163	0xbddb87ee	-0.10719286
164	0x3e0d0705	0.13772209
165	0x3dcc6255	0.09979693
166	0xbd03a53c	-0.03214
167	0xbdd87399	-0.105689235
168	0x3d5e41ef	0.054262098
169	0xbd7ad9e8	-0.061242968
170	0x3e823dd9	0.2543781
171	0x3e2e15d8	0.1700052
172	0x3e433e4b	0.19066732
173	0x3c2b165a	0.010442341
174	0x3ceae7d0	0.02867499
175	0x3af2aed7	0.0018515241
176	0xbc91c163	-0.01779241
177	0x3e87c8bd	0.2652034
178	0xbd3d097a	-0.046151616
179	0x3daf25cb	0.0855213
180	0x3dfe52c3	0.12418129
181	0x3d9e1ae6	0.07719974
182	0xbc603d95	-0.013686557
183	0xbdc4607f	-0.09588718
184	0x3e0e5e84	0.13903242
185	0x3e012bad	0.12614317
186	0x3e073d45	0.13206966
187	0x3d9e06ba	0.07716127
188	0xbd448160	-0.047974944
189	0xbc0bb42e	-0.008526845
190	0xbd8a6957	-0.06758373
191	0x3d24d78d	0.040244628
192	0x3cf0bcbe	0.029386874
193	0xbd38551d	-0.045003045
194	0x3d476d9d	0.04868852
195	0x3cde12a7	0.027108504
196	0x3dde242f	0.10846745
197	0x3dd6079c	0.1045067
198	0xbdbf4b6c	-0.093405575
199	0x3e1f7483	0.1557179
200	0x3e64404f	0.22290157
201	0xbde557c8	-0.111983836
202	0xbd9f4f97	-0.077788524
203	0xbe268cb3	-0.1626461
204	0x3e6323eb	0.2218167
205	0x3db2a74a	0.08723314
206	0x3d54e185	0.051972885
207	0x3debed3b	0.115198575
208	0x3dc24f08	0.0948773
209	0x3b15fdc8	0.002288686
210	0x3e8b2b65	0.27181545
211	0xbcd609b7	-0.02612768
212	0x3d2f4294	0.042788103
213	0x3ccba318	0.024858043
214	0xbd3f6509	-0.046727214
215	0xbdfcae74	-0.12337962
216	0x3e106d4a	0.1410419
217	0x3c87548c	0.016519807
218	0xbddded0d	-0.108362295
219	0xbc571f75	-0.013130059
220	0xbd8e7675	-0.06956188
221	0x3e196fc1	0.14984037
222	0xbddcdf7f	-0.10784816
223	0x3dd1b8e5	0.10240344
224	0x3dc898fd	0.09794805
225	0x3e1fc9ea	0.15604368
226	0xbdd1e814	-0.102493435
227	0x3d8b2bd9	0.06795473
228	0xbd6d39a1	-0.057916287
229	0x3e0454b4	0.12922937
230	0x3dc36e01	0.09542466
231	0x3d066fda	0.032821514
232	0xbe279c77	-0.1636828
233	0x3e4983e8	0.19679224
234	0x3e0a4194	0.13501579
235	0x3c137fd4	0.009002645
236	0xbdb024a0	-0.08600736
237	0xbc977598	-0.01848869
238	0xbe19571d	-0.14974637
239	0xbd702187	-0.058625724
240	0x3d9007a1	0.07032705
241	0xbd3b83d3	-0.045780014
242	0x3dc3661a	0.09540959
243	0x3c3d403d	0.01155096
244	0x3e4cbdf3	0.19994335
245	0xbbe15c39	-0.006877449
246	0xbc8aabb3	-0.016927576
247	0x3d25efad	0.040511776
248	0x3c229551	0.009923295
249	0x3e380aba	0.17972842
250	0x3e022981	0.12711145
251	0x3e2c9576	0.1685389
252	0x3e5a6f9e	0.21331641
253	0xbcee3488	-0.029077783
254	0x3e2d13de	0.1690211
255	0xbcbbcd99	-0.022925185

lstm.bias_ih_l0 f4 [160]
0	0xbdbf33ad	-0.09336028
1	0x3c1ad8c0	0.009451091
2	0x3e1b2f4a	0.15154758
3	0x3dd87a22	0.1057017
4	0x3dfe21b1	0.1240877
5	0x3c44b60b	0.012006293
6	0xbd457643	-0.048208486
7	0xbd0f5a1d	-0.034998048
8	0x3cd07d8c	0.02545049
9	0x3dbc3f1d	0.091917254
10	0x3e1b24a2	0.15150693
11	0xbdc0453f	-0.09388208
12	0x3e1d0d57	0.1533712
13	0x3de375f2	0.11106481
14	0x3d9326c3	0.071851276
15	0xbd1d2409	-0.038364444
16	0x3d9d26e4	0.076734334
17	0x3e92c265	0.28663936
18	0xbdc6044d	-0.09668789
19	0xbc817ec6	-0.01580752
20	0xbbea23e3	-0.0071453913
21	0x3d99990c	0.074998945
22	0xbd9fe080	-0.07806492
23	0xbdbeb60d	-0.09312067
24	0x3ded32a2	0.11581923
25	0x3c84e497	0.016222281
26	0x3dbb5b23	0.09148242
27	0x3e5d36fc	0.21603006
28	0x3db2f85c	0.08738777
29	0xbd2b175b	-0.04177032
30	0x3e3b7fb8	0.1831044
31	0x3e45ae99	0.19304885
32	0x3d16305c	0.036667213
33	0xbd48add5	-0.048993904
34	0x3e0577eb	0.13034026
35	0x3d63be84	0.05560161
36	0x3cf0f8b0	0.029415458
37	0x3d4c9daf	0.049955066
38	0xbd98a847	-0.07453971
39	0x3e2121e9	0.15735592
40	0x3dae91d6	0.0852391
41	0x3db79762	0.08964421
42	0xbd1d541b	-0.038410287
43	0xbda371ad	-0.07980666
44	0x3dfbb290	0.122899175
45	0xbd647a91	-0.05578095
46	0xbdaa96ab	-0.08329519
47	0xbd92eddc	-0.07174274
48	0x3d62a058	0.055328697
49	0x3e1a2dc9	0.15056528
50	0x3d6a45b6	0.057195388
51	0xbdb89df7	-0.090145044
52	0x3cf45b80	0.029828787
53	0xbdba9133	-0.09109726
54	0x3d08503d	0.033279646
55	0x3d3b61d5	0.045747597
56	0xbe0bdbbd	-0.13658042
57	0xbe23d37f	-0.15998648
58	0xbd5690aa	-0.052384056
59	0x3e3d400a	0.1848146
60	0xbda1286b	-0.07869037
61	0x3deab9d7	0.114612274
62	0x3b36ece5	0.0027912196
63	0x3dba4f88	0.09097201
64	0x3e3a7ac7	0.18210898
65	0x3d8980ba	0.06714006
66	0x3e19d13f	0.15021227
67	0x3e04be7b	0.12963288
68	0x3d3cf09c	0.0461279
69	0xbd5e4486	-0.054264568
70	0x3ddaa1d6	0.10675399
71	0x3e1ac354	0.15113574
72	0x3e436d10	0.19084573
73	0x3cb47eb0	0.022033066
74	0x3d9cde28	0.076595604
75	0x3d5469e8	0.051858813
76	0x3d3352f3	0.04378028
77	0xbdb578cd	-0.088609315
78	0x3e43a136	0.19104466
79	0xbd85fa84	-0.06541923
80	0xbda076a1	-0.07835127
81	0xbdaa0387	-0.08301454
82	0xbdea22de	-0.11432432
83	0xbd3b9982	-0.045800693
84	0xbdbfa679	-0.09357924
85	0xbe1ee4d6	-0.15516981
86	0xbe19fc7d	-0.15037723
87	0x3cfe77cb	0.031062981
88	0x3c713803	0.014722827
89	0x3d62e9f5	0.0553989
90	0xbd0845e3	-0.033269774
91	0x3dee3376	0.11630909
92	0xbe2f407c	-0.17114443
93	0x3d7c3918	0.061577886
94	0x3d5af4c4	0.053456083
95	0x3b93bf92	0.004508921
96	0xbe2c02d1	-0.1679795
97	0xbd6ce266	-0.057833098
98	0xbe20fe9e	-0.15722129
99	0x3b0257b8	0.001988871
100	0xbbc834d9	-0.0061098156
101	0xbd9a6571	-0.0753888
102	0xbda819d4	-0.08208051
103	0xbdb61c8b	-0.08892163
104	0xbd25b2d8	-0.04045376
105	0x3d5cdc20	0.053920865
106	0xbc115c91	-0.008872167
107	0xbe422cce	-0.18962404
108	0xbe1fe1ce	-0.15613481
109	0x3e424a30	0.18973613
110	0xbc945023	-0.018104618
111	0x3d8a2b78	0.06746572
112	0xbe2b2b99	-0.1671585
113	0x3dbff66d	0.09373174
114	0x3d88adbe	0.06673764
115	0xbe3343a8	-0.17506278
116	0xbde5008d	-0.11181746
117	0x3db6730f	0.089086644
118	0xbcdeb995	-0.027188102
119	0x3e1f6720	0.15566683
120	0x3cd52969	0.026020722
121	0xbc5cfd06	-0.01348806
122	0x3e0019c8	0.12509835
123	0x3e215740	0.1575594
124	0x3c90218a	0.017594118
125	0xbda1a7cc	-0.07893333
126	0x3e061496	0.1309379
127	0x3d933216	0.071872875
128	0xbd25221e	-0.04031574
129	0x3e06ff8d	0.13183422
130	0x3da4da78	0.08049482
131	0xbd6fdbe2	-0.058559306
132	0x3e2e8ad2	0.17045143
133	0x3e002d3e	0.12517259
134	0xbdbb431f	-0.09143662
135	0x3e08b95e	0.13351962
136	0x3d807157	0.06271618
137	0x3df9b716	0.12193124
138	0xbd63e448	-0.055637628
139	0x3e2c3097	0.1681541
140	0xbc67672a	-0.014123717
141	0x3d0af935	0.03392907
142	0x3da29a05	0.07939533
143	0x3dd04618	0.10169619
144	0x3df15972	0.117846385
145	0x3cf775e3	0.03020758
146	0x3caa163b	0.020762553
147	0x3e1ad95e	0.15121982
148	0xbd712864	-0.05887641
149	0x3d081d07	0.033230808
150	0x3e01b488	0.12666523
151	0x3e039a73	0.12851886
152	0x3e3c00af	0.18359636
153	0xbdc0efe3	-0.09420755
154	0x3e25f75d	0.16207643
155	0x3ddf6832	0.109085456
156	0x3cc9cbad	0.024633253
157	0xbdc2c11e	-0.095094904
158	0xbbca09bf	-0.0061657126
159	0x3e49ceb3	0.19707756

lstm.bias_hh_l0 f4 [160]
0	0xbdcb4f8b	-0.09927281
1	0x3d7fc4e7	0.06244364
2	0xbd9e7ba3	-0.077384256
3	0xbd6d2f24	-0.057906285
4	0x3d09c8a8	0.033638626
5	0xbd4972c3	-0.04918171
6	0x3e2b764e	0.16744348
7	0x3dcec931	0.10096968
8	0x3e3b2adc	0.18278068
9	0x3e0981cd	0.13428421
10	0xbe25d301	-0.16193773
11	0xbb63570f	-0.0034689342
12	0x3c4bc7c5	0.0124377655
13	0xbdab1345	-0.08353285
14	0x3e0719bd	0.13193412
15	0x3dd1b693	0.102399014
16	0x3e472595	0.1944793
17	0x3cac89df	0.021061836
18	0x3e466f90	0.19378495
19	0x3e55da56	0.2088407
20	0xbd8cd628	-0.068767846
21	0x3e007707	0.12545405
22	0xbd62aed4	-0.05534251
23	0xbd80a37d	-0.06281183
24	0xbd533354	-0.051562622
25	0x3c828323	0.015931671
26	0xbdaa07bd	-0.08302257
27	0x3d0b13ee	0.033954553
28	0x3df691f1	0.12039555
29	0x3e08af0c	0.13348025
30	0xbc677dcc	-0.014129113
31	0x3df5922a	0.11990769
32	0x3c743672	0.014905559
33	0xbc476a14	-0.012171287
34	0xbd53bb18	-0.0516921
35	0x3d62867c	0.055304036
36	0x3c2ae15f	0.010429709
37	0xbda5c87d	-0.08094881
38	0xbdb41a2d	-0.08794055
39	0x3dc4fbc5	0.09618334
40	0x3e0768ea	0.13223615
41	0x3dd40ff4	0.10354605
42	0x3c693476	0.014233699
43	0x3dbe506d	0.09292684
44	0xbc67a4a3	-0.014138374
45	0xbcd37d9d	-0.025816733
46	0x3e3978c2	0.18112472
47	0xbb784920	-0.0037885383
48	0xbd958b59	-0.07301969
49	0x3ddcd97c	0.10783669
50	0xbd60690d	-0.054787684
51	0x3dd2aebf	0.102872364
52	0xbd528440	-0.051395655
53	0xbccce611	-0.025012048
54	0xbd613b21	-0.05498803
55	0x3d3b0425	0.04565825
56	0x3e073e5e	0.13207385
57	0xbdbb4084	-0.09143165
58	0x3e3d5950	0.18491101
59	0xbd7157d3	-0.058921646
60	0x3d8566e4	0.065137655
61	0x3d32a391	0.04361302
62	0x3c453e59	0.012038791
63	0x3d98a50a	0.07453354
64	0x3c819c0e	0.015821483
65	0x3e3827e8	0.17983973
66	0xbdbd6df3	-0.09249487
67	0x3deebc1d	0.116569735
68	0x3e0329a6	0.12808856
69	0xbd97fad8	-0.074208915
70	0xbd05fcff	-0.03271198
71	0xbda5e989	-0.08101184
72	0x3c0ccfab	0.008594434
73	0xbda11b8c	-0.07866582
74	0x3e198865	0.14993437
75	0xbc85507e	-0.016273733
76	0x3e09cca0	0.13456964
77	0x3a121e9a	0.0005574018
78	0x3e3d544c	0.18489188
79	0xbda501d8	-0.08056992
80	0xbc4ef85c	-0.012632456
81	0xbce76723	-0.028247422
82	0x3d505850	0.05086547
83	0x3ca7665e	0.020434555
84	0x3e2d061b	0.1689686
85	0xbcf5b4dc	-0.029993467
86	0xbd4e5dc6	-0.050382398
87	0xbe1df176	-0.15424141
88	0xbdf4a4c1	-0.11945487
89	0xbddae282	-0.10687734
90	0x3da85a85	0.0822039
91	0xbdb7f242	-0.08981754
92	0x3c74dd45	0.014945333
93	0xbdbbc96d	-0.09169278
94	0x3d016de3	0.031598937
95	0xbdc54433	-0.096321486
96	0x3dcd4818	0.100235164
97	0x3e08ff04	0.1337853
98	0xbd1bd700	-0.038046837
99	0x3e03f164	0.12885052
100	0x3dc391fc	0.09549329
101	0x3d680ca2	0.056652673
102	0x3dbee57f	0.09321117
103	0xbe443abc	-0.1916303
104	0x3daac759	0.08338804
105	0xbdc256f1	-0.09489239
106	0x3df55138	0.11978382
107	0xbd6fff01	-0.0585928
108	0xbd6fbfdb	-0.058532577
109	0x3d01e0b3	0.03170843
110	0x3e439cf6	0.19102845
111	0xbe28fd5d	-0.165029
112	0x3cd6633e	0.02617037
113	0xbd99b2ef	-0.07504832
114	0xbc070356	-0.008240541
115	0xbd19c0e9	-0.03753749
116	0xbda85da7	-0.08220988
117	0x3cea4e18	0.028601691
118	0xbe479c91	-0.19493319
119	0xbd8501ab	-0.06494459
120	0xbe08f2d8	-0.13373888
121	0x3cdb721e	0.026787814
122	0xbdc13b1f	-0.094351046
123	0xbd4c23f4	-0.049838975
124	0xbc664633	-0.014054823
125	0x3d5177b1	0.051139537
126	0xbcadd69b	-0.021220496
127	0x3d75f0df	0.060044166
128	0x3da6e6bd	0.081494786
129	0x3d7868b6	0.060646735
130	0x3dfa90fc	0.12234685
131	0xbbdbc2c0	-0.0067065656
132	0x3e35c4aa	0.17750803
133	0x3d2c484e	0.042061143
134	0x3d24733d	0.040148962
135	0x3dedab69	0.116049595
136	0x3d5a1a11	0.053247515
137	0x3d0fda99	0.03512058
138	0xbdafdf54	-0.08587518
139	0xbe0210b3	-0.12701683
140	0x3e0db45a	0.1383833
141	0x3dbda8b7	0.092606954
142	0x3e179e91	0.14806582
143	0xbc32b4c9	-0.01090736
144	0x3a517bb2	0.00079911493
145	0x3dcb24b4	0.0991911
146	0x3d47d717	0.04878911
147	0x3dedaad1	0.11604846
148	0x3dec8523	0.11548831
149	0x3e4a5003	0.19757085
150	0xbcc431b8	-0.023949489
151	0xbbdf55dd	-0.0068156556
152	0xbda6abdd	-0.08138249
153	0x3d3c2b76	0.045939885
154	0x3e4e831c	0.20167202
155	0xbd7c7cd9	-0.0616425
156	0xbd82e49e	-0.063912615
157	0x3d4f38d6	0.050591312
158	0xbd6be637	-0.057592597
159	0x3e440455	0.19142278

hidden2event.weight f4 [27, 40]
0	0x3e219b0f	0.15781806
1	0xbd4fa1bf	-0.050691362
2	0x3d6ac0e8	0.057312876
3	0x3de58aef	0.1120814
4	0xbde5fbce	-0.112296686
5	0xbd0cdda6	-0.034391068
6	0xbd42d187	-0.047563102
7	0x3cc08819	0.023502396
8	0x3de9c0bf	0.114137165
9	0x3d7ebbd0	0.06219083
10	0xbdf059fa	-0.11735912
11	0xbd8edca3	-0.06975677
12	0xbc4c5ff2	-0.012474047
13	0xbd807f74	-0.0627431
14	0x3e0a675c	0.13515991
15	0x3e5c700d	0.21527119
16	0xbdef1b91	-0.1167518
17	0x3c8a7a2f	0.016903965
18	0x3df46f1a	0.119352534
19	0xbdcdacf8	-0.10042757
20	0xbdebf845	-0.11521963
21	0xbd1475ee	-0.03624528
22	0xbd4b17c8	-0.049583226
23	0x3d3ccdc2	0.046094663
24	0xbe1c6de3	-0.15276293
25	0xbda66c00	-0.08126068
26	0x3d7dafcf	0.061935242
27	0x3e32f334	0.17475587
28	0x3de0e41d	0.10981009
29	0x3d37bce8	0.04485789
30	0xbe193036	-0.14959797
31	0x3df2b39c	0.11850664
32	0xbda34ffb	-0.079742394
33	0x3dd5d108	0.1044026
34	0x3cdaf106	0.026726257
35	0x3dbec01b	0.09313985
36	0xbde5098d	-0.11183462
37	0xbe1307df	-0.14358471
38	0xbe07a625	-0.13246973
39	0xbe06e3f1	-0.1317289
40	0xbcca9bd1	-0.024732502
41	0xbe32a0a4	-0.17444092
42	0x3dc07536	0.09397356
43	0xbc8f7472	-0.01751158
44	0x3d8f061a	0.06983586
45	0xbd4cc08e	-0.049988322
46	0x3d09fa6a	0.03368608
47	0xbd676bb1	-0.056499187
48	0xbd1ca830	-0.038246334
49	0xbd289e22	-0.041166432
50	0xbe407fcd	-0.18798752
51	0xbd866f81	-0.065642364
52	0x3e27ebc5	0.16398533
53	0x3d680e14	0.05665405
54	0x3da44818	0.08021563
55	0x3e499fe7	0.19689904
56	0xbde00797	-0.10938948
57	0x3edc2fe7	0.43005297
58	0xbe6335f7	-0.22188555
59	0xbd32fce4	-0.043698207
60	0xbe22b36c	-0.15888757
61	0x3d9b9a40	0.0759778
62	0xbe00216e	-0.12512752
63	0xbe3eb1cd	-0.18622513
64	0x3d7e9c03	0.062160503
65	0xbc76d42c	-0.015065234
66	0x3df86f00	0.121305466
67	0x3be1493f	0.0068751867
68	0xbe02452a	-0.12721696
69	0xbc676c11	-0.014124886
70	0x3c57bb5b	0.013167228
71	0xbe3fddb0	-0.18736911
72	0x3bc8c98c	0.006127542
73	0x3e3b4777	0.1828898
74	0x3e06746d	0.1313035
75	0xbd57ea21	-0.052713517
76	0x3d59b2b7	0.05314895
77	0xbc6d2916	-0.014475128
78	0xbe095e84	-0.13414961
79	0x3e08828b	0.13331048
80	0x3e052e6c	0.1300599
81	0x3d087fbb	0.03332494
82	0x3d96a66e	0.07355963
83	0x3d8acc9c	0.067773074
84	0x3dc5bdd2	0.09655346
85	0xbb875388	-0.0041298307
86	0x3dafc317	0.08582132
87	0xbda21855	-0.07914797
88	0x3ccbece3	0.02489323
89	0xbd1b6105	-0.037934322
90	0x3d27dcfe	0.04098224
91	0x3d5c5d5a	0.053799964
92	0x3e972853	0.29522952
93	0x3d0084eb	0.03137676
94	0x3d726ecd	0.0591877
95	0x3d784da2	0.06062091
96	0x3d85bb25	0.065298356
97	0x3e7d5992	0.247412
98	0x3bc3bf0f	0.0059737037
99	0x3e0da1c2	0.13831237
100	0x3d9e0612	0.077160016
101	0xbc70872f	-0.014680668
102	0xbe223223	-0.15839438
103	0x3d929587	0.07157426
104	0x3e10dac7	0.14145957
105	0x3dc0eccc	0.094201654
106	0x3d5a78ad	0.05333774
107	0x3e32060a	0.17385116
108	0xbdd230a9	-0.102631874
109	0x3d2bd131	0.041947547
110	0x3d59174c	0.053000733
111	0xbdb43f7a	-0.0880117
112	0x3dd36a6f	0.10323035
113	0xbc9247e4	-0.017856546
114	0x3d2a837b	0.041629296
115	0xbe2bcc84	-0.16777235
116	0xbe558533	-0.20851593
117	0x3e10b38c	0.14130992
118	0xbd89e507	-0.067331366
119	0xbdc53a36	-0.096302435
120	0xbe0683bb	-0.13136189
121	0x3d25d838	0.040489405
122	0xbc49d009	-0.012317666
123	0x3d7d689e	0.06186735
124	0x3d978ffe	0.07400511
125	0xbe77d31b	-0.24201624
126	0xbc3aee8d	-0.011409414
127	0x3d4b9dbd	0.049710978
128	0xbe0a3e5c	-0.1350035
129	0x3e2503de	0.16114756
130	0xbe5025a5	-0.2032686
131	0x3d90050f	0.07032215
132	0xbe99ffbd	-0.30077925
133	0xbe10a16b	-0.14124076
134	0xbd9a9ba6	-0.07549219
135	0xbdb2ba60	-0.087269545
136	0xbc0cf28b	-0.008602749
137	0xbeeb12ac	-0.45912683
138	0xbe4f803f	-0.20263766
139	0x3d8c245f	0.06842875
140	0x3deee6b2	0.116650954
141	0x3e6c47d4	0.23074275
142	0x3d81c1ec	0.06335816
143	0xbdfb5a44	-0.12273076
144	0x3de5f444	0.112282306
145	0xbc78bca7	-0.015181697
146	0x3e59db32	0.21275023
147	0x3df87e55	0.12133471
148	0xbe57f0e6	-0.21087989
149	0x3cf94df3	0.030432677
150	0x3de6a067	0.11261063
151	0x3dba1904	0.090868026
152	0xbdedd420	-0.11612725
153	0xbc1bbc81	-0.009505392
154	0x3dcfb96e	0.1014279
155	0xbc30a7b9	-0.010782176
156	0xbd1fc709	-0.039008174
157	0xbe229a28	-0.15879118
158	0xbe1815bd	-0.14852042
159	0xbd32e173	-0.043672036
160	0xbd75fdb0	-0.06005639
161	0xbd91a8ad	-0.071122505
162	0xbd6ec87c	-0.058296666
163	0x3d6e5938	0.058190554
164	0x3d9d8253	0.07690873
165	0xbd0ba793	-0.034095358
166	0x3e07a76f	0.13247465
167	0x3d1a45fe	0.037664406
168	0xbe1ad8d7	-0.1512178
169	0xbdbb4d3e	-0.09145592
170	0x3bad2a14	0.005284557
171	0xbe0d6615	-0.13808472
172	0xbe3a5091	-0.18194796
173	0xbd0ac95c	-0.033883438
174	0x3d6750a5	0.056473393
175	0xbd93ffa6	-0.072264954
176	0xbd32ba08	-0.043634444
177	0xbeb75a58	-0.35811114
178	0x3c98d69b	0.01865702
179	0x3c5b029a	0.0133673195
180	0x3e06987f	0.1314411
181	0xbdb5c6e3	-0.08875825
182	0x3ddfd385	0.10929016
183	0x3d9daf1c	0.07699415
184	0x3d19c46a	0.03754083
185	0xbe2f66a5	-0.17129
186	0x3db654f5	0.08902923
187	0x3dc9b031	0.09848059
188	0x3e169a83	0.14707379
189	0x3e071504	0.1319161
190	0x3dceb55d	0.10093186
191	0xbe099730	-0.1343658
192	0x3e2858d8	0.16440141
193	0x3dc50df8	0.09621805
194	0xbc9227a1	-0.017841162
195	0x3e0703d7	0.13185059
196	0xbdfc57ec	-0.12321457
197	0xbe4a059b	-0.19728701
198	0xbd2f0419	-0.042728517
199	0x3c1d7ff5	0.009613027
200	0xbe024c86	-0.12724504
201	0xbb745f72	-0.0037288335
202	0xbe4ad359	-0.19807185
203	0x3e7048d2	0.23465279
204	0xbe5168e0	-0.20450163
205	0x3e8409f0	0.25788832
206	0x3e7489cf	0.23880695
207	0x3dd22f54	0.102629334
208	0x3d3e5e10	0.046476424
209	0xbd1ccf18	-0.038283437
210	0xbe00b764	-0.12569958
211	0x3d0daecf	0.03459054
212	0xbe4f04b9	-0.20216645
213	0x3e6b6bf0	0.22990394
214	0x3e4261a5	0.18982561
215	0xbd4b12e8	-0.049578577
216	0x3e0365be	0.1283178
217	0xbc8ac2d1	-0.016938599
218	0x3e7026a3	0.23452239
219	0xbe2b5eab	-0.16735332
220	0x3e4237f6	0.1896666
221	0xbe131a88	-0.1436559
222	0x3dcd2fd4	0.10018888
223	0x3cdbc19b	0.026825717
224	0xbe7deec2	-0.2479811
225	0xbe57024f	-0.20996974
226	0xbe328d9b	-0.1743683
227	0x3dcb1057	0.09915226
228	0x3e783b8d	0.24241467
229	0xbe5155c2	-0.2044287
230	0x3d084483	0.033268463
231	0x3d907607	0.07053762
232	0x3d3175ac	0.04332511
233	0xbe5814a8	-0.2110163
234	0xbe8066fa	-0.25078565
235	0x3bd5b3f7	0.0065216976
236	0xbc83bcfb	-0.016081324
237	0x3e022bc3	0.12712006
238	0x3e5109d3	0.20413904
239	0xbdd341ae	-0.10315262
240	0xbe046141	-0.12927724
241	0x3d90610e	0.07049762
242	0xbe263ed3	-0.16234903
243	0x3dd9e7b7	0.10639899
244	0x3d38b861	0.045097712
245	0x3e58716f	0.21137021
246	0x3ded88e1	0.11598373
247	0x3e456bfd	0.19279476
248	0x3c546f8b	0.012966047
249	0xbd0b9547	-0.03407791
250	0xbaf30923	-0.0018542152
251	0xbe47b6af	-0.19503282
252	0x3d6e14bb	0.05812524
253	0x3d750343	0.059817564
254	0x3e2a1a28	0.1661154
255	0xba9313a9	-0.0011221069

hidden2event.bias f4 [27]
0	0x3d6858c7	0.05672529
1	0x3bf1d1ec	0.007379761
2	0x3dee5abe	0.116384014
3	0x3d4e1e88	0.050322086
4	0x3c36b8ed	0.011152488
5	0xbe41e2ba	-0.18934146
6	0xbe355949	-0.17709841
7	0xbe307960	-0.17233801
8	0x3e0d8a60	0.13822317
9	0xbd927c96	-0.07152669
10	0xbb331cd5	-0.0027330418
11	0xbde7e47f	-0.11322879
12	0x3d9d4d09	0.07680709
13	0x3d86b8e0	0.06578231
14	0x3da57d86	0.08080582
15	0xbdb253fe	-0.087074265
16	0xbda0a13d	-0.07843254
17	0xbdaa16e0	-0.08305144
18	0xbcb67130	-0.022270769
19	0xbd8b14f8	-0.06791109
20	0x3d2a062b	0.04150979
21	0xbd86fbc0	-0.06590986
22	0x3b649ba3	0.0034882806
23	0xba8264fb	-0.0009948307
24	0x3bcccfe5	0.006250369
25	0xbb68a4f5	-0.0035498713
26	0xbbea8d97	-0.007157992

hidden2time.weight f4 [3, 40]
0	0x3d96f019	0.07370014
1	0xbe27db0d	-0.16392155
2	0x3e35bfb3	0.17748909
3	0xbbd8d35f	-0.0066169943
4	0x3d253ee6	0.040343188
5	0x3d375f01	0.044768337
6	0x3d9dc149	0.07702882
7	0xbd850860	-0.06495738
8	0xbe25db00	-0.16196823
9	0x3daa8bfe	0.08327483
10	0x3d108415	0.035282213
11	0x3e04fc0e	0.12986776
12	0x3e50ed8e	0.2040312
13	0xbe5c54b8	-0.21516693
14	0xbdb42cfd	-0.08797643
15	0xbd3a20d8	-0.04544148
16	0xbe21ba19	-0.15793647
17	0xbeb1ffca	-0.34765464
18	0xbbe32b46	-0.006932649
19	0xbdad0152	-0.084475175
20	0xbd3453cc	-0.044025227
21	0x3d347325	0.044055123
22	0x3cf50934	0.029911615
23	0x3d9e8453	0.077400826
24	0x3e6f65ee	0.23378727
25	0x3dbb4fd0	0.091460824
26	0x3df15c37	0.11785167
27	0x3da3ff4d	0.08007679
28	0xbe2ace92	-0.16680363
29	0x3e5b5d76	0.21422371
30	0x3dc6f90f	0.09715473
31	0x3b77526e	0.003773834
32	0xbe092078	-0.13391292
33	0xbc3d3669	-0.011548617
34	0xbbeb6f54	-0.007184902
35	0xbe67d8b8	-0.22641265
36	0x3c8f8766	0.017520618
37	0xbd19352e	-0.03740423
38	0xbe487ab4	-0.19578058
39	0xbd56fb91	-0.052486006
40	0x3c3d838d	0.011567009
41	0xbdda312d	-0.10653911
42	0xbd031512	-0.032002516
43	0xbd87a3e2	-0.06623055
44	0x3dcadbae	0.09905182
45	0xbd847298	-0.064671695
46	0xbe1dae15	-0.15398438
47	0xbe5ff28c	-0.21869868
48	0xbe4e6f78	-0.2015971
49	0xbc56196a	-0.013067583
50	0xbdca4e4d	-0.09878216
51	0x3e2fb459	0.17158641
52	0xbe8223e8	-0.2541802
53	0x3df14645	0.11780981
54	0x3d82b326	0.06381826
55	0x3df60361	0.12012363
56	0xbccb146f	-0.024790017
57	0x3ebd77ec	0.37005556
58	0xbe25acdb	-0.1617922
59	0x3e46a6dd	0.19399591
60	0xbc67846f	-0.014130696
61	0x3e600e12	0.21880367
62	0xbd3840b7	-0.044983592
63	0xbdde2dd8	-0.10848588
64	0xbdd22740	-0.102613926
65	0x3e245986	0.16049775
66	0x3dccffeb	0.1000975
67	0xbe661b1d	-0.2247128
68	0xbe1eb0b4	-0.15497094
69	0x3dfc1b7e	0.12309931
70	0x3d596a71	0.053080026
71	0xbe20f8c0	-0.1571989
72	0xbe29f173	-0.16596012
73	0x3e494a11	0.1965716
74	0x3e11875d	0.14211793
75	0xbd062aab	-0.032755535
76	0x3d536496	0.051609598
77	0xbe2868ba	-0.164462
78	0x3d36c0fd	0.04461764
79	0xbd494965	-0.04914226
80	0xbe4028a7	-0.18765508
81	0x3dc6bf5e	0.09704469
82	0xbe3d5e49	-0.18492998
83	0x3e669a28	0.22519743
84	0xbdb8791b	-0.09007474
85	0x3e2b8500	0.16749954
86	0x3cc02232	0.023453806
87	0x3df37e80	0.11889362
88	0xbcd9bc8b	-0.026579162
89	0xbe45be50	-0.1931088
90	0xbdb0f7a4	-0.08640984
91	0xbe6db6f4	-0.23214322
92	0x3d8a05a4	0.06739357
93	0x3de93999	0.11387939
94	0x3e1e1650	0.15438199
95	0x3e3cfeef	0.18456624
96	0x3d670d24	0.056409016
97	0x3d560398	0.05224952
98	0x3dcdcbf4	0.100486666
99	0xbd120b81	-0.035655502
100	0x3dae5db9	0.0851397
101	0xba3f5653	-0.0007298935
102	0x3e5a6cb5	0.21330531
103	0x3e664583	0.22487454
104	0xbd66fc17	-0.056392755
105	0x3d789788	0.060691386
106	0xbe4ac921	-0.19803287
107	0xbc3354f7	-0.01094555
108	0x3d0634b3	0.0327651
109	0xbe1edcb6	-0.15513882
110	0xbe4164ae	-0.18886063
111	0x3db08366	0.08618812
112	0x3e2a9fb9	0.16662492
113	0xbe5e7267	-0.21723329
114	0xbdc749d3	-0.09730878
115	0x3d11f3ef	0.035633024
116	0x3d81aa12	0.063312665
117	0x3e733cad	0.23753615
118	0x3d6e0e4f	0.058119114
119	0xbe521258	-0.2051481

hidden2time.bias f4 [3]
0	0xbdb904dc	-0.0903413
1	0xbcc62a59	-0.024190115
2	0x3d825c14	0.06365219
