events_simulation/models/all_epochs/model_28_20180530-0609.pt (torch_old, 78354 bytes, 9 tensors)

loss_function_events.weight f4 [27]
0	0x3f800000	1.0
1	0x3f800000	1.0
2	0x3f800000	1.0
3	0x3f800000	1.0
4	0x3f800000	1.0
5	0x3f800000	1.0
6	0x3f800000	1.0
7	0x3f800000	1.0
8	0x3f800000	1.0
9	0x3f800000	1.0
10	0x3f800000	1.0
11	0x3f800000	1.0
12	0x3f800000	1.0
13	0x3f800000	1.0
14	0x3f800000	1.0
15	0x3f800000	1.0
16	0x3f800000	1.0
17	0x3f800000	1.0
18	0x3f800000	1.0
19	0x3f800000	1.0
20	0x3f800000	1.0
21	0x3f800000	1.0
22	0x3f800000	1.0
23	0x3f800000	1.0
24	0x3f800000	1.0
25	0x3f800000	1.0
26	0x3f800000	1.0

lstm.weight_ih_l0 f4 [160, 70]
0	0xc00e9145	-2.2276165
1	0xbffd08d9	-1.9768325
2	0x3f60e5c4	0.87850595
3	0xbf814cdc	-1.0101581
4	0x3e982712	0.29717308
5	0x3d8ec9cc	0.069720834
6	0xbe357ee8	-0.17724192
7	0xbe2a903d	-0.16656585
8	0x3f6d5403	0.92706317
9	0x3c145086	0.009052401
10	0x40017e09	2.0233176
11	0xbfc50403	-1.5391849
12	0xc0382f4c	-2.8778868
13	0xbf38d17e	-0.7219466
14	0x3f5dacd1	0.8659182
15	0xbe115140	-0.1419115
16	0xbdc014d0	-0.0937897
17	0xbd5429d2	-0.051797695
18	0x3e1a2eaa	0.15056863
19	0xbf78aff7	-0.971435
20	0xbe8e6ee6	-0.27818984
21	0x3ff0cc20	1.8812294
22	0x3fefc5e1	1.8732263
23	0x3f520de3	0.8205244
24	0x3ec1cbc7	0.37850782
25	0xbc9d9330	-0.019235224
26	0xbf114902	-0.56752026
27	0xbe6ffad4	-0.23435527
28	0x3ec6a3eb	0.38796934
29	0xbf1f5f52	-0.6225482
30	0x3f07f4bf	0.5310783
31	0xbecb8a8c	-0.3975414
32	0xbd320bdf	-0.043468352
33	0xbe1b8099	-0.15185775
34	0xbf16711c	-0.5876634
35	0x3ed218e4	0.41034615
36	0xbe23d676	-0.15999779
37	0x3f004f72	0.50121224
38	0x3f38b3da	0.7214943
39	0x3f109428	0.5647607
40	0xbdf8586a	-0.12126239
41	0xbf45305a	-0.77026904
42	0xbb87bd5a	-0.0041424455
43	0x3e79e3f2	0.2440336
44	0x3f4519c0	0.76992416
45	0x3eacda5d	0.33760348
46	0x3e15cd38	0.14629066
47	0x3f8594cc	1.0436034
48	0x3e84514d	0.25843278
49	0xbee5bd9b	-0.4487122
50	0xbfe798e0	-1.8093529
51	0x3f0ea19b	0.5571534
52	0x3efa2e15	0.48863283
53	0x3e2fe255	0.17176183
54	0xbec3cc5d	-0.38241854
55	0xbec8e1a3	-0.39234647
56	0xbeb17261	-0.34657577
57	0xbe2e1cfb	-0.17003243
58	0x3eb87a05	0.36030594
59	0x3fd5bce5	1.6698271
60	0x3fe76f09	1.808076
61	0xbf5156cc	-0.81773067
62	0x3f2201c4	0.63283944
63	0x3e6c47c5	0.23074253
64	0x3ebedb69	0.37276772
65	0xbe46d4e1	-0.19417144
66	0x3f9281c1	1.1445848
67	0x3f5b1029	0.85571533
68	0x3fa2d2dc	1.2720599
69	0xbeb3bb42	-0.35103804
70	0x3fa32913	1.274691
71	0x3f124aaf	0.5714521
72	0xbfa72edb	-1.3061174
73	0xbfc82397	-1.5635861
74	0xc00d5e98	-2.2088985
75	0x3dc3653a	0.09540792
76	0x3fa20a16	1.2659328
77	0xbeea91ac	-0.45814264
78	0xbf0b188e	-0.5433434
79	0xbf9be3a9	-1.2178851
80	0x3f334773	0.700309
81	0xbf29007a	-0.6601635
82	0xbff2512b	-1.893102
83	0x3f9c80e1	1.2226831
84	0x3f606363	0.8765165
85	0xbd92729a	-0.07150765
86	0xc040fa53	-3.0152786
87	0xbe20583f	-0.15658663
88	0xbf594737	-0.8487429
89	0xbed6835c	-0.41897094
90	0xbf82a36a	-1.020612
91	0x3ee808fa	0.4531935
92	0x3efd3914	0.4945761
93	0x3e3d5947	0.18491088
94	0x3f7c4270	0.98538876
95	0xbbf7bca0	-0.0075603276
96	0x3ecfc172	0.40577275
97	0x3e2112ff	0.15729903
98	0xbe406ddb	-0.18791907
99	0x3e9bc68e	0.30424923
100	0xbf6d803a	-0.92773783
101	0x3d9de9e6	0.07710628
102	0xbe9880f4	-0.29785883
103	0x3f4e7f74	0.8066323
104	0x3fc685ae	1.5509546
105	0xbe4a25ca	-0.19740978
106	0xbedbb0f5	-0.42908445
107	0x3f012bac	0.50457263
108	0xbe999a73	-0.30000648
109	0xbe93f20e	-0.2889561
110	0xbe44cc5f	-0.19218586
111	0xbe2a6702	-0.16640857
112	0x3ed9ce5a	0.42540246
113	0x3ec140d4	0.37744772
114	0x3ce214d6	0.027597826
115	0xbf18f5c4	-0.5975001
116	0x3f30372a	0.68834174
117	0x3fbcbc5c	1.4744983
118	0x3f1273cb	0.57207936
119	0x3e86edb6	0.26353234
120	0xbf963d8c	-1.1737533
121	0xbe90969e	-0.28239912
122	0xbfe3e8bd	-1.7805401
123	0xbf9c36a3	-1.2204174
124	0xbe990adc	-0.29891098
125	0xbef0ff12	-0.47069603
126	0xbe102fca	-0.1408073
127	0x3f03dd95	0.5150998
128	0x3f1a0602	0.6016542
129	0x3f69eac9	0.9137388
130	0xbda7aee0	-0.08187652
131	0x3e275f81	0.16345026
132	0x3eaaf373	0.33388862
133	0xbd3882ff	-0.045046803
134	0x3f855c15	1.0418726
135	0xbe3b2e5c	-0.18279403
136	0x3e6635ac	0.22481412
137	0xbf2f9555	-0.6858724
138	0x3fa05019	1.2524444
139	0x3ceb38db	0.028713634
140	0x3e8d016a	0.2754014
141	0x3dccacc0	0.09993887
142	0x3e937f33	0.28807983
143	0x3e55f2bc	0.20893377
144	0x3e063bb7	0.13108717
145	0x3e17539d	0.1477799
146	0xbd9df45a	-0.07712622
147	0x3de752cb	0.112950884
148	0x3d8e5ffd	0.06951902
149	0xbd6fb563	-0.058522593
150	0x3e39653a	0.18105021
151	0xbd728215	-0.059206087
152	0x3e804906	0.25055712
153	0x3e882bb8	0.26595855
154	0x3e1730d7	0.14764725
155	0x3e7fdce1	0.24986602
156	0xbcc63ca2	-0.024198834
157	0x3d3cc324	0.046084538
158	0x3dcd463d	0.100231625
159	0x3e8be02c	0.27319467
160	0x3e6b6b81	0.22990228
161	0x3e258acd	0.1616623
162	0xbce41a39	-0.027844535
163	0x3ca47182	0.020073656
164	0x3dc7fe13	0.09765258
165	0xbd127fb4	-0.03576632
166	0x3f0c1944	0.5472605
167	0x3e5b45c0	0.21413326
168	0x3d021155	0.03175481
169	0x3f244aca	0.6417662
170	0xbd54b95e	-0.051934592
171	0x3e26ae26	0.1627737
172	0x3e720ee4	0.23638493
173	0x3e962457	0.293246
174	0x3b876b1d	0.004132642
175	0x3dbd6c21	0.092491396
176	0x3de8ff5b	0.1137683
177	0x3dad833a	0.08472295
178	0x3ddeebbe	0.10884808
179	0xbc5991f6	-0.013279429
180	0xbd30dd35	-0.04317971
181	0x3d699b59	0.057032917
182	0x3e00c3f7	0.12574755
183	0x3e4c4f6c	0.19952172
184	0xbc104ac0	-0.008806884
185	0x3e87d95c	0.2653302
186	0x3d4ac39e	0.04950296
187	0xbb8abfa0	-0.0042342693
188	0x3e7a34de	0.2443423
189	0x3e71d635	0.2361687
190	0xbced9717	-0.02900271
191	0x3e134e04	0.1438523
192	0x3e60e5df	0.21962689
193	0x3e8411f4	0.25794947
194	0x3e9e8bd9	0.3096607
195	0x3e159729	0.14608444
196	0x3af2f5a3	0.001853634
197	0x3e852834	0.26007235
198	0x3caf6064	0.021408267
199	0x3e00ef85	0.1259137
200	0x3d1902b1	0.037356082
201	0x3e8e41ed	0.27784672
202	0x3e1a0932	0.1504257
203	0x3e88bfe5	0.26708904
204	0x3e1ac2e0	0.15113401
205	0x3e581756	0.21102652
206	0x3d84bbe4	0.0648115
207	0x3e56fe95	0.20995553
208	0x3e87bbb7	0.26510403
209	0x3d1f58d4	0.038903072
210	0x3f26eb27	0.65202564
211	0x3ce1c7e7	0.027561141
212	0xbf28e68f	-0.65976804
213	0xbe1d1b67	-0.15342484
214	0x3ea2dc9f	0.31808946
215	0xbd30c8f0	-0.04316038
216	0x3ec73222	0.38905436
217	0xbe6533df	-0.22383069
218	0xbdf02267	-0.11725312
219	0xbec02c77	-0.37533924
220	0x3fc89c2d	1.5672661
221	0x3ffef944	1.991982
222	0x3f6a59f5	0.91543514
223	0xbc4d0f7e	-0.012515901
224	0xbf3ca3fc	-0.7368772
225	0xbcae7b2a	-0.021298964
226	0x3f5fb731	0.873889
227	0x3c782040	0.015144408
228	0xbe1a166b	-0.15047614
229	0x3de5e59b	0.112254344
230	0x3eeca7c3	0.46221742
231	0xbd9f289e	-0.07771419
232	0x40278660	2.6175766
233	0xbf06c840	-0.5264931
234	0x3e73c0b5	0.2380398
235	0xbc8c8610	-0.01715377
236	0xbe967184	-0.2938348
237	0x3ea7f12c	0.32801187
238	0x3d89a80e	0.06721507
239	0xbeda48f7	-0.42633793
240	0xbf90c9e3	-1.1311611
241	0xbe371240	-0.17878056
242	0xbe5fe6ce	-0.21865389
243	0xbd54f0e8	-0.05198756
244	0xbd32a9b3	-0.04361887
245	0x3e0d7e3c	0.13817686
246	0x3f0135c1	0.50472647
247	0x3e36a419	0.17836036
248	0x3e5b8ce2	0.21440461
249	0x3e95cddc	0.2925862
250	0x3e81cdb7	0.2535226
251	0xbef7b22a	-0.48378116
252	0x3db6caa2	0.08925368
253	0x3e319c29	0.17344727
254	0xbd7a49ad	-0.06110542
255	0x3f27e4aa	0.6558329

lstm.weight_hh_l0 f4 [160, 40]
0	0xbd2a9f65	-0.041655917
1	0x3e1355cc	0.14388198
2	0xbe2d499c	-0.16922611
3	0xbffb2f7a	-1.9623864
4	0xbe487a3f	-0.19577883
5	0xbdf065f2	-0.117381945
6	0xbf242efc	-0.6413419
7	0x3dc70745	0.097181834
8	0xbe746c3f	-0.23869418
9	0x3f810e6b	1.0082525
10	0x3e4bad8c	0.19890422
11	0xbf73ec42	-0.95282376
12	0x3e961bc8	0.2931807
13	0x3f607c32	0.87689507
14	0x3f1bc05b	0.60840386
15	0x3d801c1b	0.06255361
16	0xbed5377d	-0.41643897
17	0x3ee47acd	0.4462494
18	0x3ee85617	0.4537818
19	0xbf0b4333	-0.5439941
20	0xbfc55058	-1.5415144
21	0x3f4d5205	0.80203277
22	0xbeea1912	-0.45722252
23	0x3e891141	0.26770976
24	0xbf244214	-0.6416333
25	0xbdae0227	-0.08496504
26	0xbe00c533	-0.12575226
27	0xbea491f4	-0.32142603
28	0xbec9d465	-0.39419857
29	0x3f1717ff	0.5902099
30	0x3e3eb38f	0.18623184
31	0xbeb2ecf6	-0.34946412
32	0x3e853810	0.26019335
33	0xbd92308c	-0.07138166
34	0x3e4d8e90	0.20073915
35	0xbda53f86	-0.08068757
36	0x3d4040d5	0.04693683
37	0xbd6a7425	-0.05723967
38	0x3e7a5e5e	0.2445006
39	0xbf744c45	-0.9542888
40	0x3e9b9ddf	0.30393884
41	0x3e2d15d8	0.16902864
42	0xbe96e50e	-0.2947163
43	0xbe03032e	-0.12794182
44	0xbe2bd86e	-0.1678178
45	0x3d83b4ca	0.06430967
46	0xbe839dd8	-0.25706363
47	0x3fbc2798	1.4699583
48	0x3f7637ea	0.9617907
49	0xbe2dee11	-0.16985346
50	0x3ff065a5	1.878102
51	0x3e9b86f6	0.30376405
52	0x3f9bc08f	1.2168139
53	0xbbf19739	-0.0073727635
54	0xbe63be67	-0.22240601
55	0xbf000007	-0.5000004
56	0xbc0275e9	-0.007962682
57	0xbdaa6516	-0.08320062
58	0xbfbd0e2e	-1.4769952
59	0x3e3c7073	0.18402271
60	0xbfada50f	-1.3565997
61	0x3ddcbcf0	0.107782245
62	0xbf1d3743	-0.6141245
63	0xbd142b7e	-0.03617429
64	0xbdcca844	-0.099930316
65	0xbe86df50	-0.2634225
66	0x3d833ca3	0.0640805
67	0xbe61d040	-0.22052097
68	0x3e5d1523	0.21590094
69	0x3decd7f5	0.11564628
70	0xbe875e34	-0.2643906
71	0x3e6b1843	0.22958474
72	0xbd203b69	-0.039119158
73	0xbd3fbd00	-0.046811104
74	0xbde06893	-0.10957446
75	0x3f39030e	0.72270286
76	0x3dcf0deb	0.101100765
77	0x3f03b0bb	0.51441544
78	0x3eabb2a0	0.33534718
79	0x3ed27199	0.41102293
80	0xbce7d23b	-0.028298488
81	0x3d970e79	0.07375807
82	0x3d7fad95	0.0624214
83	0xbe3fef4d	-0.1874363
84	0xbcf00cc5	-0.029302964
85	0x3bc7f82c	0.0061025824
86	0x3ebf4e3b	0.37364373
87	0xbb63eded	-0.0034779266
88	0x3b870635	0.004120613
89	0xbe3635d8	-0.17793977
90	0xbe7f95c3	-0.24959473
91	0x3e1f746f	0.1557176
92	0x3cb2e51a	0.02183776
93	0xbc4bc694	-0.012437481
94	0x3e53bc40	0.2067728
95	0x3cbc5da1	0.022993864
96	0xbd7fccfd	-0.06245135
97	0x3e3c7c7b	0.1840686
98	0xbda4a4a2	-0.08039214
99	0x3e854041	0.26025584
100	0xbe024e65	-0.12725218
101	0x3dd43bb0	0.10362947
102	0x3dc73b87	0.09728151
103	0x3cc4e494	0.024034776
104	0xbe3953cd	-0.18098374
105	0xbd723dce	-0.059140973
106	0x3e297f40	0.16552448
107	0xbe56ede2	-0.20989183
108	0x3d89868d	0.06715117
109	0x3e08f2ef	0.13373922
110	0xbd6fdc16	-0.0585595
111	0x3bbc2df7	0.005742784
112	0x3e7795d3	0.24178247
113	0x3dcd6e0e	0.10030757
114	0xbe524942	-0.20535758
115	0x3c5c768a	0.013455996
116	0xbe8884e1	-0.2666388
117	0x3d385061	0.04499853
118	0x3e12733b	0.1430177
119	0x3e29c80b	0.16580217
120	0xbdf8517f	-0.12124919
121	0x3deca2c4	0.115544826
122	0xbdab07df	-0.08351111
123	0xbe252f7a	-0.16131392
124	0xbe13ed10	-0.14445901
125	0x3dbd5a12	0.09245695
126	0x3f062997	0.5240721
127	0xbea9ad94	-0.33140242
128	0xbf12eec1	-0.5739556
129	0x3f4a6a2f	0.79068273
130	0x3f27d3b0	0.65557384
131	0x3dd91217	0.105991535
132	0x3f370384	0.7148974
133	0x3f4bb53e	0.7957343
134	0x3db78f33	0.0896286
135	0x3db5c54b	0.08875521
136	0xbea6b99d	-0.32563487
137	0xbd1148ae	-0.035469703
138	0x3eef4c32	0.4673782
139	0xbdb4eea5	-0.0883458
140	0xbf4f292f	-0.80922216
141	0x3e8599d9	0.2609394
142	0xbf5b0769	-0.8555818
143	0xbe2b4876	-0.1672686
144	0xbe230467	-0.15919648
145	0xbeb85d90	-0.36008883
146	0x3dff2d71	0.12459839
147	0xbe5db47d	-0.21650882
148	0x3e146534	0.14491731
149	0xbd9a2f6b	-0.075285755
150	0x3e677a23	0.22605185
151	0xbeae9917	-0.34101173
152	0x3e98fdf1	0.29881242
153	0xbdad322d	-0.08456836
154	0xbe18e07a	-0.14929381
155	0x3e9669ca	0.29377586
156	0xbe3dd6ab	-0.1853892
157	0xbeb42b52	-0.351893
158	0x3c90f735	0.017696002
159	0xbe80b979	-0.25141504
160	0xbec0a8a4	-0.37628663
161	0x3cb9ef92	0.022697244
162	0xbcc477f7	-0.023982985
163	0xbf292daa	-0.660853
164	0xbeb60235	-0.3554856
165	0xbd88e3af	-0.06684052
166	0xbf0e0576	-0.5547708
167	0xbe5b6953	-0.21426897
168	0xbed7e40d	-0.42166176
169	0x3f17f6de	0.59361064
170	0xbe744b37	-0.23856817
171	0x3ea5b234	0.3236252
172	0x3eb93daf	0.36179873
173	0x3f6c9f6a	0.92430747
174	0xbe027149	-0.12738527
175	0x3cb75257	0.02237813
176	0xbe4718d8	-0.19443071
177	0xbcc0216f	-0.023453442
178	0x3e9058a6	0.28192633
179	0xbebbc78d	-0.36675683
180	0xbfa54823	-1.2912639
181	0x3ea2458a	0.3169368
182	0xbf5c448c	-0.86042094
183	0xbdd90319	-0.10596294
184	0x3e7a7d44	0.24461848
185	0xbd6f103f	-0.058365103
186	0xbe064278	-0.13111293
187	0xbe3b2ae1	-0.18278076
188	0x3df0e6c0	0.11762762
189	0x3f845562	1.0338557
190	0x3ebe315c	0.37147033
191	0xbe877722	-0.2645808
192	0xbd69ba93	-0.057062697
193	0x3d48e819	0.04904947
194	0x3f0c7418	0.54864645
195	0xbefe5703	-0.4967576
196	0x38aff600	8.390471e-05
197	0xbe303f1b	-0.17211573
198	0x3dbf8b2b	0.09352716
199	0xbfa8914a	-1.3169339
200	0xbe4455dd	-0.19173379
201	0x3db9a6e8	0.09065038
202	0xbe04a731	-0.12954403
203	0x3ddaed92	0.10689844
204	0xbe58ecbd	-0.21184058
205	0x3ce3e2b7	0.027818067
206	0xbe86c1d0	-0.26319742
207	0x3e6d8bc6	0.2319785
208	0xbed04351	-0.40676358
209	0xbf076154	-0.52882886
210	0x3f25038d	0.64458543
211	0xbdda6ae3	-0.10664918
212	0x3eaedcae	0.3415274
213	0x3f552a66	0.8326782
214	0x3e040958	0.1289419
215	0xbda7d26b	-0.08194431
216	0xbd863b64	-0.065542966
217	0xbd6a08e4	-0.057137385
218	0x3cd955e4	0.026530214
219	0x3be8f7bc	0.0071096104
220	0xbf2967bd	-0.6617392
221	0x3e124be4	0.14286762
222	0x3dce5b18	0.100759685
223	0xbd933c96	-0.0718929
224	0x3c56ec2b	0.01311783
225	0xbe0957ce	-0.13412401
226	0x3d97160f	0.07377254
227	0xbdf1fe0a	-0.11816032
228	0xbe75db56	-0.24009451
229	0x3e76e372	0.24110201
230	0x3d952018	0.07281512
231	0xbe8225bd	-0.25419417
232	0x3d2b8421	0.041874055
233	0xbe6d4ec7	-0.23174582
234	0x3e58842b	0.21144168
235	0xbf0d6f48	-0.55247927
236	0xbbdce0b6	-0.006740655
237	0xbe8330dd	-0.25623217
238	0xbc446d51	-0.011988954
239	0xbe93badc	-0.288535
240	0x3e40dc7b	0.18834107
241	0x3e70e62b	0.23525302
242	0xbe46fd32	-0.19432524
243	0xbe20cdbe	-0.15703484
244	0xbd80fbda	-0.06298037
245	0xbe1215bd	-0.14266105
246	0xbdcd9f56	-0.100401565
247	0x3ed08178	0.40723777
248	0x3e8ad66a	0.2711671
249	0x3f0ceb26	0.5504631
250	0xbeecce9b	-0.46251377
251	0xbf8588d7	-1.0432385
252	0x3f0f3fca	0.5595671
253	0xbede65e4	-0.4343711
254	0x3cd586fc	0.026065342
255	0x3e3b6f93	0.18304281

lstm.bias_ih_l0 f4 [160]
0	0x3e13a6c5	0.14419086
1	0xbcb00458	-0.021486446
2	0x3c6266ca	0.013818452
3	0x3e1a849f	0.15089653
4	0x3d1c699e	0.038186662
5	0x3db4b7da	0.088241294
6	0xbdb78a23	-0.08961894
7	0xbdb4f9c7	-0.08836704
8	0x3ca9e2c6	0.020738017
9	0xbcb73c26	-0.022367548
10	0x3d9a876e	0.075453624
11	0x3e4edea7	0.20202123
12	0xbdbd9df0	-0.0925864
13	0x3ee515b3	0.44743118
14	0x3e257981	0.16159631
15	0x3d69cf55	0.057082493
16	0x3dbde7d3	0.092727326
17	0x3c4eca4c	0.0126214735
18	0xbe9d709d	-0.3074998
19	0x3e7872f7	0.24262606
20	0x3e460336	0.19337162
21	0x3ddb19b4	0.10698262
22	0x3eae423c	0.34034908
23	0x3de508ac	0.11183295
24	0xbd6fb081	-0.058517937
25	0x3e22aaa7	0.15885411
26	0x3e0476b8	0.12935913
27	0x3d4bec80	0.04978609
28	0xbdc7796b	-0.097399555
29	0x3e2ec29b	0.17066424
30	0xbd497a8e	-0.049189143
31	0x3e8cde8c	0.2751354
32	0x3e3bef95	0.18353112
33	0xbe56066f	-0.20900892
34	0xbd52a3c9	-0.05142573
35	0xbe650cfb	-0.22368233
36	0x3e349631	0.17635418
37	0xbe9d7bd1	-0.30758527
38	0x3ddcc3f4	0.107795626
39	0x3e6524fc	0.2237739
40	0x3d789c3f	0.060695883
41	0x3e1bc611	0.15212275
42	0x3deb6609	0.11494071
43	0x3e76321f	0.24042557
44	0x3e91c068	0.28467107
45	0x3dd34f74	0.10317889
46	0x3dc1e137	0.094667844
47	0x3e3b0ded	0.18267031
48	0xbdd9d32c	-0.10635981
49	0xbda22166	-0.079165265
50	0xbc2ee9d9	-0.010675871
51	0x3e4cb240	0.19989872
52	0xbe82b3ed	-0.25527897
53	0xbe4c3211	-0.19940974
54	0x3e7ef780	0.24899101
55	0x3e094da1	0.1340852
56	0x3df89d94	0.12139431
57	0x3de7f0fb	0.1132526
58	0x3f0f8e3e	0.5607642
59	0x3c8a55ca	0.01688661
60	0x3e1909f1	0.14945199
61	0x3cbb66e8	0.022876218
62	0xbd3ee4f8	-0.04660508
63	0x3e321e8a	0.17394462
64	0x3d6f8187	0.058473136
65	0x3e8a8d05	0.27060714
66	0x3e8f3369	0.2796891
67	0x3db381dc	0.08765003
68	0xbdef4ca0	-0.11684537
69	0xbdb38ceb	-0.08767112
70	0x3e61e20d	0.22058888
71	0x3e1b2132	0.15149382
72	0x3e723c46	0.23655805
73	0x3df6f62d	0.12058673
74	0x3db3c35f	0.087774985
75	0x3d7c7150	0.0616315
76	0x3e87c80f	0.2651982
77	0x3e527b96	0.20554957
78	0x3e2b2c96	0.16716227
79	0x3e370138	0.17871559
80	0xbd9f4bce	-0.077781305
81	0x3e3abe9d	0.18236776
82	0x3e8bb11f	0.2728357
83	0xbe7aa92b	-0.24478595
84	0xbd99cf69	-0.075102635
85	0x3d5fae61	0.05460966
86	0x3dfcb28f	0.12338745
87	0xbd9b704d	-0.07589779
88	0xbd6018fb	-0.054711323
89	0xbdc1c2cd	-0.094609834
90	0x3df49835	0.11943094
91	0x3defa595	0.11701504
92	0x3de3ad40	0.11117029
93	0xbdeb524c	-0.11490306
94	0x3d144c22	0.03620542
95	0xbe964b31	-0.29354241
96	0xbe37adf2	-0.17937449
97	0x3c8ac470	0.016939372
98	0xbc836e42	-0.016043786
99	0x3c6437fd	0.013929364
100	0x3dc298e1	0.095018156
101	0x3e3d7135	0.18500216
102	0x3e7ecb53	0.2488225
103	0xbd04cbee	-0.032421045
104	0xbdfb013c	-0.12256095
105	0x3bd34adc	0.006448133
106	0x3e6ef3f1	0.23335244
107	0xbd906271	-0.07050026
108	0x3e36b1d2	0.1784127
109	0x3e693044	0.22772318
110	0xbe352237	-0.17688833
111	0xbe340f9c	-0.1758408
112	0x3e2d07b9	0.16897477
113	0x3d742b41	0.059611563
114	0xbe2d8532	-0.16945341
115	0xbe6c8aaf	-0.23099779
116	0xbe3fbfa4	-0.18725449
117	0xbdb17c5f	-0.086663
118	0xba98425d	-0.0011616457
119	0x3c543f58	0.012954555
120	0xbe6044d6	-0.21901259
121	0xbd7ac400	-0.061222076
122	0xbdf30dda	-0.11867876
123	0x3d47087d	0.04859208
124	0xbe0d40e9	-0.13794293
125	0xbe47ec1b	-0.19523661
126	0xbc6372ed	-0.013882381
127	0xbd98c7a6	-0.07459955
128	0xbe30804f	-0.17236446
129	0x3e1f92b1	0.15583302
130	0xbc52c9f5	-0.012865533
131	0xbe89b391	-0.2689481
132	0x3d55ffd3	0.052245926
133	0x3ee5d24c	0.44887006
134	0xbe24e54a	-0.16103092
135	0x3d63af18	0.055586904
136	0xbe42f541	-0.1903887
137	0x3da1b288	0.0789538
138	0xbe380e80	-0.17974281
139	0x3ded034a	0.11572893
140	0x3dd22ef1	0.102628596
141	0xbe5719ea	-0.21005979
142	0x3efd1636	0.49431008
143	0xbdba4fe6	-0.09097271
144	0x3db74970	0.08949554
145	0x3aa44981	0.0012534113
146	0xbe034cdf	-0.12822293
147	0x3e202be6	0.15641746
148	0xbe2dbcf8	-0.16966617
149	0xbcd11b25	-0.025525639
150	0xbdafae9e	-0.085782275
151	0x3b711652	0.0036786986
152	0xbcffcb02	-0.031224731
153	0xbdd5e148	-0.104433596
154	0xbe01dbe8	-0.12681544
155	0x3e344b59	0.17606868
156	0x3e1f759c	0.15572208
157	0x3e9f535d	0.3111829
158	0x3ead3be0	0.33834743
159	0x3d88b6e2	0.06675507

lstm.bias_hh_l0 f4 [160]
0	0xbe1da4de	-0.15394923
1	0xbd96faa9	-0.073720284
2	0x3d30d5ec	0.04317276
3	0xbd1ca07e	-0.038238995
4	0x3e07939b	0.13239901
5	0x3e2617f4	0.16220075
6	0xbd46621b	-0.048433404
7	0xbe470be0	-0.19438124
8	0xbda2dd4d	-0.07952366
9	0xbdb3f95c	-0.08787796
10	0x3cf59f47	0.029983176
11	0x3e342066	0.17590484
12	0xbd63f772	-0.055655904
13	0x3ed9fc8d	0.42575493
14	0x3e2134df	0.15742825
15	0x3e1e32fa	0.15449134
16	0x3de97bf3	0.114005946
17	0x3d5efb19	0.054438684
18	0xbea4904d	-0.32141343
19	0x3e719e33	0.23595504
20	0x3e141080	0.14459419
21	0x3d9e0efa	0.077177
22	0x3e54706c	0.2074601
23	0x3e385482	0.18000987
24	0xbdca1b1d	-0.09868453
25	0xbd645479	-0.055744622
26	0x3df18c0c	0.1179429
27	0x3e3e29b7	0.185706
28	0xbe50b346	-0.20380887
29	0x3e92144b	0.28531107
30	0xbe642079	-0.22278012
31	0x3db1bbd5	0.08678404
32	0x3c038acc	0.008028697
33	0xbe8dac73	-0.2767063
34	0x3e41e696	0.18935618
35	0xbde1d22a	-0.11026414
36	0xbcf54a8c	-0.029942773
37	0xbed6e370	-0.41970396
38	0x3e92c216	0.286637
39	0x3e02e572	0.12782839
40	0x3e61f10c	0.22064608
41	0xbcb497a6	-0.022044968
42	0x3e86464d	0.2622551
43	0x3e2c4f59	0.16827144
44	0x3e22bce5	0.1589237
45	0x3d3a00d1	0.045410935
46	0x3e09f315	0.13471635
47	0xbd087efb	-0.033324223
48	0x3b8ac9a7	0.0042354646
49	0xbe5eb378	-0.2174815
50	0x3db87cea	0.090082005
51	0x3df25e43	0.11834385
52	0xbe24d262	-0.1609588
53	0x3d3ada15	0.045618135
54	0x3da6fa98	0.08153266
55	0x3e92d69e	0.28679365
56	0x3e2336be	0.15938851
57	0x3c4a5bb3	0.012350964
58	0x3f14f350	0.58183765
59	0x3d44c479	0.048038933
60	0xbd68570c	-0.05672364
61	0x3e4b1534	0.19832307
62	0x3e1294fa	0.14314643
63	0x3da9aa37	0.08284419
64	0x3e343ad3	0.17600565
65	0x3eb20fe5	0.34777752
66	0x3cb1d11d	0.021706158
67	0x3e63c047	0.22241317
68	0xbe0a15d3	-0.13484888
69	0xbdc1d9c0	-0.09465361
70	0x3c3a7a07	0.011381633
71	0xbcc3ee60	-0.023917377
72	0x3e39853c	0.18117231
73	0xbe18b9d8	-0.14914644
74	0x3e8ec619	0.27885512
75	0xbd2c2a49	-0.042032514
76	0x3e85ae73	0.26109657
77	0x3ea406cd	0.3203644
78	0x3e284b78	0.16435039
79	0x3e1b8fa3	0.15191512
80	0xbe2dc5dd	-0.1697001
81	0x3e689e15	0.22716554
82	0x3e8383cc	0.2568649
83	0xbdfa30d0	-0.122163415
84	0xbe8a99b2	-0.27070385
85	0x3e4357ab	0.19076411
86	0x3dce8e67	0.10085755
87	0x3da6afc1	0.08138991
88	0x3cbacc78	0.022802576
89	0xbc4186a5	-0.011811887
90	0x3df8e47c	0.12152955
91	0x3d51afe0	0.051193118
92	0x3d5731fb	0.0525379
93	0xbe52708c	-0.20550746
94	0x3e251bba	0.16123858
95	0xbe16d246	-0.1472865
96	0x3cceb3d1	0.025232228
97	0x3e5a45a0	0.21315622
98	0xbdf1bd61	-0.11803699
99	0xbce32ae5	-0.027730415
100	0x3d190914	0.037362173
101	0x3e858215	0.26075807
102	0x3e556a6c	0.20841378
103	0xbe7d9eb4	-0.24767572
104	0x3cd09176	0.025459986
105	0xbe6cedf1	-0.23137642
106	0x3e7035ed	0.23458071
107	0xbe5d6feb	-0.21624725
108	0x3c06d035	0.008228351
109	0x3d038ed9	0.032118652
110	0xbd530c53	-0.051525425
111	0xbe1c88e2	-0.15286592
112	0x3d7face7	0.062420752
113	0xbe24eb60	-0.16105413
114	0xbc87a3d1	-0.016557606
115	0xbd858932	-0.065203086
116	0xbe3d527e	-0.184885
117	0xbd0a51ba	-0.033769347
118	0x3e8a4215	0.27003542
119	0x3c1d6036	0.009605458
120	0xbd694ecc	-0.056959912
121	0xbe14eb76	-0.14542946
122	0x3cd2f208	0.025750175
123	0x3d9c0d32	0.07619704
124	0x3c2be676	0.010491958
125	0x3dd69b01	0.104787834
126	0xbb439749	-0.0029844812
127	0x3dfaafb7	0.12240546
128	0x3c0ccc3c	0.008593615
129	0x3ba7ff9f	0.005126908
130	0xbd375d00	-0.044766426
131	0xbe3e9070	-0.18609786
132	0xbda3603c	-0.079773396
133	0x3f0938bf	0.5360221
134	0x3d92f202	0.071750656
135	0xbdb7bcbe	-0.089715466
136	0xbd872dac	-0.06600508
137	0x3e3c1f19	0.18371238
138	0x3da1fb9b	0.07909318
139	0xbd34d734	-0.044150546
140	0x3e58e10f	0.21179603
141	0xbdcb7719	-0.099348255
142	0x3f09ad2d	0.5377987
143	0xbdc289cc	-0.09498939
144	0xbdea2c40	-0.11434221
145	0xbc5ee067	-0.013603306
146	0xbe39ef19	-0.18157615
147	0x3def70b4	0.11691418
148	0xbe6a2c7a	-0.22868529
149	0x3dae0118	0.08496302
150	0xbe82d15e	-0.2555036
151	0x3d8aea93	0.06783023
152	0xbd08470e	-0.033270888
153	0xbdfe181e	-0.12406944
154	0xbcedc1cd	-0.029023075
155	0x3d6fbde1	0.058530692
156	0x3d4e6449	0.050388608
157	0x3eb114f7	0.34586307
158	0x3e88bcec	0.26706636
159	0xbde5ff8d	-0.11230383

hidden2event.weight f4 [27, 40]
0	0xbdb7abf8	-0.08968347
1	0x3e39b18b	0.18134134
2	0xbeb940d2	-0.36182266
3	0x3ed8beeb	0.4233316
4	0x3ede36b0	0.43401098
5	0xbebbf079	-0.36706904
6	0x3e9b3764	0.30315697
7	0xbe473643	-0.19454293
8	0xbf0ee6e3	-0.55821055
9	0x3f315177	0.6926493
10	0xbf4a6397	-0.7905821
11	0xbc416b91	-0.011805431
12	0x3f579ac2	0.84220517
13	0xbea477d6	-0.32122678
14	0x3d9de87a	0.07710357
15	0x3ddc6e04	0.10763171
16	0xbec95237	-0.39320537
17	0xbf31dc23	-0.69476527
18	0x3cd090fb	0.025459757
19	0x3da4f656	0.08054797
20	0xbf2d9039	-0.6779819
21	0x3eb9351b	0.3617333
22	0x3eb74a82	0.35799032
23	0x3e1b6046	0.15173444
24	0xbe6bea91	-0.23038699
25	0xbe0f91b8	-0.14020431
26	0xbe37452b	-0.17897479
27	0x3e8aaa12	0.27082878
28	0x3ec6aac8	0.3880217
29	0xbeaad508	-0.33365655
30	0x3ef1287d	0.47101203
31	0x3f19f4d8	0.60139227
32	0x3f45387e	0.77039325
33	0x3f394bb0	0.72381115
34	0xbf6325d0	-0.8872957
35	0x3f19b21e	0.6003741
36	0x3e4b78d3	0.1987031
37	0x3daf889f	0.0857098
38	0xbd6ef353	-0.05833752
39	0x3d61a207	0.055086162
40	0xbf16182b	-0.5863063
41	0xbe701cda	-0.23448506
42	0x3dffd763	0.12492254
43	0x3e02e1e0	0.12781477
44	0xbe31f3be	-0.17378137
45	0xbe8749b1	-0.2642341
46	0x3f121e1b	0.5707719
47	0xbeb036b4	-0.34416735
48	0xbecb0474	-0.39651835
49	0xbe2c1f9f	-0.16808937
50	0xbeb4d9df	-0.35322472
51	0xbe45b65d	-0.19307847
52	0x3eeae2a1	0.4587603
53	0xbee1a97d	-0.44074622
54	0x3ebf9f55	0.37426248
55	0xbea17a8b	-0.31538805
56	0xbd278e6e	-0.040907316
57	0x3e0fa90f	0.14029334
58	0xbdbbbe0f	-0.0916711
59	0x3dce344a	0.10068567
60	0x3de17beb	0.110099636
61	0x3ddf0fe3	0.10891702
62	0xbdf8597f	-0.12126445
63	0xbeb025ee	-0.34403938
64	0xbd05b419	-0.032642458
65	0xbed5ea02	-0.41780096
66	0x3e9d04d4	0.30667746
67	0xbea64afc	-0.32479084
68	0x3e6b23a6	0.22962818
69	0x3e293770	0.16525054
70	0xbe01ae03	-0.12664036
71	0x3c0bc830	0.008531615
72	0xbe3195ae	-0.17342255
73	0x3ea21712	0.31658226
74	0xbebc46de	-0.36772817
75	0x3f0500d6	0.519544
76	0xbeac9f7e	-0.33715433
77	0xbdad8194	-0.08471981
78	0xbd6921c0	-0.056916952
79	0xbdf7dfde	-0.12103246
80	0x3ea1d335	0.3160645
81	0xbe7a9754	-0.2447179
82	0x3e90ab65	0.28255764
83	0x3eb1f955	0.34760538
84	0x3d4f51b0	0.050615013
85	0xbe72261c	-0.2364735
86	0x3f19c45b	0.6006524
87	0xbedda35c	-0.43288696
88	0xbf1c24bb	-0.60993546
89	0xbf1ffebe	-0.6249808
90	0xbee52128	-0.4475186
91	0xbea641b1	-0.32471994
92	0x3e96e3b3	0.29470596
93	0xbebd17a1	-0.3693209
94	0x3f12fcc6	0.5741695
95	0xbed6ac78	-0.41928458
96	0xbb8932d4	-0.0041869674
97	0x3da27c31	0.07933844
98	0xbe0d9a14	-0.13828307
99	0xbea77347	-0.32705137
100	0x3db19c5e	0.08672403
101	0xbd1c9925	-0.038231988
102	0x3e84d314	0.2594229
103	0xbece774f	-0.403254
104	0xbf07c27a	-0.5303112
105	0xbea0a8a1	-0.31378654
106	0x3cace084	0.021103151
107	0x3e8cf188	0.27528024
108	0xbed01fe2	-0.40649325
109	0x3e3efe17	0.18651615
110	0xbd944a59	-0.07240743
111	0x3e6aed07	0.22941981
112	0x3e3b65d8	0.18300569
113	0x3ed1ab52	0.4095102
114	0x3e9b8033	0.30371246
115	0xbc198fbc	-0.009372648
116	0x3d1bc949	0.038033757
117	0x3e83e8a7	0.25763437
118	0x3d7c00c6	0.061524175
119	0x3e055043	0.13018899
120	0xbe820061	-0.25390914
121	0x3eec8e01	0.4620209
122	0x3e86f2ee	0.26357216
123	0xbe341893	-0.175875
124	0xbea40e2c	-0.32042062
125	0x3efb0fad	0.49035397
126	0x3f765e69	0.9623781
127	0x3f184b1c	0.5948961
128	0xbccbea44	-0.02489198
129	0xbeaa7537	-0.33292553
130	0xbf840787	-1.0314797
131	0xbe4cbde1	-0.19994308
132	0xbf31b9bb	-0.6942403
133	0xbf7a792c	-0.97841144
134	0x3e911237	0.2833421
135	0x3e10aa45	0.14127453
136	0xbe6bb5b3	-0.23018532
137	0x3d78b932	0.06072349
138	0x3f1c73d1	0.6111422
139	0xbdc04858	-0.093887985
140	0x3f1bf544	0.6092112
141	0x3f192828	0.598269
142	0xbf8033d7	-1.001582
143	0xbda126d7	-0.07868736
144	0x3f1895f7	0.5960383
145	0xbdd2625b	-0.10272666
146	0x3de671d2	0.11252178
147	0xbdbe689e	-0.09297298
148	0xbfabb5d2	-1.3414862
149	0x3e84da4b	0.25947794
150	0xbf0570b0	-0.5212507
151	0xbe7ffabc	-0.24997991
152	0x3d36e608	0.04465297
153	0xbee39386	-0.4444849
154	0x3e824886	0.25445956
155	0xbdb646ac	-0.08900198
156	0xbea75eae	-0.32689422
157	0x3eb7d703	0.35906228
158	0x3e8963be	0.2683391
159	0xbd4357db	-0.047691207
160	0x3e84927a	0.25893003
161	0x3eac7585	0.3368341
162	0xbe84fddf	-0.25974938
163	0xbef05f2c	-0.4694761
164	0xbee626ec	-0.4495157
165	0xbe8ebcfc	-0.2787856
166	0xbe190b63	-0.1494575
167	0x3f4e5111	0.8059245
168	0x3fbe786f	1.4880503
169	0xbf13d644	-0.5774882
170	0xbf8ba27b	-1.090896
171	0xbed1e990	-0.40998507
172	0xbe239c74	-0.15977651
173	0xbdd2bf80	-0.10290432
174	0xbcb42a78	-0.021992907
175	0x3f4240be	0.7588004
176	0x3e147e71	0.14501359
177	0x3e1593f5	0.14607222
178	0x3e9f70a1	0.31140617
179	0xbd822080	-0.06353855
180	0xbfb9fac1	-1.4529649
181	0x3e8809ab	0.26569876
182	0xbec7bec0	-0.39012718
183	0xbeb99894	-0.3624922
184	0xbed54cc1	-0.4166012
185	0xbdd3af46	-0.10336165
186	0xbe72f8f0	-0.23727775
187	0x3f1c84de	0.6114024
188	0x3f856125	1.0420271
189	0x3e60433c	0.21900648
190	0xbf341838	-0.70349455
191	0x3ea620a2	0.32446772
192	0xbedaa4ce	-0.4270386
193	0xbfb142e9	-1.3848544
194	0x3efb264b	0.49052653
195	0x3ce8fc96	0.028440755
196	0xbeaf9d23	-0.34299573
197	0xbeacc5ae	-0.33744568
198	0x3d8934e4	0.06699541
199	0x3f030f0c	0.51194835
200	0x3ed4b616	0.4154517
201	0xbf21879d	-0.63097554
202	0xbf35cf7f	-0.7101974
203	0x3f6b49de	0.9190959
204	0x3f1946ef	0.5987386
205	0xbe96a97b	-0.29426178
206	0xbf96387b	-1.1735986
207	0x3ef7950c	0.483559
208	0x3f3c8d0d	0.73652726
209	0x3f9142a8	1.1348467
210	0xbee98174	-0.45606577
211	0xbefc87a7	-0.49322245
212	0xbe7113bd	-0.23542686
213	0x3f868f04	1.0512395
214	0xbf105a00	-0.5638733
215	0x3f2438e5	0.64149314
216	0x3f0f82f3	0.5605919
217	0xbf4d391b	-0.8016526
218	0x3f35efa8	0.7106881
219	0xbf16b141	-0.5886422
220	0xbfb7fdbe	-1.4374311
221	0xbe97476c	-0.29546678
222	0xbfe20024	-1.7656293
223	0x3f06afdc	0.5261209
224	0x3f689605	0.9085391
225	0x3ea2f3ca	0.3182662
226	0xbf2331b6	-0.6374773
227	0x3ee7ab55	0.45247903
228	0xbf3c1062	-0.734625
229	0xbf35a94f	-0.7096147
230	0x3f08200c	0.531739
231	0x3f14d0f3	0.5813133
232	0xbf2ec711	-0.682725
233	0x3de3347b	0.11093994
234	0x3f4f3f96	0.809564
235	0x3f6facb9	0.9362293
236	0x3f5fecba	0.8747059
237	0x3f3a0caa	0.72675574
238	0xbf332e3e	-0.69992435
239	0xbf7a8cc7	-0.9787106
240	0x3f4b63c7	0.79449123
241	0xbe6abb93	-0.22923116
242	0xbec5699c	-0.38557136
243	0xbc2fe482	-0.010735633
244	0x3f0bdc4b	0.54633015
245	0xbda0928b	-0.07840451
246	0xbf75a0aa	-0.9594828
247	0x3f906060	1.1279411
248	0x3f9d85e1	1.2306482
249	0x3f538fbc	0.82641196
250	0xbfcf6444	-1.6202474
251	0xbe564423	-0.2092443
252	0xbeaebec2	-0.34129912
253	0x3d082e0d	0.033247042
254	0xbeafe459	-0.34353903
255	0x3f777d52	0.966756

hidden2event.bias f4 [27]
0	0x3b8df41b	0.004332078
1	0x3e16b568	0.14717638
2	0xbd47fc44	-0.048824564
3	0x3e8d365f	0.27580544
4	0xbed3a2cd	-0.41335145
5	0xbed4779d	-0.41497508
6	0xbe8b3b0a	-0.2719348
7	0xbede8287	-0.4345896
8	0xbb813d13	-0.003944048
9	0xbe7218d4	-0.23642284
10	0xbe69f0c1	-0.22845747
11	0xbe808ef0	-0.25109053
12	0xbe2d10d2	-0.16900948
13	0x3db51deb	0.08843597
14	0xbdc55e42	-0.09637119
15	0x3dac0948	0.08400208
16	0xbe4108d2	-0.18851021
17	0xbf05088d	-0.5196617
18	0xbeac8ab7	-0.3369958
19	0xbedf8b47	-0.43660948
20	0x3e830b94	0.2559477
21	0xbdd0223e	-0.10162781
22	0xbe8e0515	-0.27738252
23	0xbe552206	-0.2081376
24	0x3e25297a	0.16129103
25	0xbea7d8aa	-0.3278249
26	0xbf0583a9	-0.5215402

hidden2time.weight f4 [3, 40]
0	0xbcbc00bb	-0.022949567
1	0x3b1695d9	0.00229775
2	0x3e0518bc	0.12997717
3	0xbcbdd923	-0.023174828
4	0xbe2c1e52	-0.16808441
5	0x3dcbe5be	0.09955929
6	0x3e5ff432	0.21870497
7	0x3e7783c3	0.24171357
8	0xbd9b43d6	-0.07581298
9	0x3d3d281d	0.046180833
10	0xbe743074	-0.23846608
11	0x3ec2976c	0.3800615
12	0xbe291eca	-0.16515651
13	0x3e9b9e67	0.3039429
14	0x3ad15be2	0.0015972818
15	0xbe7576cb	-0.23971097
16	0xbe0d6d2d	-0.13811179
17	0x3dd32f20	0.10311723
18	0xbd899ee2	-0.067197576
19	0x3c40c4e6	0.011765694
20	0xbe042db9	-0.12908067
21	0x3e0c31b6	0.13690838
22	0xbe8ba036	-0.2727067
23	0xbe564f6e	-0.20928738
24	0xbe091170	-0.13385558
25	0x3d549716	0.0519019
26	0x3e594839	0.21218957
27	0xbcd88c43	-0.02643407
28	0x3db1c6ca	0.08680494
29	0x3e16a53c	0.1471147
30	0xbe658a48	-0.22416031
31	0xbde767d3	-0.112991
32	0x3e286cd7	0.16447769
33	0xbd835f50	-0.06414664
34	0xbe09e9d9	-0.13468112
35	0xbe1301c7	-0.14356147
36	0xbd89e8e2	-0.06733872
37	0xbe5af7b6	-0.21383557
38	0x3dd501de	0.10400747
39	0x3e71e63e	0.23622987
40	0xbd250808	-0.040290862
41	0x3d8510f9	0.06497378
42	0x3dbc1770	0.09184158
43	0xbe81a7b8	-0.25323272
44	0xbe31eca5	-0.17375429
45	0x3e231029	0.15924133
46	0x3d7760c8	0.060395032
47	0xbd9b7fa1	-0.07592703
48	0xbcf9723b	-0.030449977
49	0x3da02ab1	0.07820643
50	0x3d075f22	0.03304971
51	0xbe556c8c	-0.20842189
52	0x3d2b0128	0.04174915
53	0xbea2a177	-0.31763813
54	0x3cae5ee0	0.021285474
55	0xbd07417c	-0.033021435
56	0x3c8aaae7	0.016927196
57	0x3e5e38d2	0.21701363
58	0xbe233e87	-0.15941821
59	0x3cafa4ac	0.021440826
60	0xbd56bf27	-0.05242839
61	0x3e0553b2	0.13020208
62	0x3e638dc0	0.22222042
63	0xbe076a4b	-0.13224141
64	0xbe8cf783	-0.27532586
65	0xbe1b1eae	-0.15148422
66	0xbcdb925d	-0.02680319
67	0xbe8bb6c1	-0.27287868
68	0x3e498fe1	0.19683792
69	0x3db34c1f	0.08754753
70	0x3cb631b7	0.022240503
71	0xbd9a0713	-0.075208806
72	0x3dc12ae2	0.09432007
73	0x3d8d4a60	0.068989515
74	0xbdb3f91f	-0.087877505
75	0x3c676731	0.014123724
76	0xbd2bbf7c	-0.04193066
77	0xbe391801	-0.18075563
78	0x3e607a3b	0.21921627
79	0x3d7673ed	0.06016915
80	0x3f1e82e7	0.6191849
81	0xbf35b28b	-0.7097556
82	0xbf3a121d	-0.7268389
83	0x3f8057c6	1.0026786
84	0x3f2d96eb	0.6780841
85	0xbf002800	-0.50061035
86	0xbf341edb	-0.7035958
87	0x3e91b795	0.28460374
88	0x3f5a057f	0.85164636
89	0x3f5294fa	0.8225857
90	0xbea75aca	-0.32686454
91	0xbe8aaace	-0.2708344
92	0xbea2c4f6	-0.31790894
93	0x3f75ce33	0.9601776
94	0xbf1ae99b	-0.60512704
95	0x3f1f567f	0.6224136
96	0x3f7743b4	0.9658768
97	0xbf8b9744	-1.0905538
98	0x3f3d330c	0.73906016
99	0xbf14ab95	-0.58074313
100	0xbfbdde20	-1.4833412
101	0xbed73f76	-0.42040604
102	0xbfea2a7d	-1.8294216
103	0x3f225f0f	0.634263
104	0x3f44e3fd	0.7691038
105	0x3f00a35d	0.5024927
106	0xbf2aee9a	-0.6677033
107	0x3eda3ae9	0.4262307
108	0xbf014da0	-0.5050907
109	0xbf543d88	-0.8290639
110	0x3f520ba0	0.8204899
111	0x3f42604f	0.75928205
112	0xbf5172c8	-0.8181577
113	0x3c6ceb43	0.014460388
114	0x3f80a350	1.0049839
115	0x3f834e50	1.0258274
116	0x3f801988	1.0007792
117	0x3f2b3331	0.66874987
118	0xbf462e5e	-0.774145
119	0xbfb1f555	-1.3902994

hidden2time.bias f4 [3]
0	0x3e35cbcb	0.17753522
1	0x3e5a2f5a	0.21307126
2	0xbe9104e9	-0.2832406
