events_simulation/models/all_epochs/model_18_20180529-0810.pt (torch_old, 78354 bytes, 9 tensors)

loss_function_events.weight f4 [27]
00000000: 0000 803f 0000 803f 0000 803f 0000 803f
00000010: 0000 803f 0000 803f 0000 803f 0000 803f
00000020: 0000 803f 0000 803f 0000 803f 0000 803f
00000030: 0000 803f 0000 803f 0000 803f 0000 803f
00000040: 0000 803f 0000 803f 0000 803f 0000 803f
00000050: 0000 803f 0000 803f 0000 803f 0000 803f
00000060: 0000 803f 0000 803f 0000 803f
1.0 1.0 1.0 1.0 1.0 1.0 1.0 1.0
1.0 1.0 1.0 1.0 1.0 1.0 1.0 1.0
1.0 1.0 1.0 1.0 1.0 1.0 1.0 1.0
1.0 1.0 1.0

lstm.weight_ih_l0 f4 [160, 70]
00000000: 8599 afbf f232 debf 000e 05c0 9bba 153f
00000010: 87f8 ffbf 09b9 1d3e 2622 1c3e 1a4e 34c0
00000020: fffd 1d3f 9f73 9dbf 32e1 aabf a69e 433f
00000030: fd40 04bf 6b60 e0bf 8911 9cbf a39b 3f3f
00000040: 78c1 09c0 9c49 5fbd d598 603f ff8b 18c0
00000050: ee90 fc3e 5367 afbf 271b 23bf 5e67 403f
00000060: fe8b 1bbf dd58 14be 6e5e f23e 8fb3 09be
00000070: b32e fd3d b01c fd3e b0ed f13e 05fb d6bd
00000080: f7ea d73e c0a4 cd3e 2771 09bf 1efc 85bd
00000090: d808 cf3e bc65 f13c 3441 9ebb 9aa8 1cbf
000000a0: 9b7d 1d3e b9e5 073f 099c 94be dba1 adbe
000000b0: 9cf2 c23d dd2e 143f b02f 4dbe 3841 343e
000000c0: 0cf4 e43e 7f08 373e 46b6 003f f012 183e
000000d0: af24 1bbf 2a6b 0abd a379 63bc 65bc 9f3e
000000e0: 5485 4d3c 6f01 34be 9b3c a7bd 50c6 253e
000000f0: c5a3 da3d 4c60 edbd 5428 b83e 3faf 4d3f
00000100: 3e4c b9be 42af 563e bc56 18bf d539 213c
00000110: d92b 053f b625 a23e 8fb3 01c0 ced0 fdbf
00000120: a3a4 0ec0 a690 0240 c467 bbbf 9140 e9bd
00000130: 18d8 a1bf d3c8 d5bf 3b7c 153f 8a1b 45c0
00000140: 6530 0bc0 21c6 07c0 199c d5bf bee1 a6bf
00000150: aac7 cabf ef82 293f bd1e 52bf bb6b babd
00000160: a93d d9bf 8f18 8abf 5224 f33f b101 9abf
00000170: 02ea 94bf 8e29 ac3f 5758 123f 00dc 0cba
00000180: 6c24 c43f 9915 81bf 1ec6 2740 c0d0 cb3f
00000190: 2ec4 f73d da0e 0a3f 5427 5abe 8b51 40be
000001a0: c0b0 443f c6cc 433f a182 1f3f 90f1 06bc
000001b0: e32e f9bd 4f03 8b3c 83ff da3d b223 96be
000001c0: 8ebe bb3e acd1 0d3e 9ef1 d13e 140a 3cbf
000001d0: 74bc ef3e 062d a93f 203d 5f3f 121c e5bd
000001e0: 60c5 05bf 18c1 dc3e d82c a13e 75b2 c1be
000001f0: 0f22 83bd a3dc 8fbe 6049 10bd ab34 d83d
00000200: 9831 f43e 12f6 00be 1ea0 833e 714b 90be
00000210: d32f 853e 4759 1e3f cdd2 9abd 95a9 64be
00000220: b34b 063f 7346 c7bd 1757 8dbe 7234 4dbe
00000230: 2fb8 f8be a5b8 783f 1aa3 b8bf 7003 d7be
00000240: 6ba4 80bf ef4a 07be 8bcd 93bf 7ad4 debe
00000250: 6e83 9f3f b231 4a3f 697b c3bf 7e17 ebbe
00000260: 73fc 8bbf fd6a 633f 5f07 16c0 73db 763e
00000270: bc48 54bf 208f 1bbe 6d16 febe 9694 d6be
00000280: d92c eb3e f721 da3e e5c8 81bf 24e7 d3bf
00000290: b4bb fdbe b434 3cbd 5d8d d03d 5c72 8c3f
000002a0: a313 d0be 70aa 2fba 3731 e73e b24b 52be
000002b0: 3c75 1f3f a2da 21bf 6d49 793e e396 2f3e
000002c0: 3097 01be 9853 ff3c 73f1 32bf 80b7 d2bd
000002d0: 9e32 b8be 18b9 1c3f 8133 14bf 33d2 4bbf
000002e0: 534c 56be a971 cabe a340 c53d 64f0 a13e
000002f0: 048e 30be 98b3 43bd ef00 743d 2202 d53c
00000300: 2bf2 57be 8137 453e 3c27 83be af48 a7be
00000310: 93d1 f0bc 4856 ae3e f66d 4c3f c265 55bc
00000320: 30d2 85be f456 5a3e fe8e 753b 66da 6fbb
00000330: 0c89 b23e b6a7 c9be 24ed 26bf 9566 e93e
00000340: b947 7abe 120f d6bc 273a 253f 82bf 193f
00000350: 8974 59be 102d ecbc 3351 81bf 47f5 f2bd
00000360: 1c0b d33f 9a25 4e3f 83ef 53bf ed00 473f
00000370: c19f 64bf 509d 8f40 629d 8c3f 6cd3 693f
00000380: 79f2 afbf b847 203f 7214 de3f cced 033d
00000390: 3124 28be 7b6f bd3f 9632 d0bf 63d2 e53e
000003a0: 5496 0bbe 7532 5b40 da16 9ebf 492f 0d3e
000003b0: e9ba 6d3f 4592 e2bf 64a8 e93e 7d44 493f
000003c0: d224 c73e 6c6a 203e 905c ecbe c180 d5be
000003d0: 5ec4 28bd 509c 933d bc0d 1d3e 4865 bb3d
000003e0: 9600 4f3d a619 27be f952 cfbd 4599 e3be
000003f0: 2de3 3abd 7647 1f3d 427c 9c3e ddf5 093f
-1.3718725 -1.7359297 -2.0789795 0.5848786 -1.999772 0.15402617 0.15247402 -2.817267
0.6171569 -1.230091 -1.3349974 0.76413953 -0.51661664 -1.7529424 -1.2192851 0.7484686
-2.1524334 -0.05451356 0.87733203 -2.3835447 0.49329323 -1.3703407 -0.63713306 0.75157726
-0.60760486 -0.14487024 0.4733767 -0.13447402 0.12362423 0.4943595 0.47251654 -0.10497097
0.4217145 0.40164757 -0.5368828 -0.06542228 0.40436435 0.029467456 -0.00482955 -0.61194766
0.15379946 0.53084904 -0.29025295 -0.33912548 0.0951893 0.5788401 -0.20037723 0.17603004
0.44717443 0.17874335 0.5027813 0.14850974 -0.6060285 -0.033793606 -0.013883981 0.3119842
0.012543995 -0.17578672 -0.081658565 0.16188931 0.10675768 -0.11590633 0.35968268 0.8034553
-0.3619098 0.20965293 -0.59507346 0.009840448 0.5202003 0.31669396 -2.0265844 -1.9829347
-2.2287986 2.0400786 -1.4641042 -0.11389268 -1.2644072 -1.6701912 0.58392686 -3.0798059
-2.1748288 -2.1214678 -1.6688262 -1.3037641 -1.5842183 0.66215414 -0.8207815 -0.09102579
-1.6971942 -1.0788745 1.8995459 -1.2031766 -1.1633914 1.3450181 0.57166046 -0.0005373359
1.5323615 -1.0084716 2.621467 1.592308 0.12097965 0.5392891 -0.21304065 -0.18781106
0.768322 0.76484334 0.623087 -0.008236304 -0.12167146 0.016969351 0.10693266 -0.29324108
0.3666882 0.13849515 0.41004652 -0.7345288 0.46823466 1.3216865 0.87202644 -0.111869946
-0.52254295 0.4311607 0.31479526 -0.37831464 -0.064029805 -0.2809802 -0.035226226 0.105569206
0.47694087 -0.12593868 0.25708097 -0.28182557 0.2601305 0.61854976 -0.07559738 -0.22330315
0.5245926 -0.09730234 -0.27605507 -0.20039538 -0.4857802 0.97156745 -1.4424775 -0.4199481
-1.0050176 -0.13212179 -1.1547102 -0.43521482 1.2461984 0.7898208 -1.5272037 -0.4591636
-1.0936416 0.88835126 -2.3442 0.2410715 -0.82923484 -0.15191317 -0.49626485 -0.41910237
0.45932654 0.42604038 -1.0139433 -1.6554914 -0.4955727 -0.0459487 0.10183213 1.09724
-0.40639982 -0.00067011174 0.45154735 -0.20536688 0.6228826 -0.6322423 0.24344416 0.17147402
-0.1265533 0.03116779 -0.6989967 -0.10288906 -0.35976118 0.6121993 -0.5789109 -0.79617614
-0.20927553 -0.3953984 0.09631469 0.31628716 -0.17241675 -0.047778696 0.059571203 0.026001994
-0.21088473 0.19259454 -0.2561587 -0.3267264 -0.029396808 0.34050202 0.7985529 -0.013024749
-0.26136923 0.21322232 0.0037469263 -0.0036598681 0.34870183 -0.39385766 -0.652056 0.45586076
-0.24441423 -0.026130233 0.6454186 0.6005784 -0.21235861 -0.028830081 -1.0102905 -0.11863189
1.6487765 0.80526125 -0.8278734 0.7773579 -0.89306265 4.487953 1.098553 0.9133823
-1.3745872 0.62609434 1.734999 0.032209203 -0.16420056 1.4799646 -1.6265438 0.44887075
-0.13631564 3.4249547 -1.2350724 0.13787569 0.9286333 -1.7700888 0.45636284 0.7862013
0.3889528 0.15665597 -0.4616437 -0.41699794 -0.041202895 0.072075486 0.1533727 0.09150177
0.05053767 -0.16318378 -0.10123248 -0.44452873 -0.045626808 0.03888651 0.3056355 0.5389078

lstm.weight_hh_l0 f4 [160, 40]
00000000: 2077 22bf 8989 713e 7c49 2b3e 6375 a4be
00000010: 2c8d d7be 6b9c 2e3e 4339 403e 1296 e53e
00000020: 4a21 42be 2d68 193f 2cc2 03be 69ad 153f
00000030: d30d a23e b9b4 1f3f ac1d 9bbd 11d8 38be
00000040: 0f59 29bd a463 9dbe 8a18 69bd c07b c33d
00000050: 93c0 013e 03db a53c be7c c33e 545f 9a3d
00000060: 36de 883e a396 b93e da6c 3ebf 9424 d93e
00000070: 783e d6bd d852 863e d252 b93c 3d30 d13d
00000080: 35fe fdbe d850 24bf b4d6 0b3f 14ee 86bd
00000090: 195b c3be aafe 303e cb16 363e 11d5 1a3e
000000a0: 1a28 0d3f c604 6fbf 6995 6cbe 433e 78bf
000000b0: 798c ba3e 4832 993e 3a82 b13e 57fb 233f
000000c0: 2d18 50bf eb65 a13f 94ef 253e d6a1 6d3e
000000d0: 8bb0 b43d 008a 9d3f 4ca8 e7bd 0a8b ea3e
000000e0: e175 943f c3d5 5dbf 47d0 bd3e 48d9 cebd
000000f0: cb94 ef3e b870 453d 3c0e 553f e9c7 473e
00000100: e397 203e d28e f8bf 6603 69bf 8f7b e9bb
00000110: 3691 b4bb 5067 54bc f647 1e3f 89b7 973e
00000120: 181c 04be f35a aabf c40e 6d3c dd6f 00bf
00000130: 3683 55be c5ac f4bd 0e0e d83e 4e8d 143f
00000140: 17a1 bfbd d44a d73e 88da 7d3e 938a 9abf
00000150: 83ca 3c3d 225a 3b3e ed94 123d 88c0 a53e
00000160: ad1a 93be 0f36 17be 0981 08be 9768 223e
00000170: 088c 3bbe 72a4 90be 5c36 bb3e 46eb d4bd
00000180: 88d9 18be 5f53 c43e 9f04 6ebe ee14 35be
00000190: bebf d33e 2158 16be 82c2 0fbe c5e0 d83e
000001a0: e842 523b 6d60 cabd dcf8 85be 418d 12be
000001b0: 74a2 073e 03eb 0c3f ab4d eabe 5430 dcbe
000001c0: 91fb 36be 1cc5 42be 67b4 7e3e 2691 42bf
000001d0: b81e bfbe 1aad 123f 0bf6 393d 7c3c 2cbe
000001e0: 1924 adbe bf5b ddbe e7ea 953d a885 2abd
000001f0: a687 e73d 313c e13e 9ec1 47be e601 31be
00000200: c347 dfbd 1bcf ed3d e19d 923e db89 563e
00000210: 3c4d f4bd f070 d2bd 46ed 31bd c012 1f3e
00000220: 9a82 ef3e 2d79 13bf df4b 8f3e b66c 24be
00000230: 4c6a 1f3e ec8d 613e 9f2e a03e d56a 973d
00000240: e739 5abe ebd8 d2be ff34 8d3e 99be 9cbe
00000250: 51c5 b13e c9eb 4c3e ac46 263f 729a 4e3e
00000260: 4a36 fb3d c2fb eb3d fbaf 3cbe 2f9d b33d
00000270: beb1 68be fff3 d3be 0c3d 393d 005c 20be
00000280: 8984 97bf b4ae 58be bb9d 163e eab6 6a3e
00000290: 598c 0e3e 2d13 fcbc d017 cdbd d227 f03d
000002a0: 9159 37be 9688 b43e 854f 873d 199e a03d
000002b0: a84c b03e b918 81bd 8bea aa3c afce 71bb
000002c0: 5f49 443e fd0d 4bbf 56a5 8a3e b93a 633d
000002d0: 3bd4 4d3c 7457 5c3e cf99 883d 990c f63d
000002e0: 293b ddbb c55d 723e fcb4 673d 353c 003d
000002f0: 949e 83bd faba 313e dfc6 253d 484c 1eb9
00000300: 7e45 143e 35e9 4c3e 6fea bfbd c7a3 7b3e
00000310: 8a5a c8bd 6da4 6b3d 01cf 4a3e 28d0 303e
00000320: 8cd2 5bbf d094 6ebf f3e1 2fbf 7ef5 a03f
00000330: d6a3 cabe 6573 25be 0962 b03d 5bac 923e
00000340: 2167 8b3e 86d0 b33f dd8d dfbd e8e7 bf3e
00000350: 38cc 0d3f 0024 18bd 172c 88be 73f9 37be
00000360: 9226 c7bc 460a b4be f6ce 45bd b465 91be
00000370: db41 86be 2400 f4be bea0 a0be 1992 50be
00000380: c0a7 043f 365f 17bf 0709 5cbf 7e96 28bf
00000390: 0290 5e3f 2b14 07bf 147a 0b3f 1db5 523f
000003a0: 2d7c e03e c07f ad3e fc96 fdba 42ce b33e
000003b0: 4ad7 73bf fa7d 803e e30f 14be 9400 c23e
000003c0: 9807 8d3e 23a1 27be 2d91 43be 9eb3 4ebf
000003d0: 0ad1 883c e1b3 64bd 0152 2cbd d26c d3bd
000003e0: 400b 1a3e 7629 933d 441a 2f3d ecb8 98be
000003f0: 2f6f 0f3e 2308 1e3e 46d7 853e fe2f 86be
-0.6346302 0.23587622 0.16727251 -0.3212081 -0.42099893 0.17051856 0.18771844 0.44841057
-0.18958011 0.59924585 -0.1286704 0.5846773 0.31651172 0.62385136 -0.07574019 -0.18051173
-0.0413447 -0.30740082 -0.056908168 0.09545088 0.12671117 0.020246034 0.38181108 0.07537714
0.26732033 0.3624774 -0.74384844 0.4241072 -0.10461134 0.2623508 0.0226225 0.10214279
-0.49608007 -0.6418586 0.54624486 -0.065883785 -0.3815544 0.17284647 0.17782132 0.15120341
0.55139315 -0.9336666 -0.2310387 -0.96970004 0.36435297 0.29921174 0.34669667 0.6405539
-0.8128689 1.2609228 0.16204673 0.23206267 0.088227354 1.2307739 -0.11311397 0.45809203
1.1598474 -0.866543 0.37072966 -0.10100037 0.46793208 0.0482032 0.83224845 0.19509853
0.1568294 -1.9418585 -0.9102081 -0.007125325 -0.0055104746 -0.012964085 0.61828554 0.29632214
-0.12901342 -1.3309005 0.014468852 -0.5017069 -0.20850834 -0.11947016 0.42198223 0.58028114
-0.09356897 0.42049277 0.24790394 -1.207354 0.046091568 0.18296102 0.035786558 0.32373452
-0.2873129 -0.14766715 -0.13330473 0.1586021 -0.18315136 -0.28250462 0.3656491 -0.10396437
-0.14926732 0.38344857 -0.2324395 -0.17683765 0.41357225 -0.14682056 -0.14039043 0.42358986
0.0032083336 -0.09881673 -0.26166427 -0.14311697 0.13245565 0.550461 -0.4576238 -0.4300562
-0.17869402 -0.19020504 0.24873506 -0.7600273 -0.37328124 0.5729538 0.04540066 -0.16819948
-0.33816603 -0.4323406 0.07320195 -0.04163137 0.1130517 0.43991235 -0.19507453 -0.1728588
-0.10902359 0.11611768 0.28636077 0.20951025 -0.11928794 -0.10275447 -0.043439172 0.15534496
0.4677933 -0.57606775 0.27987573 -0.16057095 0.15567893 0.22026795 0.3128557 0.073934235
-0.2131115 -0.4118112 0.27579495 -0.30614164 0.34720853 0.2001182 0.64951587 0.20176104
0.12266214 0.11522628 -0.18426506 0.08770215 -0.22724053 -0.41397092 0.045224234 -0.15660095
-1.1837322 -0.21160394 0.14708607 0.22921339 0.13920726 -0.030770862 -0.100143075 0.11726345
-0.1790526 0.35260457 0.06606964 0.07842655 0.34433484 -0.063035436 0.020863792 -0.0036896875
0.19168614 -0.7931822 0.27079266 0.055475924 0.012562807 0.21517736 0.06669962 0.120141216
-0.006751437 0.23668583 0.056569085 0.031307418 -0.06426731 0.17356482 0.04047286 -0.00015096471
0.14479634 0.20010836 -0.093708865 0.24574195 -0.09782894 0.057529856 0.19805528 0.17266905
-0.85868144 -0.9319582 -0.68704146 1.2574918 -0.39578122 -0.16157301 0.08612449 0.28647122
0.2722712 1.4048011 -0.1091573 0.37481618 0.5538974 -0.037143707 -0.26596138 -0.17966251
-0.024310384 -0.35164088 -0.048293076 -0.28397906 -0.2622212 -0.47656357 -0.31372637 -0.20368232
0.51818466 -0.59129655 -0.85951275 -0.6585463 0.8693849 -0.5276515 0.5448315 0.82307607
0.4384474 0.33886528 -0.0019347365 0.351183 -0.9525038 0.25096112 -0.14459185 0.37891066
0.27544856 -0.16370063 -0.19098349 -0.80742824 0.01670124 -0.05583561 -0.042070393 -0.1032349
0.15043354 0.071856424 0.04274966 -0.29828584 0.14007257 0.15432791 0.26140803 -0.2620849

lstm.bias_ih_l0 f4 [160]
00000000: 39b2 2e3e 1856 c03e 876c a3bd 1068 dcbd
00000010: 926a 463c bcb7 f5bd 377f 203e 3784 953d
00000020: 8f77 2e3e 246e 363a b519 823e 4bc9 913d
00000030: 72b4 0fbe e49b 0b3e 52d6 9e3d 3c6a fe3d
00000040: a1e6 5c3e 9686 193e 9bb5 df3d 2a41 c8bc
00000050: ecbb ca3d 9343 d83d 5d16 43bd d188 7d3d
00000060: 88a2 283c a5d2 b93b ff1d e43c 3028 813b
00000070: 0caf 353e 67e8 33be 1719 cbbd 62b9 5b3e
00000080: 41dc 8f3e c64e 3e3d 5758 083e c59f 903c
00000090: 1b29 113e 316d b33c f016 2f3d a6b2 80bd
000000a0: b8b4 ec3d 2bb5 9fbd 55c7 983d 4ca2 36bd
000000b0: be19 1fbe 323b 883d e7fe 0a3e 7cd7 e2bc
000000c0: 15ab 903e 30ca 12be c703 3b3d 369b 3b3e
000000d0: 23b6 633e 61e8 ab3d 707c 3b3e 0a6a 363e
000000e0: 84c1 8cbd d7b9 4ebe 8caa 09be d8d8 a9bc
000000f0: 8c93 143d ec0e c73d f6c5 873e 0b32 003e
00000100: 4fa8 4a3d 3aba 233e 7fe0 b53d 831a 263d
00000110: ee79 033e 9795 11be c14b 15be d4ae 56bd
00000120: 49e0 813e 216b 55bd 4ec2 8b3e e96c b53d
00000130: 1c6f 883d 9c7e 4f3e 6aa8 453d c235 b33d
00000140: cb41 0a3e 7739 3cbe 2521 833c 6e40 ca3c
00000150: d060 8abe 16b9 44be b89b 753e ef46 8c3e
00000160: 6fe3 153e 1f7c 903d 5640 04be 4a6d 033e
00000170: 1036 33bc 5535 503e e242 053e ae49 8dbe
00000180: 31d8 413e 284b 003e 58cf ee3d bf73 72be
00000190: 10e5 843e 02cb dfbd 4ed1 15be d929 783e
000001a0: a38f 743e ee30 17be 5155 f7bd 63b6 b4be
000001b0: 66d3 573e b703 123c 4f98 c13d 54e0 2abd
000001c0: f7b9 53be 1c99 8fbd f018 2f3e 727d 87be
000001d0: 3c69 3cbd a65d 6e3e a7e1 203e 2157 803d
000001e0: 2e43 5dbc ba33 9d3e a3e7 d9bd d087 5d3d
000001f0: c4ca fe3d fad4 a13d 4bb1 823c 7860 b6bb
00000200: 26c9 12be 9a64 97bd 9c88 0e3e c66e 7e3c
00000210: 0fc6 913e bce8 823c d1ca 063e f773 663a
00000220: 27ae 323e fc61 393d 28a8 6e3d 4410 8bba
00000230: 2306 1bbe 1ce8 eabd 84b9 03be 4bd1 e03c
00000240: 17a3 fd3b c717 213e 17c0 17be e38e bb3d
00000250: 9e88 1abd f498 96bd e4e0 24be 0a2e 7d3e
00000260: fec9 8f3d e50d 5f3e bdea 9ebd 9381 89bd
00000270: cfbd 45be f0e0 96bd 0412 2b3d a11e 1cbe
0.17060174 0.37565684 -0.07979684 -0.10762036 0.012110369 -0.11997935 0.15673529 0.073006086
0.17037795 0.0006959161 0.25410238 0.07118472 -0.14033678 0.13633686 0.07755722 0.12422606
0.21572353 0.14992747 0.1092331 -0.024445135 0.098991245 0.10559764 -0.04762875 0.061898056
0.010292657 0.0056708627 0.027846335 0.0039415583 0.17742556 -0.17569123 -0.09916895 0.21457437
0.28097728 0.046461843 0.13314949 0.017654309 0.14175837 0.021902652 0.042746484 -0.062840745
0.11557907 -0.07798227 0.074598946 -0.044588372 -0.15537164 0.066519156 0.135738 -0.027690642
0.28255525 -0.14334941 0.0456579 0.18320927 0.22237448 0.08393932 0.18309188 0.17813888
-0.06872848 -0.2018808 -0.13443965 -0.020733282 0.036273524 0.09719643 0.2651822 0.1251909
0.049476918 0.15989009 0.0888071 0.040552627 0.12839481 -0.1421722 -0.14579679 -0.052412823
0.25366428 -0.05210412 0.2729668 0.088586636 0.066618174 0.20263141 0.048256315 0.08750488
0.1350166 -0.18381296 0.016007015 0.024688926 -0.27026987 -0.1921123 0.23985183 0.27397868
0.1463754 0.07054924 -0.12915167 0.12834659 -0.0109381825 0.20332845 0.13013795 -0.27595276
0.18930127 0.1252867 0.116606414 -0.23676966 0.2595601 -0.109273925 -0.14630625 0.24234714
0.23882918 -0.14764759 -0.1207682 -0.352954 0.21076736 0.0089120185 0.09452879 -0.041717842
-0.20676409 -0.07011625 0.17099357 -0.26462895 -0.045998797 0.23277912 0.1571108 0.062666185
-0.013504786 0.30703527 -0.10639884 0.0540846 0.12441018 0.0790195 0.01595368 -0.005565699
-0.14334545 -0.07392235 0.139193 0.01552934 0.2847142 0.015980117 0.13163306 0.0008791084
0.17449246 0.04525946 0.058265835 -0.0010609706 -0.1513906 -0.114700526 -0.12863737 0.027443549
0.007740389 0.15731727 -0.1481937 0.09158113 -0.037727945 -0.07353392 -0.16101414 0.24724594
0.07020949 0.21782644 -0.077596165 -0.067141674 -0.19310687 -0.07367122 0.041765228 -0.15246059

lstm.bias_hh_l0 f4 [160]
00000000: b444 793e ef79 bb3e 0815 b8bd e5e7 b93d
00000010: 756b 783e 94b4 7a3d 1ae1 8cbc bde8 ff3c
00000020: 3a73 373e 1056 a6bb 36d6 bf3c e83a 24bd
00000030: 18a0 6ebe 1581 8e3d f134 163e 773a a43e
00000040: c09e c53e 6791 da3d 190b 503e e8e6 64bd
00000050: 1dfd 713e fd9f 6a3e 2d42 06bd 9a5b af3d
00000060: 2f06 893d d8ec 14bb e9e9 123e 0756 803e
00000070: 5192 5a3e 00e9 93be 7569 7b3c f5fe 9b3c
00000080: 3dd4 323d da57 03bd 0e18 923d 9f1f 6c3e
00000090: 66d9 083e 9555 843e ec41 633e e5b7 313e
000000a0: 3480 143e cc58 ab3d 7265 203d e7fd 02be
000000b0: 7167 05be 9bcd 953e 0a14 0b3e 812f 353e
000000c0: 38ff 943d decc 003d eb44 fa3d e07e 643d
000000d0: 0af9 503e 32bf 403c a0cc a23d 2429 653d
000000e0: cae3 093d c31f 3bbe 4c93 a5bd e47a 1f3d
000000f0: ee40 333d a263 29bd a6e0 c3bc dde9 e33d
00000100: 8917 823e c361 d13e cb4e 6f3e 821e 853b
00000110: 0ea7 063e 090d 1bbe 5f03 e4bd 34bd a73d
00000120: cd2a 743c 2ddc a3be a476 f43d edbf e23d
00000130: e966 8b3e 0769 533e de38 7d3e c377 533e
00000140: 6c4b 023e 04c2 b1bd cbaf e93c 939c 74be
00000150: f17d 08be a0ec 2cbe 50e6 103e c674 4c3e
00000160: dd4a 7b3d d04d 0dbe 15e2 18be 9b2a 8b3d
00000170: 2154 a03c 1f94 813e 1994 463e b355 92bd
00000180: 64e0 123d 34ee 2ebd 3d5d 693e 6cae 85be
00000190: 4190 463e ca9f 69be 52b3 c0bd 7bcd 783e
000001a0: b741 4b3e 4b1f ac3c 8433 bcbd 5b61 7cbe
000001b0: 1afb fb3d ce24 50bd e318 953d 7250 473b
000001c0: c534 76bd 81ab 863d aed7 fa3d 2591 69be
000001d0: 2277 60be 0875 603e 50ad 6d3e 826f 853e
000001e0: 0572 8fbc ecf1 9a3e 0a10 ffbd a649 ac3d
000001f0: 2644 ad3e 70d2 b3bc 5681 9b3d 0884 a8bd
00000200: 68e1 93bd 481b b73d 7344 b7bd 9af3 753c
00000210: e3f8 1a3e 903f e7bc 77cc 0d3e c710 e93d
00000220: 8817 753e 5582 293e 0c0b 8a3e 6747 fabd
00000230: 806d 3cbd 3ea8 2bbe ca9c deba 9524 ad3d
00000240: acf0 f93d 39be 4d3e 7a1f d3bd ddaf a53e
00000250: 23b1 4d3d ddc9 34be f4a9 f93d 6494 b43e
00000260: 923c 73bd f295 75bc 7707 05be 2ef1 15bd
00000270: 938d 1cbe 5610 12be 5ff4 a9bd 9131 18bd
0.24342614 0.36616465 -0.089883864 0.090774335 0.24259742 0.06120737 -0.01719718 0.031238908
0.17915049 -0.0050761774 0.023417573 -0.04009524 -0.23303258 0.06958214 0.14668633 0.32075855
0.3859768 0.106722645 0.20316733 -0.05588427 0.23631711 0.22912593 -0.032777954 0.085623935
0.066906326 -0.0022724178 0.14347042 0.25065634 0.21344878 -0.28888702 0.015344967 0.019042471
0.043659437 -0.032066204 0.07133494 0.23058937 0.13364181 0.25846544 0.22193116 0.17355306
0.1450203 0.08366546 0.039159246 -0.12792169 -0.13027741 0.29258427 0.13581863 0.17693903
0.072752416 0.031445377 0.12220176 0.05578506 0.20407501 0.0117643345 0.07949185 0.055947438
0.033664502 -0.18273835 -0.08084735 0.038935557 0.043763094 -0.041354783 -0.023910832 0.1112859
0.2540858 0.408949 0.23369901 0.0040624747 0.13149664 -0.15141691 -0.111334555 0.081903845
0.014902783 -0.32003918 0.119366914 0.11071763 0.27226952 0.20645534 0.24728724 0.20651154
0.12724084 -0.08679584 0.028526207 -0.23887853 -0.13329293 -0.1688714 0.14150357 0.1996642
0.061350692 -0.13799214 -0.14929993 0.06795236 0.019571366 0.2530832 0.19392432 -0.07145252
0.035858527 -0.042707637 0.22789474 -0.26109636 0.19390966 -0.22814861 -0.09409203 0.24297135
0.19849287 0.021011015 -0.09189513 -0.24646513 0.12303753 -0.05081635 0.072801374 0.003041294
-0.06010892 0.065756805 0.12248169 -0.22809274 -0.21920446 0.21919644 0.23210645 0.26061636
-0.017510423 0.30262697 -0.12454231 0.08412485 0.33841056 -0.02195093 0.07593028 -0.08228308
-0.07220727 0.0894075 -0.089486025 0.015011692 0.15134005 -0.028228551 0.13847528 0.11380153
0.23934758 0.16553624 0.26961553 -0.1222065 -0.046002865 -0.16763398 -0.0016983983 0.08454243
0.12204108 0.20092095 -0.10308738 0.32360736 0.05021776 -0.1765513 0.12190619 0.35269463
-0.059383936 -0.014989363 -0.12991129 -0.03660696 -0.15288381 -0.14264044 -0.08298563 -0.037156645

hidden2event.weight f4 [27, 40]
00000000: d591 50bf 0c97 d7be a64e d2bd 72f5 663f
00000010: cd20 523d 627c a9be b9ba 65be 1cee 83bd
00000020: ee1d 683e 5465 a4bf 38cd a23e 6323 d33b
00000030: fe15 29bf 2ed0 6b3e a6d6 4ebe e929 293f
00000040: 4046 163f 7310 173f da9b 8d3e 0380 35bd
00000050: 954a a83e 93c1 fc3d b826 f0be c538 933e
00000060: fb3f d7be b283 a1bd bcd5 debe 6555 0bbf
00000070: 84bf ebbe 209c 163d 11b5 62be ce66 103f
00000080: 5af8 f23e 1dcd 1abf 292c a4be 6932 e73e
00000090: 9a4f e9bd 5231 3abe e0e5 c3bc 1c08 cfbd
000000a0: ae8e e1bd 2115 62be 40a2 673e 49b1 4e3c
000000b0: ce73 6cbd e103 dbbe 9e46 7b3e c092 59be
000000c0: e285 953e 85e3 853e e2fa 913e 32b8 5dbd
000000d0: db6c acbc 781a d83e 332a 333e 3f9e 733d
000000e0: 2653 da3d 234d 993e 2ae3 643e 58d8 98bd
000000f0: c01e be3e 434a ab3c d325 f53d 9ea3 463e
00000100: 2af8 d73c 7a4c bbbc b156 3bbe 5c8f cfbe
00000110: 73d1 09be 2aaa a03e 2110 20bf 01f9 38be
00000120: 2bae bdbd c58e b7be d128 293e 8f5f 943d
00000130: c23e 00be 0d23 423d 6958 603e b8a3 0f3f
00000140: 28c8 d2bd 6979 6fbb b26f 31be dcc7 d7bd
00000150: c66c b13e 6212 45bf a1ec 8fbd 6bc1 73be
00000160: 90f1 e0bd 5a72 953e 6b0d fbbe a19a 25be
00000170: a571 aa3d 4877 cd3e edd7 82be 306b 69be
00000180: 26d4 6f3d a2d9 883e 213c eb3e fe95 b3bb
00000190: f96a e03e 8c56 823e 5534 cf3e 6b65 9c3e
000001a0: 3663 183d 7df9 50bd 2ab9 673e 77bd f5be
000001b0: 05a6 ffbd 8886 713e f9de 31be 1cf3 f23e
000001c0: c812 123e d022 ebbc 7ae4 5fbb 977d d83d
000001d0: 3e82 bcbe 6eca debd aad6 b43e 2500 73be
000001e0: e275 793f 673e 113f 01f0 d7be 5d56 7c3d
000001f0: 9e5b 54bf d293 7dbe f583 1a3e ea15 8f3d
00000200: a06d 923e 6194 cf3f e4fd 92be 04c2 a5be
00000210: b729 c6bd 1b7d 55be 36da 96be baa6 56be
00000220: 74cc febe 4315 3d3f d07c bd3e 217e 7f3d
00000230: 018c f0be a204 2fbe 4ccd a9be 8b1e d13e
00000240: 7676 1a3e e4fa b23d 2117 2cbe c2b6 3fbe
00000250: d61b b6be 87ce 103f 0b8f f93e 12aa ebbe
00000260: bfa0 d0bd 22c6 8e3f fe5e eb3d c431 64be
00000270: 48ef c23d 5e2a ca3d 85f2 b5bd 5163 103e
00000280: 5017 b0bf 92b2 833e 7fac 573f d44c 593f
00000290: dc4b 2fbf 4c7e 1b3f 9438 3d3e b9b5 f9bd
000002a0: af12 f8bc f6f8 13bf 5d1c 003e 16f0 2fbd
000002b0: 1f0a 213e 016c 19be 1569 8bbe 15ed 9abe
000002c0: 4657 1c3e 35dd de3e 7df4 b3bc 7012 e1be
000002d0: 5671 39bf 26ae 09bf edfa 263f b5ac 4dbf
000002e0: 4878 293d d794 90bd db99 143f 5704 b83e
000002f0: 712b c63d 7718 9b3f e004 0c3f 603c 5cbf
00000300: 1ff8 b9be 6019 813f 6a18 163f a0cc 583f
00000310: 42c7 ff3e 61d5 25bf 98b2 25be bdd5 20bf
00000320: 82d9 6ebe 02a3 8c3f b918 0f3f 010e e83e
00000330: 143f 733f d115 193f f11f 0fbf 3695 9cbe
00000340: c572 afbe 6a7a dbbe 15e2 bf3e db05 4dbf
00000350: 4708 15bf fc5b 40bf 13ad 18bf 6c39 d33e
00000360: da9f 5fbf bd63 b9bd 33ad 72be e59f 2d3f
00000370: c522 a7be 030e bf3e 1674 e63e baa4 64be
00000380: e0e5 2fbf 88f5 823f 06a7 d73e b35a 5e3f
00000390: a2e8 f8be 9bde 42bf 60d4 b83e 93f7 933f
000003a0: 50e9 013f d80b 98bc db05 28bf bd0d d43e
000003b0: 2542 dc3e 7926 04bf 6bf3 b6be 50f7 dbbe
000003c0: 20d6 87bf e70a b73e 5929 393f a989 dc3f
000003d0: 125c ee3d faab 533f f3a6 b6be 55f8 b4be
000003e0: 0d4f 893c 9d0d c3bf 7209 e43e c4fb 2bbf
000003f0: c51d 943e d0bc 3bbe 08d4 77be 5fbc 013e
-0.8147252 -0.42107427 -0.10268907 0.9021827 0.051300813 -0.3310271 -0.2243451 -0.064419
0.22667667 -1.2843423 0.31797194 0.0064434274 -0.6604918 0.23028633 -0.2019907 0.66079575
0.58700943 0.59009475 0.27657968 -0.044311535 0.32869402 0.12341609 -0.4690454 0.2875425
-0.42041 -0.07886447 -0.4352244 -0.54427177 -0.46044552 0.036769986 -0.22139384 0.5640687
0.47455102 -0.6046923 -0.32064942 0.45155647 -0.11392136 -0.18182877 -0.023913324 -0.101089686
-0.11013542 -0.22078373 0.22620487 0.01261551 -0.057727627 -0.42776397 0.24538657 -0.21247387
0.29203707 0.26150146 0.2851172 -0.05413074 -0.021048 0.42207694 0.17496566 0.059477087
0.106603906 0.29941663 0.22352281 -0.07463139 0.37132835 0.020909434 0.11970105 0.19398353
0.026363451 -0.022863615 -0.18294789 -0.40539062 -0.13458805 0.31379825 -0.6252461 -0.18063737
-0.092617355 -0.35851112 0.16519476 0.07244789 -0.1252394 0.04739671 0.21908726 0.5610919
-0.10292083 -0.0036540872 -0.17327765 -0.10536167 0.346533 -0.76981175 -0.07027555 -0.23804252
-0.109835744 0.29188806 -0.49033675 -0.16172267 0.08322457 0.40130067 -0.25555363 -0.22794795
0.05855193 0.2672854 0.45944312 -0.005480527 0.43831614 0.25456655 0.40469614 0.30546126
0.03720399 -0.05101918 0.22629228 -0.47996113 -0.124828376 0.23586476 -0.17370214 0.47451103
0.14264977 -0.028703123 -0.0034163282 0.10570829 -0.36818117 -0.10878454 0.35320026 -0.23730524
0.974455 0.56735843 -0.42175296 0.0616058 -0.82952297 -0.2476342 0.150894 0.06986602
0.28599262 1.6217157 -0.28709328 -0.32374585 -0.09675925 -0.20848505 -0.29463357 -0.20962039
-0.4976536 0.7386057 0.37009287 0.062376145 -0.46981815 -0.17091611 -0.33164442 0.40843615
0.15084252 0.0873926 -0.16805698 -0.1872206 -0.35568112 0.56565136 0.48741946 -0.4602819
-0.1018691 1.1154215 0.11492728 -0.22284609 0.095182955 0.09871362 -0.088841476 0.14100386
-1.3757114 0.25722176 0.84247583 0.84882855 -0.6847513 0.6073959 0.18478614 -0.12192864
-0.030282347 -0.5780176 0.1251082 -0.042953573 0.15726517 -0.14982606 -0.2722861 -0.30259004
0.15267667 0.43528143 -0.021967167 -0.4395938 -0.7243856 -0.53781354 0.6522663 -0.80341655
0.041374475 -0.07059639 0.58047265 0.3594081 0.096762545 1.2116841 0.5469494 -0.86029625
-0.36322114 1.0085869 0.58631 0.8468723 0.4995671 -0.64778715 -0.1618141 -0.6282614
-0.2332516 1.0987246 0.558971 0.45323184 0.95018125 0.59798914 -0.55908114 -0.3058259
-0.3426725 -0.42866832 0.37477174 -0.8008706 -0.58215755 -0.75140357 -0.5963909 0.41254747
-0.8735329 -0.09052227 -0.23698883 0.67822105 -0.32643715 0.37315378 0.45010442 -0.22328463
-0.68710136 1.023118 0.42119616 0.86857146 -0.48614985 -0.7612092 0.3609953 1.1559929
0.5074663 -0.018560335 -0.65633935 0.4141673 0.43019214 -0.51621205 -0.35732588 -0.42962122
-1.0612221 0.35750505 0.72328717 1.722951 0.11638655 0.8268429 -0.35674247 -0.35345712
0.016761327 -1.523853 0.44538456 -0.6718104 0.28928962 -0.18333745 -0.24201977 0.12669514

hidden2event.bias f4 [27]
00000000: 5d5f 7abd 6fa8 5d3d e5a4 6dbd 18ec 933c
00000010: 80d5 e03c bbb1 42be 26bd 3cbe 45c5 c1be
00000020: fbdb a23d 24d1 5abe 3c8b 87be a46e c8be
00000030: d289 10bd d177 ba3e 0452 6cbd 781f 303e
00000040: 90fd 47bd ff46 d0be d590 3cbe 2ea1 95be
00000050: 644d 623e ca37 9b3c 846b 9bbd 37f3 b4be
00000060: ded5 123e d23f a1be 3b86 f2be
-0.0611261 0.05411571 -0.058018584 0.018056914 0.027445555 -0.19013111 -0.1843153 -0.37845817
0.07952114 -0.21368843 -0.26473415 -0.39146912 -0.035287686 0.36419538 -0.057695404 0.17199504
-0.0488258 -0.40679166 -0.18414624 -0.29224533 0.22099835 0.0189475 -0.07588866 -0.35341808
0.14339396 -0.31494004 -0.47368035

hidden2time.weight f4 [3, 40]
00000000: 587a c9be e8a2 543f f680 23bf 9077 f7be
00000010: 7a67 473e 14d0 3d39 f908 2a3e 6460 793e
00000020: 56af 0abd 437e 3bbf 6350 fe3d dbfa bb3e
00000030: 729f 323e 3376 9c3e 12fd 4b3e 4b6b c83c
00000040: be09 47bf 8830 a23f 6884 52bf 4e57 8ebe
00000050: 9225 9e3e 1a20 04be 7558 b53e 7592 8ebd
00000060: ef2c c03e 8873 353e b67b 89be 1fee f73e
00000070: 6930 693e 50f8 873f 3ab5 36bf 4854 373d
00000080: 82f2 5abe ae19 703f a965 413e 21bb b7be
00000090: c76c a2be e27e 0d3e 0ae8 0e3e fe6d 97bb
000000a0: 7831 0c3f 494e 4bbf 829a 773e a6e1 803e
000000b0: 0697 ccbe e794 86be 4d9f 633d 24ce fe3d
000000c0: 4c71 3e3e ea29 583f 6ff5 d2be 5c0e 87be
000000d0: afa8 d5bd e537 93be 9612 6c3e c35c d9bd
000000e0: d984 373f 8964 79bf 4c83 303f 8364 febd
000000f0: c0e3 dc3d b7c9 f93d 6836 02bf cd9c 923e
00000100: 6ab4 2cbe b4f4 eabe bc5f 1c3d d4ea 44bf
00000110: 09fd 10be 55b1 31bf 695d c23e b2e9 c5bd
00000120: 55b0 28bd a923 5bbf 11be 2b3e f161 043e
00000130: 6bd6 123d fab2 0e3e 8a31 363d 0346 a1bc
00000140: 0929 3abc 1497 533f 1681 2a3f c7f7 f53e
00000150: 3c95 963f 5044 f43e c958 01bf 101e 25be
00000160: 6276 c0be edae 01bd 9694 e93e db7a cfbf
00000170: 48d4 2abf bb31 14bf b3ab f6be 3055 043f
00000180: c578 dfbe aa0f 06bf 3520 9cbe 9f17 0a3f
00000190: ff0f aabe 11d6 c63e 90e8 b53e 1702 bdbd
000001a0: 5aa8 1cbf 2c8c 493f 7a57 e23e d397 513f
000001b0: 67f9 22bf e85c 15bf fc24 223f 3a4f 8c3f
000001c0: d4c8 293f c220 3fbd b2db 25bf 243b fb3e
000001d0: 5c34 dc3e 3f52 09bf 605a f9be 120a dcbe
-0.39351153 0.83061075 -0.63868654 -0.48333406 0.19473067 0.0001810196 0.16604985 0.24353176
-0.03385862 -0.73239535 0.12417676 0.36714825 0.17443636 0.3055893 0.19920757 0.024465224
-0.7774924 1.267106 -0.82233286 -0.27800983 0.3088804 -0.12902871 0.3541905 -0.06961528
0.37534282 0.17719853 -0.26852196 0.4842386 0.22772373 1.0622654 -0.7137028 0.04475811
-0.21381572 0.93789184 0.18886437 -0.35884956 -0.31723616 0.13817933 0.13955703 -0.0046212664
0.54762983 -0.7941633 0.24180034 0.25172156 -0.39958972 -0.26285478 0.055571843 0.12441662
0.18597907 0.84438956 -0.41202876 -0.26378143 -0.104325645 -0.28753582 0.23053965 -0.10613396
0.71687084 -0.9741903 0.68950343 -0.12421515 0.10785627 0.12196677 -0.5086427 0.28635255
-0.16865698 -0.4588982 0.038177237 -0.7692082 -0.14159025 -0.6941121 0.3796189 -0.096637145
-0.04118379 -0.8560129 0.16771723 0.12927987 0.035849016 0.13935462 0.044480838 -0.019686705
-0.011362323 0.826524 0.6660322 0.48040602 1.1764293 0.47708368 -0.505261 -0.16124749
-0.3759032 -0.031660963 0.45621175 -1.6209368 -0.66730165 -0.5788838 -0.4817787 0.51692486
-0.43646827 -0.5236765 -0.30493322 0.5394229 -0.3321533 0.38835195 0.35528994 -0.09228914
-0.61194384 0.7872951 0.44207364 0.8187229 -0.6366181 -0.5834489 0.63337684 1.0961678
0.66322064 -0.0466621 -0.64788353 0.49068558 0.43008697 -0.5364112 -0.48701763 -0.42976433

hidden2time.bias f4 [3]
00000000: 3b9e 343e 7e77 7fbd 76ad c3be
0.17638485 -0.062369816 -0.38218278
