events_simulation/models/all_epochs/model_12_20180608-0504.pt (torch_old, 78237 bytes, 9 tensors)

loss_function_events.weight f4 [27]
0	0x3f800000	1.0
1	0x3f800000	1.0
2	0x3f800000	1.0
3	0x3f800000	1.0
4	0x3f800000	1.0
5	0x3f800000	1.0
6	0x3f800000	1.0
7	0x3f800000	1.0
8	0x3f800000	1.0
9	0x3f800000	1.0
10	0x3f800000	1.0
11	0x3f800000	1.0
12	0x3f800000	1.0
13	0x3f800000	1.0
14	0x3f800000	1.0
15	0x3f800000	1.0
16	0x3f800000	1.0
17	0x3f800000	1.0
18	0x3f800000	1.0
19	0x3f800000	1.0
20	0x3f800000	1.0
21	0x3f800000	1.0
22	0x3f800000	1.0
23	0x3f800000	1.0
24	0x3f800000	1.0
25	0x3f800000	1.0
26	0x3f800000	1.0

lstm.weight_ih_l0 f4 [160, 70]
0	0x3dff0511	0.12452138
1	0xbd8cf60a	-0.06882866
2	0xbe29a1bd	-0.16565605
3	0x3dc53bcf	0.09630548
4	0xbc399597	-0.011327169
5	0xbd210510	-0.03931147
6	0xbdd9d129	-0.10635597
7	0xbb32cd17	-0.0027282888
8	0x3a9892b2	0.0011640398
9	0xbdc3ef6f	-0.09567153
10	0x3d48ec73	0.04905362
11	0x3c07931d	0.008274821
12	0x3d770f13	0.06031711
13	0xbd433b64	-0.04766406
14	0x3e1958f3	0.14975338
15	0x3ddadca0	0.10686612
16	0xbdefe5cb	-0.117137514
17	0x3d2d8aa8	0.04236856
18	0x3ccb4e7e	0.024817701
19	0x3d4c9821	0.04994977
20	0x3e28668e	0.16445372
21	0x3cd97765	0.02654619
22	0x3dd04b6c	0.101706356
23	0x3d04f8d1	0.032463852
24	0x3c847d86	0.016173135
25	0x3d94461a	0.07239933
26	0x3eb93d68	0.36179662
27	0x3d10b4ae	0.03532856
28	0x3d99143a	0.07474561
29	0x3e9ea6f0	0.30986738
30	0xbc680834	-0.014162112
31	0x3e034d8a	0.12822548
32	0x3cbc5b6d	0.022992814
33	0x3e3879bc	0.18015188
34	0xbc8f781d	-0.01751333
35	0xbe0e8065	-0.13916166
36	0x3e3463c2	0.1761618
37	0x3e505077	0.20343195
38	0x3e5ed939	0.21762551
39	0x3e0efd0b	0.13963716
40	0x3e0199fc	0.12656397
41	0x3d67ef1f	0.056624528
42	0x3da44233	0.08020439
43	0xbc76797f	-0.015043615
44	0x3e005dee	0.12535831
45	0x3e61b332	0.22041014
46	0x3d95e4da	0.073190406
47	0x3d868d30	0.06569898
48	0xbda8748a	-0.08225353
49	0xbcd8bf9a	-0.02645855
50	0xbda09cf0	-0.078424335
51	0xbcc4b0cf	-0.02401009
52	0x3d8e890c	0.06959733
53	0x3d2f91a8	0.042863518
54	0x3db28a90	0.08717835
55	0x3dd0e90d	0.10200701
56	0x3e3ad630	0.18245769
57	0x3e2bcf00	0.16778183
58	0xbcd123c9	-0.025529759
59	0x3e587cd4	0.21141368
60	0x3cd1a50c	0.025591396
61	0xbcce6632	-0.025195215
62	0x3e09bd85	0.13451202
63	0xbd2b11a9	-0.04176489
64	0x3dea2a34	0.11433831
65	0x3ca598a3	0.020214384
66	0x3d8e03de	0.06934331
67	0xbc191f2f	-0.009345814
68	0xbd69378d	-0.056937743
69	0x3e5e8bd8	0.21733034
70	0xbda1077f	-0.07862758
71	0x3e0a46ae	0.13503525
72	0x3de2a5d5	0.11066786
73	0x3dcf15b9	0.10111565
74	0x3d15e9fa	0.03660009
75	0x3d9246a4	0.0714238
76	0x3e2d5177	0.16925608
77	0x3df3e49b	0.119088374
78	0x3da0bd5b	0.07848617
79	0x3e35afbd	0.1774282
80	0x3d108bf2	0.035289712
81	0x3e319086	0.17340288
82	0x3e02f048	0.12786973
83	0xbda9ab81	-0.08284665
84	0xbdf87ded	-0.121333934
85	0xbe1103e2	-0.14161637
86	0x3e116e16	0.1420215
87	0x3d659aa0	0.056055665
88	0xbb9414b7	-0.004519071
89	0x3da8c464	0.082405835
90	0x3e3363ae	0.17518494
91	0xbd4a9fb1	-0.0494687
92	0xbc4fa3d7	-0.01267334
93	0xbe090eb5	-0.13384517
94	0xbd734c53	-0.05939896
95	0x3bd32c80	0.006444514
96	0x3f1e9bb9	0.61956364
97	0xbdfacdb6	-0.122462675
98	0xbdbe8f8e	-0.09304725
99	0x3efab60a	0.4896701
100	0xbd5f08bf	-0.0544517
101	0x3e492df2	0.19646433
102	0x3ded3887	0.11583047
103	0x3db8d7c8	0.09025532
104	0x3e0007e5	0.12503012
105	0xbddb7304	-0.10715297
106	0x3deee1a4	0.11664131
107	0x3da46086	0.08026223
108	0xbd28d52b	-0.041218918
109	0xbddfa479	-0.109200425
110	0x3d5a28be	0.05326151
111	0xbd7ec104	-0.062195793
112	0x3d433d10	0.047665656
113	0x3db1a09b	0.08673211
114	0x3d8d6db2	0.06905688
115	0x3d922c67	0.07137375
116	0xbcf64860	-0.030063808
117	0x3e20410f	0.15649818
118	0x3e38806f	0.18017744
119	0x3d4c6c1c	0.04990779
120	0x3df6b18d	0.12045584
121	0x3db208b2	0.08693065
122	0xbc84b6b4	-0.0162004
123	0x3d86fa49	0.06590707
124	0x3e1e95c0	0.15486813
125	0xbd92fadf	-0.07176756
126	0x3e16e2a6	0.14734897
127	0xbcd9d3ad	-0.026590193
128	0x3e093a3b	0.1340112
129	0x3e06d2cd	0.13166352
130	0x3e24356b	0.16036002
131	0x3e60abc1	0.21940519
132	0x3e5203e2	0.20509294
133	0x3dc712d6	0.097203895
134	0x3e00f929	0.12595047
135	0x3d865358	0.06558865
136	0x3d423bae	0.047420196
137	0x3e3bef31	0.18352963
138	0x3b373983	0.0027957864
139	0x3e3588de	0.17727992
140	0xbd18f452	-0.037342377
141	0x3c7cfa87	0.01544059
142	0xbb929209	-0.004472975
143	0xbe679e1e	-0.2261891
144	0xbde43199	-0.111422725
145	0x3d94cbb4	0.07265416
146	0xbe0715f5	-0.1319197
147	0x3db038d2	0.086045876
148	0x3c834d0a	0.016027946
149	0x3c1fe4db	0.009759153
150	0x3d8d574e	0.06901418
151	0xbe1e3582	-0.15450099
152	0xbd414cbe	-0.047192328
153	0x3ce9f32a	0.028558332
154	0x3d71a52d	0.058995415
155	0xbe8d66dd	-0.2761754
156	0xbe0cdc96	-0.13756022
157	0xbd662660	-0.05618894
158	0x3e271697	0.16317211
159	0x3d036386	0.032077335
160	0x3e7df9b1	0.24802281
161	0x3cd2e654	0.025744595
162	0xba8adbc8	-0.0010594064
163	0x3b7438ac	0.0037265224
164	0x3df98e21	0.12185312
165	0xbda76e97	-0.0817539
166	0x3eee88e2	0.46588808
167	0x3d87b51e	0.06626342
168	0x3cc86ca4	0.024465866
169	0x3f10fc77	0.5663523
170	0xbdf1adee	-0.118007526
171	0xbce00e61	-0.027350606
172	0xbe051c18	-0.12998998
173	0xbdc5cbe0	-0.09658027
174	0x3b3f83a7	0.0029222758
175	0x3e173015	0.14764436
176	0xbd272d48	-0.040814668
177	0x3e03474a	0.12820163
178	0x3d31d035	0.043411452
179	0x3e14b41f	0.14521836
180	0x3d9b8ffc	0.07595822
181	0x3e43943b	0.19099514
182	0x3c22c869	0.009935477
183	0x3cd76d1d	0.026297146
184	0x3d7a9318	0.061175436
185	0x3e20e73e	0.15713212
186	0x3d5b3246	0.05351474
187	0x3ddd2785	0.107985534
188	0xbdc42630	-0.09577596
189	0x3d2b6a3e	0.041849367
190	0x3d36ece4	0.04465951
191	0x3e08b4d5	0.13350232
192	0x3d0a97f1	0.03383631
193	0x3de3b373	0.111182116
194	0x3d20b0ae	0.039230995
195	0x3e648661	0.22316886
196	0xbd13a34d	-0.036044408
197	0x3dc99983	0.09843733
198	0x3de8388d	0.11338911
199	0x3daf8743	0.08570721
200	0xbcc50648	-0.024050847
201	0x3e4e9dad	0.20177336
202	0x3d82156b	0.063517414
203	0xbd16004c	-0.036621377
204	0x3e04f4c6	0.12983999
205	0x3d91b20e	0.07114039
206	0x3dbc21ef	0.0918616
207	0x3e23e158	0.1600393
208	0x3d774152	0.06036503
209	0xbdb315c7	-0.08744388
210	0xbd9d1909	-0.07670791
211	0x3d7e41b8	0.062074393
212	0xbda2c8fa	-0.079484895
213	0x3d20bf24	0.039244786
214	0x3cb0b9a0	0.021572888
215	0xbd8926fc	-0.06696889
216	0x3d3d0e8b	0.046156447
217	0x3df4fc98	0.11962241
218	0x3d834d24	0.06411198
219	0x3dec0ca1	0.11525846
220	0x3b1d4f9b	0.0024003747
221	0x3e14f50c	0.14546603
222	0x3e0e3fe4	0.1389156
223	0xbd89520f	-0.067051046
224	0xbdd328be	-0.10310505
225	0xbbd8b548	-0.0066134073
226	0xbd0177ee	-0.031608514
227	0xbe14a686	-0.14516649
228	0x3dcfd7fe	0.10148619
229	0xbbd0f378	-0.00637668
230	0x3da5ba1c	0.08092138
231	0x3e05adaa	0.13054529
232	0xbc429a26	-0.011877572
233	0xbe08bf49	-0.1335422
234	0xbd81746b	-0.06321033
235	0x3e125425	0.14289911
236	0x3f3079f9	0.68936116
237	0xbdd5a276	-0.104313776
238	0xbd9fc85f	-0.0780189
239	0x3f33feeb	0.7031085
240	0x3d377030	0.044784725
241	0x3bc78c9e	0.006089761
242	0x3dd8ce6c	0.10586247
243	0x3e1d42e3	0.15357547
244	0x3c733ff4	0.014846791
245	0xbddc1ca0	-0.10747647
246	0x3e5820bf	0.21106242
247	0x3ca20b79	0.019780861
248	0x3dd8e06f	0.10589682
249	0x3d747478	0.059681386
250	0x3e583ae6	0.21116218
251	0x3cb9c10d	0.022675062
252	0x3dc394f2	0.095498934
253	0x3db36a0e	0.08760463
254	0xbd148fbb	-0.036269885
255	0x3c994912	0.0187116

lstm.weight_hh_l0 f4 [160, 40]
0	0x3b9c99cd	0.0047790767
1	0x3e878073	0.26465186
2	0xbcbbdc47	-0.022932185
3	0x3e364dd3	0.17803125
4	0xbe0be26a	-0.13660589
5	0xbca680cc	-0.020325087
6	0x3d7f6c93	0.062359404
7	0xbc19f696	-0.00939717
8	0xbd9fb1cd	-0.07797585
9	0x3c9b02bc	0.018922202
10	0x3c8ec5ce	0.017428305
11	0x3d7054dd	0.058674682
12	0xbdf82347	-0.121161036
13	0x3db52303	0.088445686
14	0xbcf105bc	-0.02942168
15	0xbe0f21fa	-0.13977805
16	0x3e2b67d0	0.1673882
17	0x3d908352	0.07056297
18	0x3d94d29d	0.07266734
19	0x3de1f510	0.1103307
20	0xbe35c8d5	-0.17752393
21	0x3dc6cf04	0.09707454
22	0x3cb15a0d	0.021649385
23	0x3e3ced15	0.18449815
24	0x3dd17b61	0.10228611
25	0xbe50c118	-0.2038616
26	0x3e01ddfc	0.12682337
27	0x3e1caa86	0.15299425
28	0xbd984085	-0.07434181
29	0x3de79ea6	0.11309557
30	0x3c0189e6	0.007906413
31	0xbd0bae37	-0.03410169
32	0xbd050594	-0.032476023
33	0x3d14ca85	0.03632595
34	0x3d99bfd7	0.07507294
35	0x3d981e0a	0.074276045
36	0x3cab408f	0.020904807
37	0x3daf5592	0.08561243
38	0x3e464b7f	0.19364737
39	0xbda7f049	-0.08200128
40	0xbd0848ba	-0.033272482
41	0x3e18bdae	0.14916107
42	0x3d978413	0.07398238
43	0x3e5e0321	0.21680881
44	0xbdd02409	-0.10163123
45	0x3d983efc	0.07433888
46	0xbdcfd21e	-0.101474985
47	0x3dbc772f	0.0920242
48	0xbda71770	-0.08158767
49	0xbd38f399	-0.045154188
50	0xbd9c9e22	-0.07647349
51	0xbc66e051	-0.014091567
52	0x3e0d74cc	0.13814086
53	0x3e83b48b	0.2572368
54	0xbc48d3a5	-0.012257491
55	0x3d2172d5	0.039416153
56	0x3ce0a374	0.02742169
57	0x3d85916b	0.06521877
58	0x3ed3c422	0.41360575
59	0xbe0da9b6	-0.13834271
60	0x3dc0c893	0.094132565
61	0x3e56b1ff	0.20966338
62	0x3d92f604	0.0717583
63	0x3e4b8834	0.19876176
64	0x3e0c7728	0.1371733
65	0x3d4ce53f	0.050023314
66	0x3d957ae2	0.07298829
67	0xbd56a26f	-0.052401002
68	0x3c0f94ca	0.008763501
69	0xbdef6841	-0.11689807
70	0xbddcb55c	-0.10776779
71	0x3daecefd	0.08535574
72	0x3dfe5864	0.12419203
73	0x3e6a8eea	0.2290608
74	0xbcb40493	-0.021974837
75	0x3d93f3bf	0.07224225
76	0x3e2a7347	0.16645537
77	0xbde65e78	-0.11248487
78	0x3e42e140	0.19031239
79	0x3d5381fa	0.051637627
80	0xbb8a480e	-0.0042200154
81	0x3e73b3d6	0.2379907
82	0x3cc4898e	0.023991372
83	0xbd9954a7	-0.07486849
84	0xbddde3df	-0.108344786
85	0xbde344f9	-0.1109714
86	0xbdff8ccb	-0.12478026
87	0x3dc1b244	0.094578296
88	0xbe192b5e	-0.1495795
89	0x3c9e4480	0.019319773
90	0xbd17f7d9	-0.0371016
91	0x3dc3fe10	0.09569943
92	0x3de3d60c	0.111248106
93	0x3e3f4ddc	0.18682045
94	0xbced7282	-0.028985266
95	0x3a1abbbc	0.00059026084
96	0x3d8a3ac9	0.06749494
97	0x3e3dfcb2	0.18553427
98	0x3df67e53	0.12035813
99	0x3dc79e7f	0.097470276
100	0x3d1c4274	0.038149312
101	0x3b47aecf	0.0030469184
102	0xbd0fbba5	-0.03509106
103	0x3e145ef2	0.14489344
104	0x3df97dbf	0.12182187
105	0xbe0a3d37	-0.13499914
106	0x3e0b54ae	0.13606521
107	0xbd8cd863	-0.0687721
108	0xbda6c227	-0.081425
109	0x3c5496f9	0.012975448
110	0xbe02f4c2	-0.1278868
111	0x3de5c079	0.11218352
112	0xbc36c79f	-0.011155992
113	0x3dc688d5	0.096940674
114	0xbd9e2e02	-0.07723619
115	0xbe4f3131	-0.20233609
116	0x3e3d958c	0.18514079
117	0x3c525635	0.012837936
118	0x3e46a691	0.19399478
119	0xbd974377	-0.07385915
120	0x3df44ee8	0.11929113
121	0x3d80ca78	0.06288618
122	0xbda09825	-0.07841519
123	0xbd69cee6	-0.05708208
124	0x3db0b697	0.08628576
125	0x3e5d7a47	0.21628676
126	0x3d6c9f31	0.057769004
127	0x3dc95ca5	0.09832124
128	0xbdbce125	-0.092226304
129	0x3dbbf218	0.09177035
130	0xbd93f06b	-0.072235905
131	0x3e0948b3	0.13406639
132	0x3dbe5730	0.092939734
133	0x3e5c477c	0.21511644
134	0x3ccd940c	0.025095008
135	0xbdb61458	-0.08890599
136	0x3ddf6e88	0.10909754
137	0x3cd0e496	0.025499623
138	0x3ec0b8d3	0.3764101
139	0xbddaf17f	-0.10690593
140	0xbdeeb3a9	-0.11655361
141	0x3ea01491	0.3126569
142	0xbd0e7c16	-0.034786306
143	0xbb723666	-0.0036958694
144	0x3e53a738	0.20669258
145	0x3d44cedd	0.048048843
146	0xbd9f4e1e	-0.077785715
147	0x3dc9bdc6	0.098506495
148	0x3c93308d	0.017967487
149	0xbc8484bc	-0.016176574
150	0x3dbecfe0	0.09316993
151	0xbdf6af41	-0.12045146
152	0x3c3d1609	0.011540898
153	0x3d306d78	0.043073148
154	0x3da901e8	0.08252317
155	0x3d75e65e	0.06003415
156	0xbd36dcb5	-0.044644076
157	0x3d05ff0b	0.03271393
158	0xbd595e7e	-0.05306863
159	0x3cec3a73	0.028836465
160	0x3d6725de	0.056432597
161	0x3e9d76db	0.30754742
162	0xbe351ba2	-0.17686322
163	0x3e64f041	0.22357275
164	0xbe6180f6	-0.22021851
165	0x3e9907ff	0.29888913
166	0xbe90c28d	-0.2827343
167	0xbe802f66	-0.25036162
168	0xbddf36e2	-0.1089914
169	0x3ec628d4	0.38703024
170	0x3e623583	0.22090726
171	0x3e19c91a	0.1501812
172	0x3d97c871	0.07411278
173	0x3eb39065	0.35071102
174	0x3e3f901e	0.1870732
175	0xbdcc42aa	-0.09973653
176	0x3e9ff9a4	0.31245148
177	0x3eac8dc4	0.3370191
178	0x3e18be2f	0.149163
179	0xbe3c2388	-0.18372929
180	0xbe417e9f	-0.18895958
181	0x3ee2e0ca	0.44312125
182	0xbe0c0bdc	-0.13676399
183	0x3eabde53	0.33568057
184	0x3e1f7ca4	0.1557489
185	0xbe292efc	-0.1652183
186	0x3eb4ae65	0.35289302
187	0x3df84eb7	0.12124389
188	0xbe0ed54d	-0.13948555
189	0xbe86667a	-0.26250058
190	0xbe1bf4ef	-0.15230154
191	0xbd8b85ab	-0.068126045
192	0x3dd7e9c6	0.105426356
193	0xbe7e6b31	-0.24845578
194	0x3db14be9	0.08657057
195	0xbeb37a1f	-0.35054109
196	0x3db029cf	0.08601724
197	0xbe4ecf35	-0.2019623
198	0x3e9bd142	0.3043309
199	0xbdec2832	-0.11531104
200	0x3e27c15f	0.16382359
201	0x3e1ee10b	0.15515535
202	0x3dab8739	0.08375401
203	0x3d1081da	0.035280086
204	0xbe2d05e7	-0.16896783
205	0x3b2e36d3	0.002658297
206	0x3da6e6af	0.08149468
207	0xbdc5f252	-0.096653596
208	0xbd9f987e	-0.077927575
209	0x3e22e349	0.15907015
210	0xbc830bea	-0.015996892
211	0x3dacae64	0.084317
212	0xbdd8c60e	-0.10584651
213	0x3de1774a	0.11009081
214	0x3d045992	0.032311983
215	0x3dac782d	0.08421359
216	0x3e5d3b1b	0.21604578
217	0x3d87d7f0	0.06632984
218	0xbc3db873	-0.011579621
219	0xbd984438	-0.07434887
220	0x3d9222e5	0.07135562
221	0x3e3a1659	0.18172587
222	0xbd7eb894	-0.062187746
223	0xbc31d072	-0.01085292
224	0x3d78ce52	0.060743637
225	0xbdeb3c0e	-0.11486064
226	0x3df4188a	0.11918743
227	0xbdb7f7e8	-0.08982831
228	0xbe1c8790	-0.15286088
229	0x3dff1d20	0.12456727
230	0x3d9546b0	0.07288873
231	0xbe0997c9	-0.13436808
232	0x3e0605fc	0.1308822
233	0x3aef14f7	0.0018240501
234	0xbd490ce4	-0.04908456
235	0x3df655cc	0.12028083
236	0x3e3c9b98	0.1841873
237	0x3d3df277	0.04637381
238	0xbd697a8a	-0.057001628
239	0x3d79f496	0.06102427
240	0xbdb8c4d8	-0.0902192
241	0x3ea3bbf2	0.31979328
242	0xbdb02e9b	-0.08602639
243	0x3e243bb7	0.16038404
244	0xbe0dad2b	-0.1383559
245	0x3cf72720	0.030170023
246	0xbe0c0571	-0.1367395
247	0xbd6c4594	-0.057683542
248	0xbc0722d3	-0.008248049
249	0xbda0ee2f	-0.0785793
250	0x3ddf568a	0.10905178
251	0x3e38c26a	0.18042913
252	0x3d8c7e1a	0.068599895
253	0x3db49254	0.088169724
254	0x3d88411f	0.06653046
255	0xbd0904da	-0.033451892

lstm.bias_ih_l0 f4 [160]
0	0xbd47d154	-0.048783615
1	0x3d840e8e	0.064480886
2	0x3e243c22	0.16038564
3	0xbc3f7e92	-0.011687892
4	0x3d9384db	0.072030745
5	0x3e53aab2	0.20670584
6	0x3e270494	0.1631034
7	0x3e5e8d67	0.21733628
8	0x3dad574e	0.08463918
9	0x3d9d7c35	0.07689706
10	0x3dd2e9cc	0.102984995
11	0x3e3ea82f	0.18618844
12	0x3e0e4f52	0.13897446
13	0xbcb8a98b	-0.022541782
14	0xbd103944	-0.035210863
15	0xbd902450	-0.07038176
16	0x3ce1d05a	0.02756517
17	0x3e2bc1b8	0.16773117
18	0x3e8dbdb3	0.27683792
19	0x3d52d396	0.051471315
20	0x3d7d253a	0.06180308
21	0x3e10aa2a	0.14127412
22	0x3d2be116	0.041962706
23	0x3c2c9e1a	0.010535741
24	0x3e71bbc6	0.23606786
25	0x3c322ab4	0.010874439
26	0x3dbae349	0.091253825
27	0xbd84ef1d	-0.0649092
28	0xbd8bb5c7	-0.06821781
29	0x3df63839	0.12022442
30	0x3d71adb7	0.059003558
31	0xbd4aa2e6	-0.04947176
32	0x3d75e670	0.060034215
33	0x3e8c2d63	0.27378377
34	0x3e2e1f45	0.17004116
35	0x3e4d40fe	0.20044324
36	0x3e29e248	0.16590226
37	0x3dc85fca	0.09783895
38	0x3e02bfa3	0.12768416
39	0x3e322397	0.17396389
40	0x3e0b9bc3	0.13633637
41	0x3db83147	0.08993774
42	0x3cd6ab53	0.02620474
43	0x3e60cd95	0.21953423
44	0xbc81cb0d	-0.015843892
45	0x3e0d7a33	0.13816147
46	0xbdc5b7ae	-0.09654175
47	0x3e1c47ca	0.1526176
48	0x3cc7585a	0.024334121
49	0x3e574ca4	0.2102533
50	0x3db64a98	0.089009464
51	0x3e0b1fc4	0.13586336
52	0x3d0209dd	0.031747688
53	0x3dd0e99d	0.10200808
54	0x3dafc232	0.08581962
55	0x3dea482e	0.114395484
56	0xbca59cd9	-0.020216392
57	0xbcd7f4de	-0.026361879
58	0x3ddd5e46	0.10808997
59	0x3e125414	0.14289886
60	0x3e08db69	0.13364948
61	0xbb8d157c	-0.0043055397
62	0xbdcc552b	-0.09977182
63	0x3ce495ed	0.027903521
64	0x3d89de5f	0.06731867
65	0xbdcf7e8c	-0.10131559
66	0x3e1d3a22	0.15354207
67	0x3cd494aa	0.025949795
68	0x3dfca96e	0.12337004
69	0xbdec7bba	-0.115470365
70	0x3b93b250	0.0045073405
71	0xbb343e45	-0.0027502936
72	0x3dd86a43	0.10567143
73	0xbe13779a	-0.14401093
74	0x3d61e30a	0.055148162
75	0xbbf76772	-0.0075501734
76	0xbdabe95b	-0.083941184
77	0xbd0b64ef	-0.034031805
78	0xbc16a932	-0.009195613
79	0xbd58cc3d	-0.05292915
80	0x3dc4f90c	0.096178144
81	0x3bd577c8	0.006514523
82	0x3c30725c	0.010769453
83	0xbd80ea08	-0.06294638
84	0xbdb83f09	-0.08996398
85	0x3de769fc	0.11299512
86	0xbe475e4f	-0.1946957
87	0xbe1c5475	-0.15266593
88	0xbe01ec67	-0.12687837
89	0x3e1c5566	0.15266952
90	0x3d78e992	0.060769625
91	0x3cffac95	0.031210223
92	0xbe04916e	-0.12946102
93	0xbdbbaf0a	-0.091642454
94	0x3d9db936	0.07701342
95	0x3d943e08	0.07238394
96	0xbda32455	-0.07965914
97	0x3e401173	0.18756656
98	0x3e45c7c3	0.19314484
99	0xbe3b8f57	-0.18316399
100	0x3caaffff	0.020874022
101	0x3d0f8694	0.035040453
102	0xbe0462b9	-0.12928285
103	0x3e3aef80	0.18255424
104	0xbdb1166f	-0.08646857
105	0xbdad911c	-0.08474943
106	0x3dd14c68	0.102196515
107	0x3d74b5b7	0.05974361
108	0x3d811ab7	0.063039236
109	0x3daffd5a	0.08593245
110	0xbdcb2407	-0.09918981
111	0xbe3f07e1	-0.1865535
112	0xbd1a3e32	-0.03765697
113	0xbe18dcd8	-0.14927995
114	0x3d8a83bf	0.0676341
115	0xbe1d9a4a	-0.15390888
116	0x3d9b664f	0.07587873
117	0xbd9bfdc0	-0.07616758
118	0x3ca2b8a2	0.01986343
119	0xbd7cb975	-0.061700303
120	0x3e025478	0.12727535
121	0x3e15d55a	0.14632168
122	0x3e08c1f2	0.13355234
123	0x3cec6c0f	0.02886012
124	0x3eb5536f	0.35415217
125	0x3e0105eb	0.12599914
126	0x3e1796e0	0.14803648
127	0x3de049a5	0.109515466
128	0xbd587572	-0.05284638
129	0x3ca8a09b	0.020584395
130	0xbd2a0647	-0.041509893
131	0x3e0ba9b2	0.13638952
132	0x3ea10984	0.31452572
133	0x3e15fc04	0.14646918
134	0x3df9fa8b	0.122059904
135	0x3e23d563	0.1599937
136	0x3cbcf0cc	0.02306404
137	0x3e1230da	0.14276448
138	0x3e212982	0.1573849
139	0xbd2044ac	-0.03912799
140	0x3e35c62c	0.17751378
141	0x3e848b2b	0.25887427
142	0x3d9fbfa8	0.078002274
143	0x3d06b146	0.032883905
144	0x3dcf10d2	0.1011063
145	0xbd55159e	-0.05202257
146	0x3dd3855e	0.10328172
147	0x3d3ab494	0.04558237
148	0xbd5590c7	-0.052140024
149	0x3e8ded4f	0.27720115
150	0x3d9e09be	0.07716702
151	0xbd933c42	-0.07189228
152	0xbc31dc50	-0.010855749
153	0x3e633024	0.22186333
154	0x3e4ca629	0.1998526
155	0x3e378898	0.179232
156	0x3dfe6022	0.1242068
157	0x3b443722	0.0029940088
158	0x3d7807e6	0.060554408
159	0x3df88b03	0.121358894

lstm.bias_hh_l0 f4 [160]
0	0x3e004b15	0.12528642
1	0xbb2ace6b	-0.0026062976
2	0x3d8d6afe	0.06905173
3	0x3c0cf99c	0.008604433
4	0x3db9deef	0.09075724
5	0x3cb4d798	0.02207546
6	0xbd7d4edb	-0.06184278
7	0xbbd66abc	-0.0065434854
8	0x3da7b789	0.081893034
9	0x3dc72115	0.09723107
10	0xbcd79a9b	-0.026318839
11	0x3e274445	0.16334637
12	0x3de71649	0.112835474
13	0x3e4a7995	0.19772942
14	0x3e56c3ed	0.20973177
15	0x3e1246be	0.14284799
16	0x3e1dd97e	0.15414998
17	0x3e10de06	0.14147195
18	0x3e7c2f4e	0.2462742
19	0xbd4dea96	-0.050272547
20	0x3d35d992	0.044396944
21	0x3de7a30d	0.11310396
22	0xbb8c8730	-0.0042885765
23	0x3e17bdb9	0.14818467
24	0x3e3b8a0e	0.18314382
25	0x3d284114	0.04107769
26	0x3cf98993	0.030461108
27	0x3e135a69	0.14389957
28	0x3d925fa3	0.071471475
29	0x3e9e2697	0.30888817
30	0x3e40e3ec	0.18836945
31	0x3dd7692a	0.10518105
32	0x3e10f12b	0.14154498
33	0x3e8dd851	0.277041
34	0x3d7c5adc	0.061610088
35	0xbd5f2e7d	-0.054487694
36	0xbcba3e4d	-0.022734785
37	0xbca3313d	-0.01992094
38	0x3e000c73	0.12504749
39	0x3e133e9f	0.14379357
40	0x3cbe555b	0.02323406
41	0x3c894309	0.016755598
42	0xbcba98d6	-0.022777956
43	0xbd88e656	-0.06684558
44	0xbdad6827	-0.08467131
45	0x3dae0ee1	0.08498932
46	0x3d2393ff	0.039936062
47	0x3db2bd82	0.08727552
48	0xbde04df5	-0.10952369
49	0x3e307d63	0.17235331
50	0x3cb073ed	0.021539653
51	0x3e3a0080	0.18164253
52	0xbcab3e98	-0.02090387
53	0x3e4c1f87	0.19933902
54	0x3dc40b54	0.09572473
55	0xbd1bdd6c	-0.03805296
56	0x3d3b578a	0.04573778
57	0x3e14deff	0.14538191
58	0x3d79a368	0.060946852
59	0xbde3611a	-0.11102505
60	0x3d3a8162	0.045533545
61	0xbd903ee0	-0.070432425
62	0x3e20a453	0.15687685
63	0x3daa5dd2	0.08318676
64	0x3dfd47ed	0.123672344
65	0xbd665852	-0.056236573
66	0x3db6dd8b	0.08928975
67	0xbd839f96	-0.06426923
68	0x3e0dd34f	0.13850139
69	0x3d8cd036	0.068756506
70	0xbaa9915a	-0.0012936995
71	0xbd85a404	-0.06525424
72	0x3deeb569	0.11655695
73	0x3d0ebf86	0.03485062
74	0xbd7f0ea9	-0.06226984
75	0x3e001652	0.12508515
76	0xbd9d46c5	-0.07679514
77	0xbc1bcd39	-0.009509378
78	0x3e566035	0.20935138
79	0x3e2eb47a	0.17061034
80	0x3bbf3bde	0.005835994
81	0xbd810ee1	-0.06301666
82	0x3d4c1406	0.049823783
83	0x3e3a13cd	0.18171616
84	0xbb9bff2f	-0.004760645
85	0x3e4ff731	0.2030914
86	0xbdc7be54	-0.09753099
87	0xbdfbf026	-0.12301664
88	0x3d76f459	0.06029162
89	0x3e3185d2	0.17336205
90	0x3e20883d	0.15676971
91	0xbc53b3a8	-0.012921251
92	0x3dcebecb	0.100949846
93	0x3d533dcc	0.051572606
94	0xbd9f5c5c	-0.07781288
95	0xbda52e9b	-0.0806553
96	0xbb8ed1ac	-0.004358491
97	0xbde3a862	-0.11116101
98	0xbd0bd4e5	-0.03413858
99	0xbe2cf142	-0.16888908
100	0xbe06624e	-0.13123438
101	0x3e5d6e3a	0.2162408
102	0xbe4898e1	-0.19589569
103	0x3d784eb8	0.060621947
104	0x3e03bfc5	0.12866123
105	0xbe0bb55d	-0.13643403
106	0x3d29fc3c	0.041500315
107	0x3e4214eb	0.18953292
108	0xbe336584	-0.17519194
109	0xbdc76a8a	-0.097371176
110	0xbdee95c9	-0.11649663
111	0x3cbf9125	0.02338464
112	0x3dcbc152	0.09948982
113	0xbd97a5ad	-0.07404647
114	0xbd9d4f2b	-0.07681116
115	0xbe388215	-0.18018372
116	0xbd332764	-0.043738738
117	0x3d780b2a	0.060557522
118	0x3e2d3767	0.16915666
119	0xbdc251dc	-0.0948827
120	0x3e006876	0.12539849
121	0x3e21fb24	0.15818459
122	0xbe27df14	-0.16393691
123	0x3d76c9dc	0.0602511
124	0x3e92d8e1	0.2868109
125	0x3e29f12a	0.16595903
126	0x3e165f08	0.14684689
127	0x3e49bc14	0.19700652
128	0x3b6f7271	0.0036536718
129	0x3e2a1b8a	0.16612068
130	0x3e254ec5	0.1614333
131	0x3dd7c265	0.10535125
132	0x3e1f5d60	0.15562963
133	0xbe0f4a0c	-0.1399309
134	0x3c1d8a8a	0.00961555
135	0x3d408b57	0.047007885
136	0x3e798be7	0.24369775
137	0xbd03ad4f	-0.0321477
138	0x3e8fc38b	0.28078875
139	0x3c80bd9e	0.015715417
140	0x3c4a26b0	0.012338325
141	0x3e9fdcd6	0.31223172
142	0xbd854cec	-0.06508812
143	0x3e225369	0.15852131
144	0x3c50bbbd	0.012740073
145	0x3e1719e3	0.14755969
146	0x3df284ea	0.118417576
147	0x3cf3b6cc	0.02975025
148	0xbdab58d1	-0.0836655
149	0x3eaadf2a	0.33373386
150	0xbda51e66	-0.08062439
151	0x3d8e5c3c	0.06951186
152	0xbdaecce8	-0.085351765
153	0x3e5b61d2	0.21424034
154	0x3e917b67	0.2841446
155	0x3cf30f05	0.029670248
156	0x3e1d8903	0.15384297
157	0x3dab2fb5	0.08358709
158	0x3c80278e	0.015643861
159	0x3e2e749c	0.1703667

hidden2event.weight f4 [27, 40]
0	0xbe1d8ce0	-0.15385771
1	0xbd8b51b0	-0.0680269
2	0x3e1c568f	0.15267394
3	0xbe820d24	-0.2540065
4	0xbe14671b	-0.14492457
5	0xbddc77ea	-0.10765059
6	0x3cd6dd51	0.026228579
7	0x3e302646	0.172021
8	0xbd465d19	-0.04842863
9	0xbe2632f7	-0.16230379
10	0xbaa09e57	-0.001225422
11	0xbdeb8949	-0.115007944
12	0xbebee8bf	-0.37286946
13	0x3d6f5149	0.05842713
14	0xbe537eb7	-0.20653807
15	0xbe3ff088	-0.18744099
16	0x3cd44ea7	0.02591641
17	0x3ddbf709	0.107404776
18	0x3f42b6b4	0.7606003
19	0x3df069b2	0.1173891
20	0x3d9f0fbf	0.07766675
21	0x3eb31224	0.34974778
22	0xbd9e37f7	-0.07725518
23	0x3d97bee9	0.0740946
24	0xbd72ac9e	-0.05924665
25	0x3d88f951	0.06688178
26	0x3c8f081c	0.017459922
27	0xbe7a1d5b	-0.2442526
28	0x3e505421	0.20344593
29	0xbd6e9c7d	-0.058254708
30	0xbd770e17	-0.06031617
31	0x3e5f80ab	0.21826427
32	0xbe144380	-0.14478874
33	0xbe648ee2	-0.2232013
34	0xbdd6ffb9	-0.10497994
35	0xbdd4d8b7	-0.103928976
36	0x3d67e5e2	0.056615718
37	0xbd9521a7	-0.07281809
38	0x3c7cabb6	0.015421798
39	0xbc3df816	-0.011594793
40	0xbe55baa8	-0.20871985
41	0x3e8368bb	0.2566584
42	0x3e729b36	0.23692021
43	0x3d3eaf7e	0.04655408
44	0xbdf63336	-0.120214865
45	0x3d485307	0.048907306
46	0x3dd7b6bf	0.10532903
47	0xbe62095a	-0.2207388
48	0xbe327368	-0.17426836
49	0x3e524edd	0.20537896
50	0x3e0cc88a	0.13748375
51	0xbe0353a8	-0.12824881
52	0xbf038f72	-0.51390755
53	0x3d3ed491	0.046589438
54	0xbdc26eb7	-0.094937734
55	0xbe59ef7d	-0.21282764
56	0xbe346749	-0.17617525
57	0x3dbc98f0	0.09208858
58	0x3f3458c2	0.70447934
59	0x3e543f31	0.2072723
60	0x3dfbb170	0.12289703
61	0x3ef8483c	0.4849261
62	0xbe37d9ba	-0.1795415
63	0x3e451513	0.1924632
64	0x3e00553c	0.12532514
65	0xbdadf020	-0.08493066
66	0x3d78f649	0.06078175
67	0xbe584809	-0.21121229
68	0x3e8e4273	0.27785072
69	0xbdc9c6f6	-0.09852402
70	0xbe0c26d8	-0.13686693
71	0xbe49bad5	-0.19700177
72	0x3e1392f5	0.14411528
73	0xbe9311ea	-0.28724605
74	0xbd947d44	-0.07250455
75	0xbe49bc56	-0.1970075
76	0x3d298532	0.04138679
77	0xbe1e9cef	-0.15489553
78	0x3e966069	0.2937043
79	0xbd4f0007	-0.050537135
80	0xbe442101	-0.19153215
81	0xbe06101a	-0.1309208
82	0xbe536ae2	-0.20646241
83	0xbe0ab811	-0.13546778
84	0x3e1545b9	0.14577378
85	0x3e165c1d	0.14683576
86	0xbe528a22	-0.20560506
87	0xbdd0814c	-0.101809114
88	0x3de87494	0.113503605
89	0x3d061732	0.032736965
90	0x3ce1a43c	0.027544133
91	0xbd324012	-0.043518133
92	0xbf1ecd68	-0.62032175
93	0xbdd32321	-0.10309435
94	0xbcf24a71	-0.029576512
95	0xbe317208	-0.17328656
96	0x3e174d1d	0.1477551
97	0x3e4468f1	0.19180657
98	0x3f246324	0.64213777
99	0x3e86c1f5	0.26319852
100	0xbd658202	-0.05603219
101	0x3f2d3e12	0.67672837
102	0x3d402894	0.0469137
103	0x3db3f8ef	0.08787715
104	0xbd216291	-0.03940064
105	0xbe31d72b	-0.17367236
106	0x3df46716	0.119337246
107	0xbdf8231b	-0.12116071
108	0x3e46e610	0.194237
109	0xbbf3f423	-0.007444875
110	0x3e65ebf5	0.22453292
111	0x3e85338e	0.26015896
112	0x3e1a2709	0.15053953
113	0xbed0b838	-0.40765548
114	0xbe43944d	-0.19099541
115	0xbe34993d	-0.17636581
116	0x3e17ef03	0.1483727
117	0x3db61aab	0.08891805
118	0xbea76ff9	-0.32702616
119	0xbd9720bb	-0.0737929
120	0x3ead698e	0.33869594
121	0x3e9444f5	0.2895886
122	0xbec4e10b	-0.38452944
123	0xbe204f87	-0.15655337
124	0xbf1fcaa6	-0.6241859
125	0xbe419882	-0.18905833
126	0x3ebb62cf	0.36598822
127	0xbd6d82eb	-0.05798618
128	0xbdfba406	-0.12287144
129	0x3ee3a4b4	0.44461596
130	0x3ec0e328	0.37673306
131	0x3e43a50a	0.19105926
132	0x3e2a16f7	0.16610323
133	0x3f021e84	0.50827813
134	0xbdc4fc79	-0.09618468
135	0xbedcc7f7	-0.4312131
136	0xbe9326b0	-0.28740454
137	0x3d15349d	0.03642713
138	0xbf024488	-0.5088582
139	0xbdce6890	-0.100785375
140	0xbe8fb7e1	-0.28069976
141	0x3f556c98	0.83368826
142	0x3e8821ba	0.2658823
143	0x3ef26686	0.47343844
144	0xbe867fb7	-0.26269314
145	0xbf021d02	-0.5082551
146	0xbe414f71	-0.1887796
147	0x3e7362ae	0.23768112
148	0xbe4e7bfc	-0.20164484
149	0x3f3c2c97	0.7350554
150	0xbc8ba0d3	-0.01704446
151	0x3ea38d4c	0.31943738
152	0x3d02223c	0.03177093
153	0xbf123b2d	-0.57121545
154	0xbdc4eaea	-0.09615119
155	0x3ebf0c1e	0.37313932
156	0x3db77509	0.089578696
157	0x3e843e29	0.25828674
158	0x3e95e5bc	0.29276836
159	0x3e9cb099	0.30603483
160	0x3d9a71ce	0.07541238
161	0x3ed17fdb	0.40917858
162	0x3d174ead	0.036940265
163	0x3e508f2f	0.2036712
164	0x3f07aeb8	0.53000975
165	0x3e4a0351	0.19727828
166	0x3cff6d6c	0.031180106
167	0x3e24a0d7	0.1607698
168	0x3bb57ae6	0.0055383323
169	0xbef81416	-0.48452824
170	0xbebc3af6	-0.36763734
171	0xbdcc57a5	-0.09977654
172	0x3c972617	0.01845078
173	0xbb0f14c5	-0.0021832448
174	0xbe6404e7	-0.22267495
175	0xbdab1b44	-0.0835481
176	0x3e1d34b7	0.1535214
177	0x3954ac9c	0.00020282198
178	0xbf9c231e	-1.2198217
179	0xbec3cc37	-0.3824174
180	0x3df61dea	0.120174244
181	0x3e75f5e9	0.24019589
182	0xbba25beb	-0.004954805
183	0x3e21bf42	0.15795615
184	0xbebb1202	-0.36537176
185	0x3df8e34d	0.12152729
186	0xbe4e35c8	-0.20137703
187	0x3d39a489	0.04532293
188	0xbef657a9	-0.48113754
189	0x3ed7c14a	0.42139655
190	0x3e99bc11	0.30026296
191	0xbcd9fb6c	-0.026609145
192	0xbe03fdcd	-0.12889786
193	0xbdbc2ea8	-0.091885865
194	0x3e878062	0.26465136
195	0xbedaf83f	-0.42767522
196	0x3d2ba551	0.041905705
197	0x3bf833f1	0.0075745513
198	0x3e9896e5	0.29802623
199	0x3e20eab6	0.15714535
200	0xbe362403	-0.17787175
201	0xbeabb3f4	-0.3353573
202	0x3ec62bc5	0.38705269
203	0xbe058ba4	-0.1304155
204	0x3e8c4379	0.27395228
205	0xbe2429f1	-0.16031624
206	0x3d710346	0.058841012
207	0x3e8f9641	0.28044322
208	0x3e7c0213	0.24610166
209	0xbe09cbfe	-0.13456723
210	0xbe431d16	-0.19054064
211	0xbe3d3a1f	-0.18479203
212	0xbd28f848	-0.041252404
213	0xbeca39ec	-0.39497316
214	0xbe677eec	-0.2260701
215	0x3e5677c1	0.2094412
216	0xbdd44d7d	-0.10366342
217	0xbe6fad33	-0.23405914
218	0xbe2ba731	-0.16762997
219	0x3eae4674	0.34038126
220	0x3e9a26c6	0.30107707
221	0xbed78807	-0.42095968
222	0x3e016e78	0.12639797
223	0xbda67db0	-0.08129442
224	0xbd63cc65	-0.055614848
225	0x3e8db158	0.27674365
226	0xbd309f55	-0.0431207
227	0xbea11ca0	-0.31467152
228	0x3e2a3457	0.16621529
229	0x3e6932d4	0.22773296
230	0x3e356e60	0.17717886
231	0x3e1557cf	0.14584278
232	0xbd8afe67	-0.06786805
233	0x3f2814b2	0.6565658
234	0xbdd7f8f4	-0.10545531
235	0x3eb7edce	0.35923618
236	0xbd92a679	-0.071606584
237	0x3eb0acbf	0.34506795
238	0xbe98e0d1	-0.2985902
239	0x3e8a7f70	0.27050352
240	0xbda856fb	-0.08219715
241	0xbe8ac8dc	-0.2710637
242	0x3e7506ba	0.23928347
243	0xbe940952	-0.2891336
244	0x3e589a1f	0.21152543
245	0xbe7f03ea	-0.24903837
246	0x3e4fa8ef	0.20279287
247	0x3e57d5fb	0.21077721
248	0x3e7a3b3d	0.2443666
249	0xbe965d71	-0.29368165
250	0xbe28c8f4	-0.16482908
251	0xbde23e8c	-0.11047086
252	0x3e3c8f31	0.18413998
253	0xbe372473	-0.17884998
254	0xbe8f1070	-0.27942228
255	0x3d983573	0.0743207

hidden2event.bias f4 [27]
0	0xbde762f1	-0.112981685
1	0xbd7d7fbd	-0.0618894
2	0x3d3a2552	0.045445748
3	0x3e06416f	0.13110898
4	0x3e051ea1	0.12999965
5	0xbe819657	-0.25310013
6	0xbe006090	-0.12536836
7	0xbddf68a1	-0.10908628
8	0x3e7574c4	0.23970324
9	0x3dcaec10	0.099083066
10	0xbdc39390	-0.0954963
11	0xbcea3848	-0.02859129
12	0xbe2ba9c6	-0.16763982
13	0x3e456d74	0.19280034
14	0x3b93ec87	0.0045142802
15	0x3e6a6a0d	0.22892018
16	0xbdd359b7	-0.10319846
17	0xbdcb97d0	-0.09941065
18	0x3d62a11a	0.05532942
19	0x3dd09396	0.101844
20	0xbd68a1c1	-0.056794886
21	0x3d40a556	0.047032677
22	0xbdbc7dd7	-0.092036895
23	0xbdd8c425	-0.105842866
24	0x3c9ef0fc	0.01940202
25	0xbe680df8	-0.22661579
26	0xbda421fb	-0.08014294

hidden2time.weight f4 [3, 40]
0	0xbd8f2f66	-0.069914624
1	0xbd92559d	-0.07145236
2	0xbe621840	-0.22079563
3	0x3e26ab02	0.16276172
4	0xbe84e115	-0.25952974
5	0x3e251684	0.1612187
6	0xbd460b94	-0.048350886
7	0xbde6b167	-0.112643056
8	0xbd940bc5	-0.07228807
9	0x3e060a89	0.13089956
10	0x3e1b6f46	0.15179166
11	0x3e1afdd9	0.15135898
12	0xbe3b2306	-0.18275079
13	0x3dedce8a	0.1161166
14	0x3d2ce2b5	0.042208392
15	0xbd8266dc	-0.06367275
16	0x3e53a9b2	0.20670202
17	0x3e831dbe	0.2560863
18	0xbe7d589a	-0.2474083
19	0xbe46cebe	-0.19414803
20	0xbe12e803	-0.14346318
21	0xbe6e8e79	-0.23296537
22	0xbe434531	-0.19069363
23	0x3d8d94b3	0.06913128
24	0x3ddf71d9	0.109103866
25	0xbe268f9b	-0.16265719
26	0x3df5159f	0.119670145
27	0x3e16bfd1	0.1472161
28	0x3e1a1981	0.15048791
29	0x3e0c1969	0.13681568
30	0x3db70ac0	0.08937597
31	0xbbf49024	-0.007463472
32	0x3e0e1492	0.13875034
33	0xbd103853	-0.035209965
34	0x3e55254d	0.2081501
35	0xbd73cac7	-0.059519555
36	0x3df44196	0.11926572
37	0xbcd33e5f	-0.025786577
38	0x3e276115	0.16345628
39	0x3d8d0ff2	0.06887807
40	0x3c29e2a3	0.010368976
41	0xbd6d3674	-0.05791326
42	0xbda50e1e	-0.08059333
43	0x3e2cab23	0.16862158
44	0xbe0702d2	-0.1318467
45	0xbd896a9b	-0.067097865
46	0xbe3fa08f	-0.18713592
47	0x3c214a61	0.0098443935
48	0x3d3c626a	0.045992292
49	0x3da3a20f	0.079898946
50	0x3d8f43ef	0.06995379
51	0x3e70837b	0.23487656
52	0x3e2c06aa	0.16799417
53	0xbd7b577c	-0.06136273
54	0x3bd2768e	0.006422824
55	0xbe1a575c	-0.15072387
56	0x39c1e9be	0.0003698598
57	0xbb7a7baa	-0.0038220682
58	0x3eadac8d	0.33920708
59	0x3c9ff409	0.019525545
60	0xbdd4659e	-0.103709444
61	0x3e3211cf	0.17389606
62	0xbe2d3eb8	-0.16918457
63	0x3dac5716	0.08415048
64	0xbd16f09f	-0.036850568
65	0x3ca5956f	0.020212857
66	0x3e241259	0.16022624
67	0xbdf6f499	-0.12058372
68	0xbe246a62	-0.16056207
69	0xbea10c10	-0.31454515
70	0xbe2dbfca	-0.16967693
71	0x3c52f62a	0.012876073
72	0x3e021684	0.12703902
73	0xbe674a93	-0.22587042
74	0x3e16ba8e	0.14719602
75	0xbe49edc1	-0.19719602
76	0x3e4aa61c	0.19789928
77	0xbe2c2f58	-0.16814935
78	0xbd195206	-0.03743174
79	0xbe4b1753	-0.19833116
80	0xbe73db9e	-0.23814246
81	0xbe4bce5e	-0.19902942
82	0x3edea644	0.43486226
83	0xbe1c8e1a	-0.15288582
84	0x3e0ad371	0.13557221
85	0xbe535ce9	-0.20640911
86	0x3e047821	0.1293645
87	0x3e94ffa5	0.2910129
88	0x3ee5f12c	0.44910562
89	0xbe22e332	-0.1590698
90	0xbcd49082	-0.025947813
91	0xbe5754cc	-0.21028441
92	0x3dda3273	0.10654154
93	0xbe7139b0	-0.23557162
94	0xbe93508f	-0.287724
95	0x3e758168	0.23975146
96	0xbe32193b	-0.17392437
97	0xbe83d093	-0.25745067
98	0xbd85f799	-0.06541366
99	0x3eb55143	0.3541356
100	0x3d94d6e6	0.07267551
101	0xbf0d0e3f	-0.5509986
102	0x3e8330a9	0.25623062
103	0xbeb33ffc	-0.35009754
104	0xbea2933f	-0.31752965
105	0x3ea2ed5f	0.31821725
106	0xbe9927b7	-0.29913113
107	0xbe881e1a	-0.26585466
108	0x3eb7c006	0.3588869
109	0x3e9bd2bb	0.30434212
110	0x3e3b1a12	0.18271664
111	0x3eb591c3	0.3546277
112	0xbe8c6dcd	-0.2742752
113	0x3e8b0154	0.2714945
114	0xbe729281	-0.236887
115	0x3ebca155	0.36841837
116	0xbdb1e8ac	-0.08686957
117	0x3e47f5d4	0.1952737
118	0xbe5bce7d	-0.21465488
119	0x3e734ffe	0.23760983

hidden2time.bias f4 [3]
0	0xbc69a496	-0.014260432
1	0x3e3b5e43	0.18297677
2	0xbcf16b05	-0.029469976
