events_simulation/models/all_epochs/model_39_20180531-0726.pt (torch_old, 78354 bytes, 9 tensors)

loss_function_events.weight f4 [27]
00000000: 0000 803f 0000 803f 0000 803f 0000 803f
00000010: 0000 803f 0000 803f 0000 803f 0000 803f
00000020: 0000 803f 0000 803f 0000 803f 0000 803f
00000030: 0000 803f 0000 803f 0000 803f 0000 803f
00000040: 0000 803f 0000 803f 0000 803f 0000 803f
00000050: 0000 803f 0000 803f 0000 803f 0000 803f
00000060: 0000 803f 0000 803f 0000 803f
1.0 1.0 1.0 1.0 1.0 1.0 1.0 1.0
1.0 1.0 1.0 1.0 1.0 1.0 1.0 1.0
1.0 1.0 1.0 1.0 1.0 1.0 1.0 1.0
1.0 1.0 1.0

lstm.weight_ih_l0 f4 [160, 70]
00000000: e414 f0bd 154e 93bc 3023 40be 6cb0 953d
00000010: 6d5d 383e 5c56 1a3d ca97 e1bd 1972 27bd
00000020: ef94 1f3e 03e7 393e 5e8f a2bc 5265 45bc
00000030: 6de0 9bbb 5d5e b1bb 4ea8 543c 3fe7 013e
00000040: 8bf7 05be 94d2 11be a04f bb3d bc60 51be
00000050: 37c3 07bd 51d1 b13d 4755 7dbe 6b08 1cbd
00000060: dced 0b3e a042 b93b 5f74 3f3f ca9a c3bd
00000070: 0cc3 9d3d 9756 6b3f 693d 033e 0748 2fbd
00000080: 6a2b 583d c311 5c3e 4267 793c e80c af3d
00000090: e9ca 373c 1f54 073e 429d 633e 9cac cb3c
000000a0: 8889 5f3e c0ab 983d b45f adbd eb30 b63d
000000b0: 9e35 b33d 95b5 1b3e 31df f8bc 8c68 603e
000000c0: e897 eb3d 6a59 213d 8470 333d 0579 c13d
000000d0: dee5 28bc 3d1e af3d ab3c a3bd 537f 8a3e
000000e0: 316c a93d 705e 0dbd 9479 2a3e d8d3 293e
000000f0: 4931 8c3c a767 423e d722 743d 07e1 69bd
00000100: 0feb 0f3e 0fd1 70bc b00b 0a3e 32e5 9e3d
00000110: 9623 7fbc 32ce 0cbe 3dd9 86bf 63e2 eb3d
00000120: 5bc9 c33c ebb6 223f 8bdf 0f3d 5434 05be
00000130: b091 eebd c86c fabd f66b 053f e73d 25be
00000140: 55e6 e03e 0801 e5be 501a 85be bb55 9fbe
00000150: 7e8c 88be 098f 0bbf 392b 0e3e 4ef3 fbbd
00000160: e1eb b1bd 438f 3dbd d571 05bf 35e9 7abd
00000170: d7c4 f2be b124 9abe 2c6e 70be 0e61 d13d
00000180: 2ebf 193f 0de5 173e f2c1 a73d 257d 0e3f
00000190: 88cb 4cbd 8453 643e a92e 55be be2c 86be
000001a0: 9757 913e 8d72 09be 042c 8b3e 8cf2 153e
000001b0: 61a2 ab3e 26af e7bd 6373 723e 769e ba3e
000001c0: 87a1 99bc e72a 913d 552c 373d c3a3 e03d
000001d0: 29f9 363e 7dde 8abe 3287 013c 3fd8 333e
000001e0: f72c 5e3e 57c1 acbd 9d7f 693d 82d5 cc3b
000001f0: d40d a93e 2e37 ca3e 6f67 973e cd62 903e
00000200: ce82 ef3d 2434 363e bb6f 313e c277 7f3e
00000210: 5613 c53e baea 143e 696a 04be 7901 bc3e
00000220: 7cb0 4f3e f27e dc3e c245 b83e 0339 babd
00000230: a6c3 133d ffb3 043d 0f6e 8b3d 2ca8 00bc
00000240: db18 e6bd d865 c93c 44d1 5ebe 4b94 babc
00000250: 967c 97bd 8701 0e3e 6c55 83be abb7 02bf
00000260: cae7 3abe c50f 07bc 9e24 71be affb 92bd
00000270: 37c5 983d 061a 71bd 79a4 8bbe dd3b 35bc
00000280: 843a 913d 9df0 ff3d ad7d 273c 63b9 d1be
00000290: 51be 2b3d 402c 2abb 2511 f73e 0e77 123e
000002a0: ddd7 833c 5429 ed3e 2670 563e 2e37 933d
000002b0: 147c 6ebc 8181 cf3b d964 393e d18c 0cbe
000002c0: 9865 df3d f1e5 013e 9fd3 f43c 73e4 733c
000002d0: 590b c9bc b11c 03be 734a e83d f8d3 363e
000002e0: 41e3 d9b9 e2c9 8abc 73bf c9bd 5d16 2e3d
000002f0: 5b4e 903d ade1 1f3e 9d41 153e 5360 ce3d
00000300: 5474 3abe 245f 5c3c 1c3c 1bbd 8c3a d43d
00000310: 4aeb 86bd 1ad8 5a3d 7880 86bd 4ee2 ed3d
00000320: 2cce 58bd c2ed c63b 4e26 3f3e 0ec9 9bbd
00000330: b1ed 363c f7f4 833c b2a5 d43d 8f8e 1f3e
00000340: b351 113e 3b0d 01be 64f2 65bd ca12 893d
00000350: 5bb3 093e d2b5 593e d3f9 283e d291 c73d
00000360: fb4d f83c 8af2 003e d69e f53d 30c7 9ebd
00000370: da32 373e a1f2 803d 998c 3dbe 736e 9b3d
00000380: 5708 84bd d62c 97bc fe7f 843c e07c 61bc
00000390: 57e8 dfbc 657c 94bd 1034 853c f0d9 043e
000003a0: fd54 9a3d 59fc 18be 500c 2a3d f0a9 b53d
000003b0: 1118 0e3f 19b6 d43d 9b5a 7dbd f22c 4a3f
000003c0: 7a69 b83c 65c7 153e 80db 553d ad99 3d3e
000003d0: e36c 153d b8d8 84bc 51b2 da3c 7e87 093e
000003e0: 5282 4b3e 4ed2 e5bd 9dc7 893e 89f2 853d
000003f0: 434b 2e3e ef52 d63d f0c1 573e a09c 953d
-0.117227346 -0.017981568 -0.18763423 0.073090404 0.18004389 0.037680015 -0.110152796 -0.040880296
0.15584157 0.1815453 -0.019843753 -0.012048082 -0.0047569782 -0.0054128603 0.01297958 0.1268587
-0.13082711 -0.14240485 0.09146047 -0.20447057 -0.033145156 0.08682502 -0.24739562 -0.038093966
0.13664955 0.0056536943 0.74786943 -0.09551008 0.07703218 0.91929 0.12816395 -0.0427933
0.052775778 0.2149115 0.0152223725 0.085473835 0.011217811 0.13215683 0.22227958 0.02486258
0.21829808 0.07454634 -0.084655195 0.08896049 0.08750461 0.15205987 -0.030379863 0.21914881
0.11503583 0.039391913 0.043808475 0.09446911 -0.010308711 0.08550689 -0.07970556 0.27050266
0.08272589 -0.03451389 0.16647941 0.16584718 0.017113345 0.18984853 0.05960354 -0.05709937
0.14054511 -0.014698281 0.13481021 0.07758559 -0.015572449 -0.13750532 -1.0535046 0.11517789
0.023899725 0.6356036 0.035125297 -0.13008243 -0.116488814 -0.122277796 0.5211786 -0.16136895
0.4392573 -0.4472735 -0.25996637 -0.31120095 -0.26669687 -0.5451513 0.13883676 -0.12302266
-0.086875685 -0.046279203 -0.5212682 -0.06125756 -0.47415802 -0.30106118 -0.23479527 0.1022359
0.6005734 0.1483347 0.08191289 0.55659705 -0.04999879 0.22297484 -0.2081858 -0.2620601
0.28387138 -0.13422604 0.2718202 0.14643306 0.33522323 -0.11312704 0.23676829 0.3644902
-0.01875378 0.07088261 0.044720013 0.10968735 0.17868485 -0.2712287 0.007905768 0.1756296
0.2169684 -0.08435314 0.057006467 0.006251038 0.33018363 0.39495224 0.295711 0.2820038
0.11694871 0.17793328 0.17327778 0.24948028 0.38491315 0.14542666 -0.12931217 0.36719874
0.20282167 0.43065602 0.3599072 -0.09092905 0.036075257 0.03239822 0.068081014 -0.007852595
-0.112352096 0.024584696 -0.21759516 -0.02277579 -0.0739681 0.1386777 -0.2565111 -0.51061505
-0.18252483 -0.008243506 -0.23549125 -0.07176911 0.07459491 -0.05886271 -0.2727392 -0.011061636
0.07091239 0.12497065 0.010222835 -0.4096175 0.041929547 -0.0025966316 0.48255268 0.14303228
0.016094143 0.46320593 0.20941219 0.07188259 -0.01455595 0.0063325767 0.18104877 -0.13725592
0.10908049 0.12685372 0.029886065 0.0148860095 -0.024541544 -0.12803914 0.11342325 0.17854297
-0.00041558783 -0.016941968 -0.09850969 0.042501796 0.07046195 0.15613432 0.1457581 0.10076966
-0.18208438 0.013450418 -0.03789912 0.103627294 -0.065878466 0.053428747 -0.06567472 0.1161543
-0.052930996 0.0060708234 0.18666956 -0.076067075 0.0111650685 0.01610802 0.103831664 0.15581726
0.14191322 -0.12602703 -0.056139365 0.06693037 0.13447325 0.21260765 0.1650155 0.0974461
0.030310621 0.12592521 0.11993186 -0.07752836 0.17890492 0.06296278 -0.18510665 0.07589426
-0.06446903 -0.018453997 0.016174313 -0.013762683 -0.027332468 -0.07250289 0.016260177 0.12973762
0.075357415 -0.14940013 0.04151565 0.08870304 0.5550547 0.10386295 -0.061853986 0.7897483
0.022511233 0.14626844 0.052211285 0.18515654 0.036480796 -0.01621662 0.026696356 0.13430592
0.19873932 -0.11221753 0.26910105 0.065404005 0.17020898 0.10465037 0.21070075 0.073052645

lstm.weight_hh_l0 f4 [160, 40]
00000000: 7a74 3b3e 73ff 2ebe 7bbf 153c 93f0 23be
00000010: a7ab a33d 2b6f 81be 44af 55be 0fff 3f3d
00000020: ae80 8d3d 7684 423d e636 6e3d f98c f83d
00000030: f75b f23d 98b4 093c 8d28 8cbe a37e 77bd
00000040: d2c7 72bd ecaf 973e 4a17 65be dfed 323e
00000050: 7e78 353e 004d 823d 0461 28be 3052 dc3d
00000060: d304 863d 1636 7d3e c8d3 093e 30ff c3bd
00000070: 3fb4 11bd 4b5b 8a3e d06b 8c3e 54da ad3c
00000080: c017 edbc c061 1e3e 0005 503e 7353 0f3e
00000090: e6f2 da3d ec63 85bd 181f 963d dbbf 0c3e
000000a0: b034 913d d8b9 8e3e a6c0 153d f7f8 813c
000000b0: 4f49 163e 6c37 18be 7c3c ab3d b661 843a
000000c0: 4082 f7bc fdf8 1f3e 1d13 f13e ffce 9e3e
000000d0: 8b83 d43e 1019 1ebd 1f09 773d 8398 68be
000000e0: 89fc d23e 3256 4dbd 1a4e 81bd 3812 0bbd
000000f0: c178 02bd 6816 dabc 7063 2bbd ac92 12bd
00000100: 66aa 003e f652 833e 59ff 9cbc 2db6 c4bd
00000110: 9824 93bc 925b a33d 834d cb3c 150f 3b3e
00000120: 4062 a33d 9216 163e a090 983d befd cc3d
00000130: 8651 343e 0d40 073d e468 cebc 73d6 86bc
00000140: f700 8f3e ecb4 25be bdf4 c73d 0462 973b
00000150: 4de7 99bb 8d2f f03b 9370 96bd cf1d 27bd
00000160: 4adb 4e3d 2a0f af3d 5893 363e e8cf f63d
00000170: 457f 9ebd 4bdc 86bc 8c0b 43bd c06a eebd
00000180: 87c6 76bd 2351 453e edd6 10be 2c1a 263e
00000190: 5755 bcbd 3fea 023d 7837 64b7 56c7 05be
000001a0: 2608 0fbd 1620 6fbd 165f 413c 44e5 12bb
000001b0: 1a63 e4bd 28c9 183e d152 023e af4a ddbd
000001c0: 592c 0cbe 3977 0b3d 204a 213e 777a ef3d
000001d0: 1d9d b4bc e386 1bbe 6d40 38be 84ff 553d
000001e0: 1883 923d 6e47 913d 3c28 5e3d 92f7 a43b
000001f0: 5d31 82bc efa4 30be 1a4b cc3d 8295 1dbe
00000200: fe34 c2bd 27b3 e5bd 9954 cb3e 67b1 7e3e
00000210: 5a50 503d b80d 28be b735 323d f97e 1bbe
00000220: 0174 053d 4d02 b33e 7055 f33d f0c6 383e
00000230: 2ca8 bd3c 206d 063e f7d9 b0bd 35d5 8e3d
00000240: dc8f 913d cf03 4b3d 1874 673e 9ff7 443d
00000250: 5394 83bd eb4f 2b3e c16b 6abc 7d58 0ebe
00000260: a6e8 debc e919 333e 05c3 8e3d 8f20 26be
00000270: cc3b 693d d148 08bd 9c27 023d 9cac 503e
00000280: 130b ad3d 36c8 04bd 1ac3 543e ab29 e9bd
00000290: 85fd 373e fdb8 2b3e 6257 21bd e135 21be
000002a0: f135 8f3d 1a4f b7bd a976 4c3e e99b 5b3e
000002b0: 9191 e03d f260 f73c 6e7f f4bd f0a5 cc3d
000002c0: b56e 3ebd dbeb 843e 4de5 26bb 9278 df3d
000002d0: f619 5d3e 70d5 b43d dce0 f4bb b42e f9bd
000002e0: 5af3 133e b084 053e 4f68 403e 2573 a93d
000002f0: 31f6 05bd d0d4 243d 96a8 22bc 63da db3c
00000300: b7f8 6a3d d2e4 063c d070 913d 75ac 013d
00000310: 3f93 8a3e c961 243e a471 bbbd 956b 153e
00000320: 3c34 a13e bf9f 87bd 441d 40bb ba09 5abe
00000330: 24d8 c63e 163e 833c 187a 3c3d 9960 323e
00000340: f266 f13d 09e9 d2bb 99e2 493f 38fa 823d
00000350: 2334 9b3d c746 c7bb b8bd 45bd a29d 69bd
00000360: 2905 b23e 3ac1 053f 2d2c fbbd 4adf 023d
00000370: c4c2 edbd 219e 3e3e 7188 90bd c779 823d
00000380: ee7d 7e3e fe1d 583e 910e bcbc ade7 a23d
00000390: c282 96bd 7d9a 4b3e 289a 023e 221c e4bd
000003a0: 6461 3bbe f166 853e 2a1a 483e 1552 50bc
000003b0: e537 1b3e ecb0 41bd d46a c2bd 7423 30bb
000003c0: 81a9 a23e 7fc3 e8bc 39dd 303e 1708 a83c
000003d0: add4 a03e 2a4c cbbd 9f77 c0bc 69ce ab3d
000003e0: a611 7f3c f6ae 3b3e 0aca d93e 928e 783e
000003f0: 4907 9b3e 69fb 303d acd2 7c3e 2499 ad3d
0.18306151 -0.17089634 0.009139891 -0.1600974 0.079917245 -0.25280127 -0.2086764 0.046874102
0.06909309 0.047489606 0.058157824 0.121362634 0.11833947 0.008404873 -0.27374688 -0.060423505
-0.059272595 0.29626405 -0.22372165 0.17473553 0.17721745 0.06362343 -0.16443259 0.107578635
0.06543889 0.24727663 0.13459694 -0.095701575 -0.035572287 0.27022776 0.27426004 0.021222271
-0.028941989 0.15466976 0.20314407 0.13996677 0.106908605 -0.06513199 0.073301494 0.13745062
0.070901275 0.27876163 0.036560677 0.015865786 0.14676403 -0.14864892 0.08361146 0.0010099921
-0.030213475 0.15622325 0.47084895 0.310173 0.4150661 -0.03859812 0.060311433 -0.22714429
0.41208294 -0.05013103 -0.06313725 -0.03395292 -0.03185344 -0.026622012 -0.041842878 -0.03578441
0.12565002 0.25649232 -0.019164728 -0.0960506 -0.017961785 0.0797645 0.024817234 0.18267472
0.07977724 0.14657047 0.0744946 0.10009335 0.17609224 0.033020068 -0.0251965 -0.01645968
0.27930424 -0.16182297 0.09763477 0.0046198387 -0.0046967627 0.0073298872 -0.073456906 -0.040799912
0.0505021 0.08547814 0.17829645 0.12051374 -0.077391185 -0.016462466 -0.047618434 -0.11641455
-0.060247924 0.19269232 -0.14144488 0.16220921 -0.09195965 0.031961676 -1.3602774e-05 -0.13064322
-0.03491988 -0.05838021 0.011802455 -0.0022414485 -0.111517146 0.14920485 0.12726904 -0.108052604
-0.13688792 0.034049246 0.15750933 0.1169328 -0.022047574 -0.15188174 -0.17993326 0.05224563
0.071539104 0.07093702 0.05423759 0.0050343955 -0.015892679 -0.17250417 0.09975262 -0.15389064
-0.09482764 -0.11215811 0.3971298 0.24872361 0.05085788 -0.16411483 0.043508258 -0.15185155
0.032581333 0.34962693 0.1188153 0.18044639 0.02315148 0.13127565 -0.086353235 0.0697426
0.07107517 0.04956418 0.2260288 0.048087712 -0.06424775 0.16729705 -0.014307917 -0.13900943
-0.027210545 0.17490353 0.06970791 -0.16223358 0.056941792 -0.033272568 0.031776056 0.20378345
0.08449378 -0.0324175 0.2077755 -0.11384901 0.17967804 0.16769786 -0.039389975 -0.1574321
0.069927104 -0.08950634 0.1996714 0.21446194 0.109652646 0.030197594 -0.11938368 0.099925876
-0.046492297 0.25961193 -0.0025466264 0.10911669 0.21591935 0.088297725 -0.0074730944 -0.12167111
0.144483 0.13038898 0.1878979 0.08273915 -0.03270549 0.040242016 -0.009927889 0.026837533
0.0573661 0.008233266 0.071015954 0.03165861 0.27065465 0.16052927 -0.091525346 0.1459182
0.31485164 -0.06622266 -0.0029314319 -0.21292773 0.38836777 0.016020816 0.046014875 0.17419662
0.117872134 -0.0064364714 0.78861386 0.06395382 0.07578304 -0.0060814354 -0.048276633 -0.057035096
0.34769562 0.52247965 -0.12264285 0.031951226 -0.11609414 0.18615009 -0.07057274 0.063708834
0.24852726 0.21105191 -0.022956165 0.07954345 -0.07349159 0.19883151 0.12754118 -0.111381784
-0.1829887 0.260551 0.19541231 -0.012714882 0.15158041 -0.047287866 -0.09493032 -0.00268766
0.31769946 -0.028413532 0.1727189 0.02051167 0.3141226 -0.099266365 -0.02349454 0.08388979
0.015568173 0.18328461 0.42536956 0.24273136 0.30278996 0.043208513 0.2468974 0.08476475

lstm.bias_ih_l0 f4 [160]
00000000: 9de4 10bd 563b cb3d f4dc 3b3e 616f 1e3e
00000010: 5237 383e 9b88 c93d 0a89 cc3c 12a1 d2bc
00000020: 5986 373d 417a 7a3d e7e4 9a3e 16f8 edbd
00000030: ea7f b13d 6e93 113e b772 093e 1fbe 8bbd
00000040: 2dea db3d 00c1 933e d2f1 37bd bd89 2e3d
00000050: 4496 ad3d 2cae dd3d 56d2 d5bd eee7 65bd
00000060: b1f7 233e f6e7 353d 7d23 ef3d 611f af3e
00000070: 3adf f23d ea42 e6bc 213c 753e c119 813e
00000080: f902 aa3d 827e 7cbb d3c9 3a3e fa95 a33d
00000090: b507 db3d ee60 11bc 4320 80bd b86d 4f3e
000000a0: 60bf c33d 5e40 a33d 7417 0ebd 3231 9ebd
000000b0: 30f3 cd3d cdcb f1bc ab0f 8fbd ea2a a3bd
000000c0: 08df 5f3d 2616 513e c672 093d 188e 93bd
000000d0: 0a4b 373d b2fb e9bd f06e bc3d 09b7 803c
000000e0: d241 62be 2dc2 a9bc aa05 a9bd ce83 553e
000000f0: fd00 afbd e27f 0c3e 721e 9a3c a191 bb3d
00000100: 2908 4e3e 1659 b03d a8dc 273e 99da c53d
00000110: 1e06 273d f690 2cbd bf53 043e 00c2 2e3e
00000120: 8c19 513e 472e 3c3d 2714 c83d 82f2 2a3d
00000130: 6afa 5b3d 7930 01bd 2b70 4f3e 7a54 5ebd
00000140: 52bf 76bd df2c 82bd 0eac d4bd 43ea 7bbd
00000150: 08b1 dbbd 3455 39be 7a1b 31be 45cf dc3c
00000160: 3262 e13b 2610 1ebd a5b6 3cbc 7d8d d73d
00000170: f4d3 39be bf1e 3e3d 0927 393d ec5d 213d
00000180: 6522 1dbe b578 69bc 2bd5 02be 573e a73c
00000190: af60 b5bb fd96 59bd 131c 7ebd 1f49 d4bd
000001a0: ad39 8dbc bfcb 8c3d 446c a93a 4731 69be
000001b0: 5c48 2abe 2e30 463e f686 7e3c 7ad2 373d
000001c0: 70a5 3bbe 820b ab3d e6ab af3d 7eab 3abe
000001d0: 5ae2 04be a629 cd3d 7daf 9fbc 0c98 303e
000001e0: f731 0bbb cdcf 09bd c0ff f23d 6e94 163e
000001f0: 006e 78bb 37b1 1dbe ca81 3b3e e652 b53d
00000200: 5162 73bd df3b 9c3e 8c32 423e 8f8b 82bd
00000210: 7889 283e 359c ba3d c053 dc3d 2d5f 813e
00000220: cd1b cd3d 5592 573e 9b48 5fbb f44c 613e
00000230: a67d 873e 14b2 243d dc64 743d 4637 ab3d
00000240: 753b 0c3d 31eb 073c 4f0b c439 c947 433e
00000250: ba65 8bbd 9a6f ed3c b7b7 d03d 3d61 323e
00000260: cf49 2c3e 042c afbd aded fe3d 0f60 823d
00000270: 87a5 3e3c 6fc7 14bd e4e9 66bd 7b26 343e
-0.035374273 0.09923427 0.18346006 0.15472175 0.17989853 0.098405086 0.024967689 -0.02571157
0.04480586 0.061151747 0.30252764 -0.11619584 0.08666976 0.14216396 0.13422666 -0.06823372
0.10738025 0.28858185 -0.044908352 0.042611826 0.084759265 0.10824236 -0.10440509 -0.05612939
0.16012456 0.04441067 0.11676691 0.34203628 0.11858983 -0.028108079 0.23948719 0.2521496
0.08301348 -0.0038527553 0.18241052 0.0798759 0.106948294 -0.0088732075 -0.062561534 0.20256698
0.09557986 0.079712614 -0.034690335 -0.07724227 0.1005615 -0.029516125 -0.0698541 -0.079671696
0.05465606 0.20418605 0.033556722 -0.072048366 0.044749297 -0.1142496 0.09200847 0.015712278
-0.22095421 -0.020722473 -0.082530335 0.20851061 -0.085451104 0.13720658 0.018813346 0.09158636
0.201203 0.08610742 0.16392767 0.09660835 0.04077732 -0.042130433 0.12922572 0.17066193
0.20419902 0.04594257 0.09769469 0.04173518 0.05370561 -0.031540368 0.20257632 -0.054279782
-0.06024105 -0.06356215 -0.10384379 -0.061502706 -0.107271254 -0.18098909 -0.17295638 0.026954303
0.006878161 -0.03858962 -0.011518155 0.105250336 -0.1814726 0.04641604 0.045203242 0.03939621
-0.15345152 -0.01424997 -0.1277663 0.020415468 -0.005535207 -0.05312251 -0.062038492 -0.10365509
-0.017239416 0.06874799 0.0012925942 -0.22772704 -0.16629165 0.19354317 0.015535107 0.04487846
-0.18324828 0.08351804 0.08577709 -0.18229482 -0.12976971 0.100177094 -0.019492859 0.17245501
-0.0021239498 -0.03364544 0.11865187 0.14705059 -0.0037907362 -0.15399633 0.1831123 0.08853702
-0.059419934 0.30514428 0.18964595 -0.06374275 0.1645869 0.091118254 0.107581615 0.25267926
0.10015068 0.21051915 -0.0034070376 0.22002012 0.2646305 0.04020889 0.0596665 0.08360152
0.03423639 0.00829582 0.0003739246 0.19070353 -0.06806512 0.02898388 0.10191291 0.17419906
0.1682503 -0.08553317 0.12447677 0.06365978 0.0116361445 -0.036323007 -0.0563754 0.17592804

lstm.bias_hh_l0 f4 [160]
00000000: 541c 29bd 55e1 1b3e af40 3abd 0a97 11bc
00000010: 5e31 b73d bf70 183d f664 763e efcd e13d
00000020: c8fc 4e3e 8b01 d43d f2da 32bc cd35 d3bc
00000030: d943 5ebd aac4 56bd 0ff9 463e a78a 943d
00000040: 4d87 663e 9b73 bc3c 3d75 7b3e 51d6 883e
00000050: 3e8a bd3c 9381 223e 3d49 a7bd a485 d3bc
00000060: 86d3 edbb 3bb7 343d dd7e 6cbd 91cc 233e
00000070: 773c 1b3e 99ac 163e 4112 2d3d f44d 373e
00000080: f7e2 7a3d 6f0b 073d 8256 c639 f5f9 a23d
00000090: b625 b43d bc21 0fbe 2392 9bbd b0c9 103e
000000a0: bbff 113e f0b8 bf3d 8813 933c e890 c33d
000000b0: f967 15bd 9f00 eb39 2f3c 473e dcfa 3fbc
000000c0: 0dec 96bd 1255 253e e69d a0bd 9ebe f73d
000000d0: f666 15bd d847 45bd e929 753b 49f7 7f3c
000000e0: 2761 433d ceeb 433d b57a 1e3e 8d48 10bd
000000f0: db1c 6f3d c397 873d f2df e53c 23e7 993d
00000100: 6803 0f3d 1e94 4b3e 0157 a1bd f519 ab3d
00000110: 335e fb3d f841 7ebd 14c6 27bc 09d8 7bbd
00000120: f1cb b33c 1d48 60bd 3f23 2f3e 4c3f d8bc
00000130: 8cf6 133e 9509 6c3d 4123 493e 7131 8ebd
00000140: 2580 b33b f118 10bc db45 7b3d b413 9b3b
00000150: ca00 1f3e 559c 64bd d96c 95bd 9226 22be
00000160: d15a 02be bcaf 4dbe c6e6 d43d 3b98 cebd
00000170: e54c 973b 73d6 dabd fb3f bf3c 36a2 7bbd
00000180: f608 eb3d ff9f 353e 90c3 0cbc d5cf 163e
00000190: 63bf c43d 5ca0 a13d 46f1 e73d f450 53be
000001a0: 5e52 da3d 39f9 a3bd 5411 053e 6308 c6bd
000001b0: 22ad 8cbd 1478 113d 530f 663e 581e 40be
000001c0: 3f28 253c da9d aebd 83ee 303c 9b60 37bd
000001d0: bb21 cdbd 1994 223d 5fbb 3fbe e13f 45bd
000001e0: aec4 25be 1c44 d93b 0e6f cebd f02e 77bd
000001f0: 1b29 11bd 78fa c3bc d392 fd3c 3e19 9d3d
00000200: 368d 7f3d 6392 6f3e d50d 6d3e acce 42bc
00000210: 56c3 2f3e bb2f 033c 3ae8 743e a2da 703e
00000220: 7bb7 b93d c75a fd3d c4ce 09bd bce8 99bd
00000230: 0993 d53e 3185 ca3d e26a 033e 6095 edbc
00000240: ba98 a9bd 9344 9e3d 13a8 e83c df43 1f3e
00000250: a1b3 d93d bdf6 453e 3d7b 47bd 8e30 1f3d
00000260: 9419 c6bd 3bb3 5f3d a102 283e 8f46 dbbd
00000270: f382 9dbd aaf9 df3d 86c7 dcbd 1d5c 2e3e
-0.04128678 0.15222676 -0.045471843 -0.008886108 0.08944963 0.037216898 0.24061951 0.11025607
0.20213616 0.10351857 -0.010916458 -0.02578249 -0.054263923 -0.052433647 0.19430946 0.07253008
0.2251255 0.023004344 0.24556442 0.2672601 0.023137208 0.15869741 -0.08168266 -0.02582056
-0.0072578816 0.044120055 -0.057738174 0.15996005 0.15159784 0.14714278 0.042253736 0.1790083
0.061251607 0.03296989 0.00037829956 0.07957832 0.08796255 -0.13977712 -0.07596233 0.14139438
0.1425771 0.09361446 0.01795365 0.09549123 -0.03647611 0.00044823156 0.19456552 -0.011717524
-0.07369242 0.16145733 -0.07842617 0.12096904 -0.036475144 -0.04816422 0.0037409014 0.015622922
0.047700074 0.047832303 0.15476497 -0.03522544 0.058377128 0.06620743 0.028060887 0.07514789
0.034915358 0.19880721 -0.07877923 0.0835456 0.122738265 -0.06207463 -0.010240097 -0.061485324
0.021947833 -0.054756273 0.17103289 -0.02639737 0.14449519 0.057626326 0.19642355 -0.06943024
0.0054779225 -0.008795009 0.061345916 0.0047325734 0.15527645 -0.055813152 -0.07296152 -0.15835026
-0.12729956 -0.20086569 0.10395579 -0.100876294 0.004617321 -0.10685434 0.023345938 -0.061433993
0.114763185 0.17736815 -0.008591548 0.14727719 0.096068166 0.07891914 0.11325316 -0.2063635
0.106602415 -0.0800652 0.12994891 -0.096695684 -0.0686896 0.035514906 0.22466783 -0.18761575
0.010080396 -0.085262015 0.010799053 -0.044769865 -0.10016199 0.03969202 -0.1872382 -0.048156623
-0.16188309 0.0066304337 -0.10079776 -0.060347497 -0.03543959 -0.023923144 0.0309538 0.0767083
0.06239053 0.23395686 0.23149808 -0.011890095 0.17164358 0.008006985 0.23916712 0.23520902
0.09068199 0.1237083 -0.033644453 -0.07515094 0.4171374 0.098886855 0.12833741 -0.029001892
-0.082810834 0.07727923 0.028400457 0.15553235 0.106299646 0.19332404 -0.048701514 0.038864665
-0.096728474 0.054614287 0.16407253 -0.10706817 -0.07690992 0.109362915 -0.107802436 0.17027326

hidden2event.weight f4 [27, 40]
00000000: 7224 cd3e b816 4ebe 3c57 1d3e a5da 8e3e
00000010: 5fd4 95be 6214 5a3d e63f 47bd abe8 c8bd
00000020: 9820 6a3e 2742 c7be 13b5 0bbe c0dc 06be
00000030: 819b a23e 6310 8d3c add6 363f 4c38 333f
00000040: f85e a9be e307 133f 5925 b93e ef0f 39be
00000050: db75 bf3e b0f3 79bd 45ae 91be 8131 723d
00000060: 5d90 32be c5e1 8abe 0731 56bc 593e c73e
00000070: e5f6 3b3e 8f02 ea3d bb35 a9be 8303 db3d
00000080: d45b 12bd 6ea7 8b3e 42eb 8fbd 1ce8 27bc
00000090: 22ec 6fbe 74a3 4bbc c0c7 9bbe a766 3dbe
000000a0: 8bd0 bfbd aee3 96be 71ed 443e a6e5 503d
000000b0: 2739 f93d 3891 0fbd 036c 9d3d b8d2 1abc
000000c0: 2cd9 5e3d 8859 bb3c 18c3 aebe 59cd 7cbc
000000d0: 417a 2b3f b7ef b03d 9e5a 763d dc87 cc3e
000000e0: 746a 48be 0438 0b3f a8cf 64be e083 38be
000000f0: d7c2 913e 05f9 083e ad6b a3be 5c56 b6be
00000100: ab81 213e 1d59 31be d686 0a3e 55b9 0abd
00000110: 833a 68be 6bc5 803c 6438 3fbe 9629 b1be
00000120: 5406 503c fe37 813e b4fc 803e fb9a 5bbe
00000130: 895e ccbd 0a15 003d 666b 8dbe e1a6 303e
00000140: 564c 84bd de5f 50bd 0473 cf3d bf09 853e
00000150: 867b 5b3e 6465 3cbe 1799 8d3e 1cb8 64be
00000160: 3e2c e93a 0155 03be 21e0 2f3e f5ee de3d
00000170: fe59 3f3f cec4 543e c353 823d c5e9 043f
00000180: 916c 983e b245 fc3e 977d 22be 74d2 903e
00000190: ed73 c53d 6bbd 9dbd 30e4 64be 9443 8a3e
000001a0: f983 9f3e b707 293e b2f6 283e 7dee f93e
000001b0: 8f8c 61be 96c9 ab3d eef4 243e 3fa2 0bbe
000001c0: fcdd 9b3e 86b9 88bd 2767 823d da90 77be
000001d0: c878 05bf fe36 a83e 9fa0 7dbe 3ec1 4bbe
000001e0: 1de5 02bf ff57 b23e a01c 5e3c 9f0f 0a3e
000001f0: 2d3c 243e ae3e 4dbf f923 013e 4086 ed3d
00000200: 2b8b 68be c7be 1c3e 08b9 3fbf 47c0 7f3e
00000210: da2a 8ebf 4240 a6be 49b4 b1be 5417 a73e
00000220: 2b6b 573e 5d31 32bf 6857 21bf ecd7 813e
00000230: cb67 a13f c38f e23e 5a10 293c 534b 4fbe
00000240: f03d c73e 8fc2 a9bd 9a71 a23e ff5f 943e
00000250: e637 d5be 2959 963d d8b1 bc3e 99f0 9c3e
00000260: 6bd5 8abe d32c df3b 9584 cb3c c676 85bb
00000270: 349e 65be 7de3 5abe dac8 05be 0d72 00be
00000280: e425 2fbc cfbe e2be 6948 83be cd35 583e
00000290: 32d9 91bd db6c 19be d6c6 ae3e ed52 023e
000002a0: ead4 d7be 534b a33e a888 28bf 59bd efbe
000002b0: 9e8b 0cbf 54cd 84be 24ae c03e 4a9c 84bf
000002c0: b824 1bbe 89ce 15bf b93f abbd 338a e6bd
000002d0: d176 36be 9a73 20bf a3fe 143f 3a44 323e
000002e0: 9e28 92be ad25 0bbf d8a1 9d3e 9ab9 de3e
000002f0: 7210 bb3e 55c5 683e 829b 3f3e 9bdc e8be
00000300: d79d da3e 3b13 6d3e a63c 1e3e 9ccc 2d3f
00000310: c6c1 ebbe 9fca 49bf 235f aebe 7def a33e
00000320: 640c 01bf 2fd0 303e 9930 e7be 55bc d13e
00000330: 8a71 12bf 9073 d43e 3e97 f23e 2fc4 b83e
00000340: 6f33 973e bf78 2fbe 91e0 e5be d782 3abe
00000350: 785c c1bd 33c6 c03e ff5e a83e d81c c2bd
00000360: 6fdb 1a3f f992 60bf 412f 0a3f b6b1 b9be
00000370: 6196 7b3e b50d a7be 795d 853e dd44 523e
00000380: 223c e6be 5799 afbe 74e1 c3be b8ca 8f3e
00000390: 1bed cd3e 26e2 dabe a61f 5ebe 0c33 c73e
000003a0: abd8 683e 3d87 d8be eaf2 dabe c497 193e
000003b0: 3d07 823e a6ec 073f 95a6 b13e 20c6 6ebe
000003c0: 4921 27be 48e8 dd3d 858a 7cbe 1cdb 523e
000003d0: ec65 88bb 24db d23e 365c 6a3e 59c3 d63d
000003e0: 3437 1ebd 1f73 153e 4585 c9be b4d1 bfbe
000003f0: 779f 60be 2c30 213e 40e8 013f df91 07bf
0.40066868 -0.20125854 0.15365309 0.27901188 -0.2926359 0.053242095 -0.048644923 -0.09810003
0.22863996 -0.38917658 -0.13643293 -0.13170147 0.31759265 0.017219728 0.7142132 0.7000778
-0.33080268 0.5743391 0.36161307 -0.18072484 0.37394604 -0.061023414 -0.2845327 0.05912924
-0.17437883 -0.27125373 -0.0130732125 0.38914755 0.18355902 0.11426269 -0.33048806 0.10694029
-0.035732105 0.27276176 -0.07027294 -0.01024821 -0.23429921 -0.012429107 -0.30425835 -0.1849619
-0.09365948 -0.2947058 0.19231202 0.05100026 0.12169104 -0.0350506 0.07686617 -0.009449653
0.05440633 0.02286984 -0.3413322 -0.015429818 0.6698342 0.08639472 0.060145013 0.39947402
-0.19571859 0.5438235 -0.2234484 -0.18019056 0.28468964 0.13376243 -0.31918088 -0.35612762
0.1577212 -0.1731915 0.13527998 -0.033868153 -0.2267857 0.015719136 -0.18673855 -0.3460204
0.012696821 0.2523803 0.25192797 -0.21445839 -0.09978969 0.031270064 -0.27621 0.17251159
-0.064598724 -0.050872676 0.10129359 0.25983998 0.21433839 -0.18398052 0.2765586 -0.22335857
0.0017789674 -0.12825395 0.17175342 0.10885421 0.7474669 0.207782 0.063636325 0.51919204
0.2977033 0.49271923 -0.15868221 0.28285563 0.09641252 -0.07702144 -0.22352672 0.27004683
0.31155375 0.16506849 0.16500357 0.48814765 -0.22026275 0.08388059 0.16109058 -0.1363611
0.30442798 -0.06676011 0.06367331 -0.2417635 -0.5213742 0.32854456 -0.24768303 -0.19897935
-0.5113085 0.3483276 0.013556629 0.13482521 0.1603858 -0.80173767 0.12611379 0.11597872
-0.22709338 0.15307151 -0.7489171 0.24975692 -1.1106827 -0.324709 -0.3470786 0.32634985
0.21036975 -0.6960657 -0.63023996 0.25360048 1.26098 0.44250306 0.01031884 -0.20243578
0.38914442 -0.08289062 0.31727296 0.2897949 -0.4164421 0.07341225 0.36854434 0.3065231
-0.2711595 0.0068107634 0.024843493 -0.004072997 -0.22423631 -0.21375842 -0.130649 -0.12543507
-0.010690186 -0.442862 -0.25641182 0.21114273 -0.07121505 -0.14982931 0.34136075 0.12726946
-0.42154628 0.31893405 -0.6583352 -0.46824148 -0.5490054 -0.25937903 0.3763286 -1.0360196
-0.15150726 -0.5851827 -0.083617635 -0.11256828 -0.17818762 -0.62676394 0.58201045 0.17408839
-0.28546613 -0.54354364 0.3078754 0.43500978 0.36535984 0.22731526 0.18711665 -0.4548081
0.42698547 0.23151867 0.15452823 0.67890334 -0.46046275 -0.788248 -0.3405696 0.32018653
-0.5040953 0.17266916 -0.45154265 0.40963998 -0.57204497 0.41494417 0.47381014 0.36087176
0.29531428 -0.17135905 -0.44897893 -0.18213974 -0.09441465 0.37651214 0.32884976 -0.09478158
0.6049108 -0.8772426 0.53978354 -0.36268395 0.24569084 -0.32627645 0.26047876 0.20534082
-0.44967753 -0.34296677 -0.38257945 0.2808435 0.4021996 -0.42750663 -0.2169176 0.38906133
0.22738902 -0.4229068 -0.42763454 0.149993 0.25396147 0.5309547 0.34697405 -0.23317766
-0.16321291 0.1083532 -0.24662216 0.20591396 -0.0041625407 0.41182816 0.22886738 0.10486478
-0.038626865 0.14594696 -0.3935949 -0.37464678 -0.21935831 0.15741032 0.5074501 -0.52956957

hidden2event.bias f4 [27]
00000000: f995 e13d b3d4 cf3c c470 0d3e 95d6 9d3d
00000010: e730 f53c e816 8fbe fc14 4ebe c573 8cbe
00000020: c0c4 fb3d 3a83 a9bd cd44 c8bb 0d80 13be
00000030: 250e f73d 26e8 d13d f814 0b3e 5acb 95bd
00000040: 4ab4 88bc 1d51 43be 6357 b4bc 2d98 4bbe
00000050: 1627 7d3d 6469 a2bd 56fd 1c3b 8a80 08bd
00000060: ae9a af3c b398 e6bd 25d8 dbbd
0.11014933 0.025369978 0.13812548 0.07706944 0.029930545 -0.27947164 -0.20125192 -0.27432075
0.122933865 -0.082769826 -0.0061117173 -0.14404316 0.12063245 0.10249357 0.13582218 -0.07314177
-0.016687531 -0.19073911 -0.022014325 -0.19882269 0.061804853 -0.07930258 0.002395471 -0.03332571
0.021436062 -0.11259594 -0.10734586

hidden2time.weight f4 [3, 40]
00000000: 38a8 973d cfd2 43be 1511 8f3e 26fc adbd
00000010: c8aa fc3d 372b 2fbd b44f 72bb bd3b 34be
00000020: 68c1 57be d8d2 c03d 59c6 61bd 0bfd 3d3e
00000030: 3c7e 3b3d 9388 40be 16b9 d5bd 6355 57bd
00000040: a744 36be 924c 7dbe 4a61 0cbe 2ca7 52bd
00000050: 45a6 8abd 6211 ba3d bd88 59bd 7727 a13c
00000060: 346f a33e 61be 333e bf78 393e 30fb 783d
00000070: 5b66 64be cc44 883e 3471 0c3e 56c8 fe3b
00000080: ddc4 53be a540 1d3d 3560 603d 904e b0be
00000090: 3156 113c 9dfa 24be f74f 5abe f06e 6c3c
000000a0: df70 d43d 6796 28be 1ba2 18bd d938 91bd
000000b0: 3808 043e d965 6bbd e784 2fbe e6c1 52be
000000c0: a48a 82be 0ea2 373d a487 f93d af49 543e
000000d0: 694c 0cbe 19f8 d23a 2be7 b93b a036 323e
000000e0: cd53 e1bd 13d0 ca3e 6218 09be 1b0e 843e
000000f0: d265 34bc 95f3 853e 987e 42bd 4d25 10be
00000100: 4f61 c4bd 6ac0 1d3e a83e 0d3e 1c57 a1be
00000110: 59fe 3cbe 1582 343e 737d e23d 203f 89be
00000120: 9a93 3dbe f6a2 7c3e b52f 2c3e c4a8 fc3b
00000130: d547 15bd b18f 12be 45b2 9fbc 29ce 09bd
00000140: fdda f1be 30d6 8f3e 2957 e0be d73b c73e
00000150: e1c3 e9be fd92 ae3e a429 673e 0492 cc3e
00000160: 2add 3e3e 59e5 91be 7a99 9abe 308b dabe
00000170: 7c35 583e 915e 813e cd5f a63e 0ac8 023e
00000180: b99a 103f 6880 2dbf 2a6d d43e 0598 53be
00000190: cf16 053e 1cde 1bbe c4a3 b53e e51b bc3e
000001a0: 1799 80be d76a 55bd 3eb1 babe 303b 143e
000001b0: 20ad 233e fbfd a3be 6471 ddbe 7c83 e63e
000001c0: f7a5 a43e e5b9 cabe 7b6a 87be 2fe0 193e
000001d0: 5c6c 823e d09a 283f 5e77 323e 5ae9 9ebe
0.07405132 -0.19123386 0.2794272 -0.08495359 0.123372614 -0.042765822 -0.0036973776 -0.17600913
-0.21069872 0.09415215 -0.0551208 0.1855356 0.045774683 -0.18802099 -0.10435693 -0.052571665
-0.17799626 -0.2473624 -0.13708988 -0.05142896 -0.06769995 0.09085347 -0.05310892 0.019672139
0.3192078 0.17553093 0.18112467 0.060786426 -0.2230467 0.26614988 0.13715059 0.0077753467
-0.20680566 0.038391728 0.05477925 -0.34434938 0.008870647 -0.16111226 -0.21319567 0.014430746
0.10373091 -0.16463624 -0.03726397 -0.07090921 0.1289376 -0.057470176 -0.17140542 -0.20581779
-0.254964 0.04483228 0.121840745 0.20731233 -0.13701023 0.0016095667 0.0056733093 0.1740365
-0.11002312 0.39611873 -0.13388208 0.25792012 -0.011010604 0.261624 -0.04748401 -0.14076729
-0.09588873 0.15405431 0.13793433 -0.31511772 -0.18456401 0.17627747 0.11059084 -0.26805973
-0.18513337 0.2467154 0.16815074 0.007710548 -0.036445457 -0.14312626 -0.019494185 -0.033643875
-0.47237387 0.280931 -0.43816498 0.38912842 -0.45657256 0.34096518 0.22574478 0.3995515
0.18639055 -0.2849529 -0.30195218 -0.42684317 0.21114153 0.2526746 0.32494965 0.12771621
0.5648609 -0.6777406 0.41489536 -0.2066346 0.12996982 -0.15221447 0.35476506 0.36740032
-0.25116798 -0.052103844 -0.3646335 0.14475703 0.1598401 -0.3202971 -0.43250573 0.4502219
0.3215787 -0.3959495 -0.26448426 0.15026926 0.25473297 0.65861225 0.17428347 -0.31037408

hidden2time.bias f4 [3]
00000000: 76ea 7bbd 1481 963c ad77 0e3c
-0.061502896 0.018372096 0.008695525
