events_simulation/models/all_epochs/model_32_20180530-0718.pt (torch_old, 78354 bytes, 9 tensors)

loss_function_events.weight f4 [27]
0	0x3f800000	1.0
1	0x3f800000	1.0
2	0x3f800000	1.0
3	0x3f800000	1.0
4	0x3f800000	1.0
5	0x3f800000	1.0
6	0x3f800000	1.0
7	0x3f800000	1.0
8	0x3f800000	1.0
9	0x3f800000	1.0
10	0x3f800000	1.0
11	0x3f800000	1.0
12	0x3f800000	1.0
13	0x3f800000	1.0
14	0x3f800000	1.0
15	0x3f800000	1.0
16	0x3f800000	1.0
17	0x3f800000	1.0
18	0x3f800000	1.0
19	0x3f800000	1.0
20	0x3f800000	1.0
21	0x3f800000	1.0
22	0x3f800000	1.0
23	0x3f800000	1.0
24	0x3f800000	1.0
25	0x3f800000	1.0
26	0x3f800000	1.0

lstm.weight_ih_l0 f4 [160, 70]
0	0xc02dce92	-2.715733
1	0xc0074cc8	-2.1140614
2	0x3f6ff1a1	0.9372807
3	0xbfae9e91	-1.3642141
4	0x3eda3a64	0.42622674
5	0x3d8ec9cc	0.069720834
6	0xbf03f98e	-0.51552665
7	0xbda9f0ab	-0.08297857
8	0x3f8664fd	1.0499569
9	0x3e165575	0.14681037
10	0x4008f1ec	2.1397657
11	0xbffea4e9	-1.9894077
12	0xc05a15b0	-3.4075737
13	0xbf51f114	-0.8200848
14	0x3f818ce9	1.0121127
15	0x3df0ffdd	0.11767552
16	0xbe0ab11f	-0.13544129
17	0xbd5429d2	-0.051797695
18	0x3e3107bf	0.17288111
19	0xbfb1608a	-1.3857586
20	0xbeb61c58	-0.355685
21	0x400e85ae	2.2269092
22	0x40073549	2.1126273
23	0x3f6e5fda	0.9311501
24	0x3ea69af0	0.32540083
25	0xbc9d9330	-0.019235224
26	0xbf1f8392	-0.62310135
27	0xbe866985	-0.2625238
28	0x3ed0ada7	0.40757486
29	0xbf2d99e2	-0.6781293
30	0x3f579967	0.8421845
31	0xbedbcee6	-0.42931288
32	0x3d0ddb97	0.034633245
33	0xbe2fe152	-0.17175797
34	0xbf16cfa2	-0.5891057
35	0x3eeee2fc	0.4665755
36	0xbe663f66	-0.22485122
37	0x3f136f8b	0.57592076
38	0x3f395146	0.7238964
39	0x3f2d397b	0.67665833
40	0xbe12cb17	-0.14335285
41	0xbf3b92e5	-0.7327102
42	0xbcedd41b	-0.029031804
43	0x3e4b438a	0.19849983
44	0x3f6a36d1	0.91489893
45	0x3ed165a6	0.40897864
46	0x3e20d5ee	0.15706608
47	0x3f975671	1.1823255
48	0x3e4cc8e6	0.19998512
49	0xbef4caaa	-0.4781087
50	0xc00b671f	-2.178169
51	0x3f25a6a6	0.6470741
52	0x3f2776da	0.6541573
53	0x3e5f75a0	0.21822214
54	0xbebfc8ba	-0.3745783
55	0xbed83d4c	-0.42234266
56	0xbef3e3bf	-0.47634694
57	0xbe7a75e5	-0.24459036
58	0x3eda29ab	0.42609915
59	0x3ff904dd	1.9454609
60	0x3ffb32b1	1.9624845
61	0xbf5fd4d8	-0.8743415
62	0x3f376e63	0.7165281
63	0x3e963134	0.29334414
64	0x3ed67ff9	0.4189451
65	0xbea5d21c	-0.32386863
66	0x3fa04fcf	1.2524356
67	0x3f86e4d2	1.053858
68	0x3fc5559c	1.5416751
69	0xbec9c74a	-0.39409858
70	0x3fbdb811	1.4821798
71	0x3ef7056b	0.4824632
72	0xbfd3cbdb	-1.6546587
73	0xbff427b9	-1.9074622
74	0xbfbcd151	-1.4751378
75	0x3dc3653a	0.09540792
76	0x3f925fd4	1.1435494
77	0xbe8f6c29	-0.28012207
78	0xbecb3adf	-0.39693353
79	0xbfe7173f	-1.8053969
80	0x3e983a69	0.29732063
81	0xbf1e538c	-0.6184623
82	0xc000cddb	-2.0125644
83	0x3fa9ad64	1.325604
84	0x3fa3d7f3	1.2800277
85	0xbe80976c	-0.25115526
86	0xc04ddb85	-3.2165234
87	0xbe20583f	-0.15658663
88	0xbf989c1c	-1.1922641
89	0xbf20c951	-0.62807184
90	0xbf8d65cf	-1.1046695
91	0x3f03b2b6	0.51444566
92	0x3ecba3ce	0.3977341
93	0xbda393dd	-0.07987187
94	0x3f95c9b9	1.1702186
95	0xbbf7bca0	-0.0075603276
96	0x3e93b2db	0.28847393
97	0x3eb4b79e	0.3529634
98	0xbe7c6419	-0.24647559
99	0x3e3f6feb	0.18695037
100	0xbf9104c6	-1.1329582
101	0x3d3ed755	0.046592075
102	0xbec5420d	-0.38526955
103	0x3f6116fa	0.87925684
104	0x3fc4b044	1.5366292
105	0xbe3ae608	-0.18251812
106	0xbed6fe61	-0.4199095
107	0x3f19fef2	0.6015464
108	0xbe79dd3b	-0.24400799
109	0xbe473b95	-0.19456322
110	0xbe26e12f	-0.16296838
111	0xbe93d268	-0.28871465
112	0x3eba5060	0.36389446
113	0x3ebf5ebf	0.37376973
114	0xbd7e6c5a	-0.06211505
115	0xbf31cf7c	-0.6945722
116	0x3f462068	0.773932
117	0x3fb8ceb2	1.4438078
118	0x3eeece4c	0.46641767
119	0x3e00928d	0.12555905
120	0xbf9ed592	-1.2408926
121	0xbea3d34e	-0.3199715
122	0xbfef1dfa	-1.8681023
123	0xbfa7c672	-1.3107436
124	0xbecf2cf4	-0.40463984
125	0xbeeb4f3f	-0.45958897
126	0xbe1ca5fd	-0.15297695
127	0x3f245ce4	0.6420424
128	0x3f58f413	0.8474743
129	0x3f6f6081	0.9350663
130	0xbd9f24a9	-0.07770664
131	0x3e30ef1a	0.1727871
132	0x3eeebb21	0.46627143
133	0xbd9a83bd	-0.07544658
134	0x3f8b5533	1.0885376
135	0xbdd6af58	-0.10482663
136	0x3eb78602	0.35844427
137	0xbf3f2ce8	-0.74677896
138	0x3f9dc419	1.2325469
139	0x3d654f9c	0.055984125
140	0x3e8af4fb	0.2714003
141	0x3dd30d92	0.10305323
142	0x3e942ad9	0.2893894
143	0x3e511db1	0.20421483
144	0x3e053585	0.13008697
145	0x3e17539d	0.1477799
146	0xbd9f05d4	-0.077647835
147	0x3de749e0	0.112933874
148	0x3d8c5e90	0.06853974
149	0xbd6a105a	-0.0571445
150	0x3dfbc4cb	0.12293395
151	0xbdf11801	-0.117721565
152	0x3ec72bfd	0.38900748
153	0x3e882d25	0.26596943
154	0x3dff5c8b	0.12468823
155	0x3e7b7cd5	0.24559338
156	0xbcd3b69a	-0.025843907
157	0x3d3cc324	0.046084538
158	0x3de520dd	0.11187909
159	0x3e8a74eb	0.27042326
160	0x3e713eac	0.23559064
161	0x3e3ac523	0.18239264
162	0xbb0fb45b	-0.0021927569
163	0x3c29830e	0.010346187
164	0x3dc5a233	0.09650078
165	0xbd127fb4	-0.03576632
166	0x3eb3e0d0	0.35132456
167	0x3e5aabcc	0.21354598
168	0x3d06c355	0.032901127
169	0x3ee443df	0.44583032
170	0xbd629fd4	-0.055328205
171	0x3e1ef28f	0.15522216
172	0x3e6b6cb2	0.22990683
173	0x3e8d2b2b	0.27571997
174	0xbb00078e	-0.0019535753
175	0x3d9d491c	0.0767996
176	0x3de43fe7	0.11145001
177	0x3d806a5a	0.06270285
178	0x3df2c246	0.11853461
179	0xbc9a2537	-0.018816574
180	0xbd601a9c	-0.054712877
181	0x3d360cd2	0.04444582
182	0x3dfaf2e1	0.12253357
183	0x3e50e114	0.2039836
184	0xbc91f720	-0.017818034
185	0x3e8ac1b9	0.27100924
186	0x3cbec6bb	0.023288121
187	0xbc898032	-0.016784761
188	0x3e810211	0.2519689
189	0x3e6b3aa5	0.2297159
190	0xbd18d025	-0.037307877
191	0x3e10d017	0.1414188
192	0x3e595233	0.21222763
193	0x3e7d8e21	0.24761249
194	0x3e9dc46b	0.30813918
195	0x3e06cd7f	0.13164328
196	0xbc1b02cb	-0.009461115
197	0x3e7ace12	0.24492672
198	0x3cb0a3af	0.021562425
199	0x3e023892	0.12716892
200	0x3d28ca47	0.04120853
201	0x3e86be16	0.263169
202	0x3e180da5	0.14848955
203	0x3e89b56a	0.2689622
204	0x3e198df2	0.14995554
205	0x3e4c6e51	0.19963957
206	0x3d4e6846	0.05039241
207	0x3e532b47	0.20621978
208	0x3e7f7553	0.249471
209	0x3cfe3d86	0.031035196
210	0xbdc0c008	-0.09411627
211	0xbbcbfc0c	-0.0062251147
212	0xbf4108fe	-0.75404346
213	0xbde92b91	-0.11385263
214	0xbcc6bfa6	-0.024261307
215	0xbd30c8f0	-0.04316038
216	0x3f6b1f5b	0.9184472
217	0xbf4bf9d1	-0.79678065
218	0xbf0926b5	-0.5357469
219	0xbec4bfca	-0.38427573
220	0x3fe9800c	1.8242202
221	0x4017084f	2.359882
222	0x3fcd4916	1.6037929
223	0x3d962b35	0.0733246
224	0xbf842449	-1.0323573
225	0x3e2d7f7c	0.16943163
226	0x3fc48102	1.535187
227	0x3c782040	0.015144408
228	0xbe27f2d5	-0.16401227
229	0x3e7371b7	0.23773848
230	0x3f1b32a2	0.60624135
231	0xbe73a806	-0.23794565
232	0x404995e2	3.1497731
233	0xbfadf2d6	-1.3589733
234	0x3ea05188	0.31312203
235	0xbc8c8610	-0.01715377
236	0xbea9ea3d	-0.33186522
237	0x3ea7459e	0.326703
238	0x3db8bb24	0.09020069
239	0xbeedc1ac	-0.46436822
240	0xbfc74509	-1.5567943
241	0xbe3ee5a9	-0.18642296
242	0xbea0856e	-0.313518
243	0xbe2072d9	-0.15668811
244	0x3d1ae2d5	0.03781398
245	0x3e8c8107	0.2744219
246	0x3f11fdd5	0.5702794
247	0x3e32c98e	0.174597
248	0x3eb94c19	0.3619087
249	0x3ecb6f76	0.39733475
250	0x3e86b5b8	0.26310515
251	0xbf1f081a	-0.62121737
252	0x3d60f279	0.05491874
253	0x3cde43ba	0.027131904
254	0xbdc4ff33	-0.09618988
255	0x3f5504f4	0.8321068

lstm.weight_hh_l0 f4 [160, 40]
0	0xbe00d665	-0.12581785
1	0x3e3ca8ec	0.18423814
2	0xbe468d43	-0.19389825
3	0xc00cfb06	-2.2028213
4	0xbe8347f2	-0.25640827
5	0xbe4179b2	-0.1889408
6	0xbf378d6e	-0.7170018
7	0x3e43ba21	0.19113971
8	0xbeec6348	-0.46169496
9	0x3f7880f3	0.9707176
10	0x3e3882a6	0.18018588
11	0xbf8698bd	-1.0515362
12	0x3e43851a	0.19093743
13	0x3f78f958	0.9725547
14	0x3f3bf051	0.7341357
15	0x3deb238b	0.11481389
16	0xbed72732	-0.4202209
17	0x3ef092e6	0.46987075
18	0x3f006d7d	0.50167066
19	0xbf1f0d8b	-0.6213004
20	0xbfcf902e	-1.6215875
21	0x3f755904	0.9583895
22	0xbeceed7f	-0.4041557
23	0x3e9475ff	0.28996274
24	0xbf39c20c	-0.7256172
25	0x3bf69aa8	0.0075257607
26	0xbe84d121	-0.25940803
27	0xbeb56db0	-0.35435247
28	0xbedc0b1a	-0.4297722
29	0x3f2c6890	0.6734705
30	0x3e8758a7	0.26434824
31	0xbed2f7a4	-0.4120456
32	0x3e64c509	0.22340788
33	0xbd9a29dc	-0.07527515
34	0x3e688d79	0.22710218
35	0xbe5da0b4	-0.21643335
36	0x3db59a55	0.08867327
37	0xbde56314	-0.11200538
38	0x3e948c96	0.2901351
39	0xbf912d69	-1.1341983
40	0x3ec7521f	0.3892984
41	0x3e287b00	0.16453171
42	0xbed44dac	-0.4146551
43	0xbe2a5c0e	-0.16636679
44	0xbe890085	-0.2675821
45	0x3c8f6b8e	0.01750734
46	0xbe614cfb	-0.22002022
47	0x3fdf538e	1.7447374
48	0x3f89b0e0	1.0757103
49	0xbe669565	-0.22517927
50	0x4006e828	2.1079197
51	0x3e45c97e	0.19315144
52	0x3fa85edb	1.3153948
53	0xbe11c460	-0.14235067
54	0xbe8e91d0	-0.2784562
55	0xbef6007f	-0.48047253
56	0xbd1bdd28	-0.038052708
57	0xbd87b5f8	-0.06626505
58	0xbfc0d2b0	-1.5064297
59	0x3da16f22	0.07882525
60	0xbfb46cb0	-1.4095669
61	0xbd1fe517	-0.039036836
62	0xbf34504a	-0.7043501
63	0xbcc9a4f2	-0.024614785
64	0xbe8ddb10	-0.27706194
65	0xbe9eb776	-0.30999345
66	0x3e38b3fc	0.18037409
67	0xbea40ca2	-0.32040888
68	0x3ef3eef4	0.47643244
69	0x3e9b63fc	0.3034972
70	0xbea362d8	-0.3191135
71	0x3e5db223	0.21649985
72	0xbc54fade	-0.0129992645
73	0xbe13f820	-0.14450121
74	0xbdf70d30	-0.12063062
75	0x3f2d5d95	0.6772092
76	0x3dc57888	0.0964213
77	0x3ef85972	0.4850574
78	0x3eb6e087	0.35718176
79	0x3f00bd3a	0.50288737
80	0xbcf29021	-0.029609742
81	0x3d8921cb	0.066958986
82	0x3d7a4b5c	0.061107025
83	0xbe5784a2	-0.21046689
84	0xbcf97ff3	-0.030456519
85	0x3a6edb88	0.0009111692
86	0x3eb7f50d	0.35929146
87	0xbd97a196	-0.07403867
88	0x3c5d7776	0.013517251
89	0xbe6aec80	-0.2294178
90	0xbeb0a0c4	-0.34497654
91	0x3e1a04df	0.1504092
92	0xbcb1a65a	-0.021685768
93	0xbcdd1625	-0.026988098
94	0x3e4e92be	0.20173165
95	0x3ccb4e9e	0.024817761
96	0xbdb43fd7	-0.08801239
97	0x3e38d1fc	0.18048853
98	0xbd9ca538	-0.076487005
99	0x3e80f18b	0.25184283
100	0xbe2dda56	-0.1697782
101	0x3dce746f	0.10080802
102	0x3dde64f8	0.10859102
103	0x3cb82209	0.022477167
104	0xbe42fdae	-0.19042084
105	0xbd84d932	-0.06486739
106	0x3e226bf9	0.15861501
107	0xbe5dfc90	-0.21678376
108	0x3d72882b	0.05921189
109	0x3e08d2fd	0.13361736
110	0xbd63e41a	-0.055637456
111	0x39b2c095	0.0003409429
112	0x3e78b3d0	0.24287343
113	0x3d9b4c90	0.075829625
114	0xbe54fca0	-0.20799494
115	0x3c38ed46	0.011287039
116	0xbe8b2ef5	-0.27184263
117	0x3d3fc8a9	0.046822224
118	0x3e0dfb08	0.13865292
119	0x3e1a766b	0.15084235
120	0xbdeb23a9	-0.11481411
121	0x3d928b34	0.07155457
122	0xbe4d8e78	-0.20073879
123	0xbe5d21b2	-0.21594885
124	0xbdcf5de5	-0.10125331
125	0x3db7d57c	0.08976266
126	0x3f12e91d	0.5738695
127	0xbf08b76e	-0.5340489
128	0xbf4189bf	-0.7560081
129	0x3f3d6fcd	0.7399872
130	0x3f738fec	0.9514148
131	0x3e206b02	0.1566582
132	0x3f3bd66f	0.73374075
133	0x3f503318	0.8132796
134	0x3cdd0234	0.02697859
135	0x3dba0dcb	0.09084662
136	0xbece2fd6	-0.4027087
137	0xbd73e35c	-0.059543
138	0x3f38bd2e	0.72163665
139	0xbdaf8f57	-0.08572262
140	0xbf676d6f	-0.9040136
141	0x3e788919	0.24271049
142	0xbf506433	-0.8140289
143	0xbe2926c7	-0.16518699
144	0xbe0fa648	-0.14028275
145	0xbece61f9	-0.40309122
146	0x3e3964d6	0.18104872
147	0xbe598a66	-0.21244201
148	0x3e8961fd	0.26832572
149	0xbe391f6c	-0.18078393
150	0x3ec08cb7	0.37607357
151	0xbebb8ed6	-0.36632413
152	0x3ee34206	0.4438631
153	0xbdb1e544	-0.08686307
154	0xbe8979b6	-0.2685067
155	0x3eacd4b2	0.33756024
156	0xbe59e0ff	-0.21277235
157	0xbe9bec35	-0.3045365
158	0x3d67b5ae	0.056569748
159	0xbe62109c	-0.22076648
160	0xbed5b3e3	-0.41738805
161	0xbbef5d63	-0.0073048337
162	0x3b0deb50	0.002165515
163	0xbf4d3d31	-0.80171496
164	0xbf051f35	-0.52000743
165	0xbe70af29	-0.23504318
166	0xbf162e40	-0.5866432
167	0xbeab08e9	-0.33405235
168	0xbe8c1b15	-0.27364412
169	0x3f223914	0.63368344
170	0xbd3097cb	-0.04311351
171	0x3eead6c6	0.45866984
172	0x3f017a77	0.5057749
173	0x3f8d09f3	1.1018661
174	0xbe7ba348	-0.24574006
175	0xbd54c1ff	-0.05194282
176	0xbe410f6b	-0.18853538
177	0xbd3936e2	-0.045218356
178	0x3eaeba97	0.34126732
179	0xbf0a94d2	-0.5413333
180	0xbfb625d0	-1.423029
181	0x3ebbc514	0.36673796
182	0xbf7738db	-0.9657113
183	0xbd50d980	-0.050988674
184	0x3e7d3f7b	0.24731247
185	0xbd85c751	-0.06532157
186	0xbe018c82	-0.12651256
187	0xbe84fc83	-0.259739
188	0x3ecaf26f	0.39638087
189	0x3fbc604a	1.4716885
190	0x3f38e287	0.72220653
191	0xbebf1a01	-0.37324527
192	0x3c01e79b	0.007928754
193	0x3e85a49a	0.26102144
194	0x3ef55cad	0.47922269
195	0xbecebc6a	-0.40378124
196	0x3e159b3b	0.14609997
197	0x3d8bb6b5	0.06821958
198	0x3da3f072	0.08004846
199	0xbfb81587	-1.438157
200	0xbe5498a3	-0.20761351
201	0x3dce6920	0.10078645
202	0xbe0fa61f	-0.14028214
203	0x3dbd97fb	0.092575036
204	0xbe73025d	-0.2373137
205	0x3d769bdd	0.060207237
206	0xbeee93e1	-0.46597198
207	0x3e88f2ea	0.2674783
208	0xbee2b417	-0.44278023
209	0xbef33031	-0.47497705
210	0x3f49731a	0.78691256
211	0xbe1e9a2a	-0.15488496
212	0x3eb4e062	0.3532744
213	0x3f83fa2f	1.0310725
214	0x3e56bc32	0.20970228
215	0x3c80cb04	0.015721805
216	0x3b930700	0.0044869184
217	0xbdadf97a	-0.084948495
218	0x3d943f83	0.072386764
219	0xbd90c5a4	-0.07068947
220	0xbf35b7ab	-0.7098338
221	0x3e28f528	0.1649977
222	0x3e3995a5	0.18123491
223	0xbd375894	-0.04476221
224	0x3d483cfe	0.04888629
225	0xbdfa0468	-0.12207872
226	0x3d4ef1d5	0.050523598
227	0xbdce63d2	-0.10077633
228	0xbe957853	-0.29193363
229	0x3e78beba	0.24291506
230	0x3dd2b7ed	0.10288987
231	0xbe66a305	-0.22523125
232	0xbd144f79	-0.036208604
233	0xbeb87577	-0.3602712
234	0x3e80c691	0.25151494
235	0xbf27a606	-0.65487707
236	0x3c44d95f	0.012014716
237	0xbe01f482	-0.12690929
238	0x3cc28625	0.023745606
239	0xbe4c3ff6	-0.19946274
240	0x3e5d009c	0.21582264
241	0x3e232096	0.159304
242	0xbe8de5ac	-0.27714288
243	0xbe1485a4	-0.14504105
244	0xbda3a04b	-0.07989558
245	0xbe0ad46b	-0.13557594
246	0xbdfb5378	-0.1227178
247	0x3ed33fa2	0.41259485
248	0x3e2b43f6	0.16725144
249	0x3f421ebf	0.75828165
250	0xbf065ef8	-0.5248866
251	0xbf8afefe	-1.0859067
252	0x3efc2cfb	0.49253067
253	0xbee4a5a9	-0.4465764
254	0x3db518ae	0.08842598
255	0x3e538668	0.2065674

lstm.bias_ih_l0 f4 [160]
0	0x3dfac01d	0.12243674
1	0xb8fb5090	-0.000119836186
2	0x3bc06f69	0.005872656
3	0x3e190dcd	0.14946671
4	0x3cf6341b	0.030054143
5	0x3de12e18	0.1099512
6	0xbdb19c69	-0.08672411
7	0xbde1b930	-0.1102165
8	0x3cbc504d	0.02298751
9	0xbd15e04e	-0.036590867
10	0x3d73e85a	0.05954776
11	0x3e5a251c	0.21303219
12	0xbdb5fb18	-0.08885783
13	0x3eec4ddf	0.4615316
14	0x3e2b3307	0.16718684
15	0x3d41ef0d	0.047347117
16	0x3db45eb9	0.088071294
17	0xbd03c83f	-0.03217339
18	0xbe92eb02	-0.28694922
19	0x3e6d83bb	0.23194782
20	0x3e50d1f0	0.20392585
21	0x3d4735fd	0.04863547
22	0x3ea953e4	0.33071816
23	0x3db3cbe7	0.08779126
24	0xbe106086	-0.14099321
25	0x3e13a0c8	0.14416802
26	0x3df7ba40	0.12096071
27	0x3d4c202e	0.049835376
28	0xbde6e493	-0.11274066
29	0x3e3f7064	0.18695217
30	0xbdc3e262	-0.095646635
31	0x3e894432	0.2680984
32	0x3e402ad4	0.18766338
33	0xbe59e16b	-0.21277396
34	0xbd788f80	-0.060683727
35	0xbe63c24a	-0.22242084
36	0x3e2d99fd	0.16953273
37	0xbeab5229	-0.3346112
38	0x3dce90c9	0.10086209
39	0x3e5b9491	0.21443392
40	0x3dfdfdfd	0.1240196
41	0x3e145918	0.14487112
42	0x3de94a6e	0.113911495
43	0x3ea0293d	0.31281462
44	0x3e946697	0.2898452
45	0x3e1288cf	0.14310001
46	0x3dc7df09	0.097593375
47	0x3e457214	0.19281799
48	0xbdc5a429	-0.09650452
49	0xbd8f5ba3	-0.069999
50	0xbaa016dc	-0.0012213844
51	0x3e5739f3	0.210182
52	0xbe82a8c7	-0.25519392
53	0xbe529b43	-0.2056704
54	0x3e7ed590	0.24886155
55	0x3e0b21c9	0.13587107
56	0x3e07d18b	0.13263528
57	0x3db6e898	0.089310825
58	0x3f2facb0	0.68622875
59	0x3d71d229	0.059038315
60	0x3e16c04b	0.14721791
61	0xbd10a50e	-0.03531366
62	0xbd3f8e7c	-0.046766743
63	0x3e302860	0.17202902
64	0x3e2cd848	0.1687938
65	0x3e8ef0df	0.27918145
66	0x3e89ea05	0.26936355
67	0x3dbc0142	0.091799274
68	0xbdd1e949	-0.10249574
69	0xbdc11910	-0.094286084
70	0x3e7fc977	0.24979196
71	0x3e06f818	0.13180578
72	0x3e7585cb	0.23976819
73	0x3e0644dd	0.13112207
74	0x3ddbfa90	0.107411504
75	0x3da2b84c	0.07945308
76	0x3e87655a	0.26444513
77	0x3e56afec	0.20965546
78	0x3e273ce4	0.16331822
79	0x3e0a9d06	0.13536462
80	0xbd719041	-0.058975462
81	0x3e2a2a2a	0.16617647
82	0x3e8b8dc3	0.27256593
83	0xbe79d9d2	-0.24399498
84	0xbd9d1778	-0.07670492
85	0x3d5ac237	0.053407874
86	0x3dd80821	0.105484255
87	0xbda01349	-0.07816178
88	0xbd5b27e3	-0.053504836
89	0xbdbfb7bd	-0.09361217
90	0x3dfe7c0b	0.12426003
91	0x3e097c51	0.13426329
92	0x3de14d43	0.11001065
93	0xbe01efc0	-0.12689114
94	0x3d1c0a23	0.038095605
95	0xbe9584cd	-0.2920288
96	0xbe35b2c8	-0.17743981
97	0x3c97dec4	0.01853884
98	0xbbc44f7e	-0.0059909215
99	0x3bf9e030	0.007625602
100	0x3dcb81a7	0.099368386
101	0x3e2d7a72	0.1694124
102	0x3e855264	0.26039422
103	0xbd044875	-0.032295663
104	0xbdc0c9bf	-0.0941348
105	0x3c51c383	0.012802961
106	0x3e6de781	0.23232843
107	0xbd8d8ae2	-0.069112554
108	0x3e3dfa51	0.1855252
109	0x3e690fd2	0.22759941
110	0xbe3590ca	-0.17731014
111	0xbe350050	-0.176759
112	0x3e2e175b	0.17001097
113	0x3d8bf114	0.068330914
114	0xbe1b1438	-0.15144432
115	0xbe7a9a9c	-0.24473041
116	0xbe3f8212	-0.18701962
117	0xbdb1fc95	-0.08690754
118	0xbad2b08d	-0.0016074345
119	0x3d56ac90	0.052410662
120	0xbe64e12b	-0.2235152
121	0xbd60243b	-0.054722052
122	0xbe083ca2	-0.1330438
123	0x3d678fa1	0.05653346
124	0xbe2200f1	-0.15820672
125	0xbe468846	-0.19387922
126	0xbc0b0cf6	-0.008486977
127	0xbdafc2d1	-0.0858208
128	0xbe3668ef	-0.17813466
129	0x3e2302d6	0.1591905
130	0xbcd65825	-0.026165077
131	0xbe984470	-0.29739714
132	0x3d5f09a6	0.05445256
133	0x3ef32f2c	0.47496927
134	0xbe2dd09b	-0.16974108
135	0x3d83ef2f	0.06442105
136	0xbe46c12d	-0.19409628
137	0x3db07c23	0.08617427
138	0xbe3ada22	-0.18247274
139	0x3de9e285	0.11420158
140	0x3d97d927	0.074144654
141	0xbe6a28d4	-0.22867137
142	0x3f080185	0.5312732
143	0xbddbd2be	-0.10733555
144	0x3dcc4037	0.099731855
145	0x3c9d1445	0.019174704
146	0xbe1ab71c	-0.15108913
147	0x3e29e4b2	0.16591147
148	0xbe21ed85	-0.15813263
149	0xbcfa2c63	-0.030538743
150	0xbdbd5926	-0.09245519
151	0x3a9ce1a4	0.0011969102
152	0xbd0ea29c	-0.034823045
153	0xbdeb0dd0	-0.11477244
154	0xbdfc8223	-0.12329509
155	0x3e2e4f88	0.17022526
156	0x3e2d3cab	0.16917674
157	0x3e99bac5	0.30025306
158	0x3eb526dd	0.35381213
159	0x3d536d67	0.051618006

lstm.bias_hh_l0 f4 [160]
0	0xbe33eb95	-0.17570336
1	0xbd5670cf	-0.052353676
2	0x3d104a23	0.035226952
3	0xbd227bc7	-0.039668825
4	0x3dfe7f7d	0.1242666
5	0x3e3c531a	0.18391076
6	0xbd3a86ba	-0.04553864
7	0xbe5d6b94	-0.21623069
8	0xbd9e41e9	-0.07727415
9	0xbdd11a70	-0.10210121
10	0x3c66a457	0.014077268
11	0x3e3f66dc	0.18691581
12	0xbd54b1c0	-0.051927328
13	0x3ee134b9	0.43985537
14	0x3e26ee62	0.16301873
15	0x3e143aef	0.14475606
16	0x3ddff2d9	0.109349914
17	0x3c1e0108	0.009643801
18	0xbe9a0ab2	-0.30086285
19	0x3e66aef9	0.22527684
20	0x3e1edf3a	0.15514842
21	0x3c9a4114	0.01882986
22	0x3e4a93d2	0.19782951
23	0x3e1fb61e	0.15596816
24	0xbe3981ef	-0.18115972
25	0xbd903e08	-0.070430815
26	0x3de058d6	0.10954444
27	0x3e3e36a8	0.18575537
28	0xbe6068da	-0.21914998
29	0x3e9a6b2c	0.3015989
30	0xbe89d985	-0.26923767
31	0x3da35285	0.07974724
32	0x3c473efc	0.012161013
33	0xbe8f99e9	-0.28047112
34	0x3e386ba3	0.1800981
35	0xbddf3cbb	-0.10900255
36	0xbd169632	-0.03676433
37	0xbee4b9c8	-0.4467299
38	0x3e8f3544	0.27970326
39	0x3df2aa14	0.11848846
40	0x3e916481	0.2839699
41	0xbcefff7a	-0.029296625
42	0x3e85bf66	0.26122588
43	0x3e766fbb	0.2406606
44	0x3e280937	0.16409765
45	0x3daec28e	0.08533202
46	0x3e0cf200	0.1376419
47	0xbcbddcfb	-0.02317666
48	0x3c66dce2	0.0140907485
49	0xbe55509d	-0.20831533
50	0x3dcbd9be	0.099536404
51	0x3e03b6d6	0.12862715
52	0xbe24bc1f	-0.16087388
53	0x3d21352b	0.039357346
54	0x3da6b6b8	0.081403196
55	0x3e93c0b0	0.28857946
56	0x3e2eb97e	0.17062947
57	0xbc3de73c	-0.011590775
58	0x3f3511c2	0.7073022
59	0x3db8b5d7	0.09019058
60	0xbd717d7b	-0.058957558
61	0x3e0f7f20	0.14013338
62	0x3e126a9f	0.14298485
63	0x3da5bded	0.08092866
64	0x3e929964	0.28632653
65	0x3eb673bf	0.35635182
66	0x3c3a7658	0.011380754
67	0x3e67ffff	0.22656249
68	0xbdf6c85a	-0.12049933
69	0xbdcf65e1	-0.10126854
70	0x3d263c50	0.040584862
71	0xbd329b95	-0.043605406
72	0x3e3ccec1	0.18438245
73	0xbe0df006	-0.13861093
74	0x3e98d3ee	0.2984919
75	0xbcc65620	-0.02421099
76	0x3e854bbd	0.26034346
77	0x3ea620f2	0.3244701
78	0x3e245bc6	0.16050634
79	0x3dde56d3	0.10856404
80	0xbe1a8408	-0.15089428
81	0x3e5809a2	0.21097425
82	0x3e836070	0.25659513
83	0xbdf8920f	-0.121372335
84	0xbe8b6bbc	-0.27230632
85	0x3e421ca6	0.18956241
86	0x3da9e3ff	0.0829544
87	0x3da20cc5	0.07912592
88	0x3cc4ae8c	0.024009012
89	0xbc312e21	-0.010814221
90	0x3e016428	0.12635863
91	0x3d8c2af4	0.0684413
92	0x3d5271fe	0.051378243
93	0xbe5eb728	-0.21749556
94	0x3e270b48	0.16312897
95	0xbe154580	-0.14577293
96	0x3cde8d72	0.027167056
97	0x3e5be8ec	0.21475571
98	0xbddd26c3	-0.10798409
99	0xbd0b676c	-0.034034178
100	0x3d2adaa5	0.041712422
101	0x3e7b0d69	0.24516834
102	0x3e6143d8	0.21998537
103	0xbe7d7de0	-0.24755049
104	0x3d5cb7a7	0.053886082
105	0xbe666c0c	-0.22502154
106	0x3e6f297d	0.2335567
107	0xbe5c0424	-0.21485955
108	0x3c7b581a	0.015340829
109	0x3d030d17	0.031994905
110	0xbd54c6a7	-0.051947262
111	0xbe1d7996	-0.15378413
112	0x3d81f5a2	0.06345679
113	0xbe1bfda4	-0.15233475
114	0x3abe3d50	0.0014514122
115	0xbda1a90c	-0.07893571
116	0xbe3d14ec	-0.18465012
117	0xbd0b5232	-0.034013934
118	0x3e8a07a8	0.26958966
119	0x3d48f4c8	0.049061567
120	0xbd7bbff4	-0.061462358
121	0xbe0e437e	-0.13892934
122	0x3c3a8870	0.011385068
123	0x3dac50c8	0.08413845
124	0xbc2019cc	-0.009771775
125	0x3dd962aa	0.10614522
126	0x3b1e0076	0.0024109161
127	0x3de3b491	0.11118425
128	0x3b390802	0.0028233533
129	0x3c0b0164	0.008484218
130	0xbd6dd692	-0.05806596
131	0xbe5bb23a	-0.21454707
132	0xbd9edb50	-0.07756674
133	0x3f0fe72f	0.56212133
134	0x3d811b4c	0.063040346
135	0xbda5a50f	-0.08088123
136	0xbd8ec58c	-0.06971273
137	0x3e4383e1	0.19093277
138	0x3d9c6456	0.07636325
139	0xbd3b18ab	-0.045677822
140	0x3e3bb627	0.18331204
141	0xbdf194ef	-0.11795985
142	0x3f132397	0.5747618
143	0xbde40ca4	-0.111352235
144	0xbdd53579	-0.1041059
145	0x3b8d7e02	0.004318
146	0xbe515956	-0.20444235
147	0x3e017122	0.12640813
148	0xbe5e5d07	-0.21715175
149	0x3da3bcce	0.07994996
150	0xbe863c00	-0.2621765
151	0x3d85d570	0.065348506
152	0xbd17042d	-0.036869217
153	0xbe09a25d	-0.13440843
154	0xbcd0eb0c	-0.025502704
155	0x3d57ceb6	0.05268737
156	0x3d82c037	0.06384318
157	0x3eab7c5f	0.33493325
158	0x3e90a7e9	0.28253105
159	0xbe027fdb	-0.12744085

hidden2event.weight f4 [27, 40]
0	0xbdd07360	-0.10178256
1	0x3e4ce114	0.20007735
2	0xbeb5a82e	-0.35479873
3	0x3eedfe96	0.46483296
4	0x3ef545a3	0.4790469
5	0xbecfd899	-0.40594938
6	0x3ea9926f	0.33119532
7	0xbe317d2c	-0.17332906
8	0xbf094959	-0.53627545
9	0x3f4af07e	0.7927321
10	0xbf3ae5c2	-0.7300683
11	0xbdc9a9bc	-0.098468274
12	0x3f56e076	0.8393625
13	0xbea2879b	-0.31744084
14	0x3e011488	0.12605488
15	0x3df58349	0.11987931
16	0xbee633d8	-0.4496143
17	0xbf394003	-0.723633
18	0x3e0f6f88	0.1400739
19	0x3dbd3e32	0.092403784
20	0xbf35c84c	-0.71008754
21	0x3ed5a105	0.4172441
22	0x3eac14fd	0.33609763
23	0x3e15975e	0.14608523
24	0xbe8d77cd	-0.27630463
25	0xbe18a31b	-0.1490597
26	0xbe19c7b0	-0.15017581
27	0x3e94cfad	0.29064694
28	0x3ecc4678	0.39897513
29	0xbeb370e8	-0.35047078
30	0x3f0058e4	0.50135636
31	0x3f2d6daa	0.6774546
32	0x3f4bdf5c	0.79637694
33	0x3f52b759	0.82311016
34	0xbf5ff2ed	-0.8748005
35	0x3f2282c5	0.6348079
36	0x3e6d8631	0.23195721
37	0x3ce96499	0.028490352
38	0xbd219485	-0.03944828
39	0x3d8d0748	0.068861544
40	0xbf199403	-0.5999147
41	0xbe841ce5	-0.25803295
42	0x3e025d8f	0.12731002
43	0x3dedcafc	0.11610982
44	0xbe1e3d06	-0.15452966
45	0xbe8d5a56	-0.27607983
46	0x3f16d3b0	0.5891676
47	0xbeb18dbf	-0.34678456
48	0xbec70c9f	-0.38876817
49	0xbe3e85fd	-0.186058
50	0xbeb0c532	-0.34525448
51	0xbe47624f	-0.19471096
52	0x3ef0a57c	0.47001255
53	0xbedd8b6e	-0.4327044
54	0x3ec446ed	0.38335362
55	0xbea8849e	-0.3291368
56	0xbd3ec249	-0.046572004
57	0x3e10ae74	0.14129049
58	0xbc2851ea	-0.010273436
59	0x3e01113a	0.12604228
60	0x3ddc018c	0.107424825
61	0x3df52270	0.11969459
62	0xbe03cbbd	-0.12870689
63	0xbea6f9af	-0.32612368
64	0xbd44eb78	-0.048076123
65	0xbedfcc1e	-0.43710417
66	0x3ea57b80	0.32320786
67	0xbeafacae	-0.34311432
68	0x3e7729a7	0.24136983
69	0x3e42fea8	0.19042456
70	0xbe15d45f	-0.14631794
71	0x3c8b0ea7	0.01697476
72	0xbe3af41e	-0.18257186
73	0x3e9d4c88	0.3072245
74	0xbec3cd6d	-0.38242665
75	0x3f105c9e	0.5639132
76	0xbeb54eb4	-0.35411608
77	0xbda2c375	-0.07947437
78	0xbd9c8e79	-0.07644362
79	0xbe0b2172	-0.13586977
80	0x3ea41206	0.32045
81	0xbe88a0a7	-0.26685068
82	0x3e87b443	0.26504716
83	0x3eacdb09	0.3376086
84	0x3dc14408	0.09436804
85	0xbe836e78	-0.25670218
86	0x3f212b2b	0.62956494
87	0xbed8c8d7	-0.4234073
88	0xbf1b883e	-0.60754764
89	0xbf1aac34	-0.6041901
90	0xbee076db	-0.4384068
91	0xbec1ba9e	-0.3783769
92	0x3e906d59	0.28208426
93	0xbeb7185f	-0.3576078
94	0x3f196108	0.5991368
95	0xbed47696	-0.41496724
96	0x3cda96be	0.026683208
97	0x3ddd752d	0.10813365
98	0xbd85d21d	-0.065342166
99	0xbebcb1dc	-0.36854446
100	0x3dd1d8ee	0.10246454
101	0xbccbf342	-0.024896268
102	0x3e83baea	0.25728542
103	0xbef34e8f	-0.47520873
104	0xbf136bc4	-0.5758631
105	0xbe9080a9	-0.2822316
106	0x3cf449f0	0.029820412
107	0x3e9c5cd3	0.3053957
108	0xbed4b2f3	-0.41542777
109	0x3e53ccab	0.20683543
110	0xbd968f60	-0.07351565
111	0x3e8680f7	0.26270267
112	0x3e68e414	0.22743255
113	0x3edc6c2a	0.43051273
114	0x3e999ccb	0.30002436
115	0xbd20bb22	-0.039240964
116	0x3d1c254d	0.03812151
117	0x3e88f723	0.2675105
118	0x3d873e36	0.06603663
119	0x3d88513c	0.06656119
120	0xbe85b964	-0.26118004
121	0x3efaf819	0.49017408
122	0x3e8b0022	0.2714854
123	0xbe1dc15f	-0.15405796
124	0xbeb43183	-0.35194024
125	0x3f00a566	0.5025238
126	0x3f777940	0.9666939
127	0x3f1d0c97	0.61347336
128	0xbcd731dd	-0.026268894
129	0xbeb014e7	-0.34390947
130	0xbf88965c	-1.0670886
131	0xbe180243	-0.14844613
132	0xbf295989	-0.66152245
133	0xbf7a1133	-0.97682494
134	0x3e9ded01	0.30844882
135	0x3e22ca89	0.15897574
136	0xbe6037d9	-0.21896304
137	0x3d842236	0.06451838
138	0x3ef61e7b	0.4807013
139	0xbdc9d37e	-0.09854792
140	0x3f1a3628	0.60238886
141	0x3f1dcc59	0.61639935
142	0xbf820214	-1.0156884
143	0xbda17ec3	-0.07885506
144	0x3f307c4d	0.6893967
145	0xbe3d121a	-0.18463936
146	0x3e0c1096	0.13678202
147	0xbdb80304	-0.0898495
148	0xbfab6aef	-1.3392009
149	0x3e89a3a9	0.26882675
150	0xbefe87ba	-0.49712926
151	0xbe745c9d	-0.23863454
152	0x3b703ad4	0.0036656158
153	0xbef2b600	-0.4740448
154	0x3e980d14	0.29697478
155	0xbdc88570	-0.09791076
156	0xbeaa7a34	-0.3329636
157	0x3eba3dc5	0.3637525
158	0x3e8bd6a7	0.27312204
159	0xbd2050d3	-0.03913958
160	0x3e75bc05	0.23997505
161	0x3eb3a7db	0.35089
162	0xbe3e2ca1	-0.18571712
163	0xbed87aca	-0.4228118
164	0xbef012e2	-0.46889406
165	0xbe9f7858	-0.31146502
166	0xbe504fec	-0.20342988
167	0x3f4cc61a	0.7998978
168	0x3fbe4a66	1.4866455
169	0xbf1454b0	-0.5794172
170	0xbf8eafa8	-1.1147356
171	0xbec14648	-0.37748933
172	0xbe117e39	-0.14208306
173	0xbdfba4c0	-0.12287283
174	0x3c3efca9	0.011656919
175	0x3f39a379	0.72515064
176	0x3e70d88f	0.2352011
177	0x3e1acc7a	0.15117064
178	0x3ead255b	0.33817562
179	0xbdaddb4c	-0.08489093
180	0xbfb4e1ed	-1.4131447
181	0x3e948b1b	0.2901238
182	0xbecb8fb6	-0.3975808
183	0xbeb90569	-0.3613694
184	0xbee6003d	-0.44922057
185	0xbda55bd5	-0.08074156
186	0xbe729994	-0.23691398
187	0x3f2cec89	0.67548424
188	0x3f8948a0	1.0725288
189	0x3e382926	0.17984447
190	0xbf4537ca	-0.7703825
191	0x3eae1bed	0.3400568
192	0xbf02c09d	-0.51075155
193	0xbfc204e2	-1.515774
194	0x3f0aeceb	0.5426776
195	0x3c139b91	0.009009258
196	0xbeb5b282	-0.35487753
197	0xbec36f7f	-0.38171002
198	0x3d9ef394	0.077613026
199	0x3f0cb3c8	0.54961824
200	0x3edf09ad	0.4356207
201	0xbf279283	-0.65457934
202	0xbf39fb06	-0.72648656
203	0x3f76d0c7	0.9641232
204	0x3f1e951a	0.6194626
205	0xbe9cd898	-0.30633998
206	0xbf9ebcbd	-1.2401348
207	0x3f0cbb06	0.54972875
208	0x3f40d888	0.753304
209	0x3f9dd1ae	1.2329614
210	0xbf01df7f	-0.5073165
211	0xbf0044e7	-0.50105137
212	0xbe6b53a6	-0.22981128
213	0x3f935e1d	1.1513096
214	0xbf173c31	-0.5907622
215	0x3f2b9e52	0.6703845
216	0x3f133959	0.5750938
217	0xbf5b478d	-0.8565605
218	0x3f3c3bc9	0.73528725
219	0xbf1edd4f	-0.6205644
220	0xbfbbb175	-1.466353
221	0xbe9bfae5	-0.30464855
222	0xbfeb7c00	-1.8397217
223	0x3f0c1071	0.5471259
224	0x3f77f90a	0.9686438
225	0x3eaef9cf	0.34174964
226	0xbf2b8775	-0.67003566
227	0x3ef06386	0.4695093
228	0xbf415a06	-0.7552799
229	0xbf3f1a50	-0.74649525
230	0x3f113a98	0.5673003
231	0x3f1b71eb	0.607207
232	0xbf33fbe3	-0.70306224
233	0x3df96de2	0.121791616
234	0x3f57ad5f	0.8424892
235	0x3f815799	1.0104858
236	0x3f6ede72	0.93308175
237	0x3f473b92	0.7782527
238	0xbf4058e3	-0.7513563
239	0xbf866266	-1.0498779
240	0x3f637d3a	0.88862956
241	0xbe60bd84	-0.21947294
242	0xbee0fc66	-0.43942565
243	0xbd3d954f	-0.04628497
244	0x3f1bb0ac	0.60816455
245	0xbd652951	-0.055947606
246	0xbf719ead	-0.94382745
247	0x3f759b23	0.95939845
248	0x3f9e2420	1.2354774
249	0x3f6751eb	0.9035937
250	0xbfe170ff	-1.7612609
251	0xbdfacb83	-0.12245848
252	0xbeb6d7da	-0.35711557
253	0x3cf565bd	0.02995574
254	0xbeb4fd8f	-0.353497
255	0x3f85cf4b	1.0453886

hidden2event.bias f4 [27]
0	0xbc9cbb0c	-0.01913216
1	0x3e266e61	0.16253044
2	0xbd149615	-0.036275942
3	0x3e8e025c	0.27736175
4	0xbeeaa8dc	-0.45831954
5	0xbee554e8	-0.4479134
6	0xbe9f123f	-0.31068608
7	0xbee61ae2	-0.44942385
8	0xbc55b569	-0.01304374
9	0xbe6e8eb9	-0.23296632
10	0xbe731d83	-0.23741727
11	0xbe825681	-0.25456622
12	0xbe396ca8	-0.18107855
13	0x3dc94bc8	0.09828907
14	0xbdb58b30	-0.088644385
15	0x3db800f3	0.08984556
16	0xbe5a50e4	-0.2131992
17	0xbf0d3a93	-0.551675
18	0xbebc0903	-0.36725625
19	0xbef116f5	-0.47087827
20	0x3e89d8b7	0.26923153
21	0xbdb706d9	-0.08936853
22	0xbe8b1d0c	-0.27170599
23	0xbe66cf17	-0.22539936
24	0x3e306fbb	0.17230122
25	0xbeb74a61	-0.35798934
26	0xbf0f7639	-0.5603977

hidden2time.weight f4 [3, 40]
0	0xbc9113b8	-0.017709598
1	0xbb313dfe	-0.0027045007
2	0x3dff47d0	0.12464869
3	0xbcb7d797	-0.022441668
4	0xbe270b22	-0.1631284
5	0x3ddf9aff	0.10918235
6	0x3e5d06ad	0.21584578
7	0x3e7859e1	0.24253036
8	0xbd96348d	-0.07334242
9	0x3d1e5373	0.038653802
10	0xbe7336fe	-0.23751447
11	0x3ebdd9f5	0.3708035
12	0xbe21b969	-0.15793385
13	0x3e99ba22	0.3002482
14	0x3bff41b0	0.007789813
15	0xbe753e98	-0.23949659
16	0xbe0be3db	-0.13661139
17	0x3ddc5aa1	0.107594736
18	0xbd9d63eb	-0.076850735
19	0x3c44e526	0.012017524
20	0xbe0547db	-0.13015692
21	0x3e081ae9	0.13291515
22	0xbe8b50a0	-0.2720995
23	0xbe4f2eec	-0.20232743
24	0xbe0d04ee	-0.13771412
25	0x3d082e84	0.033247486
26	0x3e5df3c0	0.21675014
27	0xbcbe3f23	-0.023223465
28	0x3db1468f	0.08656036
29	0x3e1986cb	0.14992826
30	0xbe5fc9f0	-0.21854377
31	0xbde50241	-0.111820705
32	0x3e2af906	0.16696557
33	0xbd5b3c32	-0.053524204
34	0xbe0db556	-0.13838705
35	0xbe0be255	-0.13660558
36	0xbd88cba8	-0.06679469
37	0xbe595848	-0.21225083
38	0x3dd7b846	0.10533194
39	0x3e70de75	0.2352236
40	0xbd43d708	-0.04781249
41	0x3d941e2b	0.072323166
42	0x3dc9ef93	0.09860148
43	0xbe834992	-0.25642067
44	0xbe3884b9	-0.1801938
45	0x3e1b1e9a	0.15148392
46	0x3d83ab6a	0.06429179
47	0xbda2f6eb	-0.07957252
48	0xbd0b44f5	-0.03400131
49	0x3dae7d18	0.085199535
50	0x3d09abe1	0.033611182
51	0xbe4bab9c	-0.19889683
52	0x3d13840c	0.0360146
53	0xbea2a46d	-0.31766072
54	0x3c89ff63	0.01684541
55	0xbd1229a9	-0.03568426
56	0x3c66de17	0.014091036
57	0x3e5c6013	0.21521024
58	0xbe1bbeed	-0.15209551
59	0x3cc7b358	0.02437751
60	0xbd4b8630	-0.049688518
61	0x3e0b192a	0.13583818
62	0x3e6533e0	0.2238307
63	0xbe10a2db	-0.14124624
64	0xbe8cb5a0	-0.2748232
65	0xbe0aa6f5	-0.13540252
66	0xbcf078fa	-0.029354561
67	0xbe8e6b0f	-0.27816054
68	0x3e4b35f2	0.19844797
69	0x3db26c8e	0.087121114
70	0x3c66b33d	0.01408082
71	0xbda0aa2e	-0.07844959
72	0x3dc05c1c	0.093925685
73	0x3d739377	0.059466805
74	0xbdafdbfd	-0.08586881
75	0x3ba3860a	0.004990344
76	0xbd38d80d	-0.045127917
77	0xbe3caebd	-0.18426032
78	0x3e623b77	0.22092997
79	0x3d814394	0.06311718
80	0x3f241f2b	0.6411006
81	0xbf3e43b7	-0.74322075
82	0xbf3e9b60	-0.74455833
83	0x3f871ac3	1.0555042
84	0x3f31fc6e	0.695258
85	0xbf03817f	-0.5136947
86	0xbf3bb34a	-0.7332045
87	0x3ea9fb08	0.33199334
88	0x3f6214d0	0.8831301
89	0x3f584b97	0.8449034
90	0xbeb00fb2	-0.34386975
91	0xbe8bc98b	-0.27302203
92	0xbea6be5f	-0.32567117
93	0x3f880654	1.0626931
94	0xbf203fd7	-0.6259741
95	0x3f27dfed	0.6557606
96	0x3f7d1a22	0.98868
97	0xbf93520b	-1.1509413
98	0x3f4b0883	0.7930986
99	0xbf1de4d4	-0.6167729
100	0xbfc99d23	-1.5751079
101	0xbedc0626	-0.4297344
102	0xbff8aeef	-1.9428385
103	0x3f27c222	0.655306
104	0x3f557de1	0.833952
105	0x3f06d7b4	0.52672887
106	0xbf327d26	-0.6972221
107	0x3ee1d56e	0.44108146
108	0xbf065981	-0.5248032
109	0xbf5f5143	-0.8723337
110	0x3f5dc933	0.8663513
111	0x3f4909f4	0.7853081
112	0xbf598e27	-0.8498253
113	0x3c4848d3	0.012224394
114	0x3f8517ef	1.0397929
115	0x3f8b43bc	1.0880046
116	0x3f86f7e1	1.0544397
117	0x3f339920	0.70155525
118	0xbf52c918	-0.82338095
119	0xbfba4571	-1.4552442

hidden2time.bias f4 [3]
0	0x3e414276	0.18873009
1	0x3e520e4c	0.20513266
2	0xbe9b34cd	-0.3031372
