events_simulation/models/all_epochs/model_19_20180530-0332.pt (torch_old, 78354 bytes, 9 tensors)

loss_function_events.weight f4 [27]
00000000: 0000 803f 0000 803f 0000 803f 0000 803f
00000010: 0000 803f 0000 803f 0000 803f 0000 803f
00000020: 0000 803f 0000 803f 0000 803f 0000 803f
00000030: 0000 803f 0000 803f 0000 803f 0000 803f
00000040: 0000 803f 0000 803f 0000 803f 0000 803f
00000050: 0000 803f 0000 803f 0000 803f 0000 803f
00000060: 0000 803f 0000 803f 0000 803f
1.0 1.0 1.0 1.0 1.0 1.0 1.0 1.0
1.0 1.0 1.0 1.0 1.0 1.0 1.0 1.0
1.0 1.0 1.0 1.0 1.0 1.0 1.0 1.0
1.0 1.0 1.0

lstm.weight_ih_l0 f4 [160, 70]
00000000: e763 a9bf ec87 a8bf 7359 3e3f c138 a2be
00000010: f68a 2a3e ccc9 8e3d 7ac3 55bd 0422 2b3d
00000020: 0a23 223f e4c4 8fbe 89e7 0040 99b7 1abf
00000030: f061 d0bf ced9 28bf 64c6 2a3f 1e1b 29be
00000040: 4089 a13e d229 54bd fcd6 083e 6781 9ebe
00000050: 0c25 c83c a184 7b3f 4904 a23f 301f ad3e
00000060: 3fd9 993e 3093 9dbc 5113 99be d35f b83a
00000070: 2bf3 7a3e f53f b5be b7f5 87bd 08a6 bdbe
00000080: 7956 36be 7c65 03be b850 0dbf 2ba8 8f3e
00000090: ca4b cf3c 2efc 9a3e 0dac 193f 0156 a73e
000000a0: edb8 83bd 33e6 5dbf f706 4f3d 675c a03e
000000b0: 816e e63e f90f 8c3e 634c 9e3d bd4d 473f
000000c0: 26bd b43e c955 b1be aeef 81bf 586a 9e3e
000000d0: 79b5 1e3e be33 b03c 06d9 46be 9155 71be
000000e0: f783 f73d 21d2 593e fd6e b63e 0d14 863f
000000f0: c681 c13f 827e 26bf 97d3 c83e c206 953d
00000100: 522f 6a3e c3b1 813b 6c9b 523f c40b a23e
00000110: 3e58 513f 958d 30be f1c4 9c3f 8e3a f33e
00000120: 2502 eebe 3d5a 13bf fb2c c7bf 3a65 c33d
00000130: f098 e93f f3bf c3bd b297 6ebf 88da 39be
00000140: 747c 963d 57c0 f8bd 5cfe f6bf ed6f 343f
00000150: a369 bd3e f9d8 6cbd a693 07c0 3f58 20be
00000160: 5947 5bbf 2baf 16be 7101 48bf 889f 3e3f
00000170: 576d 103e 91cd 66bf e530 f03e a0bc f7bb
00000180: 263c b33e ac2f 59be c39f 91bd 8582 7e3e
00000190: 0f2c a1bf 2c58 643c 5d1c 63be c8c0 033f
000001a0: c94f 863f b309 72be f829 95be 6ba1 573e
000001b0: 452f 46be eccd 8bbe 3835 74be e989 64be
000001c0: 44ca af3e b17f 833e b064 c8bd 7361 05bf
000001d0: 6307 f23e b026 773f 1874 0c3f edc8 4c3e
000001e0: c53c 30bf 28bd 66be 2a1e 92bf 0fd9 5fbf
000001f0: b9e4 16be e80d b0be 6a5f 81bd 7f32 af3e
00000200: e66a ca3d acfe e43e 40ad d73c 3781 da3d
00000210: 0973 ae3d f213 06bc 6e7d 173f a583 16be
00000220: f2cb 693d dce8 0bbf 43f1 423f cb5c 14be
00000230: 6d77 8b3e eafa c43d 59c4 903e c472 593e
00000240: 4017 073e 9d53 173e d6f2 9ebd a372 e73d
00000250: fa0c 923d 9b02 26bd ceb2 6a3e 4941 c4ba
00000260: b059 823d d056 893e 6f68 323e 7fc4 813e
00000270: 0dfa b6bc 24c3 3c3d 4e4f b23d 03f4 8c3e
00000280: 8b9f 613e 9ee8 0c3e 5c29 e4bc fecf d23c
00000290: 1c02 c83d b47f 12bd 3b84 3a3f e756 5b3e
000002a0: f787 f23c c1b5 523f 456e 3dbd 0bfe 323e
000002b0: f9c8 7b3e d1f2 963e 0c63 843c 6b54 e83d
000002c0: 80f6 da3d 79c9 c03d 3cb8 c23d 3f4c 97bb
000002d0: 3753 debc 1099 9d3d 2bd3 033e 2a01 473e
000002e0: 6641 a43b fe6c 803e e674 8a3d 7b88 8f3c
000002f0: 2f16 703e 53a6 7b3e e938 b9bc cb02 103e
00000300: 5d54 693e 8fb8 863e 5617 9c3e 1978 213e
00000310: 2ba7 923c b7d6 8e3e 30ab aa3c 7fd0 f83d
00000320: 580b 003d 28f1 933e fd5d 203e b32a 873e
00000330: 159f 123e e8f7 623e fa65 b23d d2c8 593e
00000340: 117a 8e3e b27d 4a3d 5095 863e 2d4c a6bb
00000350: a25c 60be b816 923c ed2c 1a3e f0c8 30bd
00000360: 47e9 3b3e 704b af3d 8435 b33d 7601 b23a
00000370: 868d 0e3f 9232 203f bd13 4a3e 9420 823d
00000380: c7a5 c73d 60c1 a43c 28e5 f7bc 4020 783c
00000390: b596 fabd fa04 8b3e a1e9 983e 63c1 073e
000003a0: 26ad 4b3f 8004 b3be 42f2 8e3d 1086 8cbc
000003b0: e34b e23d 2906 733e 9c36 893d 2447 b4bc
000003c0: 1d42 d5bc 1a33 e93c d9c6 0c3e 412f 0abc
000003d0: 2fa1 0c3c b2de 5d3d 4c99 9b3e a7a5 093e
000003e0: 33f1 be3d 7f60 2d3e 6630 7f3e 191b ac3d
000003f0: 3a96 d53d 73e9 423e 24d0 8abc 73b4 b43e
-1.3233613 -1.316648 0.7435524 -0.31683925 0.16654572 0.069720834 -0.052188374 0.041780487
0.63334715 -0.28079903 2.0141318 -0.604364 -1.6279888 -0.65957344 0.6670897 -0.1651425
0.31550026 -0.051797695 0.1336326 -0.309581 0.024431728 0.9824925 1.2657558 0.33812857
0.30048558 -0.019235224 -0.2989755 0.0014066644 0.24506824 -0.35400358 -0.06638663 -0.37040734
-0.17806424 -0.12831682 -0.5520129 0.2805799 0.025304694 0.30270523 0.60028154 0.32682803
-0.06431756 -0.8667938 0.05054375 0.31320497 0.45006183 0.27355936 0.07729413 0.77852994
0.3530056 -0.3463576 -1.015127 0.3094051 0.15498914 0.021509048 -0.19418725 -0.23567797
0.12085717 0.21271564 0.35631552 1.0474869 1.5117729 -0.65036786 0.3922393 0.072766796
0.22869614 0.0039579584 0.82268405 0.316496 0.8177527 -0.1724151 1.2247602 0.4750561
-0.4648601 -0.5755957 -1.5560602 0.09540792 1.8249798 -0.09558096 -0.9320022 -0.1814977
0.07347956 -0.12146061 -1.9296374 0.70483285 0.36994657 -0.05782411 -2.1183867 -0.15658663
-0.8565574 -0.14715259 -0.781272 0.74462175 0.1410421 -0.9015742 0.46912304 -0.0075603276
0.35006827 -0.21209592 -0.0711055 0.24854477 -1.2591571 0.013937037 -0.22178788 0.51466036
1.0493098 -0.23636512 -0.29133582 0.2105767 -0.1935397 -0.27305543 -0.23848426 -0.22318234
0.34334004 0.25683358 -0.097848296 -0.5210182 0.4727126 0.9654341 0.54864645 0.19998522
-0.68842727 -0.22533095 -1.1415455 -0.8744058 -0.14735688 -0.3438561 -0.06317027 0.34218213
0.098836705 0.4472555 0.02632773 0.10669177 0.08518035 -0.008183466 0.59175766 -0.14698656
0.057079263 -0.5465219 0.76149386 -0.14488523 0.27239552 0.096181706 0.282748 0.21235186
0.13192463 0.1477799 -0.07761161 0.11301162 0.07131381 -0.04052983 0.22919771 -0.001497307
0.06364763 0.26824045 0.17422651 0.25345227 -0.02233603 0.046084538 0.087065324 0.27529916
0.22033517 0.13760611 -0.027851753 0.025733944 0.09766027 -0.03576632 0.7285802 0.2141987
0.029605849 0.82308584 -0.04624774 0.17479722 0.24588384 0.2948213 0.01616051 0.113442264
0.106915474 0.09413428 0.09507796 -0.0046172435 -0.02713929 0.0769521 0.12873523 0.19434038
0.005012679 0.25083154 0.06760578 0.017521134 0.23445962 0.24575166 -0.022610145 0.14063565
0.22786088 0.26312682 0.30486554 0.1576847 0.017901978 0.2789819 0.020833582 0.121491425
0.03126082 0.28894925 0.15660854 0.26399764 0.14318497 0.22164881 0.08710857 0.21268013
0.27827504 0.04943628 0.2628579 -0.005074999 -0.21910337 0.017833099 0.150562 -0.04316038
0.18350707 0.085593104 0.08750442 0.0013580758 0.556847 0.62577164 0.19734092 0.0635387
0.097484164 0.02011174 -0.030260637 0.015144408 -0.12235776 0.27152234 0.29865745 0.13257365
0.7956108 -0.3496437 0.06979801 -0.01715377 0.110496305 0.23732819 0.06699869 -0.022006579
-0.026032502 0.02846675 0.1374773 -0.008434118 0.008583351 0.054167457 0.30390394 0.13442098
0.09323349 0.16931342 0.24920806 0.08403606 0.10429044 0.19034366 -0.016944952 0.35293922

lstm.weight_hh_l0 f4 [160, 40]
00000000: da55 25bd 4c86 b83d d6af a53c 1fe7 99bf
00000010: 2fc2 5abe 86bf bf3d c948 03bf f783 37be
00000020: 464c 9dbd bbb4 8b3f 14d8 853e 4e73 01bf
00000030: 5d52 de3e 429b 473f ec6b a93e af43 4cbc
00000040: 289b 66be 52d6 ee3e defd b93e e977 abbe
00000050: 2d00 b8bf 5d7a f63e 1db8 1ebf 58f1 6b3d
00000060: 1002 debe 871f 9cbe b35d 263e 7f48 ecbd
00000070: de36 10be d9c4 ed3e 9c48 b0bb 5039 88be
00000080: 20d2 7c3e 7e56 013e 670c e43d 53f5 2bbe
00000090: 31f7 c4bb 2098 19be a85e 273e b131 edbe
000000a0: c3fd d73d 5c0c f83d 3fec 0dbe 84dc c0bd
000000b0: cbc6 9bbd 3703 00bd 35c6 46be 1626 953f
000000c0: 4dac 703f babe dabe 7c8a bf3f df81 523e
000000d0: 7a86 5a3f 52a4 503d e008 16be 3bec 91be
000000e0: f472 abbd e748 ddbd 1fc0 60bf a827 703e
000000f0: d090 95bf 12f2 053e fe64 efbe e898 20bd
00000100: b039 58bd c5e8 f1bd 2134 2c3d ed77 49be
00000110: f184 eabd d13c 59bd 391c b5bc 08d3 1d3e
00000120: bedb 5dbd 20c4 9a3d 0537 403c bc26 1c3f
00000130: deb4 123e 2e1b d83e 2ff9 823e e695 213e
00000140: ee67 d1bc 7208 ab3d e5c1 843d 9026 3bbe
00000150: 8f27 d7bc bb96 523c 4889 af3e c78c 0c3d
00000160: 9cb1 46bc 87b9 a9bd 7a3c 01be 5723 2b3e
00000170: 49ee 993d 54fe 093c 9bdc 5a3e a9cc a13c
00000180: 5958 31bd 851d 423e cfe9 abbd 1610 8a3e
00000190: 28dc d3bd 2fab d43d 2cdb 7d3d 2f66 d23c
000001a0: 3776 35be adbc 61bd 79b5 313e a52e 4ebe
000001b0: 7b43 953d d0d9 073e c523 7fbd 97e8 313c
000001c0: e0ad 773e bb30 fc3d 6834 56be d9c3 1a3c
000001d0: 6dd4 83be 777f 223d 4f6f 153e 15bb 3f3e
000001e0: 4054 d2bd 397c e13d 9ceb a33d dd41 8bbd
000001f0: 03bd 0cbe 3bd2 473d ab18 d73e ed35 19bd
00000200: 8845 4e3d 295d d43e 8225 9f3e c5ad 783e
00000210: 9526 f33e bb00 1f3f 893e 113e 7928 293d
00000220: daff 52be f941 b0bc 6c91 193e feb3 dabb
00000230: 0a9a e7be 605e 083e 92d7 22bf 56ef 0bbd
00000240: 3803 03be dc0b 13be 37d4 ad3d 8473 89be
00000250: 54f7 7b3d 9b5a fd3c 5b7c 9d3d 7edf 42be
00000260: 3a02 663d 37f4 4bbe 58aa 10be be45 babc
00000270: 0682 78be 1eec abbe a6a4 2cbc 1cb8 713c
00000280: bbf7 69be c679 75bd 1601 debd 0596 b9be
00000290: b140 88be b4f8 f4bc 386a a4be dbca 5abe
000002a0: 1f6f 5c3e d0fd b4be 4b33 aabe c210 9a3a
000002b0: 3e73 65bd a883 ba3e e613 f0bd ab56 8fbd
000002c0: dd37 63be 9845 c53c f93f fe3c 6627 013c
000002d0: 303a 69bf c366 3d3e 5b82 24bf 77b7 33be
000002e0: cbdc 753b a40a cdbd 5b16 803d 426e e7bd
000002f0: 2f12 c0be f182 973e 54da 803d 69bb b9bd
00000300: 9bae 07bd f955 6fbe cfff 943d 3e7a 1bbf
00000310: 59bf 51be 9b18 86be 211e 2d3e 8ef1 f9be
00000320: a5a2 43be db64 173e f643 5ebd ac40 973c
00000330: bb1b 5dbe b797 a33c 4654 1e3e d8dd ab3c
00000340: f5fb 84bd 3658 6e3d 8b53 a23e 630c 27bd
00000350: 6062 383e 463d c03e 4354 183e 5e6c 39be
00000360: 6e30 5dbe f2db b5bc 9398 56bd 74b8 8e3d
00000370: 9ba6 a0be c75b d93d 1f20 f63d 95f7 a0bd
00000380: f04f 40bd 4b0f eebd 50db fe3d 71fa 00be
00000390: d1d7 23bb e20b 733e fd09 4e3d 4e19 9bbe
000003a0: 98b5 103e 6815 fbbc ae51 98bc 310c c2be
000003b0: cf91 d3bd bec8 dbbd d428 ab3c b860 17be
000003c0: d749 0f3e efe2 5f3e 3462 c6bd 130e 2fbe
000003d0: 75a3 1c3d a573 18be c3f6 c8bd 5b45 023f
000003e0: 7f95 c93e 5e4d 3b3e 2180 bebe 3e89 5cbf
000003f0: 12da 4d3f e69f a1be 6cc0 e7bc ed0e 4a3e
-0.040365078 0.0900999 0.020225447 -1.2023658 -0.21363138 0.09362702 -0.51282936 -0.17921434
-0.07680564 1.091453 0.26141417 -0.50566566 0.43422213 0.7797128 0.3309015 -0.012467309
-0.22520125 0.46647888 0.36326498 -0.33489922 -1.4375054 0.4814023 -0.61999685 0.05760321
-0.4336095 -0.30492803 0.16246681 -0.11537265 -0.1408343 0.46439245 -0.0053797495 -0.26606226
0.24689531 0.1263065 0.11135178 -0.16792803 -0.006010913 -0.14999437 0.16344702 -0.46326974
0.10546448 0.12111732 -0.13859652 -0.0941706 -0.07606276 -0.031253066 -0.19411547 1.1652248
0.9401291 -0.42723638 1.4964137 0.20557354 0.85361445 0.050937958 -0.14651823 -0.28500542
-0.08371535 -0.10804921 -0.87793154 0.23452628 -1.1684818 0.13080624 -0.46756738 -0.039208323
-0.05278939 -0.118119754 0.0420419 -0.19674654 -0.11451138 -0.053036515 -0.022108184 0.15412533
-0.05416464 0.07556939 0.011731868 0.60996604 0.14326808 0.42208236 0.25580737 0.15779838
-0.025562253 0.0835122 0.06482295 -0.18276429 -0.02626398 0.01285332 0.34284425 0.034313943
-0.012127306 -0.0828734 -0.12620726 0.167127 0.075161524 0.008422453 0.21373217 0.01975091
-0.043297146 0.18956573 -0.08394205 0.26965398 -0.10344726 0.10384213 0.061976597 0.02568349
-0.17720877 -0.055111576 0.17354383 -0.20134981 0.072882615 0.13266683 -0.06228997 0.010858676
0.24187422 0.12313982 -0.20918429 0.009446108 -0.25748006 0.03967234 0.14593242 0.1872371
-0.10269976 0.11010022 0.08003923 -0.06799672 -0.13743977 0.048784476 0.42011008 -0.037404943
0.05035928 0.41477326 0.31083304 0.24285038 0.47490373 0.6211049 0.14184012 0.041298363
-0.20605412 -0.021515833 0.1499688 -0.006674289 -0.4523471 0.13317251 -0.63610184 -0.034163795
-0.12794197 -0.14359993 0.084877424 -0.26845944 0.061515167 0.030926993 0.076897345 -0.19030568
0.056154467 -0.1991738 -0.14127481 -0.022738334 -0.2426835 -0.3357858 -0.010537302 0.014753368
-0.22848408 -0.059930585 -0.10840051 -0.36247268 -0.26611856 -0.029903747 -0.32112288 -0.21366446
0.21526764 -0.35349894 -0.33242258 0.0011754262 -0.056018107 0.3642857 -0.11722545 -0.069989525
-0.22189279 0.024081036 0.031036364 0.0078829285 -0.9110441 0.18496232 -0.64261407 -0.17550455
0.0037515636 -0.10011795 0.06254264 -0.11300327 -0.37513873 0.29592088 0.06291643 -0.09068949
-0.0331255 -0.2337264 0.07275354 -0.607334 -0.2048315 -0.26190647 0.16906025 -0.48817104
-0.19105013 0.14784567 -0.05426403 0.018463455 -0.2159261 0.019969804 0.15461835 0.020979807
-0.064933695 0.058189593 0.31704363 -0.040783297 0.18006277 0.37546748 0.14875893 -0.18107745
-0.21600506 -0.022199605 -0.0523916 0.069687754 -0.3137711 0.10613208 0.12017845 -0.078597225
-0.046951234 -0.11624011 0.12444174 -0.12595536 -0.0025000463 0.23735002 0.050302494 -0.30292743
0.14131773 -0.030649856 -0.018593635 -0.37899926 -0.10330545 -0.10731648 0.020893492 -0.14782989
0.13993011 0.21863912 -0.096866995 -0.17095213 0.038241822 -0.14887865 -0.09812691 0.5088708
0.3937187 0.18291232 -0.3720713 -0.86146915 0.80410874 -0.31567305 -0.028289996 0.19732256

lstm.bias_ih_l0 f4 [160]
00000000: 5f34 723e 3efd babd d945 9b3c 87b9 553e
00000010: 5ad4 6c3d d2ff de3d 6628 d1bd b3fa 1abd
00000020: f52d 8c3c a3f3 a63b a2fd e53d 5e58 343e
00000030: ee5b e5bd 96bd d53e 8038 2f3e de8c 723d
00000040: 1c1c 203e e373 1d3d 7354 46be 8682 3f3e
00000050: d1f3 1e3e c842 2c3e c191 b33e ba25 0c3e
00000060: 3344 083d 66b6 0c3e 3d8d 073e 6109 863d
00000070: 16c6 21bd 8897 213e da41 3a3d ebed 8f3e
00000080: e8ce 2e3e 2b51 29be 808b 4bbc 5647 4bbe
00000090: f892 333e 0937 77be 1ae7 e63d 487b 363e
000000a0: b6a4 2c3d 5ee9 073e e1ca ec3d d6e3 253e
000000b0: a8d5 7d3e 6876 cd3d b59a a43d 0d86 1f3e
000000c0: f60b 01be 2991 b0bd ce80 04bd e73d 333e
000000d0: 4de3 84be 4535 3fbe 9b66 783e 6d9d 033e
000000e0: 138d 083e 3b7c 023e 5162 a43e f705 c8ba
000000f0: 86ef 1a3e 8193 c63d 95e1 75bd 8d4f 353e
00000100: dda1 09bc 5735 493e 03a5 943e 87a9 963d
00000110: 94eb 18be 479f 3dbd 63f7 5a3e 8815 4e3e
00000120: 7dea 673e b11f 9a3d bfa0 163e 147e 163d
00000130: 9333 823e 3fd7 2f3e 069e 2e3e cf2d 6b3e
00000140: 3202 dabd 71c9 473e 8999 8b3e eaf8 7dbe
00000150: 1ca8 98bd a302 7f3d ee4f 223e 880a 93bd
00000160: b179 53bd acec b2bd baab db3d 7c02 eb3d
00000170: 5904 f43d 0fc5 afbd 3175 083d d468 96be
00000180: 908d 3dbe c6b8 7e3c 6f72 1f3d 441a de3c
00000190: 3f16 b33d fd24 4a3e 0f0b 5a3e a54a 09bd
000001a0: 2b55 22be 3fed 433c a727 703e ef75 9dbd
000001b0: 569d 373e 2d7d 6d3e 269b 34be f76e 32be
000001c0: 617e 2a3e ee08 763d 62c9 2fbe 0dee 3bbe
000001d0: bf24 3dbe 1b0f b4bd ce62 3cba 6577 a3bc
000001e0: de77 48be ef92 3dbd 2258 d9bd cb1a 2f3d
000001f0: b367 e2bd 2588 40be 6b9e c2bb d026 d0bd
00000200: 7a25 07be 2681 1a3e 4824 353d b1df 3ebe
00000210: 7d62 743d 316e c23e 418b 10be 7d93 3e3d
00000220: 4a9b 2abe bb51 583d 1a20 54be a35b 013e
00000230: a60a 0b3e b3de 1ebe acb0 d33e b36a 77bd
00000240: ed82 b23d 7aeb 27bd 28c0 9abd 3c4a 173e
00000250: 5138 46be a5a9 bdbc 06aa 6abd 92d6 573c
00000260: 89de 04bd 664b a9bd 82f1 f1bd f41b 383e
00000270: 9540 023e fd72 a53e 0360 953e 2e9d 8e3d
0.2365279 -0.09130333 0.018954204 0.20871554 0.0578197 0.108886376 -0.102127835 -0.03783674
0.017111758 0.0050949617 0.11230017 0.17611834 -0.11199175 0.41746205 0.17111397 0.059216373
0.15635723 0.038440596 -0.19368152 0.18702134 0.15522696 0.1682235 0.3507214 0.13686267
0.033268165 0.13741454 0.13237472 0.06544758 -0.03949555 0.15780461 0.045472957 0.28111205
0.17071116 -0.1653487 -0.012423396 -0.19851431 0.17536533 -0.24142088 0.11274548 0.17820466
0.042149268 0.13272616 0.115621336 0.16200194 0.24788535 0.1003235 0.080373205 0.1557848
-0.12602219 -0.08621437 -0.0323494 0.17504083 -0.25954667 -0.18672664 0.24257891 0.12853022
0.13335066 0.12742703 0.3210626 -0.0015260567 0.15130433 0.09696103 -0.060029585 0.17706127
-0.008400408 0.19649254 0.29032144 0.073565535 -0.14933616 -0.046294477 0.21383433 0.20125401
0.22648044 0.07525576 0.14709757 0.03674133 0.25429973 0.17171954 0.17052469 0.22966693
-0.1064495 0.19510438 0.27265576 -0.24801984 -0.07453939 0.062258374 0.15850803 -0.07179743
-0.051629726 -0.08736548 0.107261136 0.11475083 0.11914892 -0.08582508 0.033314887 -0.29376853
-0.18511033 0.015546983 0.03892749 0.027112134 0.087444775 0.19740672 0.21293281 -0.033518452
-0.15852802 0.011958419 0.23452626 -0.0768851 0.17931113 0.23192282 -0.1763731 -0.17425142
0.16649772 0.06006711 -0.17166665 -0.18352528 -0.18471049 -0.08791944 -0.0007186354 -0.019954393
-0.19576976 -0.046282705 -0.10612513 0.04275016 -0.11054935 -0.18801935 -0.005939295 -0.10163653
-0.1319789 0.15088329 0.044224054 -0.18640019 0.05966424 0.37974694 -0.14115621 0.046527375
-0.166608 0.05281232 -0.20715371 0.12632613 0.13578281 -0.1551464 0.41345727 -0.06040449
0.08716378 -0.040996052 -0.07556182 0.14774412 -0.1935742 -0.023152182 -0.057291053 0.013173716
-0.03243879 -0.08266334 -0.11813642 0.17979413 0.12719949 0.32314292 0.29174814 0.069635734

lstm.bias_hh_l0 f4 [160]
00000000: 455d 7cbd 76fb 12be 21df 453d 0366 a03c
00000010: 49ae 1b3e ee3b 3b3e d09e 79bd b14d 13be
00000020: 814a aabd 1e76 77bd 00de 883d 1d9a 193e
00000030: c9b9 99bd 6fa4 ca3e def3 2a3e 6862 203e
00000040: 34e6 353e 3c5e a43d cf93 54be c6ad 383e
00000050: 2c02 da3d 63bd 0d3e 750f 5f3e def5 513e
00000060: e80b e2bb c412 9ebd 02b9 f73d 4433 4e3e
00000070: 2768 15be bd7e 8b3e 5931 03be 47f9 bd3d
00000080: b4ff 9cbb 93a3 6ebe d1d6 693e fe46 aebd
00000090: f463 fdbc 2303 b5be da4a 953e 6c77 a83d
000000a0: 38f3 4e3e 76be 29bd 8e9f 863e 2902 b83d
000000b0: 5423 fa3d ad4e 2e3d b19f f63d 829e 76bd
000000c0: 12c1 7cbc 52eb 65be c719 8c3d 8275 bf3d
000000d0: 1a31 29be 53cd 6e3d b8d8 993d 76fe 8f3e
000000e0: ff74 2f3e d64b d93c 792c af3e c4b2 f23c
000000f0: a4c0 60bd 1379 8b3e d8d5 043e 320c b03d
00000100: a880 df3d 941d 8c3e 0e75 043d 1e54 553e
00000110: 185b 2bbe f738 5abd 7aa0 973b 5fb4 d33c
00000120: 7333 2f3e 1d25 47be 9b25 ad3e ba0e 89bd
00000130: e919 803e aab4 923e e8bc 2b3e 3abc 4f3e
00000140: 0b21 4bbe e5a8 753e 366c 833e 2f68 00be
00000150: de4f 8abe b62c 4b3e d63d 0b3e 8615 af3d
00000160: 280b d43c 5cab 95bb 06f8 df3d d069 483d
00000170: 34e0 773d f4a9 34be fe25 223e 6e0d 17be
00000180: 3cb7 9f3c a2d8 583e 8d28 81bd 2c59 6ebc
00000190: bb07 f43c fcdb 8b3e 23aa 303e 68be 7ebe
000001a0: c025 2cbc 7449 67be a369 713e 98f9 63be
000001b0: 0787 153c 85c2 143d 07f0 50bd 3de8 1abe
000001c0: 9b87 753d fe73 24be 63c5 99bc 8b3f 91bc
000001d0: 98b7 3abe 3077 0fbd 2b7c 8a3e f6e6 bebc
000001e0: f71a 0abd 2e9f 05be 71e4 1c3d 5e16 903d
000001f0: c12d 1b3d ec62 e53d b77b a23b a850 c33d
00000200: 549e 483d b4ac 3939 e6e6 493c 0f12 d4bd
00000210: de2e 94bd 4b0d ef3e 2fa6 bb3d 904a cabd
00000220: 79f3 2cbd 3a5a 213e afb0 533d 256f 09bd
00000230: 4ed4 7a3e f100 36bd d6f4 e93e 3fef 83bd
00000240: c3f2 eebd d7c5 64bd 5a02 04be 5aad dd3d
00000250: e553 81be 85dd b23d 0076 68be b75c 9e3d
00000260: 1540 0dbd 3f82 d1bd 77a8 a6bc 0f00 7f3d
00000270: 4f20 b33c 9734 b73e 2cc2 613e 4619 e0bd
-0.061612386 -0.14353737 0.048308495 0.019579893 0.15203203 0.1828458 -0.06094247 -0.14385106
-0.08314992 -0.06041538 0.06682968 0.15000196 -0.07506139 0.39578578 0.1669459 0.15662539
0.17763597 0.08025786 -0.2075951 0.1803504 0.106449455 0.13841777 0.2178324 0.20503947
-0.006898392 -0.07718423 0.12095834 0.20136744 -0.14590512 0.2724513 -0.12811793 0.092760615
-0.0047912244 -0.23304586 0.22835852 -0.085096344 -0.03093145 -0.35353956 0.2915867 0.08225903
0.20209968 -0.041441403 0.26293606 0.08984787 0.122137696 0.0425555 0.120421775 -0.06020976
-0.015426891 -0.22453049 0.06840854 0.09348585 -0.16522637 0.05830128 0.07512039 0.28123826
0.17134474 0.02652542 0.34213617 0.029626258 -0.054871216 0.2724081 0.129722 0.08596076
0.10913211 0.27366316 0.032338195 0.2083287 -0.16733968 -0.053276982 0.0046272846 0.025842844
0.1710947 -0.19447751 0.33817753 -0.06692262 0.25019768 0.2865346 0.16771281 0.20286646
-0.19836824 0.2399021 0.25668496 -0.12539743 -0.2701406 0.19841275 0.13597807 0.08549027
0.025884226 -0.004567547 0.109359786 0.048929036 0.06051655 -0.17642957 0.15834805 -0.14751217
0.019496553 0.21176389 -0.063065626 -0.014547627 0.029788842 0.27316272 0.17252402 -0.24877322
-0.010507047 -0.22586614 0.23575453 -0.22263181 0.009126431 0.03631832 -0.051010158 -0.15127654
0.059943777 -0.16059873 -0.01877088 -0.017730495 -0.18234098 -0.035025775 0.27047858 -0.02330349
-0.033717122 -0.13049003 0.038303796 0.07035516 0.03788543 0.112005085 0.0049585956 0.09536868
0.04897912 0.00017707312 0.012323117 -0.10355007 -0.07235502 0.4668983 0.091625564 -0.09877503
-0.04222438 0.15757075 0.05168217 -0.03355326 0.2449505 -0.04443449 0.45694607 -0.06442117
-0.11667397 -0.055852737 -0.12891522 0.1082408 -0.2525932 0.08733658 -0.22701263 0.07732528
-0.03448494 -0.102299206 -0.020344002 0.062255915 0.021865992 0.3578231 0.22046727 -0.109423205

hidden2event.weight f4 [27, 40]
00000000: c3ca b2bd 86c8 f43d 3db4 bcbe ac94 b03e
00000010: 09f9 983e 0aa2 71be 189c 7e3e e7e6 04be
00000020: c670 12bf 32cd 043f 90de 66bf a78c 053e
00000030: 0c12 693f 1146 adbe 76dd 6abd 9a95 f43d
00000040: 340b 81be e344 1abf 3040 cdbe 96a2 3e3d
00000050: b1f1 20bf 6420 603e 0f60 b93e ab97 503e
00000060: 3876 37be 95c2 b1bd 20c8 55be 85d0 753e
00000070: ddad e33e 38a8 b6be 79ae fb3e ae3e ea3e
00000080: 41c5 2d3f fc76 513e 33e4 4ebf 9eb9 003f
00000090: 6a83 a53d da83 873e 8adb eebd ccbf 973d
000000a0: 7ca2 0abf 3324 36be 3f95 f23d 496d 033e
000000b0: 0e62 42be 7448 4ebe 1e1d 013f 64d2 b8be
000000c0: fb72 debe c4d5 13be 57c4 bdbe 7539 4abe
000000d0: 7d07 dd3e 8a97 f6be 53e0 a13e 5840 8dbe
000000e0: d2b5 efbc e511 263e 17fc 2abe 5694 db3d
000000f0: 5646 d13d eb96 b13d 3c16 10be 499c abbe
00000100: 7794 ef3c 0aec bbbe 2a1f 813e bedb 87be
00000110: c1cc 623e 6423 093e 1ee7 81bd a45d e4bb
00000120: e1d0 1ebe 1fc5 6d3e f406 a7be 89c4 c33e
00000130: d9fc a0be a57e a0bd 5cb6 8dbc 483b d6bd
00000140: 3ab0 9c3e d921 8abe 20ce 833e bce8 b43e
00000150: f75c 02bd 8034 3ebe 21e2 003f 1b8d f4be
00000160: 4885 1dbf 0792 15bf 931b e5be 9d4a e8bd
00000170: 0782 c73e 7e94 d0be 6b76 033f fae4 ccbe
00000180: c3ee babd 6b0c 253d 70f8 37be 1d1f 50be
00000190: 1d4a 3f3d 1f8d 51bc 2c09 7e3e 7879 9abe
000001a0: 39d2 b4be ed17 89be a685 8f3c 5629 3c3e
000001b0: 9080 c3be 6a56 453e 9dd6 b5bd c583 5c3e
000001c0: f778 f43d ccad 783e 474d 943e 6bab 13bd
000001d0: 6083 ec3c 3095 6e3e 84c6 6c3d 2b90 593e
000001e0: 761e 66be aff2 b13e d0b5 673e 18ee 4fbe
000001f0: d65e 73be cf0b e33e 74a7 6a3f 1232 143f
00000200: 3115 afbc acba aabe dce1 71bf 7c9f 91be
00000210: 7a54 26bf 71fa 70bf d800 713e 4263 f53d
00000220: 1245 68be 78de c33c 7bb3 253f 575d 01bd
00000230: 819a 263f 5532 063f b0a0 73bf 73b5 bcbd
00000240: 53dd 023f 6f2d 54bd 1311 8d3d b847 82bd
00000250: 0667 afbf 54d8 813e 6970 0abf 7c74 90be
00000260: 9568 083e bd64 86be 3639 333e 064f 5dbd
00000270: 09ce 97be f312 653e e126 813e 2823 41bc
00000280: 1a16 a53e ea9a 563e 06f3 a3be cefb 0abf
00000290: d917 c6be a653 49be d9c0 223d 1079 373f
000002a0: c94b b33f 2f5b 0abf 979f 8abf c279 dbbe
000002b0: afa7 82be 624f d1bd 3135 f8bc b434 473f
000002c0: f5d4 39bd 5310 1b3e 43ef d23e 617a 0ebd
000002d0: 3014 bdbf e363 523e a09e b8be d678 97be
000002e0: 7eb8 a7be 346c f6bd 2c38 82be c59c c13e
000002f0: f9dc 5e3f 956e 823e 384a 16bf d3fb 8a3e
00000300: 1f4d 54be bb5e a3bf da79 af3e d2dd b23b
00000310: ad3a 91be cb9c a6be ff8d e0bc 57ab df3e
00000320: 5584 b83e e105 10bf 33a5 29bf 7536 4c3f
00000330: 0658 0a3f f3b0 85be 7582 7dbf 8351 a43e
00000340: 0cbf 323f 070a 643f 9570 a1be 4a1f f1be
00000350: be28 82be 3585 453f 4429 febe 3a02 123f
00000360: 3042 033f be4b 29bf c861 213f 5126 04bf
00000370: f314 a9bf bec9 89be 9dcb c0bf 1e13 f03e
00000380: 806e 403f 68db 863e 859e 0cbf d0bc d13e
00000390: a054 28bf 4201 1dbf af94 e03e 70eb 023f
000003a0: dfa6 20bf 5bca a83d 3024 383f 5201 403f
000003b0: 34e5 383f ad04 183f dc64 13bf bb5d 4cbf
000003c0: 556d 1a3f a3db 6bbe 0246 8fbe e293 683d
000003d0: c3e4 fa3e 3885 efbd 0bad 6dbf 85d9 943f
000003e0: c5fb 9c3f 0a61 1f3f 6b48 9ebf bc71 adbe
000003f0: 5ed8 93be fe31 5abd 3951 9abe 9a27 3f3f
-0.0873008 0.11952309 -0.3685626 0.34488428 0.298775 -0.23596969 0.24864233 -0.12978707
-0.5720333 0.51875603 -0.90183353 0.13041936 0.9104316 -0.3384252 -0.057340108 0.11942597
-0.2520386 -0.6026136 -0.40088034 0.046541773 -0.6286879 0.21887356 0.362061 0.20370357
-0.1791619 -0.08679692 -0.20877123 0.24005325 0.44468585 -0.35675216 0.4915655 0.45750946
0.6787911 0.20455545 -0.80816954 0.5028323 0.08081706 0.26467782 -0.116629675 0.07409629
-0.5415418 -0.17787246 0.11844873 0.12834658 -0.18982717 -0.20144826 0.50435054 -0.36098015
-0.43447098 -0.14437014 -0.37063858 -0.1974848 0.43169776 -0.4816249 0.31616458 -0.27588153
-0.029261503 0.16217764 -0.16697727 0.10721652 0.10218494 0.086713634 -0.14070982 -0.33517674
0.029245598 -0.3670352 0.2521909 -0.26534837 0.2214842 0.13392407 -0.0634291 -0.0069691706
-0.15509368 0.23219727 -0.32622492 0.38235882 -0.31442907 -0.078366555 -0.01729887 -0.10460526
0.306032 -0.2697895 0.25743198 0.35333812 -0.03182694 -0.18574715 0.50345045 -0.47763905
-0.61531496 -0.58425945 -0.447476 -0.11342356 0.3896639 -0.4073829 0.51352566 -0.40018445
-0.091275714 0.040295046 -0.17965865 -0.20324369 0.04670154 -0.012789994 0.24808186 -0.30170798
-0.35316637 -0.26776066 0.017519783 0.18375143 -0.38184023 0.19271246 -0.08878825 0.21534641
0.11937135 0.24285048 0.28965208 -0.03605215 0.028871238 0.23299098 0.057806507 0.21246402
-0.22472557 0.34755465 0.2262795 -0.2030567 -0.23766646 0.44344947 0.91661763 0.578889
-0.02137241 -0.33345544 -0.9448526 -0.2844199 -0.6497265 -0.94132143 0.23535478 0.119818226
-0.22682598 0.023909792 0.6472699 -0.031583156 0.65079504 0.5242055 -0.95167065 -0.09214296
0.51118964 -0.05180114 0.06888022 -0.063613355 -1.3703315 0.25360358 -0.54077774 -0.2821387
0.13321145 -0.26248732 0.17502293 -0.05403044 -0.2964938 0.2237051 0.25224975 -0.011788167
0.32243425 0.20957533 -0.3202135 -0.54290473 -0.3869007 -0.19660816 0.039734695 0.716691
1.4007503 -0.54045385 -1.0829953 -0.4286633 -0.25518557 -0.10220219 -0.030298801 0.77814794
-0.045369107 0.15142946 0.41198167 -0.03478468 -1.4771786 0.20545916 -0.3605852 -0.29584378
-0.32757944 -0.12032357 -0.2543348 0.37814918 0.8705593 0.25474992 -0.58707 0.27145252
-0.20732544 -1.2763284 0.34272653 0.005458572 -0.2836508 -0.325415 -0.027411459 0.4368541
0.3603846 -0.5625897 -0.662677 0.79770595 0.54040563 -0.26111564 -0.99027187 0.32093439
0.69822764 0.890778 -0.31531206 -0.47094184 -0.2542171 0.7715638 -0.49640858 0.5703465
0.5127287 -0.661312 0.6303983 -0.51620966 -1.3209518 -0.2691173 -1.5062138 0.46889585
0.7516861 0.2633927 -0.5492938 0.40964365 -0.6575413 -0.61330044 0.43863437 0.511405
-0.62754625 0.08241721 0.7193022 0.75002015 0.72224736 0.59382135 -0.57575774 -0.7983052
0.6032308 -0.23033004 -0.279831 0.056781657 0.49002656 -0.11695331 -0.9284217 1.1628882
1.2264334 0.62257445 -1.236585 -0.33875835 -0.28876013 -0.053270333 -0.30140093 0.746698

hidden2event.bias f4 [27]
00000000: ef37 2f3c e049 dd3d fcfe 79bd a92b 823e
00000010: f5a2 a0be 21fa aabe f20c 3fbe 0ebd cabe
00000020: e923 5b3c cb7a 64be 9c37 58be 1570 73be
00000030: 4711 16be 678e 973d 088d e3bd d4e2 8c3d
00000040: cbae 03be cbef e1be 518e 99be dddd c1be
00000050: 438d 6b3e c503 f7bd 3c01 8fbe a3b8 22be
00000060: d237 093e 5cae 81be cc5b dabe
0.010694488 0.10805106 -0.061034188 0.25423935 -0.31374326 -0.33393958 -0.18657282 -0.39597362
0.013375261 -0.22312467 -0.21114963 -0.23773225 -0.14655028 0.07400208 -0.11110884 0.068792015
-0.12859647 -0.4412826 -0.2999139 -0.3786458 0.23003106 -0.12061266 -0.2793063 -0.15890746
0.134002 -0.25328338 -0.4264816

hidden2time.weight f4 [3, 40]
00000000: 2d54 17bd 521e 383c 8a78 0e3e e7d4 00bd
00000010: ca7e 26be a7d1 b33d f338 833e b36c 7b3e
00000020: d4ab a2bd eec0 303d fa61 6bbe aed4 b23e
00000030: 4446 4bbe 9ecf 9d3e 2fe8 8fbc c6fe 70be
00000040: e2d5 04be 369c d33d ea00 c0bd cfc4 0f3c
00000050: 7d9d 04be 0ebc fd3d e4e2 8ebe 0ba8 4dbe
00000060: 2b8f 07be 130f 763d a431 4d3e 4d1a 10bd
00000070: 7ecb b43d 35d4 143e 0474 60be 2f4c f4bd
00000080: 195f 1e3e 6500 babd b526 f4bd 28f3 1bbe
00000090: 99dd 43bd 13d7 5dbe 5ebb c53d 876f 643e
000000a0: 49ad 9bbc a731 453d 4dc1 9f3d 20b3 72be
000000b0: 3ad3 32be 8b29 293e 26ac 943c 697e 91bd
000000c0: d3e8 b5bc 4c9d a83d f711 9e3c eb7d 39be
000000d0: b84e 903d 51ea 9dbe 6456 0c3d de9c f4bc
000000e0: 0770 573c ce4f 553e 955f 00be aea9 753c
000000f0: 1404 6fbd 5b09 0d3e 0510 613e 7ef9 09be
00000100: 0179 88be c96b 1bbe 67b9 b3bc 3835 84be
00000110: 2ff6 403e 5276 a83d fc70 d13c 9ef3 7ebd
00000120: 9db4 c73d d5b8 c03d 71c2 c7bd 83e4 f73c
00000130: 4f49 55bd ccd4 2fbe 2415 5e3e 92cd 863d
00000140: e8c4 0e3f 1c0a 1cbf 4796 2cbf e96c 5b3f
00000150: cbcf 203f 6cd6 edbe 4da3 19bf 6d44 303e
00000160: 404a 3f3f 476e 483f 8200 90be 25b6 86be
00000170: edfa 98be 21e0 303f 7747 0bbf 2e1e 0a3f
00000180: 0470 643f aadb 6ebf ff66 193f f33f fcbe
00000190: e5b8 9bbf 8099 c9be b609 bfbf d0f2 133f
000001a0: 1a69 1b3f 6ba8 e13e 9580 14bf 9abc c63e
000001b0: 7436 dbbe 1b74 37bf 6b30 323f 72b3 2f3f
000001c0: d3d6 3abf a74d 5a3c 5bb3 663f be32 5a3f
000001d0: 10d9 593f ef7d 133f 650e 27bf ce28 98bf
-0.03694551 0.011237698 0.1391317 -0.03145304 -0.16259304 0.087802224 0.25629386 0.24553184
-0.0794293 0.043152742 -0.22986594 0.34927887 -0.19851023 0.30822462 -0.017566768 -0.23534688
-0.12972215 0.10332529 -0.09375174 0.00877495 -0.12950702 0.12389384 -0.2790748 -0.20083635
-0.13238208 0.06007297 0.20038468 -0.035181332 0.088278756 0.14534076 -0.21919256 -0.11928593
0.15465964 -0.090821065 -0.11921445 -0.15229475 -0.047818754 -0.21664076 0.09654878 0.2230817
-0.019003527 0.048143055 0.07800541 -0.23701143 -0.17463389 0.16519754 0.018148493 -0.07104189
-0.022205746 0.08233127 0.019295676 -0.1811444 0.070462644 -0.30842832 0.034262076 -0.029859956
0.013149268 0.20831224 -0.12536462 0.014994068 -0.0583535 0.137731 0.21978767 -0.1347408
-0.2665482 -0.15177836 -0.021938993 -0.25821853 0.18843912 0.08225693 0.02556657 -0.06224405
0.09751246 0.09410254 -0.09753884 0.03026033 -0.052071866 -0.1717102 0.21687752 0.06582178
0.55769205 -0.60952926 -0.67416805 0.8571306 0.62817067 -0.46452653 -0.600148 0.17213602
0.7472267 0.7829327 -0.28125387 -0.2631084 -0.2987894 0.69091994 -0.5440592 0.539523
0.8923342 -0.9330393 0.59922785 -0.4926754 -1.21658 -0.39374924 -1.4924839 0.5779238
0.6070725 0.44073805 -0.580087 0.38815767 -0.42814982 -0.7166154 0.6960513 0.68633187
-0.72984046 0.013324178 0.90117425 0.85233676 0.85096836 0.57614034 -0.6525634 -1.1887453

hidden2time.bias f4 [3]
00000000: def1 153e c995 6e3e 64cf 6dbe
0.14643046 0.23299326 -0.23223644
