events_simulation/models/all_epochs/model_13_20180608-0526.pt (torch_old, 78237 bytes, 9 tensors)

loss_function_events.weight f4 [27]
00000000: 0000 803f 0000 803f 0000 803f 0000 803f
00000010: 0000 803f 0000 803f 0000 803f 0000 803f
00000020: 0000 803f 0000 803f 0000 803f 0000 803f
00000030: 0000 803f 0000 803f 0000 803f 0000 803f
00000040: 0000 803f 0000 803f 0000 803f 0000 803f
00000050: 0000 803f 0000 803f 0000 803f 0000 803f
00000060: 0000 803f 0000 803f 0000 803f
1.0 1.0 1.0 1.0 1.0 1.0 1.0 1.0
1.0 1.0 1.0 1.0 1.0 1.0 1.0 1.0
1.0 1.0 1.0 1.0 1.0 1.0 1.0 1.0
1.0 1.0 1.0

lstm.weight_ih_l0 f4 [160, 70]
00000000: 5840 fa3d 7a0a 8cbd 21be 2dbe a86d c53d
00000010: f1d0 3abc 1005 21bd d9f3 dabd 21c1 dfba
00000020: 5d09 223b 3fb1 cbbd 5272 553d ec8e 0e3c
00000030: a03b 7d3d 0d97 46bd c53c 1a3e 9e57 d93d
00000040: 2480 efbd a88a 2d3d 3e80 c73c 9fcf 4c3d
00000050: f6f4 283e 52ed d73c 276a d53d 3699 033d
00000060: 3a2d 883c 1a46 943d 88bb b93e 680c 113d
00000070: c1a6 993d 1025 9f3e 33b4 81bc 1007 043e
00000080: 0f7f a83c 8cf4 383e b8d4 8abc 6580 0ebe
00000090: aa0b 353e 9b96 513e 86ee 5f3e 932e 0c3e
000000a0: f658 033e 9e02 713d 8cbb a43d c397 6abc
000000b0: b4fd 003e 4a21 643e a900 9a3d daef 843d
000000c0: a760 a8bd 850f d6bc 8120 a4bd 1ab3 e2bc
000000d0: 4ee4 943d cccd 2b3d dfb5 b33d f47c d13d
000000e0: 408a 3d3e 62dc 2c3e 8620 c5bc e2ec 573e
000000f0: caa4 c23c 84df c0bc cb62 0a3e 8ddd 24bd
00000100: 81b3 e93d c4f1 a13c 787e 903d a08b 10bc
00000110: e014 67bd 08e6 5e3e 8aa3 a3bd af16 0a3e
00000120: 8b7e e33d 9be6 ce3d 18ee 153d a446 923d
00000130: 1e01 2e3e e332 f43d 7706 9d3d 0aa7 353e
00000140: 0a32 113d 2209 313e e035 033e 1f02 adbd
00000150: fd3d fcbd 7cc3 12be ec3d 113e a09a 653d
00000160: aeaa 9fbb 2d3a a93d 01a0 323e 4f77 44bd
00000170: db66 62bc 6135 0fbe f0ff 71bd 802c d33b
00000180: efad 213f c02d fdbd 9868 bebd 3b6d 003f
00000190: f5b4 67bd 9a3d 4b3e d444 e93d b963 b93d
000001a0: 902b 013e 0473 dbbd 1a18 f13d d8a8 a63d
000001b0: b1d3 20bd 58a1 e4bd ca45 623d f3f6 74bd
000001c0: aeab 463d ab8e b03d 2037 8f3d 32ea 963d
000001d0: 69b1 e5bc 0108 203e a987 383e d0d9 513d
000001e0: 30a8 f53d aee3 ad3d af4c 6ebc abef 833d
000001f0: 587a 203e ed61 8ebd 8cfc 183e 0f89 c5bc
00000200: a062 0a3e a771 073e baa9 223e 1a94 613e
00000210: 36bf 533e 6888 ca3d c0fd 003e 3889 893d
00000220: 4acc 4a3d 777e 3c3e af83 953b 584e 353e
00000230: e7be 26bd 2d4a 893c 708b efbb ca02 6fbe
00000240: dbc4 e3bd b4cb 943d 4722 07be 30f5 b43d
00000250: a5a8 9c3c 0cbe 813b 5748 873d 1a03 29be
00000260: f832 3cbd ad9b d93c afeb 6f3d 328d 8dbe
00000270: 6d8b 0cbe 6026 66bd 53b9 263e 94a4 033d
00000280: 648a 7f3e 0c66 cd3c 32d4 193b 1c40 343b
00000290: 517b f93d 976e a7bd 6286 f23e 65cc 883d
000002a0: b4de c83c 30fb 123f 8d0e fbbd 5d17 b4bc
000002b0: cbe7 0cbe 74d1 c2bd eb1d 513b 1530 173e
000002c0: ea51 22bd 61e0 053e 179b 4a3d 3d6e 0b3e
000002d0: c358 a73d 8e57 493e 8f97 5a3c 3546 c73c
000002e0: bd4f 813d 72a3 243e 1045 753d c471 d63d
000002f0: 9fe3 c3bd 87d2 383d a592 2e3d 9e68 fe3d
00000300: 4920 1a3d 22e1 d83d da03 243d eea6 6a3e
00000310: d7c4 f4bc 672e d23d 662b ee3d 5bfb af3d
00000320: ab70 e7bc 03c8 533e 262a 933d 4aa1 fbbc
00000330: e236 053e 2051 a03d 9528 c23d 2b9b 263e
00000340: 32f3 863d f309 b7bd 5635 98bd a018 7e3d
00000350: 58f5 a1bd bcae 263d 8d42 b03c fc26 89bd
00000360: 6e9e 3d3d 684d f33d 1bc9 6a3d dff2 ed3d
00000370: 065a 6eb8 3eaa 163e aa09 0d3e 98b3 89bd
00000380: 50da d6bd 8c16 d6bb f9a9 03bd 86a6 14be
00000390: fd02 cf3d 2ad8 cdbb 7a8e a53d 7fe6 053e
000003a0: 42cc 6cbc 59f6 0fbe 11c9 81bd 2554 123e
000003b0: cb7b 323f 3479 d6bd b2fb 9fbd bd00 363f
000003c0: f9bf 433d 11ef ae3b 82de dd3d 062b 1d3e
000003d0: 41d7 7b3c a01c dcbd 4c2d 583e ea34 a33c
000003e0: 0ec0 d63d 7cdd 833d 0aa1 573e 865e ad3c
000003f0: 03d0 c23d 04fd b53d 101b 14bd ffd2 8f3c
0.12219304 -0.06837936 -0.1696706 0.09640056 -0.011402355 -0.03931147 -0.106910415 -0.0017071107
0.002472482 -0.099459164 0.052110977 0.008701067 0.06182444 -0.048483897 0.15062244 0.10612415
-0.11694363 0.04236856 0.024353143 0.05000269 0.16499695 0.02635828 0.104206376 0.032128535
0.016623128 0.07239933 0.36275887 0.035412222 0.07502509 0.31082964 -0.015832996 0.12893319
0.020568399 0.18062037 -0.016947135 -0.13916166 0.1768023 0.20467608 0.21868333 0.13689642
0.12826905 0.058840387 0.08043584 -0.014318409 0.1259678 0.22278324 0.07519657 0.064910606
-0.0822156 -0.026130447 -0.08014012 -0.027673293 0.07270108 0.04194431 0.087749235 0.10228911
0.1850977 0.16880944 -0.02406336 0.21086457 0.023760218 -0.02354408 0.13514249 -0.04025035
0.11411191 0.019768603 0.07055372 -0.008822352 -0.056416392 0.21767437 -0.07990177 0.13485216
0.111081205 0.10102578 0.036604017 0.0714238 0.16992614 0.11923768 0.07667249 0.17739502
0.03544811 0.1728864 0.1281352 -0.0844767 -0.12316511 -0.14332384 0.14183778 0.056055665
-0.0048726415 0.08263049 0.17443849 -0.047965344 -0.013818468 -0.13985206 -0.05908197 0.006444514
0.63156027 -0.12362242 -0.092972934 0.5016667 -0.05656906 0.19847718 0.11390081 0.09052224
0.12614274 -0.10715297 0.11772175 0.08137673 -0.039264385 -0.111635864 0.055242337 -0.05980582
0.04850357 0.08620962 0.06992936 0.07368888 -0.028038697 0.15628053 0.180205 0.051233113
0.1199497 0.08490692 -0.01454465 0.064421974 0.1567167 -0.069522716 0.14940089 -0.024113206
0.13514185 0.13226949 0.15885058 0.22029153 0.2067841 0.09889299 0.12596798 0.067156255
0.04951123 0.18407618 0.004562817 0.17705667 -0.040709402 0.016759003 -0.0073103234 -0.23340908
-0.111215316 0.07265416 -0.1319667 0.08835828 0.019123385 0.003959423 0.066055946 -0.1650509
-0.045947045 0.02656349 0.058574375 -0.27646786 -0.13725062 -0.05618894 0.16281633 0.032139376
0.24955136 0.025073074 0.0023472426 0.0027504032 0.12181724 -0.0817539 0.4736815 0.0667961
0.024520256 0.5741453 -0.12258635 -0.021983797 -0.13760297 -0.09512606 0.0031908702 0.14764436
-0.0396289 0.13073875 0.04946431 0.13616271 0.08171227 0.19662306 0.013341798 0.02432547
0.06314037 0.16077974 0.059880316 0.10470918 -0.095649 0.04512265 0.04262032 0.12422298
0.037628446 0.10589816 0.040042736 0.22915241 -0.029879017 0.10262757 0.11629371 0.08592864
-0.028251966 0.20681767 0.071857736 -0.030716557 0.13009217 0.07827973 0.09480397 0.1627013
0.065893546 -0.089374445 -0.07432048 0.062035203 -0.07908124 0.040693983 0.021516109 -0.06696889
0.04629367 0.118799984 0.057320695 0.116185896 -5.6827463e-05 0.1471338 0.13773218 -0.06723708
-0.104908586 -0.0065334495 -0.03214452 -0.14516649 0.10107992 -0.0062818723 0.08083816 0.13076209
-0.014452996 -0.14058818 -0.063371785 0.14289911 0.69720143 -0.104723364 -0.07811679 0.71094877
0.0477905 0.0053385575 0.108334556 0.15348443 0.015371145 -0.10747647 0.2111103 0.019922692
0.1048585 0.06438729 0.21057525 0.021163236 0.09512331 0.088861495 -0.03615862 0.017556665

lstm.weight_hh_l0 f4 [160, 40]
00000000: 7a28 913b a19c 883e 3542 e6bc f839 373e
00000010: 4854 0bbe 02f0 a3bc c671 7f3d 5bd8 0fbc
00000020: a45a 9fbd b95e 993c 0465 9d3c 0919 773d
00000030: cecb f6bd c508 bb3d 6a66 e8bc 4e6a 0ebe
00000040: 199d 2f3e 8b7f 903d ef9b 9d3d 50a4 e03d
00000050: f60a 37be 093c b83d 8de0 b63c 34b5 3c3e
00000060: 2654 d23d 0e24 51be cb6c 033e 0156 1d3e
00000070: 3148 96bd 4261 d63d 198f a03b e6b7 0abd
00000080: ab35 03bd 2f20 2e3d 8795 983d 14c7 953d
00000090: 070c b23c 75c7 af3d a8a7 463e cc61 a9bd
000000a0: f823 0abd 3d12 1a3e 79ee 963d 7f1d 5e3e
000000b0: 3e04 cfbd 4909 983d 16a8 cebd 1317 bf3d
000000c0: 726d a4bd 5e0a 3bbd 3bb9 9abd 1633 5dbc
000000d0: fd7a 0e3e 7a9b 833e b87c 3ebc 9092 243d
000000e0: 8635 f33c 4d21 853d 5c9c d53e 0356 0cbe
000000f0: 343c c13d a10d 563e 8b04 943d d940 4b3e
00000100: b2c5 0c3e ff40 503d 6750 963d 2f30 55bd
00000110: b559 1f3c d51d ecbd 0fe9 dcbd abce af3d
00000120: 06b2 fe3d 09b2 803e ce14 b7bc a318 963d
00000130: 4e1d 2b3e df00 e4bd 0d6c 433e 162d 553d
00000140: 7972 b2bb e560 783e 3f4a 9b3c 543a 97bd
00000150: bab5 ddbd 8ea4 e2bd ff1a febd a074 c43d
00000160: 9299 16be 4387 933c 3a98 09bd 1b7e c83d
00000170: 4992 e73d 8767 3e3e 08b3 debc 458e bc3a
00000180: 2a29 943d 156c 3d3e 59d4 fa3d a7e3 c93d
00000190: f687 183d d909 d0bb 18d4 0dbd d6d9 123e
000001a0: af94 fa3d 6a80 08be 514a 0e3e 277d 8abd
000001b0: ba03 a3bd 7346 433c ca62 06be c0f1 e83d
000001c0: 1862 0ebc fe67 f23d f436 9ebd 29d8 4cbe
000001d0: 3478 3f3e 7e9d 663c c4ed 483e 7e5f 9abd
000001e0: f3b6 f53d 50fc 7e3d 3397 9abd 0e58 6bbd
000001f0: 92be b13d 0845 5d3e 51be 6d3d ae2b cb3d
00000200: c6f8 bbbd 7f8c bc3d 570c 95bd 3876 083e
00000210: 5696 be3d 0dee 5d3e 9f74 cd3c 92c2 b5bd
00000220: e9f9 de3d 9de4 ce3c 54b2 c13e 25ca d9bd
00000230: 102e edbd 01c7 a23e e67f 0dbd 1bb2 65bb
00000240: 9f8f 533e f442 463d 0784 a0bd 9613 c93d
00000250: c79c 993c a262 3cbc 6a12 c33d 1452 f5bd
00000260: 3e7e 363c 77f7 353d 34ac aa3d 6e86 773d
00000270: 05bc 36bd 9781 083d 2052 5bbd f57c f53c
00000280: 6827 773d e3e9 9e3e cf7e 38be 53d6 663e
00000290: f462 62be 7e16 9a3e cf02 92be 6afe 80be
000002a0: 272e e8bd b23d c93e f61e 683e ef4d 223e
000002b0: d6cf 913d ae77 b73e 90f5 433e 9b36 d2bd
000002c0: df66 9e3e 329b ae3e 32a4 173e 2537 3ebe
000002d0: 5176 44be 4a62 e03e 1d18 0ebe 9000 ae3e
000002e0: 36fb 233e 904b 2dbe 1492 b63e 068a 003e
000002f0: ae3a 11be a01a 87be aab8 1ebe dcdc 8ebd
00000300: 061c e23d 1a7d 83be 571d ad3d 646e b4be
00000310: 42ab b63d abad 50be e306 9e3e 7001 f2bd
00000320: 7d17 293e aa94 203e e5ad b53d 71e9 103d
00000330: edc4 2cbe 6764 2f3b 678a a83d 8aec c3bd
00000340: be71 9dbd 159d 233e c242 83bc 730f ac3d
00000350: f37e d7bd 2186 e43d ac56 073d a997 ab3d
00000360: b3dd 5c3e 1bc1 883d 023c 21bc 997b 96bd
00000370: 9d30 943d fcff 423e 598a 7ebd 737c 26bc
00000380: 92e0 7a3d 88ba e9bd 047a f33d e1d9 b7bd
00000390: e8e9 1bbe 4d08 083e eba3 9a3d a21d 09be
000003a0: fa7c 063e e2b7 e538 7fb6 44bd b6b1 f83d
000003b0: ba49 3d3e 73b2 3e3d 25a5 67bd b240 7c3d
000003c0: 5077 bbbd 77ca a63e d122 c8bd 9ad5 233e
000003d0: 4011 0dbe 8673 f93c 5b5f 0bbe 29ab 65bd
000003e0: fe53 bbbb beae a1bd 7d70 e43d 61ef 3b3e
000003f0: c129 8d3d 736d b03d 5e27 883d cf60 06bd
0.004429874 0.26681998 -0.028107742 0.17893207 -0.1360637 -0.020011906 0.062364362 -0.0087796105
-0.0778096 0.018721925 0.019213207 0.06032661 -0.120505914 0.09132532 -0.028369147 -0.1390774
0.17149772 0.07055577 0.076957576 0.1096884 -0.17875275 0.08995826 0.022323871 0.18428499
0.10269956 -0.2042391 0.1283447 0.15364839 -0.07337988 0.10467769 0.004899871 -0.033866785
-0.032033604 0.04251116 0.07450395 0.07313362 0.02173425 0.08582965 0.19399893 -0.082706064
-0.03372571 0.1504602 0.07369704 0.2169094 -0.10108231 0.07423646 -0.100906536 0.09330573
-0.080286875 -0.045664184 -0.07554861 -0.013500949 0.13914104 0.25704557 -0.011626415 0.040178835
0.029688608 0.06500492 0.41720855 -0.13704686 0.09435311 0.20903637 0.07227429 0.19848956
0.1374729 0.050843235 0.07339554 -0.052047905 0.009725978 -0.115291275 -0.1078664 0.08584341
0.12436299 0.2513583 -0.022348788 0.07328918 0.16710398 -0.11132979 0.19084187 0.05204495
-0.005445775 0.24255712 0.018956302 -0.07384172 -0.10825677 -0.110665426 -0.12407493 0.09592557
-0.1470702 0.018008834 -0.03359244 0.09789678 0.113071986 0.1859418 -0.027184978 0.0014385661
0.07234414 0.18498261 0.12247533 0.09857874 0.037239037 -0.00634883 -0.034626096 0.1434091
0.122353904 -0.13330236 0.13895537 -0.06762152 -0.07959695 0.011918652 -0.13123623 0.11374235
-0.00869038 0.11836241 -0.07725325 -0.20004334 0.18698198 0.014075635 0.1962195 -0.07537745
0.119977854 0.062252343 -0.0754837 -0.057457022 0.086789265 0.21608365 0.058042828 0.099204406
-0.09178309 0.09206485 -0.07277744 0.13326347 0.09306018 0.2167284 0.025080023 -0.08875002
0.1088751 0.025255496 0.37831366 -0.10634259 -0.11581051 0.31792453 -0.0345458 -0.0035048786
0.20660256 0.048403695 -0.07837682 0.09818189 0.018751515 -0.011498125 0.095249966 -0.11978546
0.011138497 0.044425454 0.083336264 0.060430937 -0.044612903 0.03332671 -0.053545117 0.02996681
0.060340315 0.31037816 -0.18017124 0.22542696 -0.2210806 0.30095285 -0.28517768 -0.25194103
-0.11336928 0.39304882 0.2266806 0.15850042 0.0711972 0.35833496 0.19136643 -0.102643214
0.3093786 0.3410278 0.1480873 -0.18575723 -0.19185759 0.4382499 -0.13876386 0.33984804
0.16013798 -0.16923356 0.35658324 0.12552652 -0.14182541 -0.263875 -0.15500131 -0.06975719
0.11040501 -0.25681382 0.08452862 -0.3524047 0.089193836 -0.20378749 0.3086463 -0.118166804
0.16512866 0.15681711 0.088710584 0.035378877 -0.16871996 0.0026762725 0.08229523 -0.095666006
-0.0768771 0.15977891 -0.016023044 0.08401384 -0.105222605 0.111583956 0.03304164 0.08378536
0.21568947 0.06677457 -0.009840967 -0.07347793 0.07235835 0.19042963 -0.062143657 -0.010161507
0.061249323 -0.11412531 0.11888507 -0.08977104 -0.15225947 0.13284416 0.07550796 -0.1339021
0.13133612 0.00010953822 -0.048025604 0.12143271 0.18485156 0.0465569 -0.05655398 0.061585136
-0.091536164 0.32576343 -0.09772266 0.15999451 -0.13776112 0.030450594 -0.13610594 -0.056071434
-0.0057167998 -0.078946576 0.11154268 0.18353035 0.068927296 0.08614626 0.06648134 -0.032807168

lstm.bias_ih_l0 f4 [160]
00000000: 3890 46bd ff9a 853d ba54 253e a2cf 39bc
00000010: c5e3 9c3d 376a 543e 7ebe 273e 0617 5f3e
00000020: 6190 ab3d 8db3 9c3d 777e d63d 1a59 3e3e
00000030: 8c2c 0a3e 3bcf a4bc 2d4b 0cbd 8d88 8fbd
00000040: 1730 f03c d551 2c3e 49d7 813e b04c 523d
00000050: 0f0e 803d 0311 0e3e cd64 2a3d 2aea 413c
00000060: dd0c 733e e41b 473c 2327 bd3d ca80 82bd
00000070: b4c3 89bd ed4b 013e 8e78 763d f395 4bbd
00000080: c582 783d a6c9 8b3e e639 303e f2df 503e
00000090: 5907 2a3e 8273 c13d 59cd 003e 9540 333e
000000a0: 6284 0b3e 0710 b83d 67d0 ee3c 4d78 603e
000000b0: 297e 8abc 2e8d 0d3e aeff c5bd a15b 1c3e
000000c0: bac8 b63c 14e4 573e 8abe b73d fee9 0a3e
000000d0: f7db fc3c d740 d43d b2b7 b03d 9855 ea3d
000000e0: 0ede a3bc b704 d5bc 7d7e df3d cbbb 113e
000000f0: d7c1 083e 41c9 61bb 18b1 ccbd 1c42 e83c
00000100: 3a54 8a3d 98ff cebd d964 1d3e 71c8 d23c
00000110: e53f fc3d fb4a ecbd 043a 9b3b de5b 78bb
00000120: aecb d83d b6d1 13be 4aae 573d 645a 56bc
00000130: 3cab abbd 95ca 0dbd a8b5 11bc 1b2a 5bbd
00000140: 8f89 c53d 61ee c53b 5916 343c 6158 80bd
00000150: ada1 b7bd e916 e83d a0ac 47be c76a 1cbe
00000160: 9b7b 01be 7928 1c3e 5133 7c3d 8b3b ff3c
00000170: b452 04be a539 babd a220 9e3d 31c6 933d
00000180: b50c a3bd ad4a 403e fffe 463e a152 3bbe
00000190: 8548 a93c 9368 123d b071 04be 8940 3b3e
000001a0: 509b b0bd 1448 aebd 4ff5 d13d 688c 763d
000001b0: 1992 803d 6826 ae3d 99ea cbbd 5e75 3dbe
000001c0: 338c 18bd 6257 1bbe 24b9 893d 25e2 1cbe
000001d0: cc56 9b3d aea8 99bd 80a0 a13c f94f 7ebd
000001e0: 6753 033e 7ffa 183e 83bd 083e 9968 ea3c
000001f0: 68a0 b73e 3efb ff3d 6393 183e b72c de3d
00000200: 6ee0 6cbd 7ce9 ab3c 9946 2abd acf7 093e
00000210: 37e4 a03e 09bf 143e da66 fa3d 0af2 233e
00000220: 69f3 bd3c 0de2 133e 7be3 203e 7a22 1fbd
00000230: 6041 343e 31b0 763e ef5e 9e3d f3b2 023d
00000240: 7b5b ce3d f426 59bd 63c8 d53d 691e 443d
00000250: b6d8 54bd bd03 913e 0d52 9f3d 86a7 92bd
00000260: 4ef0 3dbc 024b 683e 2f23 533e c1f4 393e
00000270: 5ab8 ff3d 8ef6 c13b 3d27 793d e0a8 fa3d
-0.04847738 0.06523704 0.16145602 -0.011341007 0.07660631 0.20743643 0.16381261 0.21786126
0.083771475 0.07651434 0.1047334 0.18588677 0.13493556 -0.020118346 -0.03425138 -0.07008467
0.029319806 0.16828091 0.25359562 0.051342666 0.062526815 0.13873677 0.041600037 0.011835614
0.23735376 0.012152646 0.0923598 -0.06372221 -0.067267805 0.1262662 0.060173564 -0.04970355
0.060671587 0.27302283 0.17209587 0.20397928 0.16604365 0.094458595 0.12578334 0.17505105
0.13624719 0.08987432 0.029152108 0.21920891 -0.016905861 0.13823387 -0.09667908 0.15269329
0.02231251 0.21083099 0.08971889 0.13565823 0.030866606 0.1036393 0.08628787 0.11442107
-0.020003345 -0.026003225 0.109127976 0.14231794 0.13355194 -0.0034452232 -0.099947155 0.028351836
0.06754346 -0.101073444 0.15370502 0.025730344 0.123168744 -0.11537739 0.0047371406 -0.0037896554
0.10585724 -0.14435467 0.05265645 -0.013083074 -0.0838227 -0.034617025 -0.008893408 -0.05350695
0.09645378 0.00604038 0.010991656 -0.06266857 -0.08966384 0.11332495 -0.19499445 -0.15275107
-0.12644808 0.15249814 0.061572377 0.031156322 -0.12922174 -0.09093026 0.07721068 0.072155364
-0.07961408 0.18778487 0.19433211 -0.18293239 0.020664463 0.03574426 -0.12933993 0.18286337
-0.086233735 -0.085098416 0.10251867 0.060192496 0.06277866 0.08503419 -0.09956855 -0.18501803
-0.03724308 -0.15170053 0.06724766 -0.15320642 0.075849146 -0.07502876 0.019729853 -0.062087987
0.12824784 0.14939307 0.13353543 0.02861433 0.35864568 0.124990925 0.14899974 0.108483724
-0.05783122 0.020985357 -0.041571233 0.13473386 0.31424114 0.14525999 0.12226649 0.160103
0.023187356 0.144417 0.15711777 -0.03885124 0.17603064 0.24090649 0.07732951 0.03190894
0.10076042 -0.053015664 0.10438611 0.047880564 -0.051964484 0.28323165 0.07779322 -0.07160859
-0.011592938 0.22684863 0.2061889 0.18159772 0.12486334 0.005919284 0.060828436 0.122392416

lstm.bias_hh_l0 f4 [160]
00000000: 599b 003e ec7e f2ba 3a9c 8f3d 8ca8 123c
00000010: d93d c33d a3d3 ba3c 1167 7abd 3337 c5bb
00000020: 9cf0 a53d 6d58 c63d ea47 c9bc 30f5 263e
00000030: b9d0 de3d e2f4 4c3e 6ebf 573e a194 123e
00000040: 73a5 1f3e 236e 113e 6e62 643e 7c71 4ebd
00000050: 75d0 383d bf70 e23d ab69 98bb 7a12 193e
00000060: 25db 3c3e 627d 2d3d 7a4c 013d 9291 143e
00000070: b651 943d 803e a13e a216 423e a6ef d63d
00000080: 3f98 113e 9474 8d3e ba62 823d b6b2 50bd
00000090: b015 b9bc 50e2 bebc 4a34 fc3d 9d5b 143e
000000a0: 609a bd3c 02be 883c c273 a2bc e090 89bd
000000b0: ed94 afbd e034 ae3d 0904 233d 2be5 b23d
000000c0: e371 e4bd d314 313e c643 b63c baca 393e
000000d0: 5d76 b2bc 20cb 4d3e d400 c53d a1c2 1bbd
000000e0: f036 3c3d 013d 153e e0e3 7d3d b691 e4bd
000000f0: 251b 3a3d d17b 8ebd 5f76 203e e248 ab3d
00000100: c8bd fd3d 755a 65bd f732 b73d a612 84bd
00000110: 869e 0d3e f500 8d3d 9b72 8bba f0c4 87bd
00000120: d416 ef3d 2757 0d3d b7a1 84bd d0d7 f43d
00000130: a608 9dbd d463 25bc 6faf 563e 041d 2e3e
00000140: bf43 c83b 7907 82bd 04fd 4c3d a15c 3a3e
00000150: 7829 92bb a64d 503e fd5a c8bd ca1c fcbd
00000160: a7b7 783d e558 313e aa5a 213e ba95 54bc
00000170: 3d3c cf3d 9528 563d f0f4 9ebd 72a6 a5bd
00000180: ae57 8dbb ec35 e3bd f2f7 06bd 8cb4 2cbe
00000190: 3d99 06be b926 5e3e d8a7 48be ce92 793d
000001a0: 52fd 033e dc10 0cbe 124e 2b3d 918a 423e
000001b0: d3a9 33be 7c41 c9bd 5b5c efbd 4425 cc3c
000001c0: 599a cc3d c79a 9cbd c619 9ebd f0c9 37be
000001d0: 6e46 33bd 44b5 7c3d 5d14 2d3e 1f1d c3bd
000001e0: 6567 013e 4920 253e 83e3 27be 1ac8 753d
000001f0: da25 953e dee8 283e 8b5b 173e 9dad 483e
00000200: a47a aeba a884 2a3e b03e 253e 565e d43d
00000210: c912 1f3e 0787 10be f7ec 203c edfd 403d
00000220: 3aac 793e 11d1 f9bc 86a0 8f3e f301 833c
00000230: 27da 313c c4a9 963e a5ad 86bd d353 213e
00000240: 2411 4b3c 8d15 163e efc7 f43d 3c45 033d
00000250: c7fc aabd 98f5 ad3e 17d6 a3bd f8f0 8e3d
00000260: 624f b0bd b07c 603e e9b9 943e 2b38 033d
00000270: 1c35 1e3e 612d b13d 3666 823c 8883 2f3e
0.1255926 -0.001850096 0.0701222 0.0089513175 0.09533281 0.022805994 -0.061133448 -0.006018543
0.08102533 0.09684835 -0.024570424 0.16304469 0.108796544 0.2001529 0.21069118 0.1431451
0.15590458 0.1420217 0.22303173 -0.050401196 0.045120675 0.11056661 -0.0046512685 0.14948454
0.18442972 0.042355902 0.031567074 0.14508656 0.072421476 0.31492996 0.18953946 0.10494928
0.14218234 0.27628005 0.06366487 -0.050951682 -0.02259335 -0.023301274 0.12314661 0.14488073
0.0231449 0.016692165 -0.019830588 -0.06717086 -0.08573327 0.08506179 0.03979877 0.087351166
-0.11154535 0.172931 0.022249114 0.1814374 -0.021784956 0.20097017 0.096192986 -0.03802741
0.04595083 0.14574052 0.061984897 -0.11160605 0.045436043 -0.0695721 0.15670155 0.08363511
0.123897135 -0.05599447 0.08945268 -0.064488694 0.13830003 0.06884948 -0.0010639013 -0.0662936
0.11674276 0.034506943 -0.06476157 0.119552255 -0.07667665 -0.010094602 0.2096536 0.17003256
0.0061115916 -0.063490815 0.050045982 0.18199398 -0.00446051 0.2034212 -0.0978298 -0.123101786
0.06072202 0.17319067 0.15757242 -0.012975151 0.101189114 0.052284796 -0.07761562 -0.080883875
-0.0043134307 -0.11094269 -0.032951303 -0.16865748 -0.13144393 0.21694459 -0.19595277 0.06093102
0.12889603 -0.13678306 0.0418225 0.18998171 -0.17545252 -0.09826943 -0.11687537 0.024920113
0.09990377 -0.07646709 -0.0771976 -0.17948127 -0.04376834 0.061696306 0.16902299 -0.09527039
0.12637098 0.16125597 -0.16395383 0.060005285 0.2913044 0.16495082 0.14781015 0.19597478
-0.0013311696 0.16652167 0.16137195 0.10369556 0.1553451 -0.14114009 0.009822122 0.047117162
0.24382105 -0.030495198 0.28052157 0.01599214 0.010855234 0.29426396 -0.06576089 0.15754633
0.012394223 0.14656658 0.11952197 0.03204845 -0.08348995 0.33976436 -0.07999819 0.06979555
-0.08608891 0.21922565 0.29048088 0.032035988 0.15449947 0.086512335 0.015917879 0.17140019

hidden2event.weight f4 [27, 40]
00000000: 37dc 29be c0c3 8ebd 8633 233e 8620 85be
00000010: aece 1ebe e54e d7bd fb5a c73c 9590 383e
00000020: e678 53bd ea4c 29be 7e2c 983a df90 f0bd
00000030: 9260 cbbe 2ab8 7d3d 0afc 5bbe fb44 47be
00000040: b6a0 933c d7ad e33d a326 463f 237b fd3d
00000050: 3d05 a23d 0042 b43e 8a1a a8bd bef8 9b3d
00000060: 7977 73bd 09ef 893d 3734 843c c172 81be
00000070: e48a 5d3e 6090 73bd 6179 7ebd 4ad2 663e
00000080: 7a6d 12be a910 6fbe 2cfd e5bd b512 d9bd
00000090: 756f 693d 4177 98bd 2103 973c 3c63 6abc
000000a0: 598e 56be 806a 873e 0ab5 7b3e 0d5e 3b3d
000000b0: 967d f9bd 77d2 473d aa29 de3d 5eba 61be
000000c0: 026b 35be 3f91 553e db67 0d3e 942a 03be
000000d0: 7551 06bf 1b1a 443d 78d7 c4bd 0974 5dbe
000000e0: 4054 3bbe d71a bd3d 745d 333f 148d 573e
000000f0: 2e3f 023e 988c f43e 1bf9 3cbe 9a96 463e
00000100: d61b 053e 5e2a aabd e23f 743d f353 5cbe
00000110: 4afb 903e b972 d2bd 290d 0fbe f9d4 4ebe
00000120: 1329 143e fefa 95be fa03 9dbd d1c0 4abe
00000130: 75b9 2c3d ae8b 1ebe a2c3 9b3e 66ec 43bd
00000140: 961c 4cbe 24e7 06be af4d 5bbe 7688 05be
00000150: f419 223e 17f7 1f3e 2b4e 52be 3fec dabd
00000160: 8d65 f33d 747e 0a3d 743b db3c 8ef5 51bd
00000170: 70e3 20bf 306d dbbd c317 07bd 19a6 33be
00000180: 706c 153e ace0 463e 5e4e 223f eee0 873e
00000190: d994 62bd bc46 2e3f 9886 3b3d 40b4 c13d
000001a0: 120f 38bd 9abe 37be bf99 f63d a4cd f7bd
000001b0: c122 4c3e 516b 93bc 2af8 723e 393f 8b3e
000001c0: 752a 1e3e 9944 d3be f90d 4dbe e2dc 35be
000001d0: a0d8 1b3e a2ae bf3d ed7d abbe 7509 9dbd
000001e0: c51c af3e e199 943e 7123 c8be 4064 26be
000001f0: aedb 26bf f460 47be 1817 be3e 0c85 7dbd
00000200: d1f7 fabd 4755 e53e e67a c53e 1c39 443e
00000210: c8ec 243e 4e70 023f c278 babd 1bc2 ddbe
00000220: 15e2 94be f91d 153d acd7 fdbe ede5 cdbd
00000230: 42cf 90be 118e 563f 1599 8a3e dc57 f33e
00000240: 6040 86be ed41 03bf c80b 44be 49ed 743e
00000250: b8bd 4abe b30b 423f 7d66 c9bc aee2 a23e
00000260: 22bb cc3c 35c3 14bf 87e9 cebd c45b c23e
00000270: 7ae2 b33d febe 853e 5613 963e 9dc6 9e3e
00000280: ecb9 a93d 6c83 da3e 6197 363d b45e 523e
00000290: 4e6f 113f f73e 513e e084 983c 4fd4 2e3e
000002a0: deaa 0f3a bc85 00bf b217 c5be 66b2 cbbd
000002b0: d9e6 003d c61c 6dba e5c1 69be c198 babd
000002c0: 0825 1e3e 4554 d13a 1a95 a0bf 2ff2 c9be
000002d0: bdb5 013e 3cc5 753e 5754 84ba 17c5 243e
000002e0: ef70 c0be 68da 033e 596e 4fbe 68f3 2a3d
000002f0: 2f93 fdbe 051a e13e c702 a13e 1aa1 eebc
00000300: f228 09be deb2 c7bd 61a7 893e 8f64 e0be
00000310: f108 333d 8649 0b3c 1dbd 9e3e fb57 253e
00000320: 5514 39be bd8d aebe ec6b c93e 9e0e 09be
00000330: 3d3a 8c3e 24bf 26be c69e 7d3d 3b17 923e
00000340: 9ace 803e 5ae9 0cbe 879f 46be 0bcc 3fbe
00000350: 1a29 2abd a24b cdbe 5a35 6bbe f186 593e
00000360: 477f dabd 2828 74be 69a3 3dbe bc6b b13e
00000370: 53a1 9b3e 9804 e1be 2ebd 043e 7512 adbd
00000380: 3965 71bd dd55 8f3e d9b6 3fbd 8441 a3be
00000390: 8d1c 2f3e 145f 723e d0f9 3a3e 3b24 1a3e
000003a0: 5b34 91bd d06a 2d3f cc1a dcbd 20bc bb3e
000003b0: 33bf 98bd f4d3 b33e b26c 9abe 118e 8d3e
000003c0: 08ea a6bd f028 87be c291 733e b9c8 92be
000003d0: 8cc4 5c3e 8656 7ebe 1240 503e a929 593e
000003e0: 99ce 7b3e 5f64 98be 1ce6 2bbe 2bcd e8bd
000003f0: 11ea 403e f9d7 3abe b251 90be c9c0 983d
-0.16587912 -0.0697093 0.15937623 -0.26001376 -0.1550853 -0.10513095 0.024335375 0.18023904
-0.05162897 -0.16533247 0.0011609939 -0.11746382 -0.39722115 0.06194321 -0.21482864 -0.19459908
0.018020969 0.11117142 0.77402705 0.12377002 0.079111554 0.35206604 -0.08208187 0.07615803
-0.05944011 0.067350455 0.01613818 -0.25282863 0.21635014 -0.05946386 -0.062127475 0.22541156
-0.14299574 -0.23346199 -0.11229929 -0.10599271 0.05699106 -0.07444621 0.01843411 -0.014305886
-0.20952739 0.2644844 0.2458078 0.04574399 -0.12182157 0.0487847 0.108477905 -0.2204375
-0.17716601 0.20856188 0.13809149 -0.12809211 -0.52468044 0.04787646 -0.0961141 -0.21626295
-0.18293858 0.09233635 0.70064473 0.21049911 0.12719414 0.47763515 -0.18454401 0.19393387
0.129989 -0.08308862 0.059631236 -0.21516399 0.28316718 -0.10275788 -0.13969864 -0.2019843
0.14468794 -0.29293054 -0.07666774 -0.19800116 0.042169053 -0.15482971 0.30422693 -0.04783287
-0.1993278 -0.1317411 -0.21416353 -0.13040337 0.15830213 0.15621601 -0.20537631 -0.106895916
0.11884604 0.033812 0.026761748 -0.05125957 -0.6284704 -0.10714185 -0.032981645 -0.1754383
0.14592147 0.19421643 0.6340083 0.26538795 -0.055317733 0.6807668 0.045782655 0.09458208
-0.044936247 -0.17943802 0.120410435 -0.1209977 0.19935133 -0.017995508 0.2372748 0.27196673
0.15445884 -0.41263273 -0.20024861 -0.17760041 0.15219355 0.093594804 -0.3349451 -0.076678194
0.34201637 0.2902365 -0.3908954 -0.1624918 -0.65178955 -0.19470578 0.37126994 -0.06189446
-0.122542985 0.44791624 0.38570327 0.1916241 0.1610595 0.50952613 -0.09105064 -0.43312153
-0.29078737 0.036405537 -0.49578607 -0.100536205 -0.28283125 0.83810526 0.27069917 0.4752797
-0.2622099 -0.5127247 -0.19145119 0.23918642 -0.19798934 0.757991 -0.024585003 0.31813568
0.024991576 -0.5811036 -0.101031356 0.37960637 0.08783431 0.26122278 0.29311627 0.31010905
0.08287415 0.42678392 0.04457796 0.20543939 0.5681046 0.20434175 0.018618047 0.17073177
0.0005480478 -0.5020406 -0.3849464 -0.09946136 0.031470153 -0.000904512 -0.22827871 -0.09111167
0.15443814 0.0015970549 -1.2545502 -0.39442584 0.12666984 0.2400102 -0.0010095936 0.16090809
-0.37586161 0.12876284 -0.20256938 0.041736037 -0.49526355 0.43965164 0.3144743 -0.029129554
-0.13394526 -0.09750913 0.26885512 -0.4382672 0.0437097 0.008501416 0.31003657 0.16146843
-0.18074162 -0.34092513 0.3934015 -0.13384482 0.27388182 -0.16283852 0.061918996 0.28533348
0.25157624 -0.13760892 -0.19396792 -0.1873018 -0.041543104 -0.40096766 -0.22969571 0.21242882
-0.106688075 -0.23843443 -0.18519367 0.34652507 0.30396518 -0.43948817 0.12962791 -0.08450786
-0.058934424 0.27995196 -0.046805236 -0.31885922 0.17100735 0.23669082 0.18259358 0.15052883
-0.07090064 0.6774111 -0.107472986 0.36666965 -0.07458343 0.35122645 -0.30161053 0.2764745
-0.08150107 -0.2639842 0.23786071 -0.28668764 0.21559352 -0.24837694 0.20336941 0.21207298
0.2459053 -0.29764077 -0.16786999 -0.11367258 0.18839289 -0.1824645 -0.2818733 0.07458646

hidden2event.bias f4 [27]
00000000: 0ead e4bd bdf8 7cbd 89a2 3c3d ec47 053e
00000010: dc23 063e 24cb 82be b26e ffbd b607 e2bd
00000020: c3a0 763e 1a55 c93d 71ac c4bd 8813 efbc
00000030: d4a5 2bbe 2afd 473e d91d bc3b 0db3 6a3e
00000040: 18db ccbd 06a4 cfbd 8522 653d 3775 cd3d
00000050: 3197 67bd 4bae 413d 89d9 bcbd 1937 d9bd
00000060: 0787 9a3c 9f80 6abe ec31 a9bd
-0.1116582 -0.061760653 0.046053443 0.13015717 0.13099617 -0.2554561 -0.12472285 -0.11036627
0.24084763 0.09830685 -0.09603203 -0.029184118 -0.16762477 0.19530168 0.005740863 0.22919865
-0.10002726 -0.10138707 0.055941124 0.100321226 -0.05654067 0.04728536 -0.09221179 -0.10606212
0.018863214 -0.22900628 -0.08261475

hidden2time.weight f4 [3, 40]
00000000: 808b 97bd a391 8abd f820 63be 173d 2a3e
00000010: 5e7d 85be 341d 2a3e 5492 54bd b618 eebd
00000020: e183 9dbd 2853 073e d394 1c3e 9f3c 173e
00000030: e383 39be 88d3 f23d a47b 303d 7185 83bd
00000040: f59c 543e c959 863e 8170 82be c4f7 47be
00000050: 0358 15be 98d4 6ebe 4602 48be 5361 913d
00000060: 0320 e63d 1a8f 2dbe f84f fc3d 3446 173e
00000070: 6f49 173e 9b9a 1a3e cc53 b33d fba8 0abc
00000080: 3146 133e 79bf 92bc 44c7 573e 18ec 72bd
00000090: 6f35 f33d bdf0 f5bc 2366 233e ed4f 813d
000000a0: 54ad 7f3c 9a2f 75bd 010e a6bd 32a0 2a3e
000000b0: 66cb 05be 5a2f 90bd be97 3dbe f48e 413c
000000c0: a680 493d 740a a43d d323 903d 2a63 753e
000000d0: 99cf 2a3e db39 7fbd 72d2 e73b a54c 1bbe
000000e0: 8e0f a939 f3d2 09bc 256c b23e bc2e 9b3c
000000f0: 9839 d2bd 8495 343e d33d 2abe b9ac ab3d
00000100: c621 1ebd 8ec0 d13c 0720 223e 7f4a f4bd
00000110: 585a 23be a729 a9be 2aaf 2dbe 6ff6 483c
00000120: 54aa fc3d b9fa 7abe 3cac 143e bb04 4cbe
00000130: e582 4c3e ccc8 29be 944a 04bd 392b 47be
00000140: 5104 77be 09f7 55be 1379 e33e a963 21be
00000150: e3d1 0a3e 7681 55be a5f9 073e 4510 983e
00000160: 08f1 e93e 30c8 25be 748c f8bc 9dc8 5abe
00000170: 1384 d73d 1ef4 77be 81cd 95be 48e9 783e
00000180: c5aa 35be 258c 86be 45a0 97bd fccb ba3e
00000190: 7078 9a3d 7a8c 12bf 02d1 843e 84b0 b5be
000001a0: 48b9 a4be bbff a43e 9543 9bbe 858d 8abe
000001b0: b9b5 bb3e 2df1 a13e 14c4 413e f26a b83e
000001c0: 47e3 8dbe 9b1c 923e 13e5 73be 0a21 c23e
000001d0: 51c1 b8bd 35c7 4f3e 6bf5 5ebe dc8b 7a3e
-0.073996544 -0.06766059 -0.22180545 0.16624866 -0.2607221 0.16612703 -0.051897362 -0.11625807
-0.076911695 0.13215315 0.15291147 0.14769219 -0.18116717 0.11856753 0.043086663 -0.06421936
0.20763 0.26240376 -0.2547646 -0.19528109 -0.14584355 -0.23323286 -0.19532117 0.07098641
0.112365745 -0.1694912 0.1231994 0.14772874 0.14774106 0.1509804 0.08756217 -0.00846314
0.14382245 -0.017913567 0.21072108 -0.059307188 0.11875426 -0.03002202 0.15956931 0.06314073
0.0156052895 -0.05985985 -0.0810814 0.16662672 -0.13065872 -0.070402816 -0.18514916 0.011813868
0.049194954 0.08009806 0.07038083 0.2396361 0.16680755 -0.062311035 0.0070746476 -0.15165956
0.0003224578 -0.008412111 0.34848133 0.018943183 -0.102648914 0.1763516 -0.16625147 0.083825536
-0.038606428 0.025604513 0.1583253 -0.119282715 -0.15952432 -0.3303959 -0.16961351 0.012265786
0.12337175 -0.24509706 0.14518827 -0.1992368 0.19971807 -0.16580504 -0.032297686 -0.19450082
-0.2412274 -0.20895018 0.4442831 -0.15760674 0.13556628 -0.20850167 0.13278826 0.29699913
0.45691705 -0.16189647 -0.03034041 -0.2136559 0.10523238 -0.24214217 -0.2925835 0.2430774
-0.17740925 -0.26278797 -0.07403616 0.36483753 0.07542503 -0.572456 0.2594071 -0.35486233
-0.32172608 0.32226357 -0.30324998 -0.27061096 0.3666208 0.31629315 0.18922454 0.36019093
-0.2771246 0.2853745 -0.23817854 0.37915832 -0.09021247 0.20290835 -0.21773307 0.24467415

hidden2time.bias f4 [3]
00000000: 23b5 3ebc 1790 3a3e dd7e fcbc
-0.011639866 0.18219028 -0.030822212
