events_simulation/models/all_epochs/model_24_20180529-0956.pt (torch_old, 78354 bytes, 9 tensors)

loss_function_events.weight f4 [27]
00000000: 0000 803f 0000 803f 0000 803f 0000 803f
00000010: 0000 803f 0000 803f 0000 803f 0000 803f
00000020: 0000 803f 0000 803f 0000 803f 0000 803f
00000030: 0000 803f 0000 803f 0000 803f 0000 803f
00000040: 0000 803f 0000 803f 0000 803f 0000 803f
00000050: 0000 803f 0000 803f 0000 803f 0000 803f
00000060: 0000 803f 0000 803f 0000 803f
1.0 1.0 1.0 1.0 1.0 1.0 1.0 1.0
1.0 1.0 1.0 1.0 1.0 1.0 1.0 1.0
1.0 1.0 1.0 1.0 1.0 1.0 1.0 1.0
1.0 1.0 1.0

lstm.weight_ih_l0 f4 [160, 70]
00000000: b541 dbbf 2213 d9bf 27ba f0bf 9daa 373f
00000010: 7b53 06c0 09b9 1d3e 0448 3b3e 49b8 35c0
00000020: 0c7a 3d3f 3292 b8bf 171c ddbf 2b48 533f
00000030: a2d1 67bf 2cba e6bf fa26 b8bf 5c8c 4a3f
00000040: 2023 1ec0 9c49 5fbd e5b3 8e3f 00dc 1ac0
00000050: 6661 393f 5500 d9bf 88a9 3fbf 4910 093f
00000060: af35 45bf dd58 14be 1f38 203f 3d67 f1bd
00000070: a10b f93d 4397 253f 163a 203f 5008 1abe
00000080: 481f d63e 854a dc3e d285 32bf 1e35 b4bd
00000090: a1b0 b93e a2ab 0e3d acc6 2f3d c4ec 16bf
000000a0: c1a5 6e3e 00c9 1e3f f240 abbe 1bcc b4be
000000b0: 56c9 a53d 61d4 383f 3ae0 39be 5afd 2e3d
000000c0: 3879 0a3f 2899 2f3e d753 b53e 59b5 f33d
000000d0: 3d07 66bf 1176 16bd 1417 c1bd f275 7a3e
000000e0: bef3 b93d c110 79be 798a 65bc 5507 483e
000000f0: 9682 f53d 115c 71be ec57 eb3e 14bc 5b3f
00000100: 0f1e dfbe 102d 013e d98c 0ebf 1f99 073d
00000110: afc5 fa3e c58a a53e 0d02 00c0 560c eebf
00000120: 53d3 15c0 7397 1740 aeff b7bf 9140 e9bd
00000130: c109 cdbf 2d14 d0bf 1031 343f 83aa 5bc0
00000140: 8e3a 12c0 96e7 31c0 2179 cbbf 1886 afbf
00000150: 8ad7 bdbf e301 173e 1fb4 21bf bb6b babd
00000160: a5e2 dcbf 01ea 9bbf 8210 0440 266f a1bf
00000170: 83ff a2bf e943 8e3f 6c59 363f 00dc 0cba
00000180: 9f08 eb3f 413d 82bf ad39 4e40 f3b4 f23f
00000190: b0c8 fb3e 3c60 0c3f a0b3 87be b7ca 57be
000001a0: 0f04 7b3f 8646 573f 3d63 3e3f deed 4a3d
000001b0: eb0c a6be 622b febb b117 8f3d 00d9 22be
000001c0: 70e6 a43e 5c4c 493c c1eb 9d3e c4a1 43bf
000001d0: 9ced fb3e 9f91 ae3f a458 4d3f d01e 2cbe
000001e0: 4e44 1abf ea9b d83e 80f2 b43e a524 9fbe
000001f0: b779 2cbe 5a3d c5be cbf1 a0bd ed4d 083e
00000200: 96e8 fd3e 33b8 1ebe b9e7 373e ea93 68be
00000210: f773 8e3e ebbe 1c3f bc39 31bd 5955 55be
00000220: 8636 223f bb25 e2bc f554 92be bc18 71be
00000230: a833 9dbf 9584 603f b971 02c0 d780 97be
00000240: c99c a5bf ef4a 07be 05df 48bf a72d 3ebf
00000250: 02b5 f33f d5ad 773f b3bb 9cbf 08f7 a33c
00000260: 4ae8 91bf e01d b73f d611 27c0 ea82 d13e
00000270: e5e9 33bf 208f 1bbe 142c 1fbf 09e7 81bf
00000280: cb44 0d3f aaa6 453f 6866 98bf 5c7a ffbf
00000290: d0e8 41bf b434 3cbd a7bb 0a3e 4c95 ad3f
000002a0: b7e6 f2be 1515 073d 81d4 793f 969e 48be
000002b0: f06f 163f d4aa 34bf c2e1 5e3d 6499 8e3e
000002c0: 478d 33bd 44e4 8d3d c221 3fbf bc1e 29be
000002d0: 683a f5be 3560 143f 0fd0 28bf 48ba 59bf
000002e0: cc7c 35be 948b 26bf bbeb 2a3e 6910 1b3f
000002f0: a572 35be c608 c7bd 4ab0 40bd 9cc4 903e
00000300: 67f5 62be b4b4 1ebd 7a40 87be 5afa 24bf
00000310: bcee 193d 03ce fa3e b980 603f 73ba 87bc
00000320: 3093 9bbe f1c0 8a3d 6727 0dbe 6ca5 9c3d
00000330: 7e37 243f 9b26 0ebf 753b 5dbf e717 a33e
00000340: 8381 83be f0f6 b7bd 1a54 213f f025 0c3f
00000350: 0ff6 90be 5b3e 2f3e 0d01 9cbf 47f5 f2bd
00000360: c932 f93f 14ab 833f 416d 7ebf d860 2f3f
00000370: 5085 29bf 8862 a340 e4df bb3f 9b7d 623f
00000380: f85f 90bf cfd5 4b3f b425 ea3f cced 033d
00000390: f474 32be 9367 c53f 6bbb d9bf b2e1 db3e
000003a0: 4d73 71be e302 5a40 ea74 b9bf 492f 0d3e
000003b0: 2872 1e3f 5daa f9bf d264 073f 73f7 f33e
000003c0: fcab 473e 4427 3e3e e565 e5be 5bbe e2be
000003d0: 4f98 1abe aea1 1b3e f521 ac3e 1338 fd3d
000003e0: 6169 bdbc 1496 1fbe 0b9c acbd bcf6 07bf
000003f0: cb62 f0bd a6b1 41bc 91b2 b43e bf38 4b3f
-1.7129427 -1.6958964 -1.8806809 0.7174471 -2.0988452 0.15402617 0.1828919 -2.8393729
0.74014354 -1.4419615 -1.7274197 0.82531995 -0.9055425 -1.8025565 -1.4386895 0.7912042
-2.4708939 -0.05451356 1.114865 -2.4196777 0.72414243 -1.6953226 -0.7486806 0.53540474
-0.7703504 -0.14487024 0.62585634 -0.11787269 0.12160421 0.6468393 0.6258863 -0.15042233
0.4182074 0.43025604 -0.69735444 -0.08799194 0.3626757 0.03483165 0.042914078 -0.58955026
0.23305418 0.6202545 -0.33447987 -0.3531197 0.080950424 0.72199064 -0.18151942 0.042722084
0.54091215 0.17148268 0.35415527 0.11899824 -0.89854795 -0.03673369 -0.0942823 0.24459055
0.09079693 -0.24322797 -0.014010065 0.19534047 0.11987798 -0.23570277 0.45965517 0.8583386
-0.4357762 0.12614846 -0.55683666 0.033105012 0.48978946 0.32332435 -2.0001252 -1.8597515
-2.3410232 2.3686187 -1.4374902 -0.11389268 -1.6018602 -1.6256157 0.70387363 -3.4322822
-2.284824 -2.77976 -1.5896341 -1.3712797 -1.4831402 0.14746813 -0.6316547 -0.09102579
-1.7256666 -1.2180787 2.0635076 -1.2612045 -1.2734226 1.1114475 0.71230197 -0.0005373359
1.8362006 -1.0174943 3.2222703 1.8961471 0.4917655 0.5483434 -0.2650423 -0.21073423
0.9805307 0.84091985 0.74370176 0.049543254 -0.3243173 -0.0077566365 0.06986941 -0.15903091
0.3220706 0.012286272 0.30843928 -0.7641871 0.4920472 1.363819 0.8021338 -0.16808629
-0.60260475 0.42306453 0.35341263 -0.31082645 -0.16843306 -0.3852337 -0.07858618 0.13310976
0.4959151 -0.15499954 0.17959489 -0.22712675 0.2782285 0.6122882 -0.04326795 -0.20833339
0.63364446 -0.027605882 -0.28580442 -0.23544592 -1.2281389 0.87702304 -2.038191 -0.29590484
-1.2938472 -0.13212179 -0.784653 -0.7428841 1.9039614 0.9674962 -1.2244781 0.020015255
-1.1399014 1.4305992 -2.6104636 0.40920192 -0.7027877 -0.15191317 -0.6217663 -1.0148631
0.55183095 0.77207434 -1.1906252 -1.9959216 -0.7574587 -0.0459487 0.13548146 1.3561187
-0.47441646 0.03297909 0.9758988 -0.19591746 0.58764553 -0.70573163 0.05441452 0.27851403
-0.043835904 0.06928304 -0.74660885 -0.1651563 -0.47896123 0.579593 -0.6594247 -0.8504987
-0.17723387 -0.6505673 0.16691487 0.60571915 -0.17719515 -0.0971847 -0.047043122 0.28275
-0.22163926 -0.03874655 -0.2641638 -0.64444506 0.03758119 0.489853 0.87696415 -0.016568398
-0.30385733 0.06775082 -0.13784562 0.07648739 0.64147174 -0.5552766 -0.8641885 0.31854174
-0.25684747 -0.089826465 0.63018954 0.5474539 -0.28312728 0.1711363 -1.2187821 -0.11863189
1.9468623 1.0286584 -0.9938546 0.68507147 -0.66219044 5.1057777 1.4677701 0.8847291
-1.1279287 0.7962312 1.8292756 0.032209203 -0.17427427 1.5422233 -1.701032 0.4294563
-0.2357914 3.4064262 -1.4488804 0.13787569 0.6189294 -1.9505116 0.52888215 0.47649726
0.194992 0.18569666 -0.44804302 -0.44285855 -0.15097164 0.15198395 0.33619657 0.12364211
-0.023121538 -0.15584594 -0.084282 -0.5311086 -0.11737593 -0.01182214 0.35292485 0.7938346

lstm.weight_hh_l0 f4 [160, 40]
00000000: 9439 0fbf 8d5c 733e 6a7f 583e b69d febe
00000010: d129 bcbe 3626 ae3d 072a 793e caff d13e
00000020: 7eb0 6fbe 57f4 1f3f 35ed 52be 843e 193f
00000030: b6af c93e fe0e 263f 06b7 2ebd 56e1 54be
00000040: 85e7 0fbd 4b45 83be 5e56 0d3c 716b 353e
00000050: f0d6 a93d 1aff 503e d83c c63e 9971 b43d
00000060: b85a aa3e 5ae2 e33e 7b23 57bf 0ea9 ff3e
00000070: a998 13bd b0f3 373e 9927 0e3d 4db8 9f3d
00000080: a455 10bf e769 21bf 3312 093f b521 08bd
00000090: b889 e4be 1185 5e3e c19f 3c3e fe08 5b3d
000000a0: d10e 2b3f 0287 8ebf d59b 33be b7b0 9ebf
000000b0: a024 f33e 7ef6 d23e 4bf8 c73e e0c9 473f
000000c0: 6f47 8abf d057 cc3f 4fee 403e 3888 a03e
000000d0: 0cb2 df3d c4b0 b73f a6f9 05be 611a 0f3f
000000e0: 709a 8f3f 8e2c 80bf 0fa9 983e d7f0 34be
000000f0: 8d0f 1b3f 9e6a 323e f370 833f 93e5 953e
00000100: 470c 4d3e a83c 13c0 2be4 61bf f465 803d
00000110: f1bb c3bd 05b3 cfbd 8afa 2b3f c334 953e
00000120: d5af 1dbe 700c afbf 2799 873d 9dd1 16bf
00000130: 48a9 6abe a1b5 22be 2790 d13e 1ffe 433f
00000140: b516 9abd 5582 f23e 4e9b fa3d 4cea bfbf
00000150: 2f81 fd3c 9657 9b3e 0001 343d 1cec 163f
00000160: 81dc abbe abb2 34bd f634 a2bd 1ddd 2e3e
00000170: da23 53be 7c74 c2be 7088 fa3e 255e 1ebe
00000180: f5dd a7bc 1ed0 be3e 11af 8dbe b645 6cbe
00000190: 6ac1 023f 4593 30be 556b 75be 94ed 2d3f
000001a0: ef88 afbd 112e 47be 4f23 c6be 3f4a 96bd
000001b0: 941f fe3d 0bec 273f 65b9 eabe a218 0ebf
000001c0: e1f9 61be 30a2 c8be a275 a53e 5191 79bf
000001d0: 5211 f9be 4635 313f 8e35 c13c 461f 91be
000001e0: 2341 8fbe 17e4 adbe 023e b93c bb08 25be
000001f0: 5b9f 1c3e 36bd 1d3f 249b 76be 6e39 85be
00000200: c367 87be 95c2 643b f54e b13e 326c 8d3e
00000210: baa1 873c 9358 84be 693c d5bc 8984 173e
00000220: a15a ce3e ce43 22bf b032 bb3d 0154 2cbe
00000230: 0295 2f3e 53f5 733e f45e ad3e 9410 433d
00000240: 5998 68be 1bd7 00bf 8e17 c43e ee28 babe
00000250: ab8b e53e 109b ae3e c30c 3a3f 1acb 2c3e
00000260: 71bb a23d 021e e43d f0a8 4dbe 6a87 b83d
00000270: 5534 b6be 8cdc dfbe 0bc6 0f3d 357b 48bd
00000280: c2fc b8bf aa60 53be 5c02 813e 7cf4 5e3e
00000290: 5f14 2e3e a872 e6bd 1f52 c3bd e18f 013e
000002a0: 2beb 93be 32cb ae3e 7675 d33d 99f9 123e
000002b0: 90db 9a3e 9bfd 32be 1df3 333d f2c1 fdbc
000002c0: 4e5c 983e 5377 57bf 686b ba3e 06a4 4b3d
000002d0: 3405 f13d a523 893e 2e84 d33c e122 443e
000002e0: 35f7 23bc 4cd7 903e 1d8a 523e f251 af3c
000002f0: 051a 24be 0e73 933d 4c9a bcbc e3a6 54bd
00000300: 012a 0c3e c4de 943e 9f6b 03be 26a6 7c3e
00000310: 4217 cfbd c527 993d 712f 5c3e 2820 ff3d
00000320: fa05 c7bf 1411 8dbf 7a64 55bf 669e ae3f
00000330: 91f5 e5be 9e46 84bc 5fc8 a33e 3d48 313d
00000340: 89d2 c33e 843b d13f 91bf fbbe d3b9 663f
00000350: fa4e 8c3f 25a8 03bf 9c17 a3be f27f 53bd
00000360: 906a 0dbd dd7a a0be a909 4ebd b218 a3be
00000370: 2f6d 18bf c316 8fbe 9f30 c6be 3ef3 0bbf
00000380: 128f 213f 4061 29bf 7068 a3bf dfbe 26bf
00000390: 20bb 923f eb53 c7be 2e45 993e a3a9 893f
000003a0: 195e 5a3f af3e 753e da6c 583d b7c5 393f
000003b0: 498d 46bf 9c8b ab3e 66e5 3cbe 4dc8 333f
000003c0: 5a8a 6abe 6ce8 ce3c c75a c6bd fa0e 96bf
000003d0: 4457 a13e 2b60 763c 51c7 acbd 42b2 23be
000003e0: 8f70 9c3d 2d6c 43be 8cea 693d 220d 27bf
000003f0: d85e 863e e700 b4be 9f13 403e 804b 2fbe
-0.5594723 0.23765774 0.21142355 -0.497297 -0.36750653 0.08503382 0.24332438 0.41015464
-0.2340717 0.6248221 -0.205983 0.59861016 0.3939187 0.64866626 -0.042655014 -0.20789084
-0.035132904 -0.25638804 0.008626549 0.17716767 0.08292949 0.20409814 0.38718295 0.088107295
0.33272338 0.4450863 -0.84038514 0.49933666 -0.03603426 0.17964053 0.034705732 0.077988245
-0.5638068 -0.6305222 0.53543395 -0.03323527 -0.4463632 0.21730448 0.18420316 0.053475372
0.66819483 -1.1134951 -0.17539914 -1.2397679 0.4748888 0.41203684 0.3905662 0.7804241
-1.080305 1.5964298 0.18840908 0.31353927 0.109226316 1.435082 -0.13083515 0.55899626
1.1219006 -1.0013597 0.2981648 -0.17669998 0.60570604 0.17423484 1.0268844 0.29276714
0.20024215 -2.3005772 -0.8823878 0.06269446 -0.09557331 -0.10141567 0.6717917 0.29141816
-0.15399106 -1.3675671 0.06621008 -0.58913594 -0.22916138 -0.15889598 0.40930292 0.76559633
-0.07523862 0.4736506 0.12236653 -1.4993377 0.030945389 0.3034026 0.043946266 0.58954024
-0.3356667 -0.044115704 -0.07920258 0.17076536 -0.20619145 -0.37979496 0.4893222 -0.15465601
-0.02049158 0.37268156 -0.27672628 -0.23073468 0.51076376 -0.17243679 -0.23966725 0.6794064
-0.0857104 -0.19451167 -0.38698813 -0.0733838 0.12408367 0.6559455 -0.4584457 -0.55506337
-0.22067977 -0.3918624 0.3231631 -0.9748736 -0.48646027 0.69221914 0.023585107 -0.28344172
-0.27979383 -0.3396308 0.022612575 -0.16116612 0.15295164 0.6161684 -0.24082619 -0.26020378
-0.2644635 0.003490602 0.34630552 0.2762161 0.01655661 -0.25848827 -0.026029782 0.14796652
0.4030352 -0.6338471 0.09140527 -0.1682892 0.17146686 0.23824053 0.33861506 0.047623232
-0.22714366 -0.50328225 0.3829922 -0.36359352 0.4483312 0.34102678 0.7267572 0.16874352
0.07945908 0.11138536 -0.20083976 0.09010203 -0.355868 -0.4372295 0.035100978 -0.048945624
-1.4452136 -0.20642343 0.25197113 0.21772951 0.16999958 -0.11252338 -0.09537148 0.12652542
-0.28890356 0.341394 0.10325138 0.14353026 0.30245638 -0.17479555 0.043933023 -0.03097627
0.29757923 -0.8416645 0.3641007 0.04971697 0.117685705 0.26785007 0.025819864 0.1915393
-0.010007669 0.28289258 0.20560499 0.02140138 -0.1602555 0.07199679 -0.023022793 -0.051916968
0.13687898 0.29076207 -0.12834023 0.24672756 -0.10111858 0.074782886 0.21502472 0.12457305
-1.5548699 -1.1020837 -0.8335644 1.3642089 -0.44913915 -0.016146954 0.3198881 0.043281782
0.38246563 1.6346288 -0.4916959 0.90127295 1.0961602 -0.51428443 -0.3185395 -0.05163569
-0.034525454 -0.31343737 -0.05030218 -0.3185478 -0.595416 -0.27947053 -0.3870897 -0.54668033
0.6310893 -0.66164017 -1.2766247 -0.65134996 1.1463356 -0.38931212 0.29935592 1.0754894
0.8529983 0.23949693 0.052838184 0.72567314 -0.77559334 0.3350495 -0.18446884 0.7022751
-0.2290434 0.025257312 -0.09685283 -1.172332 0.3151189 0.015037577 -0.08436454 -0.15985969
0.07638656 -0.19084235 0.057108447 -0.65254414 0.26244235 -0.35156938 0.18757485 -0.17118645

lstm.bias_ih_l0 f4 [160]
00000000: f7da 413e a5ec db3e 2f69 81bd d667 babd
00000010: 5ab0 c63c cd8b d8bd aa14 c33d 2adc 683d
00000020: d745 333e 08de 9d39 2f44 943e 5641 b6bc
00000030: fe8c 3fbe b6b7 093e 4cd4 fa3d 93e1 063e
00000040: f2e3 6e3e d2ed 1a3e f242 1a3e 4f8c 31bd
00000050: 4ba0 c13d bdbe d93d be18 c5bd a3e8 8d3d
00000060: 7e05 1cbd acb6 be3d 5f34 913c 87b3 ba3c
00000070: d7df 103e 69b6 3cbe 0f60 ffbd d76c 7c3e
00000080: e9ea 873e 291c a63c 3be9 193e 876b af3c
00000090: 8732 103e d40d 2bbc 3c6c 753c de40 4fbd
000000a0: db11 d93d e065 91bd 7301 a03d 9abc 93bd
000000b0: eed9 34be 1c8c 243d f593 f13d 7556 26bd
000000c0: ddc0 983e c007 1cbe 38ff af3c 0955 513e
000000d0: c756 8f3e 8c40 ab3d a9be 7e3e d01d 363e
000000e0: ee13 a5bd 0adb 75be a82e 0cbe 9e5d b3bc
000000f0: d1f3 233d 4001 d63d f134 8b3e 55ea 033e
00000100: 2cdd 3f3d 4352 573e bbca 1a3e 928e ed3c
00000110: 52b4 f53d 7cc8 12be fbab 17be f20d 1abd
00000120: cb23 803e 33b7 92bd 5956 8f3e 2e10 c83d
00000130: 190b a53d d340 4d3e ef53 363d ff61 bd3d
00000140: 6c1b 113e 35dd 56be 9361 d23c fbc3 9d3c
00000150: 53ae 94be 2cd0 4cbe 9ba1 753e 140c 8c3e
00000160: e9c6 133e c64f aa3d fe66 07be 8611 183e
00000170: fca5 02bd 5782 6b3e 28c8 093e 84e9 90be
00000180: 6809 443e b49d 0a3e 1475 0c3e d9fa 70be
00000190: d387 853e f587 e1bd d133 1abe 40ab 7a3e
000001a0: a8aa 763e 1ca1 25be 1217 f2bd b854 cbbe
000001b0: 1d9a 593e c3be fcbb 7828 c23d abfb 5cbd
000001c0: 7aee 50be ba7f 97bd 49b2 263e 4af9 88be
000001d0: 9fd8 44bd 5eeb 6f3e 12fe 1f3e 1057 833d
000001e0: 76a6 96bd 2967 af3e 2b29 bbbd 6384 4c3d
000001f0: 0eb3 0b3e 21ee cd3d 4250 cc3b 5be6 bbbc
00000200: ec89 15be f09f cfbd 6386 0c3e 245b 263d
00000210: 5ec2 8e3e 1160 863c 57a1 163e f953 703c
00000220: a578 2c3e f3b2 88b9 645c ae3d 50be 0fbd
00000230: e697 26be f0a6 02be 2111 f7bd 18e4 cc3c
00000240: 7778 f83b cda5 243e 053e 26be 73a6 ad3d
00000250: a77f 52bd d4eb a0bd 3463 26be 9fff 8c3e
00000260: 91ab 533d 07ce 5e3e 15eb b4bd 79df 93bd
00000270: fd9c 59be 4d03 a3bd 41a1 193d 9de2 25be
0.18931185 0.42953983 -0.0631889 -0.091018364 0.024254013 -0.1057354 0.09525426 0.05685059
0.1750711 0.000301108 0.2895827 -0.022247951 -0.18706128 0.13448986 0.12247524 0.13171987
0.23329142 0.15129784 0.150646 -0.0433467 0.094544016 0.106320836 -0.0962386 0.069291376
-0.038091175 0.09312186 0.017725168 0.022790683 0.14147888 -0.18428959 -0.124694936 0.24650894
0.2654641 0.0202771 0.15030377 0.021413578 0.14081775 -0.010440309 0.014979418 -0.05059897
0.10599109 -0.07099509 0.078127764 -0.07213707 -0.17661259 0.04017268 0.11795799 -0.040609796
0.29834643 -0.15237331 0.021484002 0.20442595 0.27995893 0.08361921 0.24877419 0.1778481
-0.08060442 -0.24009338 -0.13689673 -0.021895226 0.040027443 0.10449457 0.2718883 0.1288236
0.046841785 0.21027474 0.15116398 0.028998647 0.11997284 -0.14334291 -0.14811699 -0.037610956
0.25027308 -0.07163849 0.27995566 0.09768711 0.08058757 0.2004426 0.04451364 0.09247207
0.14170617 -0.20982821 0.025681293 0.01925849 -0.2903925 -0.20001286 0.23987429 0.27352965
0.14431347 0.08315997 -0.13222882 0.14850435 -0.031896576 0.2299894 0.1345526 -0.28303158
0.19144213 0.13536721 0.13716537 -0.23533191 0.26080188 -0.1101226 -0.15058829 0.24479389
0.24088538 -0.1617474 -0.118208066 -0.39713073 0.21250196 -0.0077131703 0.09480375 -0.053950947
-0.20403472 -0.07397409 0.16278948 -0.26752692 -0.04805815 0.23429629 0.15624264 0.0641309
-0.07355969 0.34258392 -0.091387115 0.04993094 0.13642523 0.10055185 0.0062351534 -0.02293699
-0.14603394 -0.101379275 0.1372314 0.040614262 0.27882665 0.01640323 0.14709984 0.014668458
0.16842897 -0.0002607327 0.08513716 -0.035093606 -0.16268882 -0.12758994 -0.12063814 0.025011107
0.00758272 0.16078873 -0.16234596 0.08479013 -0.05139127 -0.07857481 -0.1624878 0.27538773
0.05167729 0.2175828 -0.08833901 -0.072203584 -0.21251293 -0.07959614 0.0375073 -0.16199727

lstm.bias_hh_l0 f4 [160]
00000000: b636 863e 7d10 d73e b511 96bd 20e8 db3d
00000010: 6a6d 823e 3586 9a3d 0c22 a1bd 7520 773c
00000020: 8341 3c3e f045 b3bb 6f3f 713d 8abb 08be
00000030: 483c 8fbe b8b8 8a3d ef33 443e ab10 a83e
00000040: 6b9d ce3e e65f dd3d 4973 7a3e 4829 99bd
00000050: 456f 6d3e 955d 6b3e afae a6bd d37f be3d
00000060: 7dbc 973c 1c72 ae3d b68c 083e a6fc 893e
00000070: 1cc3 353e fc4f 98be 36ce 26bc 40cd 503d
00000080: 2493 e63c 8d98 6ebd dc39 b53d 1cf9 6f3e
00000090: d2e2 073e a58c 673e f9d2 463e 0041 3e3e
000000a0: baae 0a3e 18a8 b93d 87d9 2e3d a633 1fbe
000000b0: 9e27 1bbe 5250 883e 3bbe f13d d6f4 273e
000000c0: 4e56 b53d faac b73c e9c2 c83d 23b3 9d3d
000000d0: 3bf8 853e 7e80 3b3c 8da8 143e 4bf8 633d
000000e0: c17d b23c f940 62be 859b aabd 70b8 1a3d
000000f0: 33a1 423d ff7e 0bbd 15f1 8cbc 6f5a eb3d
00000100: 1ebe 803e d22d eb3e 9c94 973e 2c7b f5bb
00000110: 9b0e fc3d ee3f 1cbe dac3 e8bd a20d c63d
00000120: fe99 3c3c 99dc adbe 5d63 013e 3263 f53d
00000130: e38d 923e 3e2b 513e c063 793e de8d 583e
00000140: 0625 093e 5709 e7bd 1778 1c3d 2a2c 7abe
00000150: fb18 1dbe b603 35be 33ec 103e fbfe 4b3e
00000160: a8d8 723d f663 00be bd08 1cbe 0e73 b43d
00000170: 1acc b5ba 9a3a 8f3e 5f19 4b3e e7d4 a0bd
00000180: 41a5 1b3d 1ba4 05bd a76a 7e3e f5f1 84be
00000190: add5 473e 437e 6abe 5a78 c9bd e24e 7b3e
000001a0: bc5c 4d3e 3c76 e23b 44f5 b6bd 00cf 94be
000001b0: a488 ff3d c51e 8abd 0ca9 953d 3499 16bc
000001c0: ae06 6bbd be89 7d3d 790a ea3d d388 6cbe
000001d0: 0093 62be c002 623e bbc9 6c3e 822f 863e
000001e0: 92da 9ebd 5d25 ad3e 8b51 e0bd f7c7 a33d
000001f0: f26a b33e 6879 dbb9 0e9a 873d a417 ccbd
00000200: 0663 99bd fabf 7d3d c748 bbbd 573c 243d
00000210: 8ef1 143e 41c8 e3bc fda2 1d3e 25a7 023e
00000220: 09e2 6e3e 0dcb f53d 21cd 973e 20fd 1fbe
00000230: 64b4 6abd 18db 38be 0378 ce3b 4a29 a83d
00000240: 009e f93d 3f4c 513e 4b1b f0bd bc35 a23e
00000250: 1dba 153d 47f3 39be 5aa5 f63d 04fd c23e
00000260: 8292 9fbd 1d94 79bc a507 10be e1ac 2abd
00000270: c26c 30be 7d21 18be bfac b2bd ac41 3fbd
0.26213616 0.42004767 -0.07327596 0.10737634 0.254741 0.07545129 -0.07867822 0.015083422
0.18384366 -0.0054709837 0.058898386 -0.1335279 -0.27975678 0.067735136 0.19160436 0.32825217
0.40354475 0.10809307 0.2445804 -0.07478577 0.23186977 0.22984917 -0.08138787 0.09301724
0.018522495 0.085178584 0.13334927 0.26950568 0.1775021 -0.29748523 -0.010181 0.05097699
0.028146334 -0.058250953 0.088489264 0.23434871 0.13270119 0.22612245 0.19416417 0.18579483
0.13543215 0.090652645 0.04268792 -0.15547046 -0.15151832 0.2662378 0.11803862 0.16401991
0.08854352 0.022421349 0.09802801 0.07700183 0.26165947 0.011444209 0.14517422 0.055656713
0.02178848 -0.22095098 -0.08330444 0.03777355 0.047517013 -0.03405666 -0.0172048 0.11491858
0.25145048 0.45933396 0.29605567 -0.00749149 0.12307473 -0.15258762 -0.11365481 0.09670569
0.011511324 -0.33957365 0.1263556 0.11981811 0.28623876 0.20426652 0.24354458 0.21147868
0.1339303 -0.11281078 0.038200464 -0.2443091 -0.1534156 -0.17677197 0.14152603 0.19921486
0.05928865 -0.12538132 -0.15237708 0.088110074 -0.0013870031 0.27974397 0.19833897 -0.07853108
0.037999395 -0.032627206 0.24845372 -0.2596585 0.19515105 -0.22899728 -0.09837408 0.2454181
0.20054907 0.0069110673 -0.089334995 -0.29064178 0.12477234 -0.0674415 0.07307634 -0.0091918
-0.057379417 0.06189894 0.11427779 -0.2309907 -0.22126389 0.22071362 0.23123829 0.2620812
-0.07756533 0.33817568 -0.10953053 0.07997125 0.3504253 -0.0004186139 0.066211805 -0.099654466
-0.0748959 0.06195066 -0.091447406 0.040096607 0.14545271 -0.02780545 0.15394206 0.12759073
0.23328413 0.120016195 0.29648688 -0.15623903 -0.05730094 -0.18052328 0.0063009276 0.08211
0.12188339 0.20439242 -0.11723956 0.3168162 0.036554445 -0.18159209 0.12043257 0.3808366
-0.07791616 -0.015233067 -0.14065416 -0.041668776 -0.17228988 -0.14856525 -0.08724355 -0.04669349

hidden2event.weight f4 [27, 40]
00000000: 34b7 63bf 1344 a9be bdec 0abe 51d7 763f
00000010: 2c53 9a3d 7935 9abe e725 63be be62 a5bd
00000020: 528c a83e f6a9 9fbf 0190 9d3e 9872 20bc
00000030: c183 34bf a31a 193e 6b4b 4cbe 8ec8 253f
00000040: d935 0d3f ba00 253f 9fb5 b73e 9ea2 9dbd
00000050: e9f2 a63e cea1 ae3d 78a2 04bf 87f5 873e
00000060: 4545 c7be ef73 1fbd cd5f fabe 1ea4 0bbf
00000070: c001 0abf f2a7 053d f490 94be a783 073f
00000080: 939c 0e3f 285c 0dbf d24c a2be 0006 f33e
00000090: eb62 3ebe e3b6 6ebe 59b5 f1bc 400c d9bd
000000a0: 5ce6 ebbd db15 59be 9ddf 3c3e a015 d73c
000000b0: 331e a8bd 931f e0be 16b9 823e eb2e 72be
000000c0: 9a90 bd3e 0190 643e ede9 983e 6e18 a1bd
000000d0: 76af 31bd a108 d13e 484e 603e 4bd4 1a3d
000000e0: 799a 0a3e beca a13e f00a 863e c965 89bd
000000f0: 414d c93e 903f f73d bcac e93d 3119 913e
00000100: 0c39 7c3c 12c9 bbba 914c 5fbe 3003 adbe
00000110: c9ca 15be 2031 a63e 987e 28bf f416 24be
00000120: eb3d bcbd c3e0 d0be 277c 1b3e c2ff e23d
00000130: 5aa8 49be 9433 da3c 4417 433e 42f2 203f
00000140: 7846 7fbd 6cf3 41bb b7cd 0abe 8222 c2bd
00000150: 1f49 c33e b3ca 4abf 6a7d 8abd df34 92be
00000160: 2813 67bd ce4f 963e 4c99 0cbf ab59 23be
00000170: a1cb d83d 8fc6 d23e 61eb 80be 0e6b 55be
00000180: bf65 583d 7852 953e c231 f33e b03c 81bd
00000190: 944e fa3e 04c5 e53e ed9c c93e 002f b63e
000001a0: a855 a93d fe2c 59bd 5f41 623e 263c f5be
000001b0: 979e a4bd 5eed 343e 8d77 3fbe ac1f eb3e
000001c0: cfbb 443e 266a 3f3a 14f0 c23b db06 de3d
000001d0: ced9 cdbe be84 f9bd 3abc ba3e e723 93be
000001e0: dbae 7d3f 8f12 133f dec7 e1be 3b25 383d
000001f0: 0a9f 56bf f098 96be d68d 073e 0920 fe3d
00000200: 038c 863e d0ad da3f 721a 9cbe 0694 a6be
00000210: 56bd 1cbe 43e9 51be 583f adbe ad70 45be
00000220: 3f99 ffbe 1b78 313f 97ca b33e f1e4 d63d
00000230: a1f6 04bf 250b d1bd 7797 e0be 9cc0 053f
00000240: 94c1 093e 103d 073d 7a79 45be 358f 52be
00000250: 53a2 c0be 189c 283f aa95 f53e 06fb e2be
00000260: 4927 48bd 1fb8 9a3f 5876 f73d 2cfd 81be
00000270: 0641 0d3e f428 e13d ec3e e7bd 26c9 193e
00000280: f792 a7bf 0423 853e 1d94 623f 54da 543f
00000290: 2ac2 3abf 9eac 123f eca3 5c3e 337b 3fbe
000002a0: 8943 bbbd 4d4f 19bf 55e1 853d 73e9 9d3d
000002b0: 6c3a 1f3e bf79 80be 91b1 98be 3acf 94be
000002c0: 76ec 593e b0c6 e53e 3e76 ebbd a620 cabe
000002d0: 04bf 76bf aae4 0dbf 2526 433f db85 a2bf
000002e0: 99c7 973d fd28 97bb 7447 243f a9b4 ee3e
000002f0: 486e 3a3e 6b2b a43f c7a7 e13e 2d12 6fbf
00000300: 64b3 edbe d1f3 763f fc79 303f aa38 7e3f
00000310: 090f 273f a7a5 41bf f686 ccbc ae3c 48bf
00000320: 3bce 8ebe 8881 ad3f 7225 293f 0711 163f
00000330: 83af 8f3f 486b 273f 29f3 19bf 32cf a2be
00000340: ce1c bfbe f3a7 07bf 4372 d53e 42ec 6bbf
00000350: 3e5c 1ebf 6a61 54bf 599c 24bf a0a8 f23e
00000360: 52e3 69bf 4f56 93bd 7a59 96be 1221 373f
00000370: 96ed b6be 412b c73e b970 f53e 29a2 76be
00000380: b696 3bbf 2d20 973f 95dd e23e 3a1d 7c3f
00000390: 27a3 02bf 0b33 5dbf 4817 d23e 2f59 ab3f
000003a0: de23 0a3f feae 27bc 6cc0 38bf 7907 e03e
000003b0: 342f ea3e 3990 0dbf 19ee c9be f203 e8be
000003c0: 771d 97bf 972a 013f 2141 5c3f 0387 f23f
000003d0: b024 0a3e 13ed 7f3f be7e 9dbe 6449 cdbe
000003e0: 8eac a33d 21fe c0bf 35f0 0d3f 0fab 4cbf
000003f0: 6a87 e73e cc47 9abd 845d 99be b585 523d
-0.8895142 -0.3305975 -0.13566871 0.96422297 0.07535395 -0.3011892 -0.22182427 -0.08075474
0.32919556 -1.2473743 0.3077393 -0.009792946 -0.7051354 0.14951567 -0.19950645 0.6475915
0.5516029 0.64454234 0.35880753 -0.076970324 0.326072 0.085269555 -0.5181041 0.2655451
-0.38920036 -0.038928922 -0.48901215 -0.545473 -0.5390892 0.03263087 -0.2901684 0.5293526
0.55707663 -0.55218744 -0.31699234 0.47465515 -0.18592422 -0.23311953 -0.029505419 -0.105980396
-0.11518547 -0.21199743 0.18444677 0.026255429 -0.08208885 -0.4377409 0.25531834 -0.2365071
0.37024385 0.22320558 0.2986597 -0.07865988 -0.043380223 0.40826896 0.21904862 0.037800115
0.13535489 0.31599993 0.2618022 -0.06708867 0.39316753 0.120726705 0.114098996 0.28339532
0.01539446 -0.0014326891 -0.21806552 -0.33791494 -0.14628138 0.32459354 -0.65818167 -0.16024381
-0.091914974 -0.4079648 0.15184079 0.11083938 -0.19693127 0.026635922 0.19051844 0.62869656
-0.062323064 -0.0029594554 -0.13555036 -0.09479238 0.38141724 -0.79215544 -0.06762202 -0.28555962
-0.056414753 0.2935776 -0.5492141 -0.15952174 0.10585714 0.41167113 -0.2517958 -0.2084162
0.052831408 0.2916448 0.474989 -0.06310403 0.48888075 0.44876873 0.39377537 0.35582733
0.08268291 -0.053021424 0.2209525 -0.47897452 -0.08038061 0.17668673 -0.18697949 0.459226
0.19212268 0.0007301889 0.0059490297 0.10841151 -0.40205234 -0.12183522 0.3647173 -0.2873833
0.99094933 0.57450193 -0.440978 0.04495738 -0.83836424 -0.29413557 0.132377 0.12408454
0.26278695 1.7084293 -0.30488926 -0.32534808 -0.15306601 -0.20499139 -0.3383739 -0.19281264
-0.49921605 0.6932389 0.351155 0.10492886 -0.51938826 -0.10207204 -0.43865559 0.52247024
0.1345275 0.033017218 -0.19284621 -0.20562442 -0.37623844 0.6586318 0.47965747 -0.4433214
-0.04886559 1.2087439 0.12083119 -0.25388467 0.13794336 0.10994139 -0.11291298 0.15018138
-1.3091725 0.26003277 0.8850725 0.8314564 -0.7295252 0.5729464 0.21546906 -0.1869934
-0.09143741 -0.5988663 0.06537119 0.077105425 0.1554963 -0.25092885 -0.29822972 -0.2906435
0.21281609 0.4487815 -0.11497162 -0.39478034 -0.96385217 -0.5542704 0.7623008 -1.26971
0.07411117 -0.0046130405 0.6417153 0.46622208 0.18206131 1.282575 0.44073316 -0.9338711
-0.46425927 0.96465784 0.68936133 0.9930521 0.65257317 -0.7564339 -0.024966698 -0.7821759
-0.27891716 1.3555155 0.6607276 0.5861973 1.1225437 0.65398073 -0.6013666 -0.31798702
-0.37326664 -0.52990645 0.41688737 -0.92157376 -0.618595 -0.8296114 -0.6430107 0.47394276
-0.9136249 -0.071941964 -0.2936514 0.71534836 -0.3572814 0.38900188 0.47937563 -0.24085297
-0.7327684 1.1806694 0.4430968 0.98482096 -0.510302 -0.8640601 0.41033387 1.3386592
0.5396098 -0.0102345925 -0.7216861 0.437557 0.45739138 -0.5529819 -0.39439467 -0.4531551
-1.1805867 0.5045561 0.8603688 1.8947452 0.13490558 0.9997112 -0.3076076 -0.40095055
0.079918966 -1.5077554 0.5544465 -0.79948515 0.452205 -0.075332254 -0.2995416 0.051397044

hidden2event.bias f4 [27]
00000000: 5faa 82bd fcda bd3d 1e80 3abd 8f97 443d
00000010: 2fed 483d e8e3 6ebe 186f 69be cb95 c2be
00000020: af19 9c3d 24b7 84be 3c52 9bbe 797f d7be
00000030: 9dea 5dbd 5d19 c13e 880d cdbd 26cf 503e
00000040: a8d0 a7bd 9c3f e9be fadc 51be 227e 8cbe
00000050: c273 793e 2410 90bb 7925 91bd 0927 d8be
00000060: 7c39 003e 0649 bbbe 9d2f 05bf
-0.06380152 0.092702836 -0.04553234 0.0479961 0.04905432 -0.23329127 -0.22796285 -0.38004908
0.07622086 -0.25920975 -0.30336177 -0.4208944 -0.054178823 0.37714663 -0.100123465 0.20391521
-0.08194095 -0.45556343 -0.20494452 -0.27439982 0.24360564 -0.0043964554 -0.070872255 -0.4221728
0.12521929 -0.3657915 -0.5202578

hidden2time.weight f4 [3, 40]
00000000: e14a dbbe aeb0 643f 23ec 2fbf 65cd ffbe
00000010: eb3a 683e aa67 b0bb 0d50 2c3e 4b0c 753e
00000020: 4814 2abd b1a1 37bf 2327 0b3e c7cb c03e
00000030: 697b 363e 580e aa3e f61e 713e 16b0 2b3d
00000040: 1b6e 3bbf fc33 a53f 0178 5fbf 039b 8bbe
00000050: 43d0 a03e 3016 0fbe 1456 d43e f563 09bd
00000060: 3a99 c63e 4fe2 383e c4fb 9ebe 955f f63e
00000070: 4d54 813e f7b4 913f acef 46bf 7739 b63d
00000080: 89b0 58be efb7 743f 8922 433e 3494 cebe
00000090: a843 afbe 2f1e 143e 334d 183e 1d89 4f3c
000000a0: 0320 153f 1c06 5dbf 83b5 903e f975 853e
000000b0: ec29 e1be 163d 86be 5636 783d 97d6 073e
000000c0: d979 4c3e 1317 563f a80a dcbe c11b 88be
000000d0: a57b d7bd eee2 9dbe 49f0 4e3e 35ca 06be
000000e0: 841f 2c3f c289 7ebf ab89 3e3f 5f1b 0abe
000000f0: a58c e13d 58cf 023e e92b 13bf 939a 833e
00000100: c2e8 31be 796b f0be 4844 9b3d d6fc 45bf
00000110: 4c3b 25be 40d5 42bf bb04 e03e 4f49 19be
00000120: 0a07 47bd ae89 5ebf 247e 313e fa2a 2d3e
00000130: 8a11 603d cb66 0d3e a299 2b3d 228d 04bd
00000140: cfdf 6abc 2e2f 7e3f c6c1 4a3f 3648 1b3f
00000150: f081 ae3f 0a69 093f 6896 0cbf 31b2 30be
00000160: 0403 d0be 03bf 9abd dca7 f93e cf66 ecbf
00000170: f53f 35bf 23ae 23bf 70cf 06bf 2666 123f
00000180: bd3d e4be 0b70 1cbf 0eec b3be 1ce9 123f
00000190: 8b57 bcbe 2172 cf3e 617e c03e c6b1 dabd
000001a0: 0f93 28bf e437 733f 83b6 ee3e 3abf 713f
000001b0: 240b 2cbf b39c 2bbf 6bfc 313f 114e a33f
000001c0: 770a 333f 1c08 94bd 5819 36bf 0147 043f
000001d0: dac7 ec3e d124 12bf 8c5e 08bf 9ee9 e5be
-0.42830566 0.8933209 -0.6871969 -0.4996139 0.22678725 -0.0053834515 0.16827412 0.2393047
-0.041523248 -0.71731097 0.13589148 0.3765547 0.17820515 0.33214068 0.23546967 0.041915976
-0.7321488 1.2906489 -0.87292486 -0.27266702 0.3140889 -0.13973308 0.41471922 -0.033542592
0.38788778 0.1805508 -0.31051457 0.48119798 0.2525963 1.1383351 -0.7770946 0.08897679
-0.21161093 0.9559316 0.19056143 -0.40347445 -0.34231305 0.14464639 0.14873199 0.012666968
0.5825197 -0.8633745 0.28263482 0.26066568 -0.43977296 -0.2621848 0.060598694 0.13265453
0.19968356 0.8362896 -0.4297688 -0.26583675 -0.1052163 -0.30837196 0.20208849 -0.13163073
0.6723559 -0.9942895 0.74428815 -0.13487004 0.11013154 0.12774408 -0.57488877 0.25703868
-0.17373946 -0.46956995 0.07581383 -0.7733892 -0.16135901 -0.76106644 0.4375361 -0.14969371
-0.048590697 -0.8692883 0.17333275 0.16910926 0.054704227 0.13808744 0.041894563 -0.032361157
-0.014335587 0.9929074 0.79201925 0.6065706 1.3633404 0.536759 -0.54917 -0.17255475
-0.406273 -0.07555964 0.4876088 -1.8468875 -0.70800716 -0.63937587 -0.52660275 0.57187116
-0.44578353 -0.61108464 -0.35141033 0.57386947 -0.3678554 0.4051676 0.3759642 -0.10678439
-0.65849394 0.9500716 0.4662362 0.94432414 -0.672045 -0.6703598 0.69525784 1.2758199
0.69937843 -0.07228109 -0.7113242 0.51670843 0.46246225 -0.5708743 -0.5326927 -0.44904798

hidden2time.bias f4 [3]
00000000: 3958 413e ff8f 85bd 7770 d1be
0.1888131 -0.06521606 -0.40906116
