events_simulation/models/all_epochs/model_21_20180608-0826.pt (torch_old, 78237 bytes, 9 tensors)

loss_function_events.weight f4 [27]
000000 00 00 80 3f 00 00 80 3f 00 00 80 3f 00 00 80 3f
       1.0 1.0 1.0 1.0
000010 00 00 80 3f 00 00 80 3f 00 00 80 3f 00 00 80 3f
       1.0 1.0 1.0 1.0
000020 00 00 80 3f 00 00 80 3f 00 00 80 3f 00 00 80 3f
       1.0 1.0 1.0 1.0
000030 00 00 80 3f 00 00 80 3f 00 00 80 3f 00 00 80 3f
       1.0 1.0 1.0 1.0
000040 00 00 80 3f 00 00 80 3f 00 00 80 3f 00 00 80 3f
       1.0 1.0 1.0 1.0
000050 00 00 80 3f 00 00 80 3f 00 00 80 3f 00 00 80 3f
       1.0 1.0 1.0 1.0
000060 00 00 80 3f 00 00 80 3f 00 00 80 3f
       1.0 1.0 1.0

lstm.weight_ih_l0 f4 [160, 70]
000000 2e 0c c5 3d 27 de 83 bd fc a8 56 be 88 90 c7 3d
       0.09621464 -0.064388566 -0.209629 0.09744364
000010 b9 df 47 bc 10 05 21 bd c2 ee e7 bd 83 bb 19 3c
       -0.012199336 -0.03931147 -0.11324836 0.009383085
000020 ae 27 75 3c 12 ed 13 be 44 8f a0 3d 57 b4 40 3c
       0.014963074 -0.14445904 0.07839826 0.011761746
000030 fc 47 97 3d 8e d7 70 bd c6 e8 21 3e 15 a1 c8 3d
       0.07386777 -0.05879932 0.15811452 0.09796349
000040 50 56 eb bd a8 8a 2d 3d 4b 28 98 3c 93 18 4e 3d
       -0.11491072 0.04236856 0.0185739 0.050316405
000050 df 82 2d 3e 2d ed c1 3c 57 34 06 3e 2c 91 fc 3c
       0.16944455 0.023672665 0.13105904 0.030830942
000060 b7 d8 93 3c 1a 46 94 3d bf 77 af 3e 35 f3 12 3d
       0.018047674 0.07239933 0.34271047 0.03587647
000070 9b 87 9a 3d 47 e1 94 3e 42 69 11 bd 75 e5 04 3e
       0.07545396 0.29078123 -0.035500772 0.12978156
000080 9f 83 8f bb 32 70 39 3e 70 a6 85 bc 65 80 0e be
       -0.004379704 0.18109205 -0.016314715 -0.13916166
000090 7f 6e 37 3e 6b 16 5a 3e d9 78 65 3e 18 b1 dc 3d
       0.17913245 0.21297614 0.22409381 0.107759655
0000a0 ec 7b 0f 3e 56 3c 9a 3d f6 75 9f 3d d0 df 3b bc
       0.14012116 0.075310394 0.07786171 -0.011466935
0000b0 e5 e2 02 3e cc 04 77 3e 7e be b5 3d dc b6 5c 3d
       0.12781866 0.24122924 0.08874224 0.053885326
0000c0 64 c6 ad bd 7b d3 e8 bc 7c 38 d4 bd fb d7 8b bd
       -0.08485106 -0.028421154 -0.10362336 -0.068283044
0000d0 8e 48 cc 3d d9 4f f1 3c 37 2e b8 3d c2 29 c9 3d
       0.09974776 0.02945702 0.0899319 0.09822418
0000e0 85 39 51 3e 46 bd 32 3e 03 75 55 bc 2a 02 4e 3e
       0.20432098 0.17455015 -0.013028386 0.20118013
0000f0 66 40 b5 3a eb 85 4f bc 83 98 0b 3e db 4f fc bc
       0.0013828396 -0.012666206 0.13632397 -0.030799797
000100 61 d5 dd 3d 3e b8 0f 3c 16 ec a3 3d 33 1a fd bb
       0.108317144 0.008771954 0.08004014 -0.0077240705
000110 87 ae 67 bd f4 38 60 3e c0 00 d9 bd 8e ad 0b 3e
       -0.056562927 0.21896726 -0.10595846 0.13640425
000120 b0 d5 04 3e e2 29 86 3d ad e4 74 3d a4 46 92 3d
       0.1297214 0.06550957 0.059788395 0.0714238
000130 a8 9e 6c 3e 41 86 46 3e 1b c1 94 3d 72 ee 23 3e
       0.23107398 0.19387151 0.072633944 0.16008928
000140 23 c8 9d bc 5a 2c e1 3d 96 76 06 3e da 48 02 be
       -0.019260472 0.109947875 0.13131174 -0.12723103
000150 aa de 44 be 15 cf 09 be 83 86 1f 3e a0 9a 65 3d
       -0.19225565 -0.13457902 0.15578656 0.056055665
000160 ad 9a 1c bd 84 ed d7 3d bd 90 f8 3d 4e 30 ef 3b
       -0.038233448 0.105433494 0.12136982 0.0072994595
000170 e8 b1 4e 3c 46 37 96 be 5a 26 61 bd 80 2c d3 3b
       0.012615658 -0.29339045 -0.054968216 0.006444514
000180 9e 08 34 3f 8e 56 25 be e7 d1 b4 bd ea c7 12 3f
       0.7032565 -0.16146299 -0.08829098 0.57336295
000190 1e 8e 52 bd 4f ce 58 3e 8e 8e c8 3d 9e b9 b4 3d
       -0.051405065 0.2117245 0.09792815 0.08824466
0001a0 07 a1 0d 3e 04 73 db bd f9 58 01 3e 5a 37 c3 3d
       0.13830958 -0.10715297 0.12631597 0.09532042
0001b0 f4 7a 04 bd 80 e7 d6 bd a6 aa 6b 3d a6 21 3c bd
       -0.03234382 -0.10493374 0.05753579 -0.045930527
0001c0 5a c1 47 3d d8 dc b5 3d f4 74 8a 3d b5 d9 9d 3d
       0.04876838 0.08880013 0.06760588 0.0770754
0001d0 06 29 bf bc a7 fd 13 3e 96 32 31 3e 8d 94 6b 3d
       -0.023334991 0.1445223 0.17304453 0.057514716
0001e0 eb d2 eb 3d fd 05 89 3d 96 d1 03 3c 0a ba 3f 3d
       0.11514839 0.06690595 0.008045575 0.04680828
0001f0 24 0f 28 3e 5a a9 61 bd 4b 22 2c 3e bb e5 e5 bc
       0.16412026 -0.055093147 0.16809957 -0.028063646
000200 d0 8b 15 3e 0f 0a 06 3e dd 39 19 3e d0 9d 66 3e
       0.14604115 0.13089775 0.1496348 0.22521138
000210 0f 0f 66 3e a5 de d2 3d 4b 83 01 3e 71 80 aa 3d
       0.22466682 0.10296372 0.1264774 0.083252795
000220 e0 45 71 3d 0a 11 35 3e 8a 1a c7 3b 4a 93 28 3e
       0.05890453 0.17682281 0.0060761617 0.16462436
000230 f8 2c 8f bd 0b 4f 05 3d 3f 80 db bc 69 bf 96 be
       -0.06990999 0.032546084 -0.026794551 -0.2944291
000240 60 f9 dd bd b4 cb 94 3d fd 86 07 be b4 c0 e3 3d
       -0.1083858 0.07265416 -0.13235088 0.111207396
000250 db 39 7f 3d d9 8d 95 bd 2b c6 18 3d 62 df 80 be
       0.062311035 -0.07302446 0.037298363 -0.25170428
000260 5f 09 6f bd 3b 31 e3 bb 62 13 63 3d eb ff 89 be
       -0.058358546 -0.006933359 0.055438407 -0.26953062
000270 16 f3 08 be 60 26 66 bd 9f f5 1f 3e 4a 0f 05 3d
       -0.1337398 -0.05618894 0.15621041 0.032485284
000280 75 98 83 3e e2 ad be 3c aa d6 26 3d c7 e3 20 bc
       0.25702253 0.023276273 0.040732063 -0.009819931
000290 40 bc ec 3d 97 6e a7 bd a3 69 06 3f 00 2d 99 3d
       0.11559343 -0.0817539 0.5250494 0.07479286
0002a0 d1 9e be 3c 9e 21 20 3f e4 ab 11 be 2f d1 41 3c
       0.023269089 0.62551296 -0.14225727 0.011829658
0002b0 e7 99 38 be 68 7f b4 bd f2 41 e9 3a 15 30 17 3e
       -0.18027459 -0.08813363 0.0017796142 0.14764436
0002c0 bf 25 f9 bc 9a 37 17 3e b5 cd b5 3d 6b 8e ab 3d
       -0.030413507 0.14767304 0.08877126 0.083767734
0002d0 ce 8c f4 3d 4c f8 6b 3e dd 86 19 3d 11 c9 ac 3c
       0.11940919 0.23043936 0.03748213 0.02109197
0002e0 dc c2 9f 3d 86 2e 40 3e d3 b8 d7 3d 8e c3 9c 3d
       0.07800838 0.18767747 0.10533299 0.076544866
0002f0 37 77 be bd b0 66 80 3d 36 97 f8 3c 34 64 a6 3d
       -0.09300082 0.06269586 0.03034554 0.08124581
000300 64 84 98 3d c7 45 b4 3d 00 0f 25 3d a6 19 89 3e
       0.074471265 0.088023715 0.04029751 0.2677738
000310 e3 91 0c 3c 39 43 02 3e 39 9d 0c 3e 10 d5 c4 3d
       0.008579704 0.12720956 0.1373185 0.09610951
000320 c5 7d 10 bd e1 f2 75 3e 0f c9 06 3e 7c 70 ca 3b
       -0.035276193 0.24018432 0.13162635 0.00617796
000330 ca 93 07 3e 57 dc 00 3e 11 7c eb 3d ca 45 43 3e
       0.13239971 0.12584053 0.11498273 0.19069591
000340 39 a8 cd 3d 35 e8 cb bd dd 10 44 bd 3e 55 7a 3d
       0.100418516 -0.09956399 -0.047867645 0.06111645
000350 73 b7 94 bd 8a d3 67 3d fc 8d d5 3c fc 26 89 bd
       -0.07261553 0.056598224 0.02606868 -0.06696889
000360 30 9b 59 3d 3b 20 dd 3d 41 28 61 bd e6 bf 03 3e
       0.053126514 0.10797163 -0.05497003 0.12866172
000370 a5 61 1d bd dc 12 24 3e 3b 60 fa 3d 2c c9 8d bd
       -0.0384232 0.1602282 0.12225386 -0.06923136
000380 da 19 08 be 8e 8b 0f bc 79 20 2a bd 86 a6 14 be
       -0.13291112 -0.0087613 -0.041534875 -0.14516649
000390 fa 38 b4 3d 12 96 95 bb b3 9e a0 3d 76 be 0b 3e
       0.0879993 -0.004565009 0.078427695 0.13646874
0003a0 7c 3d 49 bd 93 94 65 be 0f c7 8a bd 25 54 12 3e
       -0.0491309 -0.22419958 -0.06776249 0.14289911
0003b0 64 91 39 3f 41 45 e7 bd c3 51 a8 bd 56 16 3d 3f
       0.72487473 -0.11292506 -0.0821872 0.73862207
0003c0 f4 fd 93 3d 9e a6 06 bc 7f 0a f3 3d f3 20 1a 3e
       0.07226172 -0.008218436 0.11867236 0.15051632
0003d0 97 db 21 3c a0 1c dc bd 42 6b 51 3e 88 5a 7b 3c
       0.009879014 -0.10747647 0.20451072 0.015341409
0003e0 6a 60 b3 3d ea 2a db 3d 42 e4 4f 3e 57 2f f9 3a
       0.08758624 0.107015446 0.20301917 0.0019011301
0003f0 e4 61 ab 3d 2a d6 c3 3d 94 5c 22 bd 0a 2c 57 bb
       0.083682805 0.09562333 -0.03963907 -0.0032832646

lstm.weight_hh_l0 f4 [160, 40]
000000 08 79 45 bb 40 c0 8b 3e ee f9 95 bd 12 b1 39 3e
       -0.0030131955 0.27295113 -0.07323061 0.18133953
000010 5d 83 08 be 53 e2 9c bc dd e3 80 3d 27 69 17 ba
       -0.13331361 -0.019150889 0.062934615 -0.0005775862
000020 06 b3 99 bd 51 97 66 3c 14 76 f5 3c f5 5e 91 3d
       -0.07504849 0.014074163 0.02996353 0.0709819
000030 02 58 f8 bd b4 98 cc 3d 13 ef cd bc 43 11 07 be
       -0.12126161 0.09990063 -0.025138414 -0.13190179
000040 d1 76 4a 3e f7 da 88 3d b3 90 ab 3d 74 df d4 3d
       0.19771887 0.06682389 0.083772086 0.10394183
000050 45 52 44 be ce ee eb ba d4 4e f9 3c 5a 92 34 3e
       -0.19172008 -0.0018000246 0.030433096 0.17633954
000060 35 1c d2 3d 0c 19 54 be 69 2e 0d 3e 2c d6 1e 3e
       0.10259286 -0.2071268 0.13787235 0.15511388
000070 97 69 7a bd b3 4b 03 3d 01 80 b5 bc 54 7b fb bc
       -0.061135855 0.032054614 -0.022155764 -0.030698456
000080 e6 97 01 bd 47 1a c5 3d a6 61 91 3d f2 a3 82 3d
       -0.031639002 0.09624153 0.07098703 0.06378926
000090 c3 75 db 3c bf 79 b3 3d f8 11 45 3e ac b3 ae bd
       0.026789552 0.087634556 0.19245136 -0.085303634
0000a0 6d ab 22 bd 2d 27 20 3e 8c 3b 92 3d 93 8e 58 3e
       -0.039714266 0.15639944 0.07140264 0.21148138
0000b0 50 a0 c9 bd 6d 69 94 3d aa 8c c5 bd cd 94 dc 3d
       -0.0984503 0.07246671 -0.0964597 0.10770569
0000c0 3b c5 8e bd 13 3b 55 bd 9a 0d 8f bd c8 ad 3a bc
       -0.069712125 -0.05205829 -0.06985016 -0.011393972
0000d0 59 d4 09 3e 60 7a 7f 3e 3e 7b 1f bc 3e 30 42 3d
       0.1345991 0.24949026 -0.009733973 0.04740929
0000e0 d9 cf 52 3d 83 51 77 3d a5 b5 fc 3e d3 20 f5 bd
       0.05146775 0.06038047 0.49357334 -0.11969151
0000f0 2a 86 c2 3d e8 82 57 3e d3 75 9d 3d 92 b0 47 3e
       0.09498246 0.2104603 0.07688489 0.1950095
000100 c1 e0 0c 3e 50 ff 65 3d e6 8b 96 3d 93 5b 63 bd
       0.13757612 0.056151688 0.07350902 -0.055507254
000110 88 fe bf 3c 45 b8 e0 bd ba 00 da bd 79 f9 bd 3d
       0.0234368 -0.109726466 -0.1064467 0.09276099
000120 c2 2f 00 3e 0e 0b ba 3e bd 1a 04 bd c2 bb 9f 3d
       0.12518218 0.3633656 -0.032252062 0.07799484
000130 61 96 2d 3e fa a3 c7 bd 7b 8f 43 3e b0 c4 75 3d
       0.16951896 -0.09748073 0.19097702 0.06000203
000140 cb d9 f5 bb 8e a7 8b 3e 6f 0e 65 bc d2 5a 8d bd
       -0.0075027696 0.27276272 -0.013980492 -0.06902088
000150 04 73 da bd 77 74 dd bd ad f1 ee bd 2c e4 d5 3d
       -0.10666469 -0.108132295 -0.1166719 0.10443911
000160 1e 0c 07 be 28 fd 38 3c 3a 95 1f bc 46 53 e5 3d
       -0.13188216 0.011290826 -0.009740168 0.11197524
000170 39 32 fa 3d 36 b8 44 3e 1c a3 60 bc 9f 01 e4 3b
       0.122166105 0.19210896 -0.013710763 0.006958201
000180 69 8c d0 3d 06 03 38 3e 33 03 13 3e bb c7 d0 3d
       0.10183031 0.17969903 0.14356689 0.101943456
000190 df 8b 03 3d 69 6d 52 bd c1 32 f0 bc d8 ed 0d 3e
       0.032115813 -0.051373873 -0.029321076 0.13860261
0001a0 5a d7 ff 3d 12 61 fc bd c9 7c 21 3e c9 e3 7a bd
       0.12492247 -0.12323202 0.15770258 -0.06125239
0001b0 e1 d6 87 bd 02 d2 93 3c 4a 2f 12 be c4 89 f7 3d
       -0.06632782 0.018044475 -0.14275852 0.120868236
0001c0 11 ec 11 3c 79 73 6f 3e c7 b3 9f bd 21 90 3c be
       0.00890638 0.23383893 -0.07797962 -0.18414356
0001d0 d3 8d 4d 3e a0 cf d7 3c 8a 11 58 3e 7f 93 ab bd
       0.20073633 0.02634412 0.2110044 -0.08377742
0001e0 92 dd f3 3d 9e 6e 38 3d 8c b5 28 bd f2 1f 8a bd
       0.119074956 0.045027368 -0.04118876 -0.06744374
0001f0 6d 54 b6 3d f9 7c 57 3e bf 8e 7f 3d 5b 8f ea 3d
       0.08902822 0.21043767 0.062391993 0.11453124
000200 64 f7 a6 bd 05 7b b6 3d ab e5 ae bd 9e ab f3 3d
       -0.08152655 0.08910183 -0.085398994 0.11897968
000210 cd d9 b5 3d 0c 4e 51 3e 29 e0 87 3c 98 4a af bd
       0.08879433 0.20439929 0.01658638 -0.085591495
000220 3b fe d3 3d 50 13 89 3c b0 f1 b8 3e e4 70 c2 bd
       0.10351225 0.016732842 0.36121893 -0.094941884
000230 42 88 dc bd 9c 94 af 3e 70 31 f4 bc cb a7 2c bc
       -0.107681766 0.34293067 -0.02980873 -0.010538052
000240 32 75 4c 3e 73 53 67 3d 1b 47 b6 bd 93 46 b5 3d
       0.19966581 0.056476068 -0.08900281 0.088513516
000250 a1 02 fe 3c 40 ca 26 3d 92 8c f2 3d 0c e2 db bd
       0.031007113 0.040720224 0.11843218 -0.107364744
000260 4c ae 24 3b 7f 85 c3 3d ce 5f ca 3d 5b 02 8f 3d
       0.0025128303 0.09546947 0.098815545 0.06982871
000270 15 78 48 bd 35 44 19 3d 35 9a 81 bd b3 8c 3a 3d
       -0.048942644 0.037418563 -0.06328241 0.045544337
000280 0b 67 8f 3d 37 62 9d 3e 07 05 3d be 21 88 69 3e
       0.07002076 0.30738994 -0.18458949 0.22805835
000290 4b da 68 be 9c 9c 9c 3e a3 2a 94 be 2b a4 7e be
       -0.22739522 0.30588233 -0.2893878 -0.24867313
0002a0 f1 5b 06 be a3 ec d5 3e 06 54 7f 3e 23 42 4d 3e
       -0.1312101 0.41782102 0.24934396 0.2004476
0002b0 cc 55 6f 3d a1 1b ca 3e 0c f3 4f 3e 39 35 d8 bd
       0.05843143 0.39474204 0.20307559 -0.105570264
0002c0 29 a2 95 3e a1 a5 b4 3e 68 54 0b 3e 27 ec 37 be
       0.2922528 0.35282615 0.13606417 -0.17961179
0002d0 0a b9 4d be 63 6b cd 3e d8 e9 0f be 6a e1 b5 3e
       -0.20090118 0.40120992 -0.14054048 0.3552354
0002e0 bf c4 33 3e 2e f8 39 be ca bf bc 3e 87 a1 08 3e
       0.17555521 -0.1816108 0.36865073 0.13342868
0002f0 3e 6a 12 be e7 a1 89 be 8a 7b 22 be 2c 8c 86 bd
       -0.1429834 -0.26881334 -0.15867439 -0.065697044
000300 e8 d6 07 3e 4c 45 9a be f7 bf 5e 3d ad f7 b5 be
       0.13265574 -0.30130994 0.05438229 -0.35540524
000310 21 cc c9 3d 58 55 48 be 61 81 a2 3e b9 71 fa bd
       0.098533876 -0.19563806 0.31739333 -0.12228722
000320 69 08 30 3e cc d3 24 3e a1 b5 01 3e 40 d7 02 3d
       0.17190708 0.16096419 0.12666942 0.03194356
000330 3d 23 2e be f0 59 0e 3b df 0b b2 3d 01 42 b7 bd
       -0.1700563 0.0021721087 0.086936705 -0.08948136
000340 7a 9e 8b bd c4 e6 27 3e 7a 7d a9 bc c5 5b 9c 3d
       -0.068173364 0.16396624 -0.020689715 0.07634691
000350 c4 e4 d5 bd b9 41 d0 3d a0 f9 04 3d 95 5f a0 3d
       -0.10444024 0.101687856 0.032464623 0.07830731
000360 59 11 51 3e d7 4f 8b 3d 37 d3 3b bc 3c 21 90 bd
       0.20416774 0.068023376 -0.011463932 -0.07037589
000370 07 ce a1 3d 7d 15 72 3e 48 de 7f bd ba ec 22 bc
       0.07900625 0.2364101 -0.062467843 -0.009944135
000380 48 23 80 3d 00 01 dc bd 83 de e8 3d 36 37 be bd
       0.06256729 -0.10742378 0.11370566 -0.092878744
000390 74 56 1b be 2c 70 3f 3e c2 ec bc 3d 67 74 04 be
       -0.15169698 0.18695134 0.092248455 -0.12935029
0003a0 01 69 08 3e 99 4a fb bc 96 24 1b bd 66 94 07 3e
       0.13321306 -0.03067522 -0.037876688 0.13240203
0003b0 98 6d 40 3e a0 46 2b 3d 23 d9 68 bd 93 87 81 3d
       0.18791807 0.0418154 -0.056847703 0.06324687
0003c0 8c 0a ce bd 36 8b bb 3e 6a 3c 3f be e9 40 1e 3e
       -0.100606054 0.36629647 -0.1867539 0.15454449
0003d0 de a2 08 be 60 91 05 3d ad 4f 07 be be 2d 30 bd
       -0.13343379 0.032609344 -0.13213988 -0.043012373
0003e0 f4 d0 57 3c f4 6a a5 bd 61 18 03 3e 33 14 54 3e
       0.013172377 -0.0807704 0.12802269 0.2071083
0003f0 96 35 8a 3d 66 f9 8f 3d db 5d 81 3d f7 ca ea bc
       0.06748502 0.07029991 0.0631673 -0.028661234

lstm.bias_ih_l0 f4 [160]
000000 1c 73 4e bd 17 b8 88 3d dd b6 2e 3e a8 2b 71 bc
       -0.050402746 0.06675737 0.17061944 -0.014719881
000010 fd 01 bd 3d e8 e0 56 3e b0 40 2c 3e ba d2 63 3e
       0.09228895 0.20984232 0.16821551 0.22248355
000020 3e 58 a2 3d 15 2f 92 3d 02 d2 e8 3d df 3a 30 3e
       0.07926987 0.071378864 0.11368181 0.17209958
000030 b3 74 24 3d 70 26 f1 bb 02 bb e3 bc 7e f9 8b bd
       0.040150356 -0.0073593184 -0.027799133 -0.06834696
000040 a3 2b 1b 3d 2d ed 33 3e 2a 7a 21 3e 2e 44 43 3d
       0.037883412 0.17570944 0.15769258 0.047672443
000050 ca 32 88 3d 4c b6 14 3e e3 7a 11 3d d2 07 95 3c
       0.06650312 0.14522666 0.035517585 0.018192206
000060 73 39 7c 3e 8d 69 ab 3c 56 ec c8 3d 4b ae 73 bd
       0.2463129 0.020924354 0.098107025 -0.05949239
000070 8f 6a 85 bd f3 4b 20 3e c8 b9 86 3d 7d a0 3a bd
       -0.06514465 0.15653972 0.06578404 -0.04556321
000080 ca ca 85 3d d2 80 73 3e 3e 54 33 3e 7d 79 74 3e
       0.065328196 0.2377961 0.17512605 0.23874469
000090 72 de 2c 3e 1a a0 8e 3d 5d 3b e5 3d bb 57 36 3e
       0.16881731 0.06964131 0.11192963 0.17806904
0000a0 a6 ef 08 3e 39 09 9e 3d b2 f9 44 3d b7 67 5a 3e
       0.13372669 0.07716603 0.04808969 0.21328627
0000b0 1a 6f 7d bc 36 50 0d 3e 57 af c7 bd 45 dd 1e 3e
       -0.015468383 0.1380013 -0.0975024 0.15514095
0000c0 a4 1e a3 3b 19 45 5a 3e 92 12 c1 3d 2f 98 05 3e
       0.004978018 0.21315421 0.0942737 0.13046335
0000d0 1a bb ba 3c e5 53 e9 3d 15 6e b8 3d f9 8e ef 3d
       0.022794295 0.11392955 0.090053715 0.11697192
0000e0 f6 db ac bc 60 3c b4 bc 4f 23 d8 3d 89 7c 0a 3e
       -0.02110098 -0.022001445 0.105536096 0.13524069
0000f0 fd cc 07 3e 32 89 87 ba e1 55 d4 bd 51 33 f9 3c
       0.1326179 -0.001034057 -0.103679426 0.030419977
000100 7a f4 8f 3d fc 96 cc bd e8 4b 1e 3e 4c 5c ad 3c
       0.07029052 -0.099897355 0.15458643 0.021162175
000110 c2 36 f6 3d e9 29 f9 bd 77 f6 ae 3b 11 2a 16 bc
       0.12022163 -0.12166197 0.0053394395 -0.009165303
000120 1f d3 db 3d e8 72 0b be cb 4c a9 3c c9 ee 8c bc
       0.107336275 -0.13618052 0.0206665 -0.017203705
000130 f6 1a a9 bd 51 f7 22 bd 2f b7 3b bc a2 37 7e bd
       -0.082570955 -0.03978664 -0.011457249 -0.062064774
000140 df 2e c8 3d 62 d6 c9 ba 7b db 70 3c 58 7d 80 bd
       0.09774565 -0.0015398974 0.014700766 -0.062739074
000150 ac 08 b3 bd 0f 9c ea 3d d4 dd 49 be da 61 1d be
       -0.087418884 0.11455547 -0.19713527 -0.15369359
000160 9e 64 f6 bd a2 a5 19 3e f0 b6 85 3d 9b e2 e9 3c
       -0.1203091 0.1500459 0.06529033 0.028550437
000170 95 a5 01 be 88 8f b2 bd 7a 04 a1 3d 39 9d 91 3d
       -0.12660821 -0.08718783 0.07862182 0.07110066
000180 f4 5e a1 bd 15 27 42 3e 0d 5d 4d 3e 69 f0 36 be
       -0.07879439 0.18960221 0.20055027 -0.17865147
000190 6e 31 a0 3c ec 81 1d 3d e3 fe 02 be 8a bc 3c 3e
       0.01955482 0.03845398 -0.12792544 0.18431297
0001a0 4a 1b ad bd c3 f5 b2 bd bd e7 d4 3d c2 89 7e 3d
       -0.084524706 -0.087382816 0.10395763 0.062143095
0001b0 ad b3 7d 3d 6a eb a4 3d a5 54 d0 bd a4 20 2f be
       0.06193893 0.08052714 -0.10172395 -0.17102295
0001c0 fd bd 0c bd 92 d2 2b be 58 b4 85 3d 2d d2 1b be
       -0.034360874 -0.16779545 0.065285385 -0.15216894
0001d0 77 4f 9c 3d 16 54 7d bd 39 cb 9e 3c de 21 81 bd
       0.07632344 -0.06184777 0.019384013 -0.06305288
0001e0 47 98 06 3e 5f c6 2a 3e 11 7a 0c 3e 41 d8 ad 3c
       0.13144027 0.16677235 0.1371844 0.021221282
0001f0 e4 f2 c2 3e 10 90 eb 3d bf d2 1f 3e 60 01 de 3d
       0.38075936 0.11502087 0.15607737 0.10840106
000200 42 d0 98 bd 80 06 db 3c 50 cb 2c bd f8 d6 02 3e
       -0.07461597 0.026736498 -0.04218608 0.12777317
000210 65 9b a0 3e ff 01 11 3e b5 d4 f8 3d 1f d1 26 3e
       0.31368557 0.14160918 0.12149946 0.16290711
000220 2b 5d b2 bc 5d ed 1c 3e e2 27 34 3e f5 34 20 bd
       -0.021772942 0.15324922 0.17593339 -0.039113004
000230 51 ba 2c 3e 06 b0 1c 3e eb 0b 94 3d 46 10 c9 3c
       0.16867949 0.15301523 0.07228836 0.024543893
000240 cf b9 c3 3d 1e ca 5e bd 15 28 e1 3d ef 68 85 3d
       0.095569246 -0.054391973 0.10993973 0.06514155
000250 db fc 50 bd 00 ea 9f 3e e6 33 a9 3d 67 ea 91 bd
       -0.05102239 0.31233215 0.08261852 -0.07124787
000260 c6 11 b6 bc 1d 04 72 3e 4e e1 71 3e de 43 48 3e
       -0.022225272 0.23634382 0.23621103 0.1955714
000270 6c b7 02 3e 1d b1 8b 3c 20 be 7a 3d 54 18 fb 3d
       0.12765282 0.017052228 0.061216474 0.122604996

lstm.bias_hh_l0 f4 [160]
000000 52 45 fd 3d 3d e4 ac b9 90 60 a2 3d 06 99 b6 3b
       0.123667374 -0.00032976447 0.07928574 0.005572441
000010 11 5c e3 3d 27 89 ce 3c 30 5e 68 bd 13 ff b6 ba
       0.11101545 0.025211884 -0.05673045 -0.0013961516
000020 79 b8 9c 3d f5 d3 bb 3d 53 f3 7f bc f5 d6 18 3e
       0.07652373 0.09171287 -0.015621978 0.1492575
000030 0c 90 65 3c 90 05 5a 3e de 5a 5e 3e 31 5c 14 3e
       0.014011394 0.21291184 0.2171435 0.14488293
000040 55 6a 28 3e 7b 09 19 3e 08 2e 02 3e fe 79 5d bd
       0.16446812 0.14945023 0.12712872 -0.05407142
000050 e6 19 49 3d 3d bb ef 3d 5f dc 2f bc d5 94 1f 3e
       0.049096964 0.11705635 -0.010733693 0.15584119
000060 bb 07 46 3e 28 6b 51 3d bf d6 18 3d 69 e6 18 3e
       0.19338886 0.051127583 0.037314173 0.14931644
000070 db aa 98 3d 8b be b0 3e 63 d5 47 3e 71 6a df 3d
       0.07454463 0.34520373 0.19514994 0.10908974
000080 f3 5c 16 3e ae d6 76 3e 69 97 88 3d 22 99 84 bc
       0.14683895 0.24105331 0.06669504 -0.0161863
000090 1f 5d a2 bc f1 17 45 bd f1 d4 df 3d c3 72 17 3e
       -0.019819794 -0.048118535 0.10929287 0.14789872
0000a0 72 f4 a8 3c 46 8b 82 3b 58 18 6a ba 04 b2 95 bd
       0.020624373 0.003983888 -0.0008930019 -0.073093444
0000b0 41 a3 ac bd f2 ba ad 3d c0 a4 1f 3d 78 e8 b7 3d
       -0.08429576 0.084829226 0.038975477 0.08979887
0000c0 15 f9 03 be d8 75 33 3e c8 93 db 3c eb 78 34 3e
       -0.12887986 0.17525423 0.026803866 0.17624252
0000d0 40 97 f4 bc b0 54 58 3e 37 b7 cc 3d da 4f 11 bd
       -0.029857278 0.21126056 0.09995883 -0.035476543
0000e0 02 b8 37 3d 06 56 19 3e 79 2d 6f 3d 27 10 f3 bd
       0.044853218 0.14974222 0.058392975 -0.11868315
0000f0 ca 47 36 3d af 8b 89 bd ff a3 1c 3e 1f 85 af 3d
       0.044502057 -0.06716096 0.15296935 0.08570313
000100 fc ae 01 3e 44 89 60 bd 21 01 b9 3d a3 6d 8d bd
       0.12664407 -0.054818407 0.090334184 -0.06905677
000110 fd 99 0a 3e 08 22 80 3d 3b 02 f2 b9 62 c7 92 bd
       0.13535304 0.06256491 -0.000461595 -0.071669355
000120 45 1e f2 3d 72 d2 2e 3d 9c 25 c6 bd 77 67 ec 3d
       0.1182218 0.042681165 -0.09675142 0.11543172
000130 60 78 9a bd d8 16 7a bc 58 0f 54 3e 9f 59 25 3e
       -0.07542491 -0.015264235 0.20708978 0.16147469
000140 ef 97 f2 3b c0 8d 91 bd 4f 2e 5c 3d 2d 4a 3a 3e
       0.007403366 -0.07107115 0.0537551 0.18192358
000150 15 33 11 bb 33 90 51 3e 73 bd cc bd 05 0b fe bd
       -0.0022155691 0.20465164 -0.09997072 -0.124044456
000160 68 ee 88 3d 0e d6 2e 3e 44 29 25 3e 93 47 7f bc
       0.066860974 0.17073843 0.16129023 -0.0155810295
000170 a2 96 d4 3d d4 7c 65 3d 18 11 9c bd 6a cf a7 bd
       0.103802934 0.05602725 -0.07620448 -0.08193858
000180 1e f7 64 bb 2c 7d df bd 4d ff da bc 54 52 28 be
       -0.0034937332 -0.109125465 -0.026733065 -0.16437656
000190 3a bc 07 be 01 ed 60 3e 0b 35 47 be f5 82 7f 3d
       -0.13255396 0.2196541 -0.19453828 0.06238075
0001a0 44 bd 05 3e b4 67 0e be dd 32 31 3d e2 89 44 3e
       0.1306048 -0.13906747 0.043261398 0.19193223
0001b0 fb 85 34 be 7a 7c d2 bd 67 c6 f3 bd 94 65 1f 3d
       -0.17629234 -0.10277648 -0.119030766 0.03891523
0001c0 67 81 d2 3d 19 91 bd bd 92 1e a2 bd f9 b9 36 be
       0.10278588 -0.09256191 -0.07915987 -0.1784438
0001d0 25 55 31 bd 3e 59 99 3d ab b9 2c 3e 02 17 c5 bd
       -0.04329409 0.07487725 0.16867702 -0.09623529
0001e0 45 ac 04 3e 29 ec 36 3e f5 26 24 be f7 7f 57 3d
       0.1295634 0.17863525 -0.16030486 0.05261227
0001f0 56 78 a0 3e 44 b3 1e 3e e7 9a 1e 3e d1 97 48 3e
       0.3134181 0.15498072 0.15488778 0.19589163
000200 ef 67 94 bc 50 68 30 3e 75 9d 24 3e 07 1d c6 3d
       -0.018115966 0.17227292 0.1607569 0.09673505
000210 22 81 1e 3e 11 44 14 be b6 5b 14 3c 77 7a 4c 3d
       0.15478948 -0.1447909 0.009055069 0.04992148
000220 21 a2 4b 3e 88 76 b1 bc ac 42 99 3e 1f dd 80 3c
       0.19886066 -0.021662965 0.2993368 0.015730439
000230 bc a6 65 3b 54 53 53 3e a9 00 91 bd 2b c9 19 3e
       0.0035042008 0.20637256 -0.07080204 0.15018146
000240 01 08 ec 3b c4 ac 14 3e d0 13 00 3e c1 f8 49 3d
       0.0072031026 0.1451903 0.12507558 0.049309496
000250 d3 0e a9 bd db db bc 3e 3e f4 99 bd 17 ae 8f 3d
       -0.082547806 0.36886486 -0.075172886 0.07015627
000260 c8 15 c6 bd cb 35 6a 3e fa 18 a4 3e a2 74 3c 3d
       -0.09672123 0.22872083 0.32050306 0.046009667
000270 5d 10 21 3e 4c fa c7 3d 13 94 85 3c 3c bb 2f 3e
       0.15728898 0.09764537 0.016305959 0.17161268

hidden2event.weight f4 [27, 40]
000000 32 81 81 be 24 8a aa bd 46 20 57 3e d0 22 96 be
       -0.2529388 -0.083271295 0.21008405 -0.29323435
000010 7d 8d 55 be 9d 55 a9 bd 73 7d c1 bb e4 9b 73 3e
       -0.20854755 -0.082682826 -0.0059048473 0.23789936
000020 44 40 a2 bd 1c 60 56 be 2f 3e 49 3c 51 f7 0e be
       -0.07922414 -0.209351 0.012282892 -0.13961531
000030 31 b2 ff be da 64 ca 3d 3b d7 8c be 59 22 7d be
       -0.49940637 0.09882517 -0.27507958 -0.24720134
000040 b6 c9 78 bd b8 96 1d 3e 1f bf 58 3f 9e 21 08 3e
       -0.06073924 0.15389526 0.8466663 0.13294074
000050 bf 1a cd 3d 4f de b5 3e 89 b7 06 be e4 67 ba 3d
       0.10014867 0.3552117 -0.1315595 0.09101847
000060 02 1b 63 bd 4f 2d 9c 3d 8c d7 e1 3b 3d 35 93 be
       -0.05544568 0.076258294 0.0068921503 -0.28751555
000070 d3 44 9a 3e 34 26 77 bd e7 63 9d bd 6b d9 89 3e
       0.30130634 -0.060339168 -0.076850705 0.2692369
000080 68 97 11 be 96 b8 93 be 90 6d 2a be 8d 6e 10 be
       -0.14217913 -0.28851765 -0.16643357 -0.14104672
000090 37 63 85 3d d2 09 e9 bd 09 66 3f 3d e0 98 5a bd
       0.06513064 -0.11378826 0.046728168 -0.05336845
0000a0 61 c2 51 be 51 70 9c 3e 08 c6 8e 3e 33 68 19 3d
       -0.20484306 0.3055444 0.2788546 0.037452888
0000b0 bc 8c 13 be 1b a2 6b 3d 45 61 e2 3d f4 b4 61 be
       -0.14409155 0.057527643 0.11053709 -0.22041684
0000c0 4d 46 4d be 77 46 6b 3e e1 76 13 3e 77 c5 04 be
       -0.20046349 0.22976099 0.14400817 -0.12965952
0000d0 bc 35 14 bf fa 6a 85 3d 35 a8 c0 bd fe 30 71 be
       -0.5789449 0.06514545 -0.09407083 -0.23553845
0000e0 83 c5 4d be 3f b5 c0 3d 13 c7 2d 3f 2d 47 63 3e
       -0.20094876 0.0940957 0.6788189 0.2219512
0000f0 92 c0 0a 3e b6 5e e9 3e e7 5a 55 be 05 4a 59 3e
       0.13550022 0.4558007 -0.20835458 0.21219642
000100 91 c3 1c 3e 36 a4 a7 bd 30 2e 85 3d 16 7f 5f be
       0.15308978 -0.081856176 0.0650295 -0.21825823
000110 2a 16 98 3e f5 21 de bd 39 23 1a be d5 69 61 be
       0.2970441 -0.108463205 -0.15052499 -0.22013028
000120 4d 0a 17 3e 3a 98 a1 be a7 ba 99 bd 04 a8 55 be
       0.14750023 -0.31561452 -0.07506304 -0.20864874
000130 6f 85 3c 3d 49 9d 21 be 8c a5 b1 3e b8 f4 16 bd
       0.04602569 -0.15782656 0.34696615 -0.036854476
000140 6a e4 70 be 29 a2 e8 bd 48 cd 83 be 80 fc a2 bd
       -0.23524633 -0.113590546 -0.25742555 -0.07958317
000150 b9 07 5d 3e cd 23 5d 3e af 50 4c be 5f 0c 1b be
       0.21584977 0.21595688 -0.19952653 -0.15141438
000160 67 43 24 3e 99 cd 32 3d b1 8f f5 3c 49 59 f3 bd
       0.16041337 0.043653104 0.029975744 -0.11882264
000170 4d 7d 26 bf 01 5c 0f be b8 30 36 bd 80 1c 41 be
       -0.65034944 -0.1399994 -0.044480056 -0.18858528
000180 fa 96 e3 3d c6 b5 55 3e ae 52 15 3f 1a 28 8a 3e
       0.11112781 0.20870122 0.58329284 0.2698372
000190 8d 62 4f bd f8 fc 32 3f 8c 48 eb 3c 7a c8 0b 3e
       -0.050631095 0.6991725 0.028721116 0.13650694
0001a0 06 89 97 bd c6 ff 52 be f7 10 09 3e 67 b6 df bd
       -0.07399182 -0.20605382 0.13385378 -0.10923462
0001b0 83 15 5f 3e ea 79 72 bd be 82 94 3e 82 3c a4 3e
       0.2178555 -0.059198298 0.29005998 0.32077414
0001c0 90 59 31 3e 6d 1d da be d1 63 57 be 39 e1 32 be
       0.17319322 -0.42600575 -0.2103417 -0.17468728
0001d0 73 8d 3b 3e c9 8f d2 3d f8 ad be be 25 c9 d3 bd
       0.18315677 0.10281331 -0.37242103 -0.103411
0001e0 d6 a0 c0 3e ee be 9e 3e 23 6e d8 be f5 17 37 be
       0.37622708 0.31005043 -0.42271528 -0.17880233
0001f0 df 6e 4d bf 2f 3b 68 be 58 53 c7 3e e7 87 92 bd
       -0.802473 -0.22678827 0.38930774 -0.071548276
000200 a6 31 fd bd 89 c2 ea 3e 5c 72 da 3e d7 3d 53 3e
       -0.12362985 0.45851544 0.42665374 0.20629059
000210 49 fa c0 3d 18 b5 00 3f b5 48 3b bd e6 3c dd be
       0.09422738 0.5027633 -0.045723636 -0.43210524
000220 ed e4 83 be 1c b6 1c 3d fe ee f3 be 8d 6c e6 bd
       -0.25760594 0.03825961 -0.47643274 -0.11251173
000230 c3 bd 97 be bd 34 5c 3f 90 16 95 3e 66 ca f1 3e
       -0.29636964 0.8601797 0.29118776 0.4722473
000240 93 5d 84 be c5 24 05 bf 98 5c 4a be 55 42 7c 3e
       -0.2585264 -0.5200923 -0.19761884 0.24634679
000250 96 bb 41 be a2 d9 62 3f 6e 50 9f bd 12 96 95 3e
       -0.18919215 0.8861333 -0.077790126 0.29216057
000260 fe 61 87 bc cb da 19 bf 68 53 e8 bd 21 17 d5 3e
       -0.016526219 -0.60099477 -0.113440335 0.41619208
000270 5f fe ae 3d 1d 81 91 3e b7 f0 9c 3e 2f 14 aa 3e
       0.08544611 0.28418818 0.306524 0.33218524
000280 17 bd bf 3d b2 c8 fb 3e c2 e4 03 3e 85 1e 35 3e
       0.09362238 0.49176556 0.12880233 0.17687424
000290 bc 9a 41 3f a8 c3 7f 3e bf c7 88 bd c3 b4 80 3e
       0.7562673 0.2497698 -0.066787235 0.2513791
0002a0 9a 0d 34 bd 38 28 1a bf 9c b1 f8 be 2c 0e b4 bd
       -0.043958284 -0.6021762 -0.48573005 -0.087917656
0002b0 ef ff 5e 3d 48 51 2d 3d 3b f3 94 be 2e 4e 1c be
       0.054443296 0.042313844 -0.2909182 -0.15264198
0002c0 5e 9f 0d 3e b3 ff 79 3c 42 76 b4 bf bc 30 db be
       0.13830325 0.015258717 -1.409859 -0.4281062
0002d0 e9 01 38 3e a1 ea 89 3e 20 a8 f0 3c 95 5f 40 3e
       0.17969479 0.2693682 0.029377043 0.18786462
0002e0 c3 dc e2 be 0c 63 25 3e b2 26 56 be c2 2f c6 3c
       -0.44309053 0.16151065 -0.20913199 0.024192695
0002f0 24 ae 0c bf 08 95 0f 3f 82 72 d3 3e 01 69 ca bc
       -0.5495322 0.5608678 0.412983 -0.024708273
000300 a4 04 30 be 6d 18 16 be f6 31 8a 3e 64 ce 00 bf
       -0.1718927 -0.14657755 0.26991242 -0.5031493
000310 73 e0 d1 3c 1c 13 9c 3c c7 b5 b6 3e 6a 21 4a 3e
       0.025619721 0.01905208 0.3568556 0.19739309
000320 45 b3 4b be a8 35 c2 be 67 d8 de 3e f7 19 1f be
       -0.19892605 -0.3793156 0.43524477 -0.15537249
000330 25 56 8b 3e a2 4a 37 be b1 0e a9 3d 01 4a a2 3e
       0.2721416 -0.17899564 0.08254755 0.31697085
000340 db 31 92 3e b6 c8 21 be c5 de 5d be b8 0f 50 be
       0.28553662 -0.15799221 -0.21667011 -0.20318496
000350 82 e4 2f bd b7 dc e0 be 9d 5c 81 be c2 ea 6d 3e
       -0.04294253 -0.43918392 -0.2526597 0.23234084
000360 2d 83 00 be 30 5c 89 be f6 b3 94 be bf 76 c6 3e
       -0.1255004 -0.26828146 -0.2904355 0.3876247
000370 88 11 a5 3e 2b 4e 0d bf 9b 8b 1a 3e c5 76 d7 bd
       0.32239938 -0.551974 0.15092318 -0.105207
000380 12 83 a3 bd 87 f1 99 3e 2a 1c 93 bd 06 c3 b2 be
       -0.07983984 0.30067083 -0.07183106 -0.34914416
000390 ef 65 4f 3e fc ba 98 3e 27 dc 5f 3e 81 05 3a 3e
       0.20253728 0.29830158 0.21861325 0.18166162
0003a0 0f 49 b7 bd e8 1b 55 3f 6e 5d f9 bd d9 36 d4 3e
       -0.08949482 0.83245707 -0.121760234 0.41448095
0003b0 c5 55 c0 bd 3a 26 c9 3e b2 98 a4 be c4 0c a2 3e
       -0.09391359 0.39286977 -0.32147747 0.31650364
0003c0 35 bd a6 bd 26 96 53 be c2 56 75 3e 51 3e 8a be
       -0.08141557 -0.20662746 0.23958877 -0.2700067
0003d0 d7 3b 84 3e 97 49 7a be 57 30 56 3e 08 89 6f 3e
       0.25826904 -0.24442135 0.20916878 0.23392117
0003e0 61 81 8a 3e 8c 41 ae be 41 9b 4f be d0 50 15 be
       0.27051833 -0.34034383 -0.20274068 -0.14581609
0003f0 2b 67 74 3e 03 ca 65 be bf d9 9e be 2e 46 a5 3d
       0.2386748 -0.22440343 -0.31025502 0.08070026

hidden2event.bias f4 [27]
000000 8e 24 b8 bd e1 a5 69 bd 1d e6 59 3d 33 27 00 3e
       -0.08991347 -0.05704296 0.05319797 0.12514953
000010 01 26 06 3e 4e db 8a be d2 b9 f6 bd 5c 40 fd bd
       0.13100435 -0.2712044 -0.12047161 -0.12365791
000020 ad c4 75 3e 82 79 c0 3d 4f b2 c8 bd d3 71 0b bd
       0.24000807 0.09398176 -0.09799635 -0.034044098
000030 c8 ee 27 be a4 58 51 3e c1 03 d1 3b 20 93 6f 3e
       -0.16399682 0.2044397 0.0063786213 0.23395967
000040 9d 9b 9b bd 5a 7d ea bd 87 07 7c 3d 58 15 b4 3d
       -0.0759804 -0.1144969 0.061530616 0.087931335
000050 42 21 70 bd 99 a2 40 3d 21 b7 be bd 13 8a df bd
       -0.058625467 0.047030065 -0.09312273 -0.109150074
000060 20 bc 8e 3c 6b c5 7a be c4 6c cb bd
       0.01742369 -0.24489371 -0.09932855

hidden2time.weight f4 [3, 40]
000000 23 8e af bd f9 2c 66 bd 21 5e 5f be 3a 16 3e 3e
       -0.08572032 -0.056195233 -0.21813251 0.18563166
000010 e2 69 77 be 45 e0 3c 3e be fc 77 bd 5a 11 f5 bd
       -0.24161485 0.18444927 -0.060543768 -0.119662
000020 6a 3c cb bd f7 a6 0d 3e 18 eb 1e 3e e4 8f 0f 3e
       -0.099236324 0.13833223 0.15519369 0.14019734
000030 ed e0 38 be e4 fb 09 3e 9c 28 34 3d 02 f4 78 bd
       -0.18054552 0.13474995 0.04398404 -0.06077958
000040 6f 97 62 3e 6d 4a 94 3e 5a 96 9a be 89 45 4a be
       0.2212808 0.28963032 -0.30192834 -0.19753088
000050 d5 14 22 be 60 8d 68 be df 36 60 be 8d 1d 99 3d
       -0.1582826 -0.2271018 -0.21895932 0.074763395
000060 48 87 00 3e 8a c8 47 be e4 a9 0d 3e 5e 46 28 3e
       0.12551606 -0.19510093 0.1383434 0.16433093
000070 2a 11 08 3e 39 99 60 3e 17 61 a0 3d 4d de 51 bc
       0.13287798 0.2193345 0.078310184 -0.012809348
000080 96 b5 2e 3e bc a2 47 3d af 77 61 3e 82 15 1b bd
       0.17061457 0.04873918 0.22018312 -0.03786231
000090 1b b5 ea 3d 52 36 4c bd b7 86 15 3e 17 86 30 3d
       0.114603244 -0.04985649 0.14602171 0.043096628
0000a0 02 de 0b 3d 2a 3e 7c bd 43 19 be bd ac da 1e 3e
       0.03414727 -0.06158272 -0.09282162 0.15513104
0000b0 82 c5 18 be 86 73 a5 bd 38 b6 3c be 47 a8 d8 3b
       -0.14919093 -0.08078675 -0.18428886 0.006611857
0000c0 42 0c 84 3d b9 dd a6 3d c1 43 9c 3d f2 89 81 3e
       0.064476505 0.08147759 0.076301105 0.25300556
0000d0 66 8c 2c 3e bb 19 91 bd c5 8b 64 3c 58 b6 26 be
       0.16850433 -0.07084986 0.013949339 -0.16280496
0000e0 68 1d 0f bc 82 b4 db bc 01 36 cf 3e 60 9d 47 3c
       -0.008735038 -0.026819471 0.4047089 0.012183517
0000f0 59 f6 c6 bd 02 98 38 3e 9b 02 1b be 5c 72 b4 3d
       -0.09714956 0.18026736 -0.15137713 0.08810875
000100 a9 07 35 bd 53 34 33 3d 1c 5d 1b 3e c5 01 01 be
       -0.04419676 0.043751072 0.15172237 -0.12598331
000110 ca 20 1d be f5 b0 d0 be 78 8b 2d be 83 00 06 3c
       -0.1534454 -0.40760008 -0.16947734 0.008178833
000120 21 ef d3 3d dd cb a4 be cd 68 0e 3e 84 33 6b be
       0.103483446 -0.32186785 0.13907166 -0.2296887
000130 d5 08 58 3e 8b 4c 1f be 9d 6d 3d bc ed 7a 3c be
       0.21097119 -0.15556543 -0.011561778 -0.18406267
000140 10 3f 85 be af c9 8c be 83 24 01 3f 2d da 3e be
       -0.26024675 -0.27497622 0.5044634 -0.18637915
000150 7f 3c 09 3e 6f c7 62 be 0a 9b 1e 3e 2a 5d ab 3e
       0.13401984 -0.2214639 0.1548883 0.33469516
000160 2b dc 00 3f 2a 81 38 be d0 f6 6f bd 47 af 6f be
       0.5033595 -0.18018022 -0.058584988 -0.23406707
000170 a4 c1 c7 3d de c1 90 be 9d 18 a5 be 98 78 87 3e
       0.09753731 -0.2827291 -0.3224534 0.26459193
000180 6c 08 4b be 6e 94 98 be b2 ff 00 be 93 31 de 3e
       -0.19827431 -0.29800743 -0.1259754 0.43397197
000190 d1 29 bd 3d fa 77 33 bf 84 2f 8f 3e fc f7 c4 be
       0.092364915 -0.70104945 0.2796594 -0.38470447
0001a0 11 d8 b1 be 84 fa b1 3e 65 1d a9 be 67 87 9b be
       -0.34735158 0.3476144 -0.3303024 -0.3037674
0001b0 8c b4 d4 3e 6c 6b ca 3e e3 c8 6c 3e 4f 9d ca 3e
       0.41543996 0.3953508 0.23123507 0.39573142
0001c0 4d 76 96 be 01 51 c5 3e 8e 6f 7d be 0e 4e e4 3e
       -0.2938713 0.38538364 -0.24749586 0.445908
0001d0 97 f9 e3 bd 0f 48 81 3e c4 0a 73 be df ad 94 3e
       -0.1113159 0.2525029 -0.23734576 0.29038903

hidden2time.bias f4 [3]
000000 06 08 cf b9 2b 39 38 3e 6c 08 22 bd
       -0.00039488095 0.17990558 -0.039558813
