events_simulation/models/all_epochs/model_18_20180608-0719.pt (torch_old, 78237 bytes, 9 tensors)

loss_function_events.weight f4 [27]
000000 00 00 80 3f 00 00 80 3f 00 00 80 3f 00 00 80 3f
       1.0 1.0 1.0 1.0
000010 00 00 80 3f 00 00 80 3f 00 00 80 3f 00 00 80 3f
       1.0 1.0 1.0 1.0
000020 00 00 80 3f 00 00 80 3f 00 00 80 3f 00 00 80 3f
       1.0 1.0 1.0 1.0
000030 00 00 80 3f 00 00 80 3f 00 00 80 3f 00 00 80 3f
       1.0 1.0 1.0 1.0
000040 00 00 80 3f 00 00 80 3f 00 00 80 3f 00 00 80 3f
       1.0 1.0 1.0 1.0
000050 00 00 80 3f 00 00 80 3f 00 00 80 3f 00 00 80 3f
       1.0 1.0 1.0 1.0
000060 00 00 80 3f 00 00 80 3f 00 00 80 3f
       1.0 1.0 1.0

lstm.weight_ih_l0 f4 [160, 70]
000000 a5 72 dc 3d 93 2e 87 bd e3 dc 44 be c3 3b c6 3d
       0.10764054 -0.0660068 -0.19224887 0.096793674
000010 fe 27 42 bc 10 05 21 bd ce b5 e1 bd 4f 1b 94 3b
       -0.011850355 -0.03931147 -0.110210046 0.004519857
000020 a6 99 1f 3c 3d 42 fe bd 10 5c 8c 3d 35 c1 33 3c
       0.0097412225 -0.12414978 0.06853497 0.010971357
000030 b4 ce 8d 3d cc dd 5c bd c2 e0 1e 3e c6 9f d0 3d
       0.06924191 -0.05392246 0.15515426 0.10186724
000040 92 23 ed bd a8 8a 2d 3d 63 12 b0 3c 0a b6 4d 3d
       -0.1157905 0.04236856 0.021493142 0.050222434
000050 4c c3 2b 3e 5e 2b cd 3c 5e 0f f5 3d d0 33 01 3d
       0.16773719 0.025045093 0.11965822 0.031543553
000060 35 fb 92 3c 1a 46 94 3d 98 b3 b4 3e 85 7c 12 3d
       0.01794205 0.07239933 0.3529327 0.035763282
000070 e0 01 9b 3d 20 1d 9a 3e 16 e8 de bc c6 79 05 3e
       0.07568717 0.30100346 -0.027210277 0.13034734
000080 64 94 b3 3b 18 c1 39 3e 8d d3 82 bc 65 80 0e be
       0.005480336 0.18140066 -0.015970016 -0.13916166
000090 fc d3 36 3e 30 05 57 3e 44 db 63 3e 61 7f f5 3d
       0.17854303 0.20998073 0.22251612 0.11987186
0000a0 18 2d 0b 3e f5 d7 8d 3d 7c e5 a2 3d a1 1a 48 bc
       0.1359142 0.06925956 0.07953927 -0.01221338
0000b0 33 8a 02 3e 74 f1 6f 3e 7d 1b ac 3d 1a c4 70 3d
       0.12748031 0.23431951 0.084036805 0.058780767
0000c0 ed 22 ab bd 7e 3f db bc 83 5c be bd 81 42 51 bd
       -0.08356271 -0.026763674 -0.09294989 -0.051088814
0000d0 59 dc b5 3d 04 51 0f 3d 2c 2f b7 3d 4f c0 ce 3d
       0.088799186 0.034989372 0.08944544 0.10095274
0000e0 4c 30 4a 3e 3e f7 30 3e 5a 2d 8e bc 8f 79 52 3e
       0.19744986 0.17281815 -0.01735561 0.20554183
0000f0 8e 9d 33 3c fa 9f 85 bc a8 df 0b 3e db c0 0a bd
       0.010962857 -0.016311634 0.13659537 -0.033875328
000100 9a 14 e3 3d a0 48 6b 3c b9 e1 9b 3d a3 33 fe bb
       0.11087914 0.014360577 0.076114126 -0.0077576204
000110 57 19 64 bd 13 a5 5f 3e d8 43 bd bd ca da 09 3e
       -0.05568823 0.21840315 -0.09241456 0.13462368
000120 8d 3c f3 3d 35 4f b4 3d 07 3b 3b 3d a4 46 92 3d
       0.118767835 0.0880417 0.04571059 0.0714238
000130 bc 7e 46 3e dc 88 15 3e 78 61 91 3d ad 51 2f 3e
       0.19384283 0.14602989 0.07098669 0.17121
000140 f2 0e 88 3c f9 ef 13 3e d9 fd 03 3e 24 a5 d6 bd
       0.016608689 0.14447011 0.12889804 -0.10480717
000150 c4 77 19 be 40 2a 14 be 65 68 17 3e a0 9a 65 3d
       -0.14987093 -0.14469242 0.14785917 0.056055665
000160 d4 48 ad bc 69 69 bd 3d e5 84 1a 3e 1f f4 be bc
       -0.021152891 0.09248621 0.15089758 -0.023309765
000170 86 f6 2c bc 66 ab 5c be bd 8f 6a bd 80 2c d3 3b
       -0.010556823 -0.21549758 -0.057265986 0.006444514
000180 7e 5a 2e 3f e3 9e 0f be 67 82 bb bd ca 19 0d 3f
       0.6810683 -0.14025454 -0.09155732 0.55117476
000190 01 40 75 bd 74 23 55 3e 1c 76 ce 3d a7 69 b8 3d
       -0.059875492 0.20814306 0.10081121 0.090045266
0001a0 e0 f9 07 3e 04 73 db bd a3 a9 fb 3d 26 15 b6 3d
       0.13278913 -0.10715297 0.12288215 0.088907525
0001b0 d3 f1 03 bd 32 a8 ea bd 6c c2 78 3d 66 cc 47 bd
       -0.032213043 -0.11457862 0.06073229 -0.048778914
0001c0 59 9a 4e 3d df 4c ae 3d b8 13 90 3d 98 2c a1 3d
       0.050440166 0.08510756 0.07035011 0.07869834
0001d0 e3 6b b2 bc 6c e6 1a 3e 3c 6a 35 3e c9 ea 63 3d
       -0.02177996 0.15126961 0.17716306 0.05564383
0001e0 31 2f ec 3d 00 76 91 3d 53 a4 44 bb 3d aa 5c 3d
       0.115324385 0.07102585 -0.0030005171 0.05387329
0001f0 ad 8c 28 3e 91 59 73 bd ca 10 25 3e f1 cd 9b bc
       0.16459914 -0.05941159 0.16119686 -0.019019099
000200 a4 1d 11 3e 37 63 08 3e 49 49 19 3e 73 fe 64 3e
       0.14171463 0.13319097 0.14969362 0.2236269
000210 b9 ba 5e 3e a8 56 d6 3d d8 15 01 3e 1e e3 9b 3d
       0.21750917 0.10465747 0.12605989 0.076116785
000220 0f bd 6c 3d de 9a 3a 3e 7d c1 16 3c 22 a0 30 3e
       0.057797488 0.1822314 0.009201405 0.17248586
000230 25 cb 71 bd 50 80 ce 3c 17 d5 aa bc 42 43 8b be
       -0.059031624 0.025207669 -0.020853562 -0.2719975
000240 11 d6 e0 bd b4 cb 94 3d aa 62 07 be 85 8f d0 3d
       -0.1097833 0.07265416 -0.13221231 0.10183624
000250 c5 1a 2d 3d 15 66 1d bd 4d 26 47 3d ae 17 60 be
       0.042261858 -0.03842743 0.04862051 -0.21884033
000260 ab db 42 bd 3a 35 1f 3c a3 db 67 3d b5 03 8c be
       -0.047572773 0.00971728 0.056605946 -0.27346578
000270 f0 85 0a be 60 26 66 bd 2f 67 23 3e c4 ae 04 3d
       -0.13527656 -0.05618894 0.1595733 0.032393232
000280 e0 8a 82 3e 9a 3d b6 3c 34 b8 c6 3c 86 e1 89 bb
       0.25496578 0.02224617 0.024257757 -0.0042077927
000290 7a fd f3 3d 97 6e a7 bd 60 97 01 3f c5 3b 91 3d
       0.11913581 -0.0817539 0.50621605 0.07091478
0002a0 48 37 c5 3c 5b 4f 1b 3f 1e 2c 0f be c8 f5 c6 3a
       0.024074212 0.6066796 -0.13981673 0.001517945
0002b0 6e 65 2d be 85 71 b8 bd 72 bb 32 3b 15 30 17 3e
       -0.16933224 -0.09006027 0.002727237 0.14764436
0002c0 52 48 0a bd 19 5e 11 3e 41 c4 9c 3d b2 d3 c7 3d
       -0.033760376 0.14196052 0.0765462 0.097571746
0002d0 24 28 dc 3d 6a f6 61 3e 4f 34 ee 3c 78 9d 99 3c
       0.10749844 0.22066656 0.029077677 0.018751845
0002e0 b8 48 94 3d 48 a2 36 3e 64 5e b8 3d 3f de b1 3d
       0.072404325 0.17835343 0.090023786 0.08684968
0002f0 5c f1 c1 bd 65 5f 6d 3d b9 8d 08 3d 63 42 b5 3d
       -0.09469864 0.057952303 0.033338282 0.08850553
000300 b7 80 71 3d a3 92 b3 3d 5c 0e 2b 3d a9 f0 82 3e
       0.058960643 0.08768203 0.04176174 0.25574234
000310 e3 a1 4b bb 84 23 f6 3d 81 11 05 3e 38 89 b8 3d
       -0.0031071834 0.12018493 0.12994958 0.090105474
000320 fd 86 23 bd 4f fe 6a 3e e2 6e e4 3d ff e4 a3 bb
       -0.039923657 0.22948574 0.11153962 -0.0050016637
000330 84 ac 06 3e e8 e5 e2 3d 16 0a de 3d de 75 36 3e
       0.13151747 0.110790074 0.108417675 0.178184
000340 eb 93 b8 3d 90 5e c7 bd 0d 31 74 bd 60 ec 7b 3d
       0.09012588 -0.09734833 -0.05961709 0.06150472
000350 ce c6 9b bd d5 e7 4a 3d 20 60 b4 3c fc 26 89 bd
       -0.07606278 0.0495375 0.022018492 -0.06696889
000360 ad f7 44 3d 60 58 e7 3d b8 ab 98 3a 1a 5b fa 3d
       0.048087765 0.11296153 0.0011647856 0.122244075
000370 04 7c a2 bc e7 b5 1f 3e 0e 85 04 3e f5 c7 8b bd
       -0.019834526 0.15596734 0.12941381 -0.06825248
000380 12 97 f2 bd 0f 7a f8 bb 2c 8e 15 bd 86 a6 14 be
       -0.118452206 -0.00758291 -0.03651254 -0.14516649
000390 92 27 c7 3d d4 52 b6 bb e6 51 a3 3d 4d d3 08 3e
       0.09724344 -0.005564073 0.07974605 0.13361855
0003a0 8a 55 09 bd 7f 5e 40 be 9b 83 85 bd 25 54 12 3e
       -0.033528842 -0.18786047 -0.065192424 0.14289911
0003b0 c1 32 38 3f 40 f9 de bd 74 49 a3 bd b3 b7 3b 3f
       0.71952444 -0.108873844 -0.079729944 0.7332718
0003c0 ec d7 7e 3d 0d 39 81 ba 8c 4a ef 3d 34 82 1b 3e
       0.062217638 -0.0009858921 0.116841406 0.15186387
0003d0 eb 04 74 3c a0 1c dc bd f5 63 55 3e 96 b7 98 3c
       0.014893751 -0.10747647 0.20838912 0.018642228
0003e0 cc 01 c6 3d de a2 b5 3d a9 4f 53 3e b0 94 2e 3c
       0.096683115 0.08868955 0.20635857 0.010655567
0003f0 6a 0e b9 3d 39 c5 be 3d 6f 12 19 bd 22 52 ee 3b
       0.090359524 0.09314961 -0.037371095 0.0072729746

lstm.weight_hh_l0 f4 [160, 40]
000000 6e 15 17 3a 10 a7 8b 3e 94 8c 68 bd d3 a6 39 3e
       0.0005763386 0.27275896 -0.05677469 0.18130045
000010 fc 60 09 be 6b 89 9c bc da 52 7f 3d 36 a5 9c bb
       -0.13415903 -0.019108495 0.062334873 -0.004780437
000020 fd f1 9c bd cd 62 86 3c 41 a1 d9 3c 09 06 8a 3d
       -0.07663343 0.016404534 0.02656615 0.06739432
000030 b3 93 f5 bd 94 aa ca 3d 08 6f d1 bc 0d 41 0a be
       -0.11991062 0.098958164 -0.02556564 -0.13501377
000040 32 70 41 3e 6a 36 8d 3d 7d 26 af 3d 46 44 d8 3d
       0.18890455 0.06895144 0.08552263 0.10559897
000050 95 d0 3e be 0b 9d 1d 3d 15 9f da 3c ae da 38 3e
       -0.18634255 0.038479846 0.026687184 0.1805217
000060 25 86 d3 3d ea 26 53 be ac 10 0a 3e ae 0c 1f 3e
       0.103283204 -0.20620313 0.13482922 0.1553218
000070 a1 99 89 bd b4 b3 6d 3d 12 43 44 bc 74 fc 03 bd
       -0.067187555 0.058032706 -0.011978881 -0.03222318
000080 59 50 ff bc 44 f9 97 3d 0d 2c 93 3d bf 75 89 3d
       -0.031166242 0.074205905 0.071861364 0.067119114
000090 39 d3 cc 3c b3 65 b1 3d 5a 81 46 3e fc f2 ae bd
       0.025003063 0.08661976 0.19385281 -0.08542439
0000a0 50 a7 17 bd c0 68 1e 3e 74 ae 94 3d a9 c5 5b 3e
       -0.037024796 0.15469646 0.07259837 0.2146212
0000b0 26 17 c9 bd f8 87 95 3d 9f cb c8 bd ca 58 d0 3d
       -0.09818868 0.073013246 -0.09804463 0.10173185
0000c0 c2 81 96 bd e6 72 4b bd 97 8d 93 bd d6 9d 3e bc
       -0.07348968 -0.049670123 -0.072047405 -0.011634311
0000d0 95 7a 0e 3e 7b e7 80 3e e9 d0 20 bc b7 57 37 3d
       0.13913949 0.25176606 -0.009815433 0.044761386
0000e0 04 40 31 3d 0e 23 80 3d 71 09 ea 3e 17 5a 02 be
       0.04327394 0.06256686 0.45710328 -0.12729679
0000f0 07 35 c3 3d 02 e0 51 3e 56 c7 9a 3d 25 99 48 3e
       0.095315985 0.20495608 0.075575516 0.1958967
000100 b9 38 0d 3e 37 01 61 3d c5 34 97 3d bf ab 5a bd
       0.13791169 0.0549328 0.07383112 -0.053386446
000110 4b c2 8d 3c 00 41 dc bd fc 3f db bd 74 45 b7 3d
       0.01730456 -0.10754585 -0.107055634 0.08948794
000120 de 30 ff 3d a4 77 b2 3e b7 8b da bc 6b 93 9e 3d
       0.124604926 0.34856904 -0.02667795 0.077429615
000130 e9 51 2d 3e f9 7d d3 bd c5 38 44 3e 83 da 67 3d
       0.16925777 -0.10326762 0.19162281 0.056604873
000140 25 a5 12 bc ea bd 86 3e 3f 0f 8e bb 72 e9 8f bd
       -0.008950506 0.26316768 -0.0043353136 -0.07026948
000150 06 51 dc bd 0b 86 df bd 7d 33 f5 bd 20 35 d0 3d
       -0.107576415 -0.109142385 -0.11972711 0.10166383
000160 f6 7d 0b be 77 dc 4c 3c 3a dc 8f bc 64 4f dc 3d
       -0.13622269 0.012503735 -0.017561067 0.1075733
000170 89 8f f5 3d a8 a4 3e 3e e3 59 99 bc e2 e0 ae 3b
       0.11990268 0.18617499 -0.01871962 0.0053368667
000180 80 e8 be 3d 84 07 3a 3e 8d 48 0a 3e ab b6 d0 3d
       0.093216896 0.1816693 0.13504238 0.10191091
000190 ca 3e 08 3d d6 67 2e bd c4 7c 01 bd ab 9b 0d 3e
       0.033263005 -0.042579494 -0.031613126 0.13828914
0001a0 9b 98 fe 3d 87 0d 01 be 6e 5e 1b 3e d4 15 81 bd
       0.12431451 -0.12602817 0.15172741 -0.063029915
0001b0 63 06 91 bd 35 de 4e 3c f4 1a 12 be b9 39 f4 3d
       -0.07081296 0.0126262205 -0.14268094 0.11925072
0001c0 5d 66 3f 3b 2e de 50 3e 80 d2 9e bd 46 bf 41 be
       0.00292053 0.20397255 -0.077549934 -0.18920621
0001d0 e6 a3 48 3e 11 31 ac 3c 5d 4d 53 3e c7 09 a7 bd
       0.19593772 0.02101949 0.2063498 -0.08156162
0001e0 08 5c f7 3d bf d8 5d 3d aa 28 69 bd 85 6d 7e bd
       0.120781004 0.054161783 -0.056923546 -0.062116165
0001f0 16 89 b5 3d d9 af 5a 3e 31 bc 75 3d 35 25 da 3d
       0.08864038 0.21356143 0.059993926 0.10651628
000200 23 6e b2 bd 1e 4b bb 3d 1d fc a0 bd 00 4a 01 3e
       -0.08712413 0.09145187 -0.07860587 0.12625885
000210 b4 b8 bc 3d f0 0b 5c 3e 80 89 b2 3c f6 98 b2 bd
       0.09214917 0.21488929 0.02179408 -0.08720581
000220 21 ff d9 3d 3d f8 af 3c 57 e6 be 3e c5 42 ce bd
       0.10644365 0.021480674 0.3728511 -0.10071329
000230 b4 0d e4 bd 80 78 ac 3e 4c 2e 04 bd 39 87 c2 bb
       -0.11135426 0.33685684 -0.032270715 -0.00593653
000240 a5 bf 50 3e 0d 4c 55 3d 72 2a ab bd 7b e4 bf 3d
       0.20385607 0.05207448 -0.08357705 0.09369751
000250 41 85 cb 3c d9 78 87 3c 72 d0 dc 3d c0 a7 e8 bd
       0.024843814 0.016537117 0.10781945 -0.11360121
000260 6b 5d e9 3b dc f9 91 3d d1 90 b8 3d 9c a6 84 3d
       0.007121732 0.07127735 0.090119965 0.06477091
000270 e1 8f 3d bd ca ca 15 3d d7 38 6f bd 62 74 1b 3d
       -0.04627979 0.036570348 -0.058403816 0.03795279
000280 3e a5 8d 3d 88 ec 9f 3e ad 6a 3e be ed 1f 6a 3e
       0.06916283 0.31235147 -0.18595381 0.22863741
000290 19 31 66 be 2d 54 9c 3e 47 1d 94 be aa f7 80 be
       -0.22479667 0.3053297 -0.28928587 -0.25188953
0002a0 61 65 01 be 59 a6 d2 3e f6 f5 79 3e d6 48 40 3e
       -0.12636329 0.41142538 0.24410233 0.18777785
0002b0 ae 61 7d 3d 27 a2 c4 3e 1e a7 4e 3e 03 1e db bd
       0.061860733 0.38404962 0.20180938 -0.10699084
0002c0 dd 50 98 3e 5b c7 b3 3e 23 fe 11 3e ab 2e 3d be
       0.29749194 0.35113034 0.14257102 -0.18474834
0002d0 78 df 4b be e0 64 d4 3e 66 f5 10 be c8 1d b4 3e
       -0.19909465 0.41483212 -0.14156112 0.3517897
0002e0 93 50 30 3e d8 8c 37 be 27 95 bb 3e a6 74 09 3e
       0.17218237 -0.17924821 0.36637232 0.13423404
0002f0 1c 24 14 be e3 b3 88 be 4c 5c 23 be db 84 8e bd
       -0.144669 -0.26699743 -0.15953177 -0.06958934
000300 b8 67 01 3e 79 37 93 be 37 1d 8c 3d 79 1a b6 be
       0.12637222 -0.2875326 0.0684151 -0.35567072
000310 73 31 c7 3d 62 c1 4e be f5 bc a2 3e fc 0d fc bd
       0.097262286 -0.20190957 0.31784788 -0.12307355
000320 dc 13 2e 3e b8 4d 25 3e 03 57 e7 3d 6f ef 0b 3d
       0.16999763 0.16142929 0.11295893 0.03416389
000330 16 f0 2c be 78 b8 21 3b 18 8a af 3d e5 c8 ba bd
       -0.1688846 0.0024676602 0.08571261 -0.09120349
000340 da af 91 bd ef 7d 26 3e f8 56 92 bc 28 c3 a4 3d
       -0.07113619 0.16258977 -0.017863736 0.080450356
000350 2d fc d3 bd 7a 16 e1 3d 9a b9 0b 3d 35 cc a5 3d
       -0.10350833 0.10990615 0.03411255 0.0809559
000360 1c c4 57 3e 1b 1c 8b 3d c5 c0 f6 bb 1a 58 8f bd
       0.21070904 0.0679247 -0.007530304 -0.06999226
000370 bb 6b 9d 3d 23 04 65 3e 13 47 7e bd c5 ca 12 bc
       0.076865636 0.2236486 -0.0620795 -0.008959477
000380 3e 41 80 3d 8b 3a e1 bd d3 27 ee 3d 3b 42 ba bd
       0.06262444 -0.10997494 0.116286896 -0.09094664
000390 af 47 1a be 2f 33 2d 3e a2 e9 b1 3d 37 0e 06 be
       -0.15066408 0.16914056 0.0868714 -0.1309136
0003a0 71 12 08 3e d8 4d 66 bc 71 29 2d bd 79 64 03 3e
       0.13288285 -0.014056645 -0.04227585 0.12831296
0003b0 19 b1 3f 3e b1 d3 39 3d bf ec 64 bd b1 bd 81 3d
       0.18719901 0.0453679 -0.05588984 0.06335009
0003c0 b3 5c c7 bd f0 83 b4 3e 37 30 1e be 67 b2 20 3e
       -0.09734478 0.3525691 -0.1544808 0.15693055
0003d0 92 16 0a be 8d 01 02 3d 65 6a 08 be 48 9e 42 bd
       -0.13485172 0.03173976 -0.13321836 -0.04751423
0003e0 3a 76 d7 3b 8c 84 a4 bd 4e cb fa 3d ad 3b 4b 3e
       0.006575373 -0.08033094 0.122458085 0.19846983
0003f0 eb c3 8c 3d 82 e9 9b 3d e1 f1 84 3d 0c 57 f5 bc
       0.06873306 0.076128975 0.06491447 -0.029948734

lstm.bias_ih_l0 f4 [160]
000000 fc c3 48 bd ea f5 88 3d 59 d4 2a 3e f2 5c 47 bc
       -0.04901503 0.066875294 0.16682567 -0.012168156
000010 a4 82 b7 3d 17 b9 56 3e ea e1 2a 3e ad 47 62 3e
       0.089604646 0.20969044 0.16687742 0.22097655
000020 f8 aa a1 3d 46 82 94 3d a7 94 e3 3d 58 c9 37 3e
       0.07893938 0.0725141 0.111123376 0.179479
000030 b9 a7 c1 3d fb f5 35 bc ce a1 f5 bc 96 62 8b bd
       0.09455819 -0.01110601 -0.029984381 -0.06805913
000040 25 b8 0a 3d 87 c1 30 3e 6c e1 20 3e ae 7d 47 3d
       0.03386702 0.17261325 0.15710992 0.048703842
000050 e9 d7 85 3d aa e9 0e 3e 83 02 1d 3d 55 6d 86 3c
       0.06535322 0.13956323 0.038332473 0.016409555
000060 0c 2a 79 3e 5d d3 93 3c ef 8d c5 3d e6 32 77 bd
       0.24332446 0.018045122 0.09646212 -0.060351275
000070 0b 8c 85 bd 72 27 17 3e 1c 85 83 3d 96 e2 45 bd
       -0.06520852 0.14761141 0.06421873 -0.048311792
000080 3c 5d 82 3d 48 dc 81 3e 12 6f 33 3e 07 4e 69 3e
       0.06365439 0.25363374 0.17522839 0.22783671
000090 48 49 2b 3e 84 69 9e 3d 71 a1 ed 3d 91 34 36 3e
       0.16727173 0.07734969 0.11603058 0.1779349
0000a0 0d 39 0a 3e 2c 15 ac 3d a5 8b 2f 3d 20 ee 5c 3e
       0.13498326 0.08402476 0.042857785 0.21575212
0000b0 1d a5 85 bc 67 6b 0d 3e ab 5c c7 bd e7 d7 1d 3e
       -0.016314084 0.13810502 -0.09734472 0.15414391
0000c0 05 77 2e 3c 74 c6 59 3e 88 0d be 3d 31 65 08 3e
       0.010648494 0.2126711 0.09279925 0.13319851
0000d0 7c 22 c7 3c 0a 51 e2 3d 4b 63 b5 3d 99 5a ef 3d
       0.024308436 0.11050613 0.08856829 0.11687202
0000e0 58 89 ae bc b2 8f c2 bc 21 8c d8 3d 02 3e 0c 3e
       -0.021305725 -0.02375016 0.105736025 0.13695529
0000f0 73 33 08 3e de 5b 18 bb b7 c4 d0 bd d8 21 f5 3c
       0.13300876 -0.0023248116 -0.101937704 0.029923365
000100 d7 3c 8d 3d ce 66 cd bd e2 0b 1e 3e 5b 78 c0 3c
       0.0689637 -0.10029374 0.1543422 0.02349489
000110 30 76 f9 3d 52 ca f3 bd e2 2b b3 3b c5 29 07 bc
       0.121807456 -0.11903824 0.0054678777 -0.008249705
000120 5e ac da 3d a8 24 0e be 14 35 0f 3d 9d 39 a1 bc
       0.10677408 -0.13881171 0.03496273 -0.019680792
000130 4d 61 aa bd 99 19 11 bd fa 4b 1b bc c0 66 6b bd
       -0.0831934 -0.035424802 -0.009478563 -0.057471037
000140 c7 7f c7 3d a0 8f 03 3a 2d 57 59 3c c5 42 7f bd
       0.097411685 0.0005018655 0.013265413 -0.062319536
000150 a2 4a b4 bd 95 4d ea 3d 9f 19 49 be 01 0a 1d be
       -0.088032976 0.11440579 -0.1963868 -0.15335847
000160 75 52 fa bd 0c 62 1a 3e c0 b6 83 3d 19 8a f5 3c
       -0.12222759 0.15076464 0.06431341 0.029973077
000170 48 72 02 be f4 d1 b4 bd 4a 00 a0 3d ff ce 91 3d
       -0.12738907 -0.08829108 0.07812555 0.071195595
000180 ef 94 a1 bd 31 87 41 3e fa c2 4b 3e 27 ba 38 be
       -0.07889735 0.18899228 0.19898596 -0.18039761
000190 4f c4 a2 3c 69 78 18 3d a7 d5 03 be 43 55 3c 3e
       0.019868998 0.037224207 -0.1287447 0.183919
0001a0 9a 56 ae bd c8 75 b1 bd 88 30 d4 3d c5 73 7c 3d
       -0.08512612 -0.08665043 0.10360819 0.061633844
0001b0 b7 75 7e 3d 7b 5c a7 3d 42 f1 ce bd 85 7f 33 be
       0.06212398 0.08171936 -0.1010461 -0.17529114
0001c0 e8 e8 10 bd 3d 65 27 be c9 7e 87 3d 5f 16 1b be
       -0.035378367 -0.16347213 0.06615979 -0.15145253
0001d0 8a 79 9b 3d 1f 72 8b bd 04 ac 9d 3c a9 1e 81 bd
       0.07591541 -0.06808876 0.019247063 -0.06304676
0001e0 72 16 06 3e 99 9f 25 3e a2 bc 0a 3e a3 72 c2 3c
       0.130945 0.16174163 0.1354852 0.023736304
0001f0 32 c5 bf 3e 6d 7f f3 3d 2d 6f 1d 3e ca e8 dd 3d
       0.37455136 0.11889539 0.15374441 0.108354166
000200 1c 19 92 bd 20 b3 c9 3c 2e 39 2b bd d4 e2 04 3e
       -0.071336955 0.024621546 -0.041802578 0.12977153
000210 83 b0 9f 3e 9f 7b 11 3e 1a 08 f9 3d e0 d9 25 3e
       0.31189355 0.14207314 0.121597484 0.16196394
000220 6d 7d 9d 3b 9c ee 19 3e f6 b8 2e 3e 0f 79 1e bd
       0.0048062117 0.15032429 0.17062744 -0.03868967
000230 85 fd 2e 3e 38 f4 1e 3e 50 9e 96 3d 54 ba e1 3c
       0.17088898 0.1552285 0.073544145 0.027554668
000240 e4 e4 c6 3d ae 0b 5e bd ba 0f de 3d da e7 74 3d
       0.09711626 -0.054210357 0.10842843 0.059791423
000250 63 ba 50 bd 5b b0 9b 3e 7c c4 a5 3d 44 70 91 bd
       -0.050959002 0.30407986 0.08094117 -0.07101491
000260 cb 7f 93 bc 58 39 72 3e 4f 1b 69 3e 12 2b 43 3e
       -0.018005272 0.23654687 0.22764324 0.19059399
000270 b0 db 01 3e ad e9 5e 3c af 05 79 3d f1 41 fd 3d
       0.1268146 0.013605517 0.060796436 0.12366093

lstm.bias_hh_l0 f4 [160]
000000 71 0e 00 3e 28 34 5e b9 8c 9b 9a 3d 3c 1b 05 3c
       0.12505509 -0.00021191 0.075491995 0.008124169
000010 b8 dc dd 3d 82 4a cd 3c 55 d9 6d bd 50 42 3e bb
       0.108331144 0.025059942 -0.058068592 -0.0029031225
000020 33 0b 9c 3d 26 27 be 3d 23 ef 94 bc 6e 65 20 3e
       0.076193236 0.09284811 -0.018180436 0.15663692
000030 61 1f 8c 3d 67 2f 56 3e 00 1e 5c 3e a4 a7 14 3e
       0.068419226 0.2091652 0.21495819 0.14517075
000040 79 4d 24 3e d5 dd 15 3e 4a 95 01 3e 7e 40 59 bd
       0.16045178 0.14635403 0.12654606 -0.05304002
000050 29 64 44 3d f0 21 e4 3d d4 bd 01 bc 84 c1 1d 3e
       0.047947083 0.111392856 -0.007918794 0.15405852
000060 54 f8 42 3e 1d a0 45 3d fd 19 12 3d 3f 05 18 3e
       0.19040042 0.0482484 0.035669316 0.14845751
000070 5f 89 98 3d 4a 2c ac 3e 07 3b 46 3e 60 c9 d9 3d
       0.074480765 0.3362754 0.19358455 0.10634112
000080 32 a6 14 3e 36 87 83 3e 19 cd 88 3d c1 f4 dd bc
       0.14516523 0.25689095 0.06679744 -0.027094247
000090 5f 06 af bc 24 85 25 bd 06 3b e8 3d 99 4f 17 3e
       -0.021365343 -0.040410176 0.11339383 0.14776458
0000a0 e9 3f b3 3c 25 a5 31 3c 92 b3 c8 bb 2c a5 90 bd
       0.02188106 0.010842596 -0.006124922 -0.07062754
0000b0 a8 5e ae bd 42 f1 ad 3d 23 4a 20 3d b5 dd b5 3d
       -0.08514148 0.08493282 0.039133202 0.08880178
0000c0 37 55 fc bd 33 f7 32 3e c6 7f cf 3c ed 45 37 3e
       -0.12320941 0.17477112 0.025329482 0.17897768
0000d0 dc 2f e8 bc 3a d3 54 3e 6d ac c9 3d 9f b8 11 bd
       -0.028343134 0.20783702 0.09847341 -0.03557646
0000e0 53 e1 36 3d 9c 8b 17 3e 20 ff 6f 3d 47 8d ef bd
       0.04464848 0.1479935 0.058592916 -0.116968684
0000f0 8e e1 37 3d 67 30 8c bd 92 6c 1e 3e c9 80 ae 3d
       0.04489284 -0.068451695 0.15471104 0.085206576
000100 32 53 00 3e ed 28 62 bd 14 81 b8 3d aa a6 88 bd
       0.12531736 -0.05521481 0.09008995 -0.06672414
000110 b8 39 0c 3e 9e 81 85 3d 85 ab ae b9 52 e7 90 bd
       0.13693893 0.06518863 -0.00033315658 -0.07075371
000120 84 f7 f0 3d 80 0b 24 3d 45 de a8 bd ba 54 e7 3d
       0.1176596 0.04005003 -0.082455195 0.11295457
000130 b7 be 9b bd e8 9f 32 bc 0c 16 56 3e d9 0d 2a 3e
       -0.07604735 -0.010902382 0.20906848 0.16606845
000140 17 a7 e7 3b 46 5f 8d bd 3d 4d 56 3d 1f b8 3a 3e
       0.007069479 -0.069029376 0.052319754 0.18234299
000150 5f 72 39 bb f0 68 51 3e 07 35 cb bd 4f 5b fd bd
       -0.002829693 0.20450187 -0.099222235 -0.12370931
000160 91 00 85 3d 78 92 2f 3e 34 29 24 3e a0 f8 67 bc
       0.06494249 0.17145717 0.16031343 -0.014158398
000170 28 fd d2 3d fb f7 60 3d 48 15 9d bd a4 9d a7 bd
       0.10302192 0.054923993 -0.07670075 -0.081843644
000180 7e b6 6b bb ea bc e0 bd f9 cf e7 bc 12 1c 2a be
       -0.0035966928 -0.109735325 -0.028297411 -0.1661227
000190 cd 69 07 be a6 aa 5f 3e cf 0b 48 be d1 e5 7d 3d
       -0.13223954 0.21842441 -0.19535755 0.061986748
0001a0 a8 1f 05 3e b9 a7 0d be 8e c4 2f 3d 68 04 44 3e
       0.13000357 -0.13833512 0.04291206 0.19142306
0001b0 79 55 34 be 69 0b d0 bd 04 63 f2 bd fd e9 0d 3d
       -0.1761073 -0.10158426 -0.11835292 0.034646977
0001c0 f0 6b d0 3d 81 b6 b4 bd 21 54 a0 bd 2b fe 35 be
       0.101768374 -0.08823872 -0.07828546 -0.17772739
0001d0 ff 00 33 bd 29 91 8c 3d c2 95 2c 3e cd 13 c5 bd
       -0.04370212 0.068636246 0.16854003 -0.09622917
0001e0 70 2a 04 3e 63 c5 31 3e 64 e4 25 be 2d cd 61 3d
       0.12906814 0.17360453 -0.16200405 0.05512731
0001f0 a4 4a 9d 3e f8 aa 22 3e 55 37 1c 3e 98 8b 48 3e
       0.3072101 0.15885532 0.15255482 0.19584501
000200 6d 16 73 bc e4 3d 2e 3e 06 02 25 3e a4 34 ca 3d
       -0.01483689 0.17015797 0.16114053 0.09873322
000210 53 ab 1c 3e 71 ca 13 be 1b f7 15 3c 69 9d 48 3d
       0.1529973 -0.14432694 0.009153153 0.048978243
000220 b9 d9 66 3e b5 6c c9 bc 3b 8b 96 3e e1 54 84 3c
       0.22543992 -0.024587968 0.294031 0.016153755
000230 81 39 bb 3b 86 97 55 3e 44 6e 8e bd 67 de 1c 3e
       0.005713642 0.20858583 -0.06954625 0.15319215
000240 83 5c 0f 3c 61 dc 14 3e 46 0f fd 3d ac 0e 34 3d
       0.008750084 0.14537193 0.12356429 0.043959305
000250 9f ed a8 bd 36 a2 b8 3e a8 63 9d bd 3a 28 90 3d
       -0.082484476 0.36061257 -0.076850235 0.070389226
000260 4b 71 bd bd 06 6b 6a 3e f7 b5 9f 3e 65 11 28 3d
       -0.092501245 0.22892389 0.31193516 0.041032214
000270 a1 34 20 3e 34 eb c0 3d 20 23 82 3c 0a d0 30 3e
       0.15645076 0.094198614 0.01588589 0.1726686

hidden2event.weight f4 [27, 40]
000000 20 43 62 be cf 12 9c bd bd 7d 43 3e 6f 2e 90 be
       -0.22095919 -0.07620775 0.19090934 -0.28160426
000010 54 80 45 be fa 40 b9 bd 54 fb f8 3b 83 f6 5c 3e
       -0.19287235 -0.090455964 0.00759832 0.21578412
000020 2d 9a 8d bd 5b 74 41 be d4 34 2c 3c 44 4a 06 be
       -0.06914172 -0.18892042 0.010510642 -0.13114268
000030 36 90 f3 be 7b c0 ac 3d f4 40 81 be c0 76 6a be
       -0.47570962 0.0843515 -0.25244868 -0.22896862
000040 72 7d e8 bc 95 b4 0b 3e a4 1b 53 3f 24 98 0a 3e
       -0.02838013 0.13643105 0.8246405 0.135346
000050 e6 cf b8 3d 9b ec b6 3e 92 66 e6 bd 94 f8 b2 3d
       0.090240285 0.3572739 -0.112500325 0.08738819
000060 53 ca 69 bd ab 68 93 3d d1 34 3c 3c dc cf 8e be
       -0.057077717 0.07197698 0.011487202 -0.2789296
000070 01 ee 8a 3e 7f b1 82 bd 4b 7b 95 bd 48 a8 81 3e
       0.27134708 -0.06381511 -0.07298907 0.253237
000080 7d 6f 0f be 15 02 8b be b7 32 19 be 3c fd 00 be
       -0.14007373 -0.27150026 -0.14960752 -0.12596601
000090 6e ef 7c 3d 05 1c c4 bd 5f a8 14 3d 8c d7 18 bd
       0.061751775 -0.09575657 0.036293384 -0.037314937
0000a0 25 53 54 be 5e 45 96 3e 1f dd 8a 3e 79 8d 2a 3d
       -0.20734842 0.29349798 0.27121827 0.041638825
0000b0 cd b6 0b be 39 de 5a 3d 19 02 e3 3d 4d 67 61 be
       -0.13643952 0.053434584 0.110843845 -0.22012062
0000c0 de fc 44 be 40 09 65 3e 6a 5b 11 3e 8c 00 03 be
       -0.19237086 0.2236681 0.14195028 -0.12793177
0000d0 44 9f 0f bf b5 f9 71 3d a6 91 c2 bd 7d 9f 6b be
       -0.56102395 0.05907603 -0.095004365 -0.23010059
0000e0 a5 0f 4a be eb d8 c0 3d 7e c7 2f 3f 78 40 60 3e
       -0.1973253 0.09416374 0.68663776 0.21899593
0000f0 a6 f4 09 3e 56 44 ec 3e 75 04 50 be 9d ce 51 3e
       0.13472232 0.46145886 -0.203142 0.20488973
000100 c2 85 16 3e 67 5b a5 bd 38 75 80 3d 0a 94 60 be
       0.14699462 -0.08074074 0.06272358 -0.21931472
000110 5a ee 96 3e 12 77 e4 bd 4b eb 18 be a9 6d 5e be
       0.29478723 -0.11155523 -0.14933507 -0.2172152
000120 55 ad 16 3e 8d 01 9f be ca f5 a0 bd af 21 53 be
       0.14714558 -0.3105587 -0.078593805 -0.20618318
000130 7f 14 3a 3d 43 cd 20 be 11 52 ac 3e cc cf 26 bd
       0.045429703 -0.15703301 0.33656362 -0.040725514
000140 7e 81 67 be 81 fc fa bd d5 f2 7a be 55 fe c6 bd
       -0.22607991 -0.122551925 -0.24506696 -0.09716479
000150 27 02 50 3e c1 0f 4a 3e 3c 18 4f be 3f 49 0b be
       0.20313321 0.19732572 -0.20224088 -0.1360216
000160 25 8f 15 3e 8b 6c 24 3d aa 50 e0 3c f2 a1 bf bd
       0.14605387 0.040142577 0.027382214 -0.093570605
000170 4e 51 25 bf 8c 34 01 be f3 ca 2e bd 20 06 3d be
       -0.64577186 -0.12617701 -0.042674016 -0.18459368
000180 53 15 fe 3d dc b6 51 3e 34 37 19 3f 2c ab 88 3e
       0.12406411 0.20479912 0.5984986 0.26693094
000190 4f f5 56 bd cc 3f 32 3f e5 72 0d 3d 52 d2 fe 3d
       -0.05248004 0.69628596 0.0345334 0.12442459
0001a0 0f f1 85 bd 7a 26 4c be 65 f1 03 3e fc eb e4 bd
       -0.06540119 -0.19936553 0.12885053 -0.11177823
0001b0 a5 46 59 3e 6d 9c 52 bd 30 d5 8d 3e 65 d7 9d 3e
       0.21218355 -0.05141871 0.27701712 0.30828395
0001c0 2d d2 2c 3e fc 58 d9 be e8 f8 5a be 46 78 36 be
       0.1687705 -0.42450702 -0.21384013 -0.17819318
0001d0 df 57 30 3e a5 b9 cf 3d a1 f2 b8 be 02 88 c2 bd
       0.1722102 0.10142831 -0.3612261 -0.09498598
0001e0 e5 78 ba 3e 45 bb 99 3e e7 9c d3 be 19 dc 35 be
       0.3642036 0.30025688 -0.41330644 -0.17759742
0001f0 5b e4 42 bf 68 ad 5e be 0c 27 c5 3e b4 40 91 bd
       -0.7612969 -0.21745837 0.38506353 -0.07092419
000200 76 ed fd bd c3 62 ea 3e 97 16 d5 3e 4d bf 4d 3e
       -0.12398808 0.45778474 0.41618797 0.20092507
000210 45 88 fc 3d c9 12 02 3f 88 cb 7c bd 52 8f de be
       0.12330679 0.50809914 -0.06171754 -0.4346872
000220 67 d6 8b be 29 49 19 3d e5 8f f0 be 8d 1b d9 bd
       -0.27312014 0.037423287 -0.46984783 -0.10600958
000230 7b d0 95 be 84 89 5a 3f 92 63 92 3e be 65 f3 3e
       -0.2926062 0.8536608 0.2859159 0.4753856
000240 38 7e 84 be 4d 6e 05 bf 6c 4c 49 be b7 7f 7a 3e
       -0.25877547 -0.5212143 -0.19658059 0.24462782
000250 88 68 42 be 98 f9 58 3f ac 8d 79 bd 35 ee 9a 3e
       -0.18985188 0.8475585 -0.060926124 0.30259863
000260 1b 96 38 bb 6b 56 19 bf a2 03 e5 bd 64 20 cf 3e
       -0.0028165642 -0.5989749 -0.111823335 0.404544
000270 f4 8c ad 3d 02 d5 8c 3e d4 f3 99 3e 67 a6 a6 3e
       0.0847415 0.27506262 0.3006884 0.3254883
000280 ec 18 c5 3d 7c 0a f3 3e b7 56 c6 3d 47 aa 43 3e
       0.09623894 0.47468936 0.09684508 0.19107924
000290 02 b2 33 3f 36 1f 6f 3e da 25 1f bd 05 84 64 3e
       0.70193493 0.2335175 -0.038854457 0.22315986
0002a0 e3 65 e9 bc 57 e7 11 bf 08 01 e9 be 3e 70 ba bd
       -0.028490966 -0.5699362 -0.455086 -0.0910344
0002b0 2c fa 70 3d 4a f5 ab 3c ac 53 87 be 25 6d 03 be
       0.058832332 0.020990986 -0.26431024 -0.12834604
0002c0 a6 96 15 3e fd bb 25 3c 37 68 af bf 46 7a d7 be
       0.14608249 0.010115621 -1.3703679 -0.42085475
0002d0 01 58 23 3e 7d 69 82 3e ff 7c bc 3c b4 76 32 3e
       0.1595154 0.25471106 0.023008822 0.17428094
0002e0 3c f5 d6 be 7c 5f 1d 3e b5 04 55 be 3b 1e c3 3c
       -0.41983974 0.15368456 -0.20802577 0.023818126
0002f0 cb 01 09 bf a6 7c 06 3f f6 f2 c2 3e 49 17 e5 bc
       -0.5351836 0.5253395 0.3807599 -0.027965205
000300 90 df 22 be 89 02 06 be 86 f3 8c 3e 2e 04 f6 be
       -0.15905595 -0.13086905 0.27529544 -0.48050064
000310 e9 18 1b 3d f8 5e 9b 3c a0 db af 3e 3d d3 3f 3e
       0.037865553 0.018966183 0.34347248 0.18732925
000320 05 83 45 be ab 66 bb be e6 8c d7 3e 8c cd 17 be
       -0.19288261 -0.36601767 0.42099684 -0.14824504
000330 11 bd 8b 3e 21 c8 31 be 16 7b 9a 3d 9f d4 9c 3e
       0.27292684 -0.173615 0.07543008 0.30630967
000340 62 68 8c 3e e3 97 1a be ca f2 55 be b7 93 4a be
       0.27423388 -0.15097003 -0.20893398 -0.19782911
000350 4d 4b 2e bd 8e 48 da be 2b ea 7a be f8 f3 66 3e
       -0.04255228 -0.4263348 -0.2450339 0.22554004
000360 c2 62 f4 bd b2 13 84 be 46 a1 83 be f3 41 bf 3e
       -0.11932899 -0.25796276 -0.2570898 0.37355003
000370 7f e0 a1 3e b8 ed 03 bf 9b 17 13 3e 19 53 c9 bd
       0.3161659 -0.51534605 0.14364474 -0.09830303
000380 33 52 95 bd 99 5e 96 3e 7f 54 81 bd 00 39 ad be
       -0.07291069 0.29369047 -0.063149445 -0.3383255
000390 c4 5a 44 3e 91 e1 8d 3e 58 30 53 3e 2b 2b 2f 3e
       0.1917525 0.27711156 0.2062391 0.17106311
0003a0 3d d9 aa bd 8c 05 47 3f 2c 06 ef bd df cd cb 3e
       -0.08342216 0.7774284 -0.11671099 0.39805505
0003b0 a0 08 b3 bd aa d6 c1 3e f9 28 a1 be ec 0b 9b 3e
       -0.087418795 0.37859088 -0.31476572 0.30282533
0003c0 1d 38 a5 bd 82 58 6a be 52 14 73 3e 0f 6e 8d be
       -0.080673434 -0.22885326 0.2373822 -0.2762303
0003d0 48 61 76 3e 69 ef 7b be 45 3f 54 3e 4e bc 65 3e
       0.24060547 -0.24603046 0.2072726 0.22435114
0003e0 f6 1d 85 3e a2 22 a5 be 79 8b 40 be ba f6 07 be
       0.2599942 -0.32252985 -0.18803205 -0.13277712
0003f0 85 00 5e 3e 79 2a 54 be 7c ce 98 be 9b e4 9f 3d
       0.21679886 -0.20719327 -0.29845035 0.07807275

hidden2event.bias f4 [27]
000000 4a 09 cb bd 86 fa 6e bd 21 76 53 3d 98 d5 01 3e
       -0.09913881 -0.058344387 0.05162633 0.12679136
000010 f6 d3 05 3e de 17 88 be 63 4d fa bd fa f6 f1 bd
       0.13069138 -0.2658071 -0.122217916 -0.11814685
000020 66 89 76 3e c8 01 c4 3d 1b fa c7 bd 86 74 04 bd
       0.24075851 0.09570652 -0.09764501 -0.032337688
000030 78 67 2a be 32 37 4f 3e 7b 62 d9 3b 0b a3 6d 3e
       -0.16641033 0.20235899 0.0066340542 0.23206727
000040 f8 de ad bd 01 59 e1 bd 5a d6 71 3d 88 02 be 3d
       -0.084897935 -0.11003304 0.059042312 0.092778265
000050 eb 35 70 bd e2 07 43 3d b1 62 be bd 5f 55 dd bd
       -0.05864517 0.04761494 -0.09296168 -0.10807299
000060 37 f3 94 3c 2c 32 75 be 52 97 bf bd
       0.01818238 -0.2394492 -0.09355034

hidden2time.weight f4 [3, 40]
000000 5a a8 ab bd 7a 66 68 bd 91 e1 62 be f3 6a 38 3e
       -0.0838172 -0.056738354 -0.2215636 0.18009548
000010 97 19 81 be d3 84 38 3e 99 0a 74 bd 9b 63 f7 bd
       -0.25214836 0.18019418 -0.05958042 -0.12079545
000020 a4 26 c0 bd 29 60 0b 3e 1a 15 20 3e b1 69 11 3e
       -0.0938237 0.13610901 0.1563305 0.14200474
000030 ac 0d 37 be 59 a0 04 3e 8c f5 36 3d 76 30 80 bd
       -0.17876309 0.12951793 0.044667765 -0.06259243
000040 ff 0f 5c 3e 3a c6 90 3e 41 18 95 be 79 76 4a be
       0.21490477 0.28276235 -0.29120067 -0.19771756
000050 99 07 1f be 7d 5d 6e be e8 d4 58 be 83 01 99 3d
       -0.15530242 -0.2327785 -0.21174967 0.074709915
000060 2c 0e fa 3d dc 3e 43 be 41 e2 09 3e 42 eb 1d 3e
       0.12209734 -0.19066948 0.13465215 0.15421775
000070 a6 cf 0c 3e c1 02 50 3e 37 76 a5 3d 47 59 3d bc
       0.13751087 0.2031355 0.08079188 -0.01155693
000080 5c f4 27 3e e2 56 0b 3d 04 8c 5f 3e 10 08 3d bd
       0.1640181 0.034018405 0.21830755 -0.046150267
000090 23 33 ee 3d 3a b4 33 bd 62 fb 18 3e f8 86 45 3d
       0.11630847 -0.04387305 0.14939645 0.04822442
0000a0 bd e6 f6 3c 13 de 82 bd 6c 21 b2 bd 35 23 22 3e
       0.030139321 -0.063900135 -0.08697781 0.15833743
0000b0 a7 41 0e be 25 61 a1 bd f8 62 3b be 1c 49 28 3c
       -0.13892232 -0.07879857 -0.18299472 0.010271337
0000c0 ee 42 7a 3d b8 d6 a6 3d 6f ff 94 3d 3a 6e 7f 3e
       0.061098985 0.08146423 0.072752826 0.24944392
0000d0 a1 fa 29 3e 78 f0 8a bd a8 8f 34 3c e9 86 22 be
       0.16599514 -0.06784147 0.011020578 -0.15871777
0000e0 de 48 72 bb 17 5c b8 bc 79 6b c8 3e ba 0a 76 3c
       -0.0036969702 -0.02250485 0.39144495 0.015017206
0000f0 29 e0 c8 bd ae 93 3b 3e 25 c0 1f be e4 b5 af 3d
       -0.0980838 0.18318054 -0.15600641 0.08579615
000100 41 f0 2f bd 62 fc 29 3d 33 90 1c 3e 82 64 f3 bd
       -0.042953733 0.041500457 0.15289383 -0.11884405
000110 2a 3d 1f be 2d 12 c7 be 5b 56 2d be 32 ec 19 3c
       -0.15550676 -0.38881055 -0.16927473 0.009394692
000120 f0 7c dd 3d 10 c4 9b be 41 3e 0f 3e 8e 06 60 be
       0.108148456 -0.3042302 0.13988592 -0.218775
000130 4c 1d 54 3e a1 9b 22 be 70 4a 8c bc 20 e8 3e be
       0.20714301 -0.1587968 -0.017125338 -0.18643236
000140 d5 13 82 be 17 59 81 be 3b 04 f8 3e 65 4e 35 be
       -0.25405756 -0.25263283 0.48440728 -0.17705686
000150 5b f7 09 3e d9 75 5e be 43 fb 16 3e 07 fd a4 3e
       0.13473265 -0.21724643 0.14744286 0.32224295
000160 a0 03 fa 3e 73 34 32 be 06 55 49 bd eb d8 68 be
       0.4883089 -0.1740282 -0.04915335 -0.22738998
000170 4f c8 cc 3d b0 ec 89 be a9 1f a0 be cd c8 83 3e
       0.09999143 -0.2693839 -0.31274155 0.25739136
000180 85 2f 44 be 03 7b 92 be 5d 17 e0 bd 83 5b d2 3e
       -0.19158752 -0.28609475 -0.10941956 0.41085443
000190 7b b2 b1 3d 9e da 28 bf f4 b8 8b 3e 9f f8 bf be
       0.086766206 -0.65958583 0.27289546 -0.3749437
0001a0 ee 96 ad be 53 b2 ad 3e f1 6a a4 be 50 9b 95 be
       -0.33904213 0.33925113 -0.3211284 -0.29220057
0001b0 d4 62 cc 3e 3a d3 bc 3e 61 4f 5e 3e 86 95 c4 3e
       0.3991915 0.36879903 0.21709968 0.38395327
0001c0 e0 bc 93 be c8 7a b3 3e c4 08 7a be f2 d4 d8 3e
       -0.28855038 0.35054612 -0.24417406 0.42349964
0001d0 ec bc d5 bd 4e 9c 71 3e b9 68 6c be 6e dc 8c 3e
       -0.104364246 0.23594782 -0.23086824 0.27511925

hidden2time.bias f4 [3]
000000 53 a9 6d bb 43 df 38 3e 74 0a 16 bd
       -0.0036264255 0.18053918 -0.036631063
