events_simulation/models/all_epochs/model_20_20180531-0028.pt (torch_old, 78354 bytes, 9 tensors)

loss_function_events.weight f4 [27]
0	0x3f800000	1.0
1	0x3f800000	1.0
2	0x3f800000	1.0
3	0x3f800000	1.0
4	0x3f800000	1.0
5	0x3f800000	1.0
6	0x3f800000	1.0
7	0x3f800000	1.0
8	0x3f800000	1.0
9	0x3f800000	1.0
10	0x3f800000	1.0
11	0x3f800000	1.0
12	0x3f800000	1.0
13	0x3f800000	1.0
14	0x3f800000	1.0
15	0x3f800000	1.0
16	0x3f800000	1.0
17	0x3f800000	1.0
18	0x3f800000	1.0
19	0x3f800000	1.0
20	0x3f800000	1.0
21	0x3f800000	1.0
22	0x3f800000	1.0
23	0x3f800000	1.0
24	0x3f800000	1.0
25	0x3f800000	1.0
26	0x3f800000	1.0

lstm.weight_ih_l0 f4 [160, 70]
0	0xbe270ecb	-0.16314237
1	0xbbfcb231	-0.0077116718
2	0xbe42ef35	-0.19036563
3	0x3d952701	0.0728283
4	0xbcdd8043	-0.027038699
5	0x3d1a565c	0.037680015
6	0xbdba6194	-0.09100643
7	0xbcdb8c09	-0.026800172
8	0x3e2c300b	0.16815202
9	0x3e24f79e	0.16110083
10	0x3d78aa10	0.06070906
11	0xbdecfa25	-0.11571149
12	0x3d53f947	0.0517514
13	0xbc56ab71	-0.013102398
14	0x3d487599	0.048940275
15	0x3e131797	0.14364468
16	0xbe02e267	-0.12781678
17	0xbe11d294	-0.14240485
18	0x3d904af1	0.07045544
19	0xbe177ed3	-0.14794473
20	0xbd107c44	-0.03527476
21	0x3da4250f	0.08014881
22	0xbe138c04	-0.1440888
23	0xbdf442f5	-0.119268335
24	0x3e112e21	0.14177753
25	0x3bb942a0	0.0056536943
26	0x3f426d10	0.75947666
27	0xbda70f95	-0.08157269
28	0x3d9cb295	0.07651249
29	0x3f6e4f49	0.9308973
30	0x3e1adfc0	0.15124416
31	0xbd55da82	-0.05221034
32	0x3d42b8f8	0.04753968
33	0x3e5d968c	0.2163946
34	0x3d3586f8	0.04431817
35	0x3daf0ce8	0.085473835
36	0x3c9d7af3	0.019223666
37	0x3e259028	0.16168272
38	0x3e5a14c4	0.21296984
39	0x3cfea42f	0.031084148
40	0x3e722209	0.23645796
41	0x3db120ee	0.08648859
42	0xbd9bbc11	-0.0760423
43	0x3dcf27c3	0.10115006
44	0x3dcb467f	0.099255554
45	0x3e3921bb	0.18079273
46	0xbcaa26a9	-0.020770388
47	0x3e5cdb00	0.21567917
48	0x3e1665b1	0.1468723
49	0x3d120978	0.03565356
50	0x3c3dda02	0.011587622
51	0x3dbd8907	0.092546515
52	0x3b316534	0.0027068378
53	0x3dd1df2b	0.10247644
54	0xbd809910	-0.06279194
55	0x3e68ccf9	0.22734441
56	0x3d8bc958	0.06825513
57	0x3cae3820	0.021266997
58	0x3e1b6341	0.15174581
59	0x3e28bb66	0.16477737
60	0xbc09798a	-0.008390794
61	0x3de2f5b0	0.110820174
62	0x3ca546fa	0.020175446
63	0xbd554204	-0.05206491
64	0x3df0f803	0.117660545
65	0xbd496d28	-0.049176365
66	0x3e22a6d7	0.15883957
67	0x3da023ee	0.07819353
68	0x3a86f612	0.0010296723
69	0xbdcaacc7	-0.09896236
70	0xbf02b46c	-0.5105655
71	0x3c85c656	0.016329926
72	0x3d04bfc7	0.032409456
73	0x3dbcb461	0.09214092
74	0x3d25a32f	0.040438827
75	0xbe053454	-0.13008243
76	0xbdf93419	-0.1216814
77	0xbb9f8336	-0.0048679365
78	0x3e0000ab	0.12500255
79	0x3ded0a3b	0.11574217
80	0x3e29243b	0.16517727
81	0xbea685fb	-0.32524094
82	0xbdd203bf	-0.10254621
83	0xbe0e6ccc	-0.1390869
84	0x3d4c9566	0.049947165
85	0xbe88f128	-0.26746488
86	0x3dbe76d9	0.09300012
87	0xbdfbf34e	-0.12302266
88	0xbcf9eb5a	-0.030507732
89	0xbcaa94f2	-0.020822976
90	0xbe233c71	-0.15941025
91	0x3d88f8fe	0.066881165
92	0xbe658fe7	-0.22418176
93	0xbcbe4711	-0.023227246
94	0x3d242613	0.040075373
95	0x3dd1610e	0.1022359
96	0x3ea37593	0.3192564
97	0xbc55ffc5	-0.0130614685
98	0x3e0069cd	0.1254036
99	0x3e8cf18c	0.27528036
100	0xbe88a5bf	-0.26688954
101	0x3e0a281e	0.13491866
102	0xbe43b89e	-0.19113395
103	0xbe2c5883	-0.1683064
104	0x3e485e77	0.19567285
105	0xbe09728d	-0.13422604
106	0x3e231812	0.15927151
107	0x3cf8b26d	0.030358518
108	0x3e95f546	0.2928869
109	0xbe931fd5	-0.28735223
110	0x3e8f0d3c	0.27939785
111	0x3e89c2eb	0.26906523
112	0xbc9eaace	-0.019368555
113	0xbdca343d	-0.09873245
114	0x3d026d06	0.031842254
115	0x3d2a63ca	0.041599073
116	0x3e08ff04	0.1337853
117	0xbe1f831e	-0.15577361
118	0x3d19b985	0.03753044
119	0x3e23caaa	0.15995279
120	0x3e2333e8	0.1593777
121	0xbe638f7d	-0.22222705
122	0xba98f9dc	-0.0011671144
123	0xbe133705	-0.14376457
124	0x3e705549	0.23470034
125	0x3eb00068	0.3437531
126	0x3e9d5618	0.30729747
127	0x3e2fd9c4	0.17172915
128	0x3d950735	0.07276765
129	0x3cf7b786	0.030238878
130	0x3a29e201	0.00064805156
131	0x3e7845cf	0.2424538
132	0x3e966c76	0.29379624
133	0x3df20656	0.11817615
134	0xbdf49866	-0.1194313
135	0x3ed380bf	0.41309163
136	0x3dea6876	0.114457056
137	0x3e46e337	0.19422613
138	0x3eaf055b	0.34183773
139	0xbe21993f	-0.15781115
140	0xbd5ad21b	-0.05342303
141	0x3d359ef1	0.04434103
142	0x3d5f8fe9	0.054580603
143	0x3d2a44b6	0.041569434
144	0xbcf66b0a	-0.030080337
145	0x3cc965d8	0.024584696
146	0xbd05af9d	-0.03263818
147	0xbb1dbedb	-0.0024070058
148	0xbdd4701c	-0.10372946
149	0x3e0f72bc	0.14008611
150	0xbd2a9fb9	-0.04165623
151	0xbe4fbb56	-0.20286307
152	0xbd443297	-0.04789981
153	0xbd42f368	-0.04759541
154	0xbe0bfb27	-0.13670026
155	0xbda1acd3	-0.07894292
156	0x3e07c6fb	0.13259499
157	0xbd711a06	-0.05886271
158	0x3dafdeb0	0.08587396
159	0x3bd00daf	0.0063492875
160	0x3d56a8dd	0.052407134
161	0x3d800e2c	0.06252703
162	0x3d182034	0.037140086
163	0xbe591281	-0.21198465
164	0x3caa5d43	0.020796424
165	0xbb2a2c40	-0.0025966316
166	0x3f0ac982	0.54213727
167	0x3e1e02ec	0.15430802
168	0x3c3f8245	0.0116887735
169	0x3f05d5aa	0.5227915
170	0x3e5748fb	0.21023934
171	0x3dbe9f61	0.09307743
172	0xbcb07b46	-0.021543156
173	0x3672c230	3.6173842e-06
174	0x3e5fa4dc	0.21840233
175	0xbe0c8cd1	-0.13725592
176	0x3df42ef3	0.11923017
177	0x3e46f9c5	0.19431217
178	0x3dacb5ce	0.08433114
179	0xbc5d0ca0	-0.01349178
180	0xbca14811	-0.019687684
181	0xbda20d14	-0.07912651
182	0x3df3527c	0.11880967
183	0x3e388679	0.18020047
184	0x3d01cde5	0.031690497
185	0x3c92ed1b	0.017935326
186	0xbda5eee5	-0.08102206
187	0x3d2c18f6	0.042015992
188	0x3dd0c8fd	0.101945855
189	0x3e199bc7	0.1500083
190	0x3e04ed6b	0.12981193
191	0x3da4a9ad	0.080401756
192	0xbde50f96	-0.111846134
193	0x3d2a175a	0.041526176
194	0x3d014fde	0.031570308
195	0x3e012bf8	0.12614429
196	0xbc4e79f5	-0.012602319
197	0x3df09ec6	0.11749034
198	0xbd1d3be4	-0.038387194
199	0x3e10f6f3	0.14156704
200	0xbd82a993	-0.0638
201	0x3c78f0af	0.015194102
202	0x3e1f673d	0.15566726
203	0xbd8449b5	-0.06459371
204	0x3b567725	0.0032724824
205	0xbcf682af	-0.030091612
206	0x3e1ab48e	0.15107939
207	0x3e3f0649	0.18654741
208	0x3e0a9c96	0.13536295
209	0xbdafc38b	-0.08582219
210	0xbcaea8fc	-0.021320812
211	0x3d804bfd	0.062644936
212	0x3e0f35b7	0.13985334
213	0x3e48f71d	0.19625516
214	0x3e26a647	0.16274367
215	0x3dc791d2	0.0974461
216	0x3d044179	0.032289002
217	0x3e0b5013	0.13604765
218	0x3dbd427c	0.092411965
219	0xbd7b4f30	-0.061354816
220	0x3e0f4211	0.13990046
221	0x3d914ede	0.07095121
222	0xbe03379f	-0.12814187
223	0x3d999528	0.074991524
224	0xbd99cbd8	-0.07509583
225	0xbc5c7080	-0.013454556
226	0x3ca21a50	0.019787937
227	0xbc617ce0	-0.013762683
228	0xbd0218c8	-0.031761914
229	0xbd96bf94	-0.073607594
230	0x3c953ede	0.018218454
231	0x3e10e459	0.14149608
232	0x3d77e3b5	0.060519893
233	0x3c13c025	0.009017979
234	0x3d1298cd	0.035790253
235	0x3db5a9f0	0.08870304
236	0x3ef37757	0.47551987
237	0x3dcc58b7	0.099778585
238	0xbd8b6e85	-0.06808189
239	0x3f35d09c	0.7102144
240	0x3d019442	0.03163553
241	0x3df576fa	0.119855836
242	0x3d763299	0.060106847
243	0x3e2f399d	0.17111821
244	0x3d0ef657	0.034902897
245	0xbc84d8b8	-0.01621662
246	0x3c7d1ed1	0.015449242
247	0x3ded5c2f	0.11589848
248	0x3e2be583	0.1678677
249	0xbdb38563	-0.08765676
250	0x3e7cf3a7	0.24702321
251	0x3d17079c	0.03687249
252	0x3e1cf005	0.15325935
253	0x3dddbcc6	0.10827021
254	0x3e48c20e	0.19605276
255	0x3d79396b	0.060845774

lstm.weight_hh_l0 f4 [160, 40]
0	0x3e2db405	0.16963203
1	0xbe2083bf	-0.15675257
2	0x3cce1324	0.025155611
3	0xbe2894eb	-0.16463058
4	0x3dec41a6	0.11535959
5	0xbe744cb0	-0.23857379
6	0xbe48aa93	-0.19596319
7	0x3d787b45	0.060664434
8	0x3d3e6f09	0.04649261
9	0x3dc5a63c	0.09650847
10	0x3e0a40f7	0.13501345
11	0x3e352090	0.17688203
12	0x3debb923	0.115099214
13	0x3c4573da	0.012051547
14	0xbe6f4584	-0.23366362
15	0xbd13fc9c	-0.03612958
16	0xbd62b543	-0.055348646
17	0x3e85d875	0.26141706
18	0xbe737367	-0.23774491
19	0x3e4cd20e	0.20002005
20	0x3e13cd1c	0.14433712
21	0x3dac8170	0.08423126
22	0xbe3710eb	-0.17877547
23	0x3dc65b25	0.09685353
24	0x3dc5415e	0.096316084
25	0x3e66c495	0.22535928
26	0x3e042f46	0.12908658
27	0xbd4efa27	-0.050531533
28	0xbd9d31a3	-0.07675483
29	0x3e8e122a	0.27748233
30	0x3e8f7a8e	0.2802319
31	0xbcec366a	-0.02883454
32	0xbdbc798a	-0.09202869
33	0x3e3b96ce	0.18319246
34	0x3e472328	0.19447005
35	0x3dd1d04e	0.10244809
36	0x3de946ac	0.11390433
37	0xbd8e648a	-0.0695277
38	0x3dca1a3f	0.09868287
39	0x3e1e89db	0.15482275
40	0xbe51ad5d	-0.20476289
41	0x3e63c4f8	0.22243106
42	0x3c1a6096	0.009422442
43	0xbccbcab2	-0.024876926
44	0x3e13872b	0.14407031
45	0xbdeb08f6	-0.114763185
46	0x3c3c98fe	0.011511086
47	0xbd811a23	-0.06303813
48	0xbd102d31	-0.035199348
49	0x3dc729f0	0.09724796
50	0x3efd616b	0.49488387
51	0x3e8f8714	0.28032744
52	0x3e85df64	0.26146996
53	0xbdd6ff37	-0.10497897
54	0xbc929d72	-0.017897341
55	0xbe476707	-0.19472896
56	0x3ebc7896	0.3681075
57	0x3d048b8f	0.032359656
58	0xbe23d3fd	-0.15998836
59	0xbd8470da	-0.06466837
60	0xbde71f66	-0.11285286
61	0xbd55face	-0.05224114
62	0xbd3d3a05	-0.04619791
63	0xbd4977e3	-0.0491866
64	0x3d613cbc	0.05498956
65	0x3e5b2910	0.21402383
66	0xbc24bfbc	-0.010055479
67	0xbd9b6f8f	-0.075896375
68	0xbdbbc100	-0.09167671
69	0x39e27f64	0.00043200993
70	0x3bd95f72	0.0066336924
71	0x3e13bca6	0.14427432
72	0x3d35c151	0.044373814
73	0x3e1c3fb1	0.15258671
74	0xbcfbf587	-0.030756725
75	0x3db8319e	0.08993839
76	0x3d814c42	0.06313373
77	0x3d87e89e	0.06636165
78	0xbd38f09c	-0.045151338
79	0xbdcfed12	-0.101526394
80	0x3e9b3f20	0.30321598
81	0xbe1a8b43	-0.15092187
82	0x3dc36211	0.09540189
83	0x3be62457	0.007023375
84	0xba70dfd6	-0.00091886276
85	0x3bce7242	0.0063002417
86	0xbd930589	-0.0717879
87	0x393787fb	0.00017502897
88	0x3d8f5a5d	0.06999657
89	0x3dc8d886	0.098069236
90	0x3e58cca8	0.2117182
91	0x3e1020e1	0.14075042
92	0xbd255683	-0.040365707
93	0xbc62a840	-0.013834059
94	0xbb9ea563	-0.004841493
95	0xbddce0f5	-0.10785095
96	0xbd48c4bf	-0.049015757
97	0x3e876b11	0.26448873
98	0xbdddb57c	-0.10825631
99	0x3e13a4f4	0.14418393
100	0xbdba882e	-0.091080055
101	0x3ca8d13d	0.020607585
102	0x3cc02fd9	0.023460316
103	0xbdf2b3f7	-0.11850732
104	0xbb85eb80	-0.0040869117
105	0xbd691c4c	-0.05691175
106	0x3d120275	0.035646874
107	0x3c5bb336	0.013409426
108	0xbdc9f2d8	-0.09860772
109	0x3e23b281	0.15986063
110	0x3dddd0e7	0.108308606
111	0xbdcbfa66	-0.09959869
112	0xbe155c5a	-0.1458601
113	0x3d1d92fc	0.038470253
114	0x3e1d7c30	0.15379405
115	0x3dd0a36a	0.10187419
116	0xbb88782d	-0.0041647167
117	0xbe159410	-0.14607263
118	0xbe370dad	-0.1787631
119	0x3d7458f9	0.059655163
120	0x3d8cd665	0.0687683
121	0x3d617fd1	0.055053536
122	0x3d438da0	0.047742486
123	0x3c1a41a2	0.009415062
124	0xbcd32d22	-0.025778357
125	0xbe1f22b0	-0.15540576
126	0x3dda0e0a	0.10647209
127	0xbe1db99d	-0.15402837
128	0xbdd09163	-0.1018398
129	0xbdcb6a72	-0.09932412
130	0x3e89ea72	0.2693668
131	0x3e63c144	0.22241694
132	0x3d15b670	0.03655094
133	0xbe13c3bf	-0.1443014
134	0x3d460051	0.048340145
135	0xbe225c7f	-0.15855597
136	0x3cc4b865	0.024013707
137	0x3e931201	0.28724673
138	0x3df811db	0.12112781
139	0x3e256df9	0.16155232
140	0x3c6dfc69	0.014525511
141	0x3df9c98c	0.12196645
142	0xbdb33188	-0.08749682
143	0x3da68d7d	0.081324555
144	0x3d3d2b1c	0.04618369
145	0x3d020f63	0.031752955
146	0x3e556a77	0.20841394
147	0x3d6645a6	0.056218766
148	0xbd846a76	-0.06465618
149	0x3e1dd7a7	0.15414296
150	0xbcb4527d	-0.02201199
151	0xbe0a4804	-0.13504034
152	0xbcf6d77e	-0.030132052
153	0x3e1ef0c2	0.1552153
154	0x3d714864	0.058906928
155	0xbe298975	-0.16556342
156	0x3d846cff	0.06466102
157	0xbd3ff667	-0.046865847
158	0x3cce86f8	0.025210842
159	0x3e4b3e96	0.19848093
160	0x3d53120c	0.051530883
161	0xbcbecb29	-0.023290234
162	0x3e1c77a3	0.15280013
163	0xbde42f79	-0.11141867
164	0x3e24f2ab	0.16108195
165	0x3da80d9a	0.08205719
166	0xbc37c693	-0.011216777
167	0xbdb85a26	-0.090015694
168	0x3d996abf	0.07491063
169	0xbd900134	-0.070314795
170	0x3ecf65cd	0.40507355
171	0x3e56e8ea	0.20987287
172	0x3e42c3ba	0.19019976
173	0x3b848be0	0.0040449947
174	0x3cc77808	0.024349228
175	0x3cd80d62	0.026373569
176	0x3cd58fd0	0.026069552
177	0x3eb7a2d5	0.35866418
178	0xbd5ba597	-0.053624716
179	0x3dd4f677	0.10398572
180	0x3dfa0bc2	0.12209274
181	0x3d95b083	0.073090576
182	0x3b97712d	0.004621646
183	0xbde8c864	-0.113663465
184	0x3e2cfc90	0.1689322
185	0x3e18a217	0.14905582
186	0x3e37abbd	0.17936607
187	0x3dae38ef	0.08506953
188	0xbd0b0775	-0.03394266
189	0x3b7c73db	0.0038521204
190	0xbd5be568	-0.053685576
191	0x3d4717e4	0.04860677
192	0x3d31fce8	0.04345408
193	0xbafe470a	-0.0019399833
194	0x3d8b74d1	0.0680939
195	0x3d31c84e	0.043403916
196	0x3e337887	0.17526446
197	0x3e1f84b5	0.15577967
198	0xbd8e23eb	-0.069404446
199	0x3e2c082c	0.16799992
200	0x3eb6c56f	0.35697505
201	0xbd9f7fdd	-0.0778806
202	0xbcda92e7	-0.026681377
203	0xbe33ef05	-0.17571647
204	0x3ea34c0a	0.3189395
205	0x3d278164	0.04089488
206	0x3d8fabc2	0.07015182
207	0x3e0f8ce5	0.14018591
208	0x3ddf9f01	0.109189995
209	0x3bd330f8	0.0064450465
210	0x3f29c61e	0.6631793
211	0x3d39e7d5	0.045387108
212	0x3d97507a	0.073883966
213	0x3cd8478f	0.02640131
214	0xbca25948	-0.019817963
215	0xbd93f9f0	-0.07225406
216	0x3e7a2442	0.24427894
217	0x3ec3d620	0.38249302
218	0xbddad9d2	-0.10686077
219	0x3d18b9d9	0.037286613
220	0xbd435a1b	-0.047693353
221	0x3e4735a4	0.19454056
222	0xbdbda43e	-0.09259842
223	0x3dc2626e	0.0949143
224	0x3e40ca4e	0.18827173
225	0x3e481e86	0.19542894
226	0xbd29edb0	-0.041486442
227	0x3d9e1d1b	0.07720395
228	0xbd762001	-0.060089115
229	0x3e3a4d2f	0.18193506
230	0x3e1d636b	0.15369956
231	0xbcab8274	-0.020936228
232	0xbe2e6493	-0.17030554
233	0x3e8450f7	0.2584302
234	0x3e34f66d	0.17672129
235	0x3a79ae6c	0.0009524587
236	0x3d395008	0.04524234
237	0x3ccc2164	0.024918266
238	0xbde60eac	-0.11233267
239	0xbc94180a	-0.018077869
240	0x3e872659	0.26396444
241	0xba2f547f	-0.0006688311
242	0x3e1d1dd5	0.15343411
243	0x3ca4e255	0.020127455
244	0x3e9559b0	0.2916999
245	0xbd8cb52a	-0.06870492
246	0x3c51b0f6	0.012798538
247	0x3db100fe	0.08642767
248	0x3cc1b0a5	0.023643801
249	0x3e40cc1a	0.18827859
250	0x3ec2596d	0.3795885
251	0x3e7aa68b	0.24477594
252	0x3e96e02c	0.29467905
253	0x3cc2204e	0.023697045
254	0x3e76d294	0.24103767
255	0x3d47af47	0.048751142

lstm.bias_ih_l0 f4 [160]
0	0xbccf875e	-0.025333103
1	0xb950925b	-0.00019890947
2	0x3e482028	0.19543517
3	0x3e1124a2	0.1417413
4	0x3e25d638	0.16194999
5	0x3dba03a6	0.09082727
6	0x3c842557	0.016131086
7	0x3cac114f	0.021004347
8	0x3d583d59	0.05279288
9	0x3d617fe3	0.055053603
10	0x3e95d64d	0.2926506
11	0xbdbc2e04	-0.09188464
12	0x3dde7195	0.10861508
13	0x3e15f49c	0.14644092
14	0x3e050d0c	0.12993258
15	0x3c83da9d	0.016095454
16	0x3d57d102	0.05268956
17	0x3e885094	0.26623976
18	0xbdd88a4d	-0.10573254
19	0x3d0c0360	0.034182906
20	0x3e3f88be	0.18704507
21	0x3dc16fa5	0.09445123
22	0xbd90cb9a	-0.07070084
23	0xbd9b1817	-0.07572954
24	0x3e17dbc4	0.14829928
25	0x3d390b74	0.04517694
26	0x3de1b392	0.110205784
27	0x3e9e693c	0.30939662
28	0x3de91810	0.11381543
29	0xbc98d969	-0.018658357
30	0x3e6e7b76	0.23289284
31	0x3e76b9ea	0.24094358
32	0x3d92c889	0.07167155
33	0xbcb58e26	-0.022162508
34	0x3e2c279d	0.16811986
35	0x3d892ce8	0.06698018
36	0x3d798244	0.060915247
37	0xbb36df30	-0.0027904026
38	0xbd9f5f9d	-0.07781909
39	0x3e4c386d	0.199434
40	0x3dde9e31	0.10870016
41	0x3dbb7eb1	0.09155024
42	0xbcb305f4	-0.021853425
43	0xbd9f11cf	-0.077670686
44	0x3e0ef397	0.1396011
45	0xbd1d2ab3	-0.0383708
46	0xbdb9e9c2	-0.09077789
47	0xbdb23016	-0.08700578
48	0x3d67bf17	0.05657872
49	0x3e74f1cd	0.23920365
50	0x3d4206a8	0.04736963
51	0xbdc5d7b5	-0.096602835
52	0x3d1e557a	0.038655736
53	0xbdbb5168	-0.091463864
54	0x3d5aaf71	0.05338997
55	0x3cde5d05	0.027143965
56	0xbe4090f7	-0.188053
57	0xbd93e71d	-0.07221816
58	0xbd9c0a05	-0.076190986
59	0x3e55a543	0.20863824
60	0xbdaaeb9d	-0.08345721
61	0x3e02107f	0.12701605
62	0x3c139ed9	0.00901004
63	0x3dbb600f	0.09149181
64	0x3e46122e	0.19342873
65	0x3da5a184	0.08087447
66	0x3e24336c	0.16035241
67	0x3de3dc64	0.111260206
68	0x3d28dc71	0.041225854
69	0xbd35049b	-0.044193845
70	0x3e01a80e	0.12661764
71	0x3e2d0607	0.1689683
72	0x3e46c3c2	0.19410613
73	0x3d113cf3	0.035458516
74	0x3dbb5922	0.0914786
75	0x3d71d87d	0.05904435
76	0x3d42ec90	0.047588885
77	0xbd892ce4	-0.06698015
78	0x3e48a58f	0.19594406
79	0xbd5df793	-0.054191183
80	0xbd79be77	-0.060972657
81	0xbd9b6144	-0.07586911
82	0xbdcca363	-0.09992101
83	0xbd697e69	-0.05700532
84	0xbdaaefa0	-0.08346486
85	0xbe372e19	-0.17888679
86	0xbe2dd2b6	-0.16974911
87	0x3c8369ee	0.016041722
88	0x3b4ebe28	0.0031546447
89	0xbcdaef30	-0.026725382
90	0xbc5546f9	-0.0130174095
91	0x3dec2b53	0.11531701
92	0xbe3a6338	-0.18201911
93	0x3d2523de	0.04031741
94	0x3d494013	0.04913337
95	0x3d175478	0.03694579
96	0xbe36e878	-0.17862117
97	0xbcd16dc7	-0.025565041
98	0xbe177b5a	-0.14793149
99	0x3cb58230	0.022156805
100	0xbb9f7351	-0.0048660417
101	0xbd79b987	-0.06096795
102	0xbdb1357c	-0.086527795
103	0xbdc5bf27	-0.096556
104	0xbcb37851	-0.021907957
105	0x3d8f3e6f	0.0699433
106	0x3aa0b71d	0.0012261603
107	0xbe5fcee0	-0.2185626
108	0xbe27d956	-0.16391501
109	0x3e4c6968	0.19962084
110	0x3c340c3c	0.010989245
111	0x3d510386	0.05102875
112	0xbe38077a	-0.17971602
113	0x3dcf48bf	0.10121297
114	0x3da5d1ee	0.080966815
115	0xbe3a9c49	-0.1822368
116	0xbde7952d	-0.1130775
117	0x3dba9310	0.09110081
118	0xbcaf3016	-0.021385234
119	0x3e2f2c2e	0.17106697
120	0x3bb176aa	0.005415757
121	0xbcfc7f05	-0.030822286
122	0x3e049e0d	0.12950917
123	0x3e2452fa	0.16047278
124	0x3b99908f	0.004686422
125	0xbe0335f5	-0.12813552
126	0x3e2f0eee	0.17095539
127	0x3dd24267	0.102665715
128	0xbd341a83	-0.043970596
129	0x3e82c24b	0.2553886
130	0x3e87735c	0.264552
131	0xbd990ae5	-0.07472781
132	0x3e8f38a5	0.27972904
133	0x3dd7ae0a	0.10531242
134	0x3d430390	0.04761082
135	0x3e7c3aba	0.24631777
136	0x3dca4187	0.098757796
137	0x3e596554	0.2123006
138	0xbc454f44	-0.012042824
139	0x3e5af219	0.21381415
140	0x3e65894a	0.22415653
141	0x3d1831bc	0.037156805
142	0x3d887fd2	0.06665005
143	0x3da3ac9b	0.07991906
144	0x3d7da8de	0.061928622
145	0x3c8116cd	0.015757943
146	0x3c45f41d	0.012082127
147	0x3e31d991	0.17368151
148	0xbd63a350	-0.05557567
149	0x3d843bb2	0.064566985
150	0x3deb4d1a	0.11489315
151	0x3e2487fb	0.16067497
152	0x3e3457eb	0.17611663
153	0xbda5144d	-0.08060513
154	0x3e074832	0.13211134
155	0x3d9ddcdf	0.077081434
156	0x3c0abf22	0.008468421
157	0xbd3c1abb	-0.04592393
158	0xbd34c8a8	-0.044136673
159	0x3e45e8fa	0.19327155

lstm.bias_hh_l0 f4 [160]
0	0xbcfff6e3	-0.031245654
1	0x3d583e3b	0.052793723
2	0xbd0933be	-0.03349661
3	0xbcb321ef	-0.021866767
4	0x3d926f2f	0.07150113
5	0x3cf2cdc6	0.029639136
6	0x3e6d5880	0.23178291
7	0x3e20bd54	0.15697223
8	0x3e572a8e	0.21012327
9	0x3dc78455	0.09742037
10	0xbcaa584a	-0.020794053
11	0xbac0d8f5	-0.0014713096
12	0xbd04605e	-0.032318465
13	0xbd454017	-0.048156824
14	0x3e429364	0.19001538
15	0x3e209fb8	0.15685928
16	0x3e2e866c	0.17043465
17	0x3a2d9c86	0.000662275
18	0x3e3d2c8d	0.18474026
19	0x3e848583	0.2588311
20	0x3e006ed7	0.12542282
21	0x3e14625a	0.14490643
22	0xbd44851d	-0.04797851
23	0xbd3a0b22	-0.045420773
24	0xbc9c53b7	-0.019082887
25	0x3d37dab9	0.044886325
26	0xbd83af4e	-0.06429921
27	0x3e02605c	0.1273207
28	0x3e1658d7	0.14682327
29	0x3e2059c3	0.15659241
30	0x3d120f8f	0.03565937
31	0x3e2bd464	0.1678024
32	0x3d4c6e2e	0.049909763
33	0x3c703106	0.014660126
34	0xbc63f0f7	-0.013912431
35	0x3d8890e3	0.0666826
36	0x3d2bbe58	0.041929573
37	0xbe08e72a	-0.13369432
38	0xbdbad183	-0.091219924
39	0x3e0d9465	0.1382614
40	0x3e1f6f1b	0.15569727
41	0x3dd7f743	0.10545208
42	0x3cfc3c7f	0.030790566
43	0x3dc2b04b	0.095062815
44	0x3b27ffbb	0.0025634605
45	0xbc09bb71	-0.008406506
46	0x3e31cf32	0.17364195
47	0xbc9c120e	-0.019051578
48	0xbd92fbf7	-0.07176965
49	0x3e4930b8	0.19647491
50	0xbd845403	-0.064613365
51	0x3dc57501	0.09641457
52	0xbd2e5c86	-0.042568706
53	0xbccfe6a9	-0.025378542
54	0xbd0edbc7	-0.034877565
55	0x3cdda19f	0.027054606
56	0x3da51239	0.08060116
57	0xbb7016a2	-0.0036634584
58	0x3e24f889	0.16110434
59	0xbd0fc31f	-0.03509819
60	0x3d77476c	0.060370848
61	0x3d6571eb	0.056016844
62	0x3c9590f1	0.01825759
63	0x3d99b591	0.07505334
64	0x3cde570e	0.02714112
65	0x3e46385f	0.19357441
66	0xbda8a9aa	-0.08235486
67	0x3dc91bc0	0.09819746
68	0x3dfc4962	0.12318684
69	0xbd835ad8	-0.064138114
70	0xbc5281df	-0.0128483465
71	0xbd816414	-0.063179165
72	0x3c4239c7	0.0118545955
73	0xbd859cad	-0.06524024
74	0x3e28c5d4	0.16481715
75	0xbc14e6ea	-0.009088257
76	0x3e0db304	0.1383782
77	0x3cb5c0ab	0.022186598
78	0x3e4258a5	0.18979128
79	0xbd8e0318	-0.06934184
80	0x3b9b8764	0.0047463644
81	0xbcacddf2	-0.021101926
82	0x3d85ab9b	0.06526872
83	0x3c17394f	0.009229972
84	0x3e376174	0.17908269
85	0xbd5bffd3	-0.05371077
86	0xbd8edb56	-0.06975429
87	0xbe2d5335	-0.16926272
88	0xbe062aed	-0.13102312
89	0xbe4189a4	-0.18900162
90	0x3dd1d4a6	0.102456376
91	0xbdb9fa65	-0.09080962
92	0x3b8564f5	0.004070873
93	0xbde7540b	-0.11295327
94	0x3cdf7243	0.027276164
95	0xbd82d5fb	-0.0638847
96	0x3db77cdf	0.08959364
97	0x3e2a09e4	0.16605335
98	0xbceb9347	-0.02875675
99	0x3e189849	0.14901842
100	0x3dc61e19	0.096737094
101	0x3d918f03	0.071073554
102	0x3db5c9d7	0.088763885
103	0xbe4c0c09	-0.19926466
104	0x3dd0c2be	0.10193394
105	0xbda18689	-0.07886989
106	0x3e04ffe0	0.12988234
107	0xbdb34382	-0.087531105
108	0xbd87cf2b	-0.06631311
109	0x3d2a5d1d	0.041592706
110	0x3e6167a8	0.22012198
111	0xbe39d22a	-0.18146577
112	0x3c5f086d	0.013612849
113	0xbd8a609d	-0.06756709
114	0x3bc43d18	0.0059887283
115	0xbd3723bd	-0.044711817
116	0xbdaaf247	-0.08346992
117	0x3cfacdf5	0.030615786
118	0xbe41ab69	-0.18913044
119	0xbd4aef45	-0.04954459
120	0xbe1e0c37	-0.15434347
121	0x3c1ae346	0.0094536
122	0xbdb832a4	-0.08994034
123	0xbd4034f1	-0.04692549
124	0xbcdce075	-0.026962498
125	0x3afdee25	0.0019373341
126	0x3c99fbdb	0.018796852
127	0x3dba08bf	0.090836994
128	0x3d9f6a8f	0.07783996
129	0x3e3c9f4b	0.1842014
130	0x3e9ce0fa	0.30640393
131	0xbcbb649a	-0.022875119
132	0x3e92d591	0.28678563
133	0x3cb5defe	0.022201058
134	0x3e377f43	0.1791964
135	0x3e6a570e	0.22884771
136	0x3db6dd35	0.08928911
137	0x3e008066	0.1254898
138	0xbd2d2e27	-0.042280342
139	0xbda69e77	-0.081356935
140	0x3ec0da01	0.37666324
141	0x3dc444f9	0.09583468
142	0x3e0a9189	0.1353208
143	0xbd05e014	-0.0326844
144	0xbd61c407	-0.055118587
145	0x3dad8ce7	0.084741406
146	0x3d244905	0.0401087
147	0x3e0dd5a7	0.13851033
148	0x3df347b2	0.11878909
149	0x3e6a66a5	0.22890718
150	0xbd125091	-0.035721365
151	0x3ccf970a	0.025340576
152	0xbdb5fd5c	-0.08886215
153	0x3d73e2aa	0.059542336
154	0x3e2fd3fa	0.17170706
155	0xbdbfc9bf	-0.09364652
156	0xbda3ffac	-0.0800775
157	0x3dcc501f	0.099762194
158	0xbdc3b6d8	-0.09556359
159	0x3e401e9c	0.18761677

hidden2event.weight f4 [27, 40]
0	0x3e48f188	0.19623387
1	0xbde5a6c9	-0.11213452
2	0x3daccf3d	0.08437965
3	0x3e6a3ded	0.22875185
4	0xbe13e796	-0.14443812
5	0xbc4a58ba	-0.012350256
6	0xbc4a5f08	-0.012351759
7	0xbce44e18	-0.02786927
8	0x3e2ee3a1	0.17079021
9	0xbe08255a	-0.13295498
10	0xbe15adb8	-0.1461705
11	0xbd9e1a0c	-0.07719812
12	0x3ebae248	0.36500764
13	0xbbf7d932	-0.0075637335
14	0x3ed2d8eb	0.4118112
15	0x3f2fb3bd	0.68633634
16	0xbe5a18a8	-0.21298468
17	0x3ee0c0b0	0.4389701
18	0x3e1c403c	0.15258878
19	0xbe2d5916	-0.16928515
20	0x3e8b22fe	0.27175134
21	0xbdb24b50	-0.08705771
22	0xbe58e3cc	-0.21180648
23	0x3d45c830	0.048286617
24	0xbe1ab763	-0.15109019
25	0xbe3b8d14	-0.18315536
26	0x3d191900	0.037377357
27	0x3ea6d9e7	0.3258812
28	0x3e1ab934	0.15109712
29	0x3d6c5e60	0.05770719
30	0xbe7f0b08	-0.24906552
31	0x3dfad9cd	0.122485735
32	0xbd26fcdc	-0.04076849
33	0x3e37daa8	0.17954504
34	0xbc6c0874	-0.014406312
35	0x3cfecfc5	0.031104932
36	0xbe50943e	-0.2036905
37	0xbd275c9c	-0.040859804
38	0xbe37d4ad	-0.17952223
39	0xbe3bb0f3	-0.1832922
40	0xbdb72afe	-0.08943747
41	0xbe894e6d	-0.26817647
42	0x3e2cee55	0.16887791
43	0x3cf256c0	0.029582381
44	0x3dc609f3	0.096698664
45	0xbd2b88d2	-0.04187853
46	0x3d3598c9	0.04433516
47	0xbc5ded39	-0.013545328
48	0x3d1a44ba	0.0376632
49	0xbd4b567d	-0.04964303
50	0xbeb76566	-0.35819548
51	0xbd907693	-0.07053866
52	0x3f0ff764	0.56236863
53	0x3d90d04d	0.0707098
54	0x3e3098d6	0.17245802
55	0x3ed24281	0.41066363
56	0xbe46dbae	-0.19419739
57	0x3f2faae3	0.6862013
58	0xbe9d0be6	-0.3067314
59	0xbe4374ea	-0.19087568
60	0x3e9aaa1e	0.30207914
61	0x3dd73a02	0.10509111
62	0xbe8ec1a8	-0.27882123
63	0xbe991e91	-0.29906133
64	0x3e19c1c2	0.15015319
65	0xbe16a7a3	-0.14712386
66	0x3dff3120	0.12460542
67	0xbce30c6d	-0.027715886
68	0xbe436f16	-0.19085345
69	0x3b6affc9	0.0035858026
70	0xbe16236f	-0.14661954
71	0xbea27b74	-0.31734812
72	0xbbd4d514	-0.0064951275
73	0x3e81f2fb	0.25380692
74	0x3e59727b	0.21235077
75	0xbe224e11	-0.15850092
76	0xbd1b98e2	-0.037987597
77	0xb924314a	-0.0001565862
78	0xbe6d1bca	-0.23155132
79	0x3e0eef59	0.13958491
80	0x3aefbdc2	0.0018290805
81	0xbc2732f7	-0.010205022
82	0x3dabc90a	0.083879545
83	0x3e602319	0.21888389
84	0x3e203636	0.1564568
85	0xbe3ac708	-0.18239987
86	0x3e7b9d40	0.24571705
87	0xbe591647	-0.21199904
88	0x3b84d7f2	0.004054063
89	0xbdcb7597	-0.09934538
90	0x3e0a85d6	0.13527617
91	0x3dfd9a29	0.12382919
92	0x3f2e8407	0.6817021
93	0x3e1cb8a1	0.15304805
94	0x3d8b80a4	0.068116456
95	0x3efeb6fd	0.49748984
96	0x3e91e656	0.28496045
97	0x3f1f0cab	0.62128705
98	0xbd916c90	-0.07100785
99	0x3e7ffaaa	0.24997965
100	0x3deba526	0.11506109
101	0xbda8db61	-0.08244968
102	0xbe5dc08d	-0.21655484
103	0x3e51654d	0.204488
104	0x3e84c936	0.25934762
105	0x3e078162	0.1323295
106	0x3def8df8	0.11697
107	0x3ef3807c	0.47558963
108	0xbe3969f4	-0.18106824
109	0x3daba350	0.08380759
110	0x3e15c6cb	0.14626615
111	0xbdc5b2f2	-0.09653272
112	0x3e80e887	0.25177404
113	0xbd5ab03b	-0.053390723
114	0x3c96e540	0.018419862
115	0xbe81c0ae	-0.25342315
116	0xbee70be9	-0.45126274
117	0x3e96af40	0.2943058
118	0xbe52af0d	-0.20574589
119	0xbe40e059	-0.18835582
120	0xbeed0270	-0.46290922
121	0x3e9c9834	0.30584872
122	0x3d7f5b33	0.062342834
123	0x3e39d32a	0.18146959
124	0x3e06e1f5	0.13172133
125	0xbf195641	-0.5989724
126	0x3df9e6e3	0.12202241
127	0x3de66a28	0.112507164
128	0xbe43126d	-0.19049998
129	0x3e512f5a	0.2042822
130	0xbf431227	-0.76199573
131	0x3e928a43	0.2862111
132	0xbf7735ba	-0.96566355
133	0xbe9579d8	-0.29194522
134	0xbe3cbc78	-0.1843127
135	0x3e7dba24	0.24778038
136	0x3e194c52	0.1497052
137	0xbf42a52e	-0.76033294
138	0xbeeb1d1f	-0.45920655
139	0x3e865910	0.26239824
140	0x3f854cc1	1.0414048
141	0x3ee5871e	0.4482965
142	0x3b8c614c	0.0042840596
143	0xbe6b1122	-0.22955754
144	0x3eb4badc	0.35298812
145	0xbddc49be	-0.10756253
146	0x3e8a1bf4	0.26974452
147	0x3e9101c1	0.2832165
148	0xbecd34fe	-0.40079492
149	0x3da0b773	0.0784749
150	0x3eaed774	0.34148753
151	0x3ea0fe1e	0.31443876
152	0xbe8335e7	-0.25627062
153	0x3cc86eea	0.02446695
154	0x3d1a7924	0.037713185
155	0xbe0d15d6	-0.13777861
156	0xbe6ae49d	-0.22938772
157	0xbe43c17c	-0.19116777
158	0xbe12d345	-0.14338405
159	0xbe169a7c	-0.14707369
160	0xbc5ccf54	-0.013477165
161	0xbea4d9a5	-0.321973
162	0xbe38c491	-0.18043734
163	0x3e10ee1b	0.1415333
164	0x3ddaf78c	0.10691747
165	0xbe0b8523	-0.13625006
166	0x3e80d22d	0.2516035
167	0x3cf47bde	0.02984422
168	0xbeb57e24	-0.354478
169	0x3ea51ef3	0.32250175
170	0xbf2400f0	-0.6406393
171	0xbee38367	-0.4443619
172	0xbeed5d28	-0.46360135
173	0xbda925f3	-0.08259191
174	0x3e30f472	0.17280748
175	0xbf7a583b	-0.9779088
176	0x3ca2e480	0.019884348
177	0xbf277871	-0.65418154
178	0xbd9758ef	-0.073900096
179	0xbd99203f	-0.074768536
180	0xbe73f97d	-0.23825641
181	0xbee494a4	-0.44644654
182	0x3ee25a8c	0.44209707
183	0x3e6625cd	0.22475357
184	0xbe62ec82	-0.22160533
185	0xbeb0d98f	-0.34540984
186	0x3e82e3b0	0.25564337
187	0x3ea3dddb	0.320052
188	0x3e854980	0.2603264
189	0x3e43bc37	0.19114767
190	0x3e4836c7	0.19552146
191	0xbec7185f	-0.3888578
192	0x3ec36177	0.38160297
193	0x3e1c6215	0.1527179
194	0x3e171890	0.14755464
195	0x3f26171f	0.6487903
196	0xbe5a0d8d	-0.21294232
197	0xbf452791	-0.770135
198	0xbe90623b	-0.28199944
199	0x3e646bcf	0.2230675
200	0xbec25cdd	-0.37961474
201	0x3ddb4d34	0.10708085
202	0xbeb4e823	-0.35333356
203	0x3eb29f40	0.34887123
204	0xbee86d39	-0.4539583
205	0x3ebbc7a0	0.3667574
206	0x3ec14fec	0.37756288
207	0x3e88d666	0.26726073
208	0x3e54bdfd	0.207756
209	0xbdffc64f	-0.12488996
210	0xbead1bf5	-0.33810392
211	0xbdc629a7	-0.09675913
212	0xbdfddada	-0.12395258
213	0x3ea5ed4f	0.32407615
214	0x3eaa3ac4	0.3324796
215	0xbd92382b	-0.071396194
216	0x3ed552cc	0.41664732
217	0xbf23f21f	-0.6404132
218	0x3edd84f9	0.43265513
219	0xbe913671	-0.28361848
220	0x3e6d6795	0.23184045
221	0xbe839058	-0.25696063
222	0x3e4fad0c	0.20280856
223	0x3e134a15	0.14383729
224	0xbec84558	-0.39115405
225	0xbe98fafe	-0.29878992
226	0xbe9f87c9	-0.31158283
227	0x3e512321	0.20423557
228	0x3eaf2e8c	0.342152
229	0xbeae1e25	-0.34007373
230	0xbe021144	-0.12701899
231	0x3e87353c	0.26407802
232	0x3e246111	0.16052653
233	0xbeaea431	-0.34109643
234	0xbebd5538	-0.3697908
235	0x3dd04488	0.10169321
236	0x3e1821b4	0.14856607
237	0x3ebaace7	0.3646004
238	0x3e970853	0.29498538
239	0xbe42d41f	-0.1902623
240	0xbe6a02b9	-0.22852601
241	0x3de5d999	0.11223144
242	0xbe614f85	-0.2200299
243	0x3e2be099	0.16784896
244	0xbd09a616	-0.033605658
245	0x3e9ac5f3	0.30229148
246	0x3e3a9af1	0.18223168
247	0x3e58c622	0.21169332
248	0x3d3e4c5a	0.046459533
249	0xb91e2ce8	-0.00015084783
250	0xbe7bf39b	-0.24604647
251	0xbe91b301	-0.28456882
252	0xbc0c8fca	-0.008579204
253	0x3decb129	0.11557228
254	0x3e925f34	0.2858826
255	0xbe29bda5	-0.1657625

hidden2event.bias f4 [27]
0	0x3d7bc08a	0.061462916
1	0x3c4f98d2	0.012670713
2	0x3e0b1d88	0.13585484
3	0x3da7a8b4	0.081864744
4	0x3ce9f77b	0.02856039
5	0xbe79a05f	-0.24377583
6	0xbe527fa3	-0.20556502
7	0xbe812a28	-0.25227475
8	0x3e045772	0.12923983
9	0xbda148e4	-0.07875231
10	0xbc417ed0	-0.01181002
11	0xbe0aff44	-0.13573939
12	0x3d9dd2b6	0.077062055
13	0x3dc4a76f	0.09602248
14	0x3df19d96	0.11797635
15	0xbd81020f	-0.06299221
16	0xbd735d20	-0.059414983
17	0xbe1865eb	-0.14882629
18	0xbd24da52	-0.04024727
19	0xbe276f69	-0.16351093
20	0x3d9ad1b2	0.075595275
21	0xbd9b4b92	-0.07582773
22	0xbb8cc6ef	-0.0042961757
23	0xbcb35de9	-0.021895366
24	0x3cc19c1d	0.02363401
25	0xbd8ee551	-0.069773324
26	0xbd8b3614	-0.06797424

hidden2time.weight f4 [3, 40]
0	0x3d023855	0.031792004
1	0xbe3a89cc	-0.18216628
2	0x3e84c8ad	0.25934353
3	0xbd6b1d9b	-0.05740128
4	0x3dc2c0a1	0.09509397
5	0xbbd51875	-0.0065031596
6	0x3c49c77d	0.012315628
7	0xbe228da1	-0.1587434
8	0xbe4f182d	-0.20224066
9	0x3dba39a8	0.09093028
10	0xbd2135bc	-0.039357886
11	0x3e31ec98	0.1737541
12	0x3d87886d	0.06617818
13	0xbe5644c7	-0.20924674
14	0xbdfdc878	-0.12391752
15	0xbcc80755	-0.024417559
16	0xbe5281d7	-0.20557342
17	0xbe8b57cc	-0.2721542
18	0xbdf9d743	-0.12199261
19	0xbd2c458a	-0.042058505
20	0xbdc55282	-0.09634878
21	0x3db8b98b	0.090197645
22	0xbd5db313	-0.054125857
23	0x3cdfe1df	0.027329383
24	0x3e9dc40c	0.30813634
25	0x3e0f66e8	0.140041
26	0x3e236f1e	0.15960357
27	0x3db7f86f	0.08982932
28	0xbe678356	-0.22608694
29	0x3e842513	0.25809535
30	0x3e0d9097	0.13824688
31	0xbcb0fcff	-0.021605013
32	0xbe39bf4c	-0.1813938
33	0x3d100300	0.03515911
34	0x3cfc8d05	0.030828962
35	0xbe95a117	-0.29224464
36	0x3b83d792	0.0040235007
37	0xbde894db	-0.11356517
38	0xbe61fabf	-0.22068308
39	0xbc887356	-0.016656559
40	0x3e03e7ad	0.12881346
41	0xbe1f0491	-0.15529086
42	0xbd18cd23	-0.03730501
43	0xbda6a028	-0.08136016
44	0x3e0f3c58	0.13987863
45	0xbda0a139	-0.07843251
46	0xbe2a54c4	-0.16633898
47	0xbe511442	-0.20417884
48	0xbe7affc3	-0.24511628
49	0x3d169885	0.036766548
50	0x3db27de9	0.08715422
51	0x3e4c96f0	0.19979453
52	0xbe19c829	-0.15017761
53	0x3d2aa20b	0.041658442
54	0x3cf6a2ca	0.03010692
55	0x3e030533	0.12794952
56	0xbd804de1	-0.06264854
57	0x3ecd8335	0.40139166
58	0xbe057ecb	-0.13036649
59	0x3e693a3e	0.22776124
60	0x3cb59e22	0.02217013
61	0x3e78d882	0.24301341
62	0xbce0e0cd	-0.027450943
63	0xbe059638	-0.13045585
64	0xbdd03255	-0.1016585
65	0x3e324d9e	0.17412421
66	0x3e102c45	0.14079387
67	0xbea5c3c9	-0.32375935
68	0xbe259816	-0.16171297
69	0x3e27ac9d	0.1637444
70	0x3db986cf	0.09058916
71	0xbe5ec7a4	-0.21755844
72	0xbe450d2a	-0.19243303
73	0x3e6af3a4	0.22944504
74	0x3e334752	0.17507675
75	0xbcefa1c4	-0.02925194
76	0xbc4196f4	-0.011815775
77	0xbe2f44a0	-0.17116022
78	0x3bde9c9d	0.006793572
79	0xbc9950e0	-0.018715322
80	0xbec1c500	-0.37845612
81	0x3e5af299	0.21381606
82	0xbeaee84f	-0.34161612
83	0x3eaa4dcb	0.33262476
84	0xbeaf095b	-0.34186825
85	0x3e92e6ab	0.2869161
86	0x3e12f22d	0.14350195
87	0x3e9a3215	0.30116335
88	0x3de90bea	0.113792256
89	0xbe845717	-0.25847694
90	0xbe6572d0	-0.22407079
91	0xbeb43e36	-0.35203713
92	0x3e320fad	0.17388792
93	0x3e4ff468	0.20308077
94	0x3e9e6527	0.30936548
95	0x3e1d4e56	0.15361914
96	0x3ebd753a	0.370035
97	0xbee6695f	-0.45002267
98	0x3e9c487c	0.3052405
99	0xbe0e65f5	-0.13906081
100	0x3df3907a	0.11892791
101	0xbdc3ba48	-0.09557015
102	0x3e9c2000	0.30493164
103	0x3ea373b0	0.319242
104	0xbe45efbd	-0.19329734
105	0xbc70f6a6	-0.014707243
106	0xbe9e0f33	-0.3087097
107	0x3da30d33	0.07961502
108	0x3de6ba09	0.11265952
109	0xbe835ea0	-0.2565813
110	0xbeb26365	-0.34841457
111	0x3e9e9318	0.309716
112	0x3e87f5e4	0.26554787
113	0xbea7fce5	-0.3281013
114	0xbe574154	-0.21021014
115	0x3de58b5b	0.112082206
116	0x3e38fccd	0.18065186
117	0x3efae108	0.4899981
118	0x3e072139	0.13196267
119	0xbe8d5e89	-0.27611187

hidden2time.bias f4 [3]
0	0xbd82b16a	-0.06381495
1	0x3b01b13e	0.0019789482
2	0x3cf5dcce	0.030012514
