events_simulation/models/all_epochs/model_5_20180529-2025.pt (torch_old, 78354 bytes, 9 tensors)

loss_function_events.weight f4 [27]
1.0 1.0 1.0 1.0 1.0 1.0 1.0 1.0
1.0 1.0 1.0 1.0 1.0 1.0 1.0 1.0
1.0 1.0 1.0 1.0 1.0 1.0 1.0 1.0
1.0 1.0 1.0
00000000: 0000 803f 0000 803f 0000 803f 0000 803f
00000010: 0000 803f 0000 803f 0000 803f 0000 803f
00000020: 0000 803f 0000 803f 0000 803f 0000 803f
00000030: 0000 803f 0000 803f 0000 803f 0000 803f
00000040: 0000 803f 0000 803f 0000 803f 0000 803f
00000050: 0000 803f 0000 803f 0000 803f 0000 803f
00000060: 0000 803f 0000 803f 0000 803f

lstm.weight_ih_l0 f4 [160, 70]
0.2029192 -0.0056506568 0.15866493 0.02382409 0.058720727 0.069720834 -0.037110753 0.07861494
0.2716805 0.208631 0.056236926 -0.106605954 -0.08068165 0.052307524 0.16215315 -0.11602787
0.25157252 -0.051797695 0.106473416 -0.017929982 0.063884385 0.0399018 0.044693414 0.1607451
0.13409416 -0.019235224 0.13659725 0.07424894 0.15303071 0.08156916 -0.06446 -0.035589688
0.14401066 0.17118727 0.16331355 0.2955773 0.19182146 0.18583566 0.12470944 0.19363923
0.06287079 0.044484578 0.10420289 0.035340667 0.07662933 0.13914917 0.119282305 0.32927385
0.07785718 0.080137625 -0.0051093753 0.012793041 0.05736838 0.009177186 0.062757 0.13184722
0.19911759 0.22131795 0.3222354 0.13571241 0.36145064 -0.042003207 0.12208061 0.060891785
0.17990445 0.025857965 0.22934362 0.07432633 0.20319723 0.24898516 0.2614638 0.163229
0.034221925 -0.1448156 -0.07508651 0.09540792 0.028852092 0.16961592 -0.14500928 0.19615184
0.18959206 0.097051844 -0.07307847 0.010788569 0.21000552 -0.17880364 -0.096734375 -0.15658663
-0.14343421 -0.08859005 0.12795696 0.22649501 0.18113515 -0.0030532535 0.2337219 -0.0075603276
0.46982208 -0.01159804 -0.009480779 0.36829856 -0.14277409 0.13364267 -0.045062456 0.25750577
0.10175698 0.14262676 -0.044729352 0.013387909 0.0103086475 0.17480682 -0.04791504 -0.06469324
0.16973364 0.046380743 0.15723103 0.0031287055 0.21316291 0.0733364 0.09036639 0.17010266
0.19774273 0.074120134 0.03593283 0.002085438 0.17067146 0.21616116 0.13706836 0.22042447
0.2036971 0.06367572 0.21941769 0.1010237 0.05556963 0.06565731 0.18930505 0.16854359
0.10246045 0.049527623 0.24120562 -0.042549945 0.26722723 0.09396902 0.2808367 0.21512836
0.13236666 0.1477799 -0.07841863 0.11300096 0.07642259 -0.012392108 0.23833515 -0.0124856075
0.017719192 0.27163187 0.19856898 0.25729114 -0.021676024 0.046084538 0.070708334 0.27591527
0.21498373 0.119377546 0.000422029 0.039844092 0.092501126 -0.03576632 0.6531217 0.2154495
0.028610094 0.7476274 -0.043934423 0.18454346 0.2511264 0.26789612 0.02320069 0.13596502
0.0911144 0.0805535 0.07952551 0.006723549 -0.012512693 0.08829195 0.12425255 0.18720444
0.016441775 0.2341324 0.06538153 0.031824846 0.22336644 0.25241426 -0.021867037 0.13056253
0.24454647 0.2564722 0.28762114 0.16140643 0.040779274 0.29435247 0.014329505 0.10278201
0.008684356 0.28221643 0.16196255 0.26114383 0.119379565 0.21802309 0.11505592 0.20940432
0.28003415 0.05889949 0.15741237 0.049322166 -0.059585042 -0.010600556 0.1573183 -0.04316038
0.16914079 0.13081406 0.050300878 0.19867417 0.2506945 0.17332461 -0.013119692 0.06829851
0.16578466 0.028974324 -0.07783686 0.015144408 -0.16260326 0.27003154 0.28935504 0.20681627
0.17528373 -0.105435856 0.08469372 -0.01715377 0.5976419 0.2351548 0.09111958 0.46513876
0.14479475 0.13543282 0.25203463 0.056774676 0.058144778 0.1076211 0.2720165 0.20612782
0.08417311 0.14481075 0.24758221 0.21363194 0.08097479 0.1565313 0.08093144 0.3137248
00000000: 0dca 4f3e 2529 b9bb 0f79 223e bd2a c33c
00000010: 2585 703d ccc9 8e3d 7201 18bd df00 a13d
00000020: b519 8b3e 5da3 553e b158 663d 3954 dabd
00000030: 6c3c a5bd 6a40 563d 7a0b 263e 05a0 edbd
00000040: 1dce 803e d229 54bd bc0e da3d e6e1 92bc
00000050: d1d5 823d 1270 233d 7110 373d 5d9a 243e
00000060: fb4f 093e 3093 9dbc 26e0 0b3e d40f 983d
00000070: 15b4 1c3e bb0d a73d 9b03 84bd 7ec6 11bd
00000080: 8877 133e b74b 2f3e ab3b 273e e855 973e
00000090: d86c 443e b44b 3e3e aa67 ff3d 5d49 463e
000000a0: 67c2 803d 7635 363d 5368 d53d 60c1 103d
000000b0: d7ef 9c3d 1f7d 0e3e 484a f43d 9596 a83e
000000c0: 9673 9f3d 321f a43d 8c6c a7bb e799 513c
000000d0: 1bfb 6a3d e85b 163c be86 803d f502 073e
000000e0: 7be5 4b3e 2ca1 623e 0afc a43e 32f8 0a3e
000000f0: 0f10 b93e 8e0b 2cbd 6605 fa3d aa69 793d
00000100: df38 383e 15d4 d33c 0ed9 6a3e 6738 983d
00000110: ef12 503e f7f5 7e3e 95de 853e 8125 273e
00000120: 4a2c 0c3d 8a4a 14be f5c6 99bd 3a65 c33d
00000130: 395b ec3c ccaf 2d3e 507d 14be 07dc 483e
00000140: 6c24 423e 1ec3 c63d 2aaa 95bd 8ac2 303c
00000150: b00b 573e 4d18 37be ac1c c6bd 3f58 20be
00000160: 6be0 12be b36e b5bd 2607 033e 4fee 673e
00000170: 7e7b 393e 1819 48bb cb54 6f3e a0bc f7bb
00000180: 858c f03e b505 3ebc 4555 1bbc a191 bc3e
00000190: 5f33 12be a0d9 083e 6993 38bd ccd7 833e
000001a0: f765 d03d c00c 123e 2036 37bd f658 5b3c
000001b0: 9ae5 283c 8f00 333e 9042 44bd e47d 84bd
000001c0: a8ce 2d3e bcf9 3d3d 2c01 213e f80a 4d3b
000001d0: 6147 5a3e 6531 963d 0412 b93d 642f 2e3e
000001e0: 127d 4a3e 4ccc 973d 4e2e 133d d8ab 083b
000001f0: 80c4 2e3e 5a59 5d3e a65b 0c3e f4b6 613e
00000200: f995 503e 6a68 823d 08af 603e 83e5 ce3d
00000210: fb9c 633d 5777 863d 2fd9 413e b196 2c3e
00000220: c9d6 d13d 7add 4a3d 9bfe 763e da48 2ebd
00000230: 02d2 883e d472 c03d d4c9 8f3e 9c4a 5c3e
00000240: 208b 073e 9d53 173e f299 a0bd 0c6d e73d
00000250: 7283 9c3d 4508 4bbc 210e 743e 6f90 4cbc
00000260: d727 913c 5513 8b3e ab55 4b3e aabb 833e
00000270: eb91 b1bc 24c3 3c3d 88cf 903d c444 8d3e
00000280: b224 5c3e 377c f43d c643 dd39 8f33 233d
00000290: 3b71 bd3d b47f 12bd fc32 273f cb9e 5c3e
000002a0: b75f ea3c 8264 3f3f 95f4 33bd f6f8 3c3e
000002b0: a493 803e ae29 893e 600f be3c 6a3a 0b3e
000002c0: 309a ba3d 3cf9 a43d 45de a23d 3851 dc3b
000002d0: 0a02 4dbc 69d2 b43d 1f78 fe3d 85b2 3f3e
000002e0: e7b0 863c 67c0 6f3e c0e6 853d c55a 023d
000002f0: 2cba 643e 713c 813e 8022 b3bc 2fb2 053e
00000300: 646a 7a3e 5350 833e 1443 933e ba47 253e
00000310: 2b08 273d 5eb5 963e 4dc6 6a3c 607f d23d
00000320: d448 0e3c ac7e 903e 83d9 253e a5b4 853e
00000330: 467d f43d 7241 5f3e 70a2 eb3d 166e 563e
00000340: a360 8f3e 9740 713d b530 213e 0a06 4a3d
00000350: 720f 74bd f4ad 2dbc 0c18 213e f0c8 30bd
00000360: 3e33 2d3e 1ff4 053e 4b08 4e3d 3e71 4b3e
00000370: 085b 803e 027c 313e faf3 56bc 17e0 8b3d
00000380: 74c3 293e 905b ed3c ef68 9fbd 4020 783c
00000390: 7881 26be 9341 8a3e 5826 943e a5c7 533e
000003a0: 947d 333e c1ee d7bd e773 ad3d 1086 8cbc
000003b0: 0fff 183f 6bcc 703e e79c ba3d ab26 ee3e
000003c0: 1345 143e e7ae 0a3e af0a 813e 908c 683d
000003d0: 3829 6e3d 7468 dc3d bf45 8b3e 2c13 533e
000003e0: f462 ac3d 4549 143e 3186 7d3e 55c2 5a3e
000003f0: 1cd6 a53d be49 203e 62bf a53d 89a0 a03e

lstm.weight_hh_l0 f4 [160, 40]
0.009948353 0.1802826 0.2559151 -0.17473117 -0.08345219 0.16731781 0.09981947 -0.05255905
0.086528815 0.6879599 0.33685276 -0.0005238993 0.4491175 0.10034682 0.12072336 -0.12566458
-0.013650799 0.2650454 0.059662487 0.011820458 -0.3484897 0.0781915 -0.18326381 -0.08239944
-0.21560904 -0.09368006 0.27972713 -0.06663698 0.13805966 -0.023499887 -0.21566594 -0.013446098
0.27648515 0.14293219 -0.047379404 -0.22195563 -0.1262591 -0.23503561 0.021758921 0.19200963
-0.043347664 0.19354163 0.05743765 -0.22392863 -0.13707489 0.18051009 0.011436115 0.40016404
-0.044864442 0.18599969 0.28656274 0.23754492 0.14056942 -0.019775813 -0.025148246 -0.051930565
-0.12866156 0.011280269 -0.294293 0.2048848 -0.020090062 0.15078352 -0.16100621 -0.15602607
0.013685053 -0.066527955 0.040531147 -0.2566458 0.2623308 0.05134485 -0.14939576 -0.06766718
0.014972611 -0.20710029 -0.105588876 0.037889585 0.053970166 -0.16761202 0.21162164 0.19786644
-0.024889577 0.09163952 0.066999644 -0.21552952 -0.024842234 0.020735962 0.26051238 -0.0067787874
-0.06090413 0.04688412 -0.027660284 0.17706805 0.07182817 0.004278497 0.22021121 0.013676337
-0.044183858 0.19405451 -0.09440741 0.27658734 -0.09264675 0.09960381 0.07144361 0.023956764
-0.19102962 -0.054632466 0.18430153 -0.19556873 0.057956092 0.12257164 -0.07443047 0.007909998
0.24343699 0.11667641 -0.23076858 -0.00992423 -0.24734241 0.035042297 0.14660126 0.20368601
-0.11907798 0.1634272 0.14441115 -0.012769154 -0.14858085 0.06343344 0.43151778 0.17943063
0.10514067 0.06374265 0.19406071 0.33366865 0.18821357 0.1951188 0.18737276 0.0067119515
-0.1652898 0.03799536 0.020191718 0.013944824 0.022596002 0.1349981 -0.1376632 -0.0012320193
-0.14776859 -0.058956 0.0772831 -0.27356055 0.07389469 0.082477264 0.017576452 -0.14971797
0.05464898 -0.059643943 -0.10034416 -0.010852295 -0.2932651 -0.19561571 0.0071777417 0.1018447
-0.20353726 0.18658581 0.04421593 -0.16025078 -0.2182404 0.101141125 0.19991341 0.120735206
0.117277764 0.10893293 0.19230524 0.12389984 0.28506282 0.09897005 -0.0015128313 -0.17918347
-0.024005795 0.16113842 -0.08369947 0.25909132 -0.034951065 0.16004732 -0.09460547 -0.18015847
-0.08437335 -0.0035161679 0.17778854 -0.06481745 -0.04632006 0.08608662 0.011180297 -0.04087751
0.12939733 0.07885478 -0.0708173 -0.096897006 -0.22780891 -0.13635238 0.2114558 0.043453585
-0.19310543 0.18280528 0.010214376 0.0511927 -0.21114399 0.018518927 0.2873184 0.20193757
-0.10660656 0.206191 0.16372027 -0.0011828276 0.024078488 0.14536418 0.17142382 -0.19055851
-0.17234343 0.004032556 -0.11747973 0.07372636 -0.039010625 0.08042644 0.1557707 -0.021362085
-0.00026835038 -0.025653388 0.11489174 -0.110539146 0.14840026 0.19956048 0.0632543 -0.24821657
0.16123189 0.13692762 -0.16494557 -0.111611895 -0.121921375 0.044133704 0.016324611 0.02223593
0.050216928 0.17886254 -0.10670251 -0.09032513 0.10616042 -0.12551467 0.107085876 0.58648324
0.26588014 0.06402586 -0.11814933 -0.41521206 0.6220562 -0.15462975 -0.050433625 0.057400748
00000000: 6bfe 223c 009c 383e 4e07 833e baec 32be
00000010: fbe8 aabd 5c55 2b3e 266e cc3d 2948 57bd
00000020: 0536 b13d 241e 303f f777 ac3e 4956 09ba
00000030: bbf2 e53e a282 cd3d cf3d f73d 37ae 00be
00000040: 9aa7 5fbc 08b4 873e a760 743d 98aa 413c
00000050: 3e6d b2be dd22 a03d 82a9 3bbe 0ac1 a8bd
00000060: 9ec8 5cbe 55db bfbd 6538 8f3e f878 88bd
00000070: 835f 0d3e d682 c0bc 88d7 5cbe 064d 5cbc
00000080: 768f 8d3e d15c 123e e810 42bd 5648 63be
00000090: 114a 01be 2dad 70be c43f b23c 2c9e 443e
000000a0: 528d 31bd c72f 463e be43 6b3d 8c4d 65be
000000b0: 5c5d 0cbe a3d7 383e 8b5e 3b3c 4de2 cc3e
000000c0: c7c3 37bd b476 3e3e 5ab8 923e fa3e 733e
000000d0: 6ef1 0f3e e300 a2bc b203 cebc 25b5 54bd
000000e0: dbbf 03be e1d0 383c 92ad 96be 52cd 513e
000000f0: ea93 a4bc ff66 1a3e d0de 24be 4cc5 1fbe
00000100: 4637 603c cf3f 88bd fd03 263d 1467 83be
00000110: 3950 863e fa4e 523d 34fb 18be 1795 8abd
00000120: af4f 753c 1912 54be fb3e d8bd 1c32 1b3d
00000130: d20f 5d3d 7ca2 2bbe 58b3 583e 809d 4a3e
00000140: 3ae5 cbbc 80ad bb3d 1c37 893d c5b3 5cbe
00000150: f181 cbbc 77de a93c e161 853e 9720 debb
00000160: 9c76 79bd 9009 403d d297 e2bc 5451 353e
00000170: a61a 933d a232 8c3b 0c7f 613e b712 603c
00000180: 22fa 34bd 3ab6 463e ac58 c1bd db9c 8d3e
00000190: 94bd bdbd 15fd cb3d 0751 923d fa40 c43c
000001a0: 459d 43be 4bc6 5fbd 8ab9 3c3e 2b43 48be
000001b0: 5e63 6d3d d706 fb3d 016f 98bd f098 013c
000001c0: 8c47 793e 0bf4 ee3d 994e 6cbe 3d99 22bc
000001d0: 5447 7dbe 8388 0f3d a41e 163e 1193 503e
000001e0: 28df f3bd 7659 273e 84e0 133e b735 51bc
000001f0: 9425 18be 64e9 813d e6ef dc3e aabc 373e
00000200: fe53 d73d 828b 823d dab7 463e 9ed6 aa3e
00000210: 0fbb 403e 39cd 473e a5de 3f3e eeef db3b
00000220: bb41 29be 06a1 1b3d 1a69 a53c d578 643c
00000230: 401b b93c f13c 0a3e 95f7 0cbe b57b a1ba
00000240: a650 17be d97b 71bd 9a46 9e3d 2110 8cbe
00000250: 1956 973d d7e9 a83d 7efc 8f3c ab4f 19be
00000260: 9cd7 5f3d 354d 74bd 3d81 cdbd d3cd 31bc
00000270: d826 96be 7c4f 48be 4333 eb3b f493 d03d
00000280: 126c 50be 5a10 3f3e c31b 353d c818 24be
00000290: 697a 5fbe 1423 cf3d 1ab6 4c3e 0544 f73d
000002a0: 532f f03d 3a18 df3d aaeb 443e 33bf fd3d
000002b0: c1f3 913e cfb0 ca3d 324a c6ba df7b 37be
000002c0: cda7 c4bc 7801 253e a16a abbd 9ea7 843e
000002d0: d928 0fbd 72e3 233e 83c0 c1bd 767b 38be
000002e0: efcb acbd 826f 66bb 330e 363e 03bf 84bd
000002f0: 1aba 3dbd 2f4e b03d 902d 373c 2d6f 27bd
00000300: bc80 043e 9d7e a13d a908 91bd f071 c6bd
00000310: bd46 69be f59f 0bbe df87 583e 63fc 313d
00000320: 6ebd 45be 4f31 3b3e 335a 273c 70af 513d
00000330: 2136 58be 01b5 973c 661b 933e b9c8 4e3e
00000340: 8a54 dabd bc23 533e 49a6 273e 1c09 9bba
00000350: 4040 c53c 59da 143e ba89 2f3e c521 43be
00000360: cc7a 30be 8823 843b 3699 f0bd d9fd 963d
00000370: 9bc9 1fbd 9eb6 a43d 5b82 1f3e 8aff aebc
00000380: 61b1 8cb9 0e27 d2bc 5c4c eb3d 5962 e2bd
00000390: 3df6 173e 9559 4c3e 788b 813d 7c2c 7ebe
000003a0: f919 253e c136 0c3e 7ee7 28be c794 e4bd
000003b0: eab1 f9bd 8bc5 343d 31bb 853c 2028 b63c
000003c0: 44b0 4d3d be27 373e d886 dabd 62fc b8bd
000003d0: a26a d93d eb86 00be d74f db3d c423 163f
000003e0: 7121 883e fd1f 833d 47f8 f1bd ad96 d4be
000003f0: 133f 1f3f 4357 1ebe 7d93 4ebd 0c1d 6b3d

lstm.bias_ih_l0 f4 [160]
0.27609518 0.04010636 0.01651767 0.26890138 0.15337448 0.13971756 -0.1306755 0.07425267
0.065658085 0.03457373 0.1335657 0.110304184 -0.05429534 0.22386375 0.2245064 0.05101551
0.15573215 0.03224792 -0.081652924 0.24624327 0.16309409 0.20406744 0.27929887 0.14172366
0.10697885 0.24306943 0.12941878 0.084210515 0.082542576 0.13505165 0.1327188 0.27746564
0.14904906 -0.09305343 -0.10706235 -0.1354268 0.23175874 -0.096788175 0.109046474 0.028766964
0.003794031 0.18282941 0.11588252 0.14366128 0.2451776 0.100163475 0.09095773 0.17651005
-0.19272834 -0.054142747 -0.13437593 0.13236342 -0.18573976 -0.15286428 0.23986903 0.11751277
0.14500462 0.1251052 0.11904915 0.003551283 0.1510653 -0.009337433 -0.09583318 0.17711587
-0.033774108 0.12674907 0.2912705 0.06976647 -0.12710355 -0.045957044 0.20921326 0.21288592
0.20987087 0.054555785 -0.01588856 -0.0019113218 0.25279668 0.13589442 0.16868399 0.128972
-0.11792223 0.23545748 0.27164805 -0.25512576 -0.0798065 0.0772867 0.17033103 -0.0682564
-0.057661775 -0.084836714 0.091293134 0.11861388 0.13264865 -0.030824933 0.035217997 -0.29344067
-0.18441895 0.0128741795 0.015839739 0.0491487 0.06389325 0.204361 0.1304325 -0.033583965
-0.20990637 0.01775224 0.23478195 -0.08597081 0.13705084 0.22795583 -0.17464256 -0.17271616
0.16222303 0.07174282 -0.159057 -0.11901784 -0.18553668 -0.087926336 -0.0015664181 0.0017747693
-0.106534354 -0.022786885 -0.024551004 0.07075384 0.02301286 -0.10122245 0.040272083 -0.02292152
-0.05435426 0.15526249 0.1862907 -0.059383735 0.19643228 0.1662132 -0.0722747 0.09026649
-0.083381996 0.04142931 -0.21198152 0.1996697 0.0846662 -0.041425623 0.24033856 0.013684247
0.12684256 -0.023813363 0.012935446 0.21402429 -0.18219367 0.011022659 -0.01235324 0.043867532
-0.025897495 0.0023775331 -0.072780274 0.0897641 0.12563175 0.307467 0.28369203 0.11563305
00000000: 595c 8d3e 9146 243d 1150 873c 71ad 893e
00000010: 330e 1d3e 1f12 0f3e cccf 05be c911 983d
00000020: bf77 863d 2f9d 0d3d 72c5 083e 29e7 e13d
00000030: ca64 5ebd 8a3c 653e 01e5 653e a4f5 503d
00000040: 4078 1f3e 6516 043d a639 a7bd 3227 7c3e
00000050: 2302 273e 0ef7 503e 4300 8f3e 0220 113e
00000060: ba17 db3d 31e7 783e 5b86 043e 9076 ac3d
00000070: 150c a93d fb4a 0a3e 70e7 073e fa0f 8e3e
00000080: 51a0 183e cc92 bebd 8143 dbbd 53ad 0abe
00000090: 2a52 6d3e e138 c6bd c253 df3d b2a8 eb3c
000000a0: 47a5 783b a237 3b3e d153 ed3d f11b 133e
000000b0: d60f 7b3e 8222 cd3d 0c48 ba3d 0dbf 343e
000000c0: 945a 45be c9c4 5dbd d899 09be 478a 073e
000000d0: 9032 3ebe 7488 1cbe 3aa0 753e 89aa f03d
000000e0: 177c 143e 941b 003e 0ad0 f33d a4bc 683b
000000f0: ddb0 1a3e 08fc 18bc 3044 c4bd dd5d 353e
00000100: b856 0abd 82ca 013e 6821 953e b9e1 8e3d
00000110: 6f27 02be 743d 3cbd 003c 563e c4fe 593e
00000120: 64e8 563e e375 5f3d ba28 82bc 5185 faba
00000130: 916e 813e e827 0b3e 7fbb 2c3e 3c11 043e
00000140: 3681 f1bd c41b 713e 7415 8b3e d89f 82be
00000150: 9771 a3bd 7d48 9e3d 426b 2e3e 03ca 8bbd
00000160: c12e 6cbd dfbe adbd e5f7 ba3d d5eb f23d
00000170: 0cd5 073e 9284 fcbc bf40 103d db3d 96be
00000180: 52d8 3cbe 39ee 523c 57c2 813c 2650 493d
00000190: 77da 823d 0344 513e 1990 053e 578f 09bd
000001a0: b2f1 56be 256d 913c ae6a 703e 7711 b0bd
000001b0: 0e57 0c3e 416d 693e 80d5 32be 81dc 30be
000001c0: cb1d 263e e6ed 923d d7df 22be a0bf f3bd
000001d0: 54fd 3dbe b912 b4bd 4550 cdba 609f e83a
000001e0: af2e dabd 90ab babc 301f c9bc 64e7 903d
000001f0: 7785 bc3c b74d cfbd 57f4 243d e9c5 bbbc
00000200: 93a2 5ebd 21fd 1e3e fdc2 3e3e 5c3c 73bd
00000210: 8b25 493e cb33 2a3e c204 94bd a3dd b83d
00000220: 2ec4 aabd c8b1 293d af11 59be 3776 4c3e
00000230: 7965 ad3d eaad 29bd 501b 763e e433 603c
00000240: 04e3 013e 3e14 c3bc 31ef 533c 2f29 5b3e
00000250: fa90 3abe 6298 343c 3e65 4abc 71ae 333d
00000260: fc26 d4bc 63d0 1b3b d30d 95bd 3ed6 b73d
00000270: 9ca5 003e 516c 9d3e 1540 913e 05d1 ec3d

lstm.bias_hh_l0 f4 [160]
-0.022045288 -0.012127735 0.04587198 0.07976538 0.24758698 0.21367683 -0.08949014 -0.031761613
-0.034603566 -0.030936524 0.088095315 0.08418769 -0.017364943 0.20218746 0.22033833 0.14842464
0.1770109 0.07406521 -0.095566474 0.23957232 0.1143166 0.17426184 0.14640938 0.20990047
0.06681219 0.02847058 0.11800264 0.22013025 -0.023866968 0.24969827 -0.040872023 0.08911455
-0.026453204 -0.16075037 0.13371961 -0.022008704 0.025461618 -0.20890695 0.28788778 -0.06717854
0.16374414 0.008661667 0.26319703 0.0715072 0.11942994 0.042395424 0.13100615 -0.03948448
-0.08213314 -0.19245893 -0.0336181 0.050808255 -0.0914197 0.092163496 0.072410345 0.2702207
0.1829987 0.024203645 0.14012262 0.03470362 -0.05511017 0.16610953 0.09391843 0.08601538
0.083758436 0.20391971 0.03328769 0.20452976 -0.14510697 -0.052939553 6.1357496e-06 0.03747479
0.15448514 -0.21517767 0.17519148 -0.105575345 0.24869476 0.2507093 0.16587211 0.10217159
-0.2098409 0.2802551 0.25567725 -0.13250378 -0.27540752 0.21344076 0.14780107 0.089031294
0.01985213 -0.0020387867 0.09339178 0.052792057 0.074016206 -0.12142958 0.16025114 -0.14718437
0.020187836 0.209091 -0.08615352 0.007488945 0.006237302 0.28011692 0.09002387 -0.2488385
-0.061885316 -0.22007222 0.23601022 -0.23171742 -0.033133816 0.032351498 -0.049279466 -0.14974128
0.05566909 -0.14892314 -0.0061612246 0.04677672 -0.18316717 -0.035032704 0.269631 -0.0015743319
0.055518374 -0.106994145 0.119877964 0.0983589 0.17144746 0.19880192 0.05116995 0.17408392
0.12660386 0.0045565246 0.15438983 0.023466405 0.06441314 0.25336456 0.16050722 -0.05503601
0.04100192 0.1461877 0.04685438 0.03979006 0.19383375 0.06928641 0.28382736 0.009667517
-0.07699526 -0.03867006 -0.040417887 0.17452116 -0.24121258 0.12151131 -0.18207453 0.10801905
-0.027943647 -0.017258337 0.02501221 -0.027774267 0.020298138 0.34214717 0.21241087 -0.06342588
00000000: 5298 b4bc 68b3 46bc 42e4 3b3d 085c a33d
00000010: 7187 7d3e 19ce 5a3e 9b46 b7bd 7718 02bd
00000020: 78bc 0dbd 986e fdbc 516b b43d 986a ac3d
00000030: ed40 8ebc 3b0a 4f3e 5fa0 613e a1fc 173e
00000040: 5842 353e 80af 973d 5bb8 c3bd 7252 753e
00000050: d21e ea3d b271 323e 57ec 153e 26f0 563e
00000060: d4d4 883d 223b e93c 5eab f13d d369 613e
00000070: a984 c3bc e7b0 7f3e 6c69 27bd b081 b63d
00000080: 64b4 d8bc bf9b 24be cbed 083e 994b b4bc
00000090: e294 d03c b4eb 55be 0766 933e e794 89bd
000000a0: 8bac 273e aae9 0d3c c3c1 863e 5e72 923d
000000b0: af97 f43d d3a6 2d3d 7a26 063e 7aba 21bd
000000c0: 6b35 a8bd f413 45be 22b3 09bd 511c 503d
000000d0: 403a bbbd 37c0 bc3d e04b 943d 5e5a 8a3e
000000e0: 0364 3b3e b946 c63c 4e7c 0f3e 6225 0e3d
000000f0: 34bb 61bd 9e18 2a3e 4e58 c03d d528 b03d
00000100: 8b89 ab3d 54d0 503e ac58 083d 4070 513e
00000110: ec96 14be 25d7 58bd b0e1 cd36 2a7f 193d
00000120: 5a31 1e3e 8957 5cbe 6565 333e e337 d8bd
00000130: d7a9 7e3e f85c 803e 61da 293e 573f d13d
00000140: 88e0 56be 997d 8f3e 21e8 823e 12af 07be
00000150: 3702 8dbe 3790 5a3e 2a59 173e 0a56 b63d
00000160: efa0 a23c 2a9d 05bb 3144 bf3d 7c3c 583d
00000170: cf95 973d 12b0 f8bd e018 243e 80b7 16be
00000180: f660 a53c f31b 563e 4271 b0bd d365 f53b
00000190: 4862 cc3b 7c6b 8f3e 6f5e b83d 85cf 7ebe
000001a0: 757b 7dbd 9d5a 61be aaac 713e 5547 6dbe
000001b0: 53b7 07bd 0183 043d 44d9 49bd c755 19be
000001c0: 4605 643d 4f7f 18be 19e4 c9bb f298 3f3d
000001d0: 2d90 3bbe 747e 0fbd 130d 8a3e d059 ceba
000001e0: 3c67 633d bf1f dbbd 9482 f53d 6470 c93d
000001f0: ec8f 2f3e bb92 4b3e 9597 513d 0e43 323e
00000200: 71a4 013e e64e 953b 5e18 1e3e 9e3c c03c
00000210: 09eb 833d 00b9 813e 015c 243e 706d 61bd
00000220: a1f1 273d 3ab2 153e 61ea 3f3d e7fa 223d
00000230: 5b7c 463e 09e6 8d3d d251 913e 8164 1e3c
00000240: b1af 9dbd 7f64 1ebd 3a8d 25bd adb5 323e
00000250: 6e00 77be ecda f83d bf71 3abe 1739 dd3d
00000260: 13ea e4bc 5b61 8dbc 68e6 cc3c dc86 e3bc
00000270: 4848 a63c ea2d af3e 3c82 593e 6ee5 81bd

hidden2event.weight f4 [27, 40]
0.05152614 0.20107934 -0.361477 0.032565877 0.08869502 -0.15406829 0.29893795 -0.28702888
-0.65633637 0.0035142798 -0.895244 0.14552079 0.6581523 -0.25478637 -0.029304884 -0.00039971378
-0.1415133 -0.2833429 -0.28500015 0.06522593 -0.3753376 -0.008989217 0.13845335 0.089548156
-0.06885994 -0.11371611 -0.17608356 0.24237056 0.50868535 -0.2852349 0.3413311 0.37129354
0.37723544 0.002008396 -0.42017016 0.11289535 -0.07755949 0.3291191 -0.11333935 0.11190127
-0.38767505 -0.14037119 0.085900664 0.1551645 -0.13233984 -0.11602369 0.4262726 -0.46518323
-0.46124122 -0.1291238 -0.33604994 0.028571669 0.41018614 -0.47879034 0.21817087 -0.18175475
-0.026870674 0.1882526 -0.24286613 0.21182896 0.07497095 0.16133745 -0.28486183 -0.25990927
0.103140526 -0.23804444 0.16500413 -0.19373736 0.31513014 0.11904907 0.09208346 -0.008169495
-0.088118486 0.2197847 -0.26687542 0.17260952 -0.27197024 0.035730172 -0.015772453 -0.05606934
0.27599886 -0.21641605 0.21167025 0.26938388 -0.064878024 -0.15270585 0.427385 -0.54194164
-0.52301854 -0.33407217 -0.54377294 0.029165616 0.5592731 -0.34285668 0.24031143 -0.32286385
-0.14678088 -0.051017676 -0.032220487 -0.12488809 -0.016771207 0.013033649 0.24251486 -0.2064744
-0.12014992 -0.18619677 0.044481814 0.16114649 -0.348963 0.16145952 -0.1213353 0.14814113
0.08249459 0.01824172 0.12925734 -0.23314388 -0.047956206 0.22474416 0.05438891 0.25427517
-0.11071017 0.24779858 0.06819391 -0.17738447 -0.16906984 0.35845408 0.7779212 0.79486257
-0.10699104 -0.11111186 -0.55246437 -0.25555348 -0.52451456 -1.0158366 0.117159255 0.07119727
-0.17963287 -0.06439901 0.5041158 -0.1025982 0.8326534 0.3723132 -0.838206 -0.10125206
0.37296042 0.045318782 0.02826285 0.025763927 -0.89831483 0.16235922 -0.41888925 -0.29738882
0.18593116 0.03432653 0.31684226 -0.10531281 -0.23618184 0.113550566 0.23899457 -0.004355437
0.2573272 0.0231474 -0.2784928 -0.4958737 -0.19411631 -0.036238696 0.14502443 0.7415529
1.1636598 -0.6048101 -0.9147861 -0.026633129 -0.32993296 -0.06267573 -0.010401836 0.5283723
-0.17007424 0.27721626 0.4401572 -0.0022740408 -1.1964669 0.23580244 -0.45728663 -0.10309048
-0.342124 -0.08862574 -0.11277617 0.16082004 0.12099209 0.25408944 -0.25885534 0.060365364
0.09601059 0.04089494 -0.03801802 -0.34176695 -0.103518315 -0.31272554 -0.11008852 0.41491625
0.22333206 -0.3715565 -0.49348393 0.51615185 0.33735627 -0.16164616 -0.5247152 0.027787179
0.36448482 0.4730768 -0.07371173 -0.4125203 -0.23665062 0.1418674 -0.3522714 0.41772693
0.33046687 -0.37387037 0.39618194 -0.37319982 -0.6177871 -0.19112082 -0.5415089 0.29665548
0.4097484 0.12822269 -0.32547602 0.29001635 -0.35258263 -0.40370482 0.22694685 0.3282655
-0.47846028 0.018166576 0.4716937 0.37083787 0.38401085 0.2550124 -0.31997287 -0.44335198
0.3117584 -0.06841093 -0.15913361 0.036445443 0.3257573 -0.16936192 -0.3628249 0.28349224
0.88218105 0.44718373 -0.59026456 -0.29231027 -0.22970882 -0.19271562 -0.19688755 0.36240408
00000000: 130d 533d bee7 4d3e 8313 b9be cc63 053d
00000010: bca5 b53d 14c4 1dbe 650e 993e 73f5 92be
00000020: a905 28bf d54f 663b b62e 65bf 6703 153e
00000030: ab7c 283f 5c73 82be cc10 f0bc ad90 d1b9
00000040: dde8 10be 5212 91be 8aeb 91be 2c95 853d
00000050: 402c c0be 8247 13bc b7c6 0d3e 0665 b73d
00000060: 7106 8dbd fee3 e8bd 404f 34be fd2f 783e
00000070: 3439 023f 4f0a 92be f3c2 ae3e 301a be3e
00000080: 0125 c13e 4b9f 033b 8b20 d7be ad35 e73d
00000090: 83d7 9ebd 4c82 a83e 761e e8bd 7e2c e53d
000000a0: 587d c6be 77bd 0fbe b0ec af3d 71e3 1e3e
000000b0: 1884 07be d49d edbd 6740 da3e 7f2c eebe
000000c0: cf27 ecbe 0839 04be bd0e acbe 220f ea3c
000000d0: eb03 d23e 0224 f5be 2f68 5f3e eb1d 3abe
000000e0: e31f dcbc 4ac5 403e e6b1 78be b1e9 583e
000000f0: 5f8a 993d a535 253e 69d9 91be d412 85be
00000100: 573b d33d ecc1 73be d8f6 283e 1663 46be
00000110: bd58 a13e 00d0 f33d 4196 bc3d 58d9 05bc
00000120: 7777 b4bd 3e0f 613e e5a3 88be 8dc0 303e
00000130: af3f 8bbe cd59 123d 3b35 81bc f7a8 65bd
00000140: b94f 8d3e 2b9c 5dbe 16c0 583e afec 893e
00000150: c5de 84bd ec5e 1cbe 35d2 da3e b0bc 0abf
00000160: 8be4 05bf 820b abbe b434 0bbf bbec ee3c
00000170: 862c 0f3f e98a afbe 3314 763e 694e a5be
00000180: ba4d 16be e9f7 50bd a1f9 03bd 54c5 ffbd
00000190: c563 89bc 168b 553c d155 783e 066e 53be
000001a0: 2911 f6bd 5eaa 3ebe 9032 363d 9603 253e
000001b0: 47ab b2be a555 253e a47e f8bd 4fb2 173e
000001c0: ecf2 a83d a96f 953c 095c 043e 45bd 6ebe
000001d0: ba6d 44bd 5523 663e e8c6 5e3d 5b30 823e
000001e0: 03bc e2bd e9be 7d3e 40a9 8b3d 46a4 35be
000001f0: a520 2dbe 4b87 b73e d825 473f 1d7c 4b3f
00000200: 1e1e dbbd 9d8e e3bd 4e6e 0dbf e8d7 82be
00000210: 9646 06bf ef06 82bf 31f1 ef3d e0cf 913d
00000220: aef1 37be a1e3 83bd bc0d 013f 011f d2bd
00000230: c628 553f d69f be3e ab94 56bf 3d5d cfbd
00000240: abf4 be3e 30a0 393d 7e87 e73c df0e d33c
00000250: f6f7 65bf 7f41 263e a778 d6be 5943 98be
00000260: bd64 3e3e fa99 0c3d 2639 a23e 3eae d7bd
00000270: a7d9 71be 338d e83d feba 743e 0eb8 8ebb
00000280: 64c0 833e 9e9f bd3c 9c96 8ebe 28e3 fdbe
00000290: 6dc6 46be 076f 14bd 4981 143e 69d6 3d3f
000002a0: cef2 943f d6d4 1abf 6c2f 6abf b82d dabc
000002b0: f9ec a8be 225c 80bd 766c 2abc 6843 073f
000002c0: f127 2ebe 4aef 8d3e 495c e13e 1308 15bb
000002d0: d425 99bf 3276 713e 7921 eabe 1a21 d3bd
000002e0: e02a afbe 6981 b5bd 31f7 e6bd 02ae 243e
000002f0: b3ca f73d 0318 823e b088 84be ac41 773d
00000300: 33a1 c43d 7481 273d c9b8 1bbd 14fc aebe
00000310: 6901 d4bd 901d a0be 1776 e1bd e76f d43e
00000320: 29b1 643e a73c bebe eda9 fcbe 8722 043f
00000330: f6b9 ac3e 9286 25be bc53 06bf f0a1 e33c
00000340: c19d ba3e 1f37 f23e 2df6 96bd dc35 d3be
00000350: 8a54 72be b045 113e eb5c b4be 4ee0 d53e
00000360: f432 a93e f06b bfbe 5cd8 ca3e 0c14 bfbe
00000370: 4c27 1ebf 2db5 43be 54a0 0abf 3ae3 973e
00000380: 8bca d13e cf4c 033e cba4 a6be 067d 943e
00000390: b685 b4be 66b2 cebe c164 683e 6a12 a83e
000003a0: bff8 f4be 12d2 943c d681 f13e 76de bd3e
000003b0: 129d c43e fc90 823e 7cd3 a3be 08ff e2be
000003c0: cc9e 9f3e 081b 8cbd ecf3 22be d147 153d
000003d0: a9c9 a63e 366d 2dbe 2fc4 b9be e525 913e
000003e0: 9ed6 613f 44f5 e43e 941b 17bf b1a9 95be
000003f0: ca38 6bbe 3e57 45be e49c 49be 078d b93e

hidden2event.bias f4 [27]
0.02330371 0.033463012 -0.060332246 0.18677823 -0.19563818 -0.17784047 -0.029564189 -0.26846653
-0.0016240447 -0.1736344 -0.15630881 -0.15179634 -0.13711344 0.014740735 -0.0938754 0.043270048
-0.093283534 -0.29271343 -0.21929987 -0.2844901 0.18057479 -0.09111632 -0.26052523 -0.040866222
0.07308929 -0.10805192 -0.24759819
00000000: 6ce7 be3c 8310 093d f21e 77bd cb42 3f3e
00000010: 6055 48be d01b 36be 9930 f2bc 7274 89be
00000020: e6dd d4ba 37cd 31be 6b0f 20be 8070 1bbe
00000030: 7767 0cbe 2083 713c bf41 c0bd ef3b 313d
00000040: 700b bfbd 89de 95be 2590 60be b0a8 91be
00000050: 99e8 383e 319b babd 9063 85be 5763 27bd
00000060: d6af 953d 534a ddbd 618a 7dbe

hidden2time.weight f4 [3, 40]
0.010103214 -0.011845666 0.16826372 -0.0071247336 -0.09684753 0.0852068 0.3155415 0.2569779
-0.10523172 0.04014511 -0.19688891 0.17689282 -0.26446357 0.30946198 -0.055229153 -0.19710597
-0.1279746 0.10882524 -0.091101736 0.023199804 -0.17569073 0.075451076 -0.2955388 -0.1568129
-0.15426372 0.045037683 0.18355304 -0.03762087 0.077334024 0.15080418 -0.107259944 -0.15518752
0.13813344 -0.090694636 -0.09083963 -0.14737113 -0.0024141944 -0.2173854 0.09284906 0.18654196
-0.03996415 0.0426596 0.027808852 -0.23314612 -0.21672092 0.14610133 -0.06651034 -0.053092595
0.030753883 0.093021624 -0.035465524 -0.025582625 0.11482692 -0.25957924 0.04990265 -0.04230347
0.032015465 0.17606364 -0.100838654 -0.025664361 -0.045503937 0.1651093 0.19354156 -0.15499592
-0.21292186 -0.109003864 -0.030972961 -0.23401105 0.16566461 0.05618142 -0.05913309 -0.0024288886
0.09083808 0.11201148 -0.10182506 0.051936675 -0.06133855 -0.14715709 0.18696111 0.07663355
0.38089848 -0.3113761 -0.4742781 0.46504173 0.41073895 -0.35205504 -0.25379553 -0.082356185
0.3566428 0.57269555 -0.16342092 -0.23325352 -0.2214231 0.12903737 -0.3756744 0.33529735
0.6064405 -0.57133037 0.23462059 -0.30514488 -0.40275797 -0.31065786 -0.5583445 0.3912699
0.24269687 0.2687959 -0.3297583 0.27048174 -0.18386039 -0.44463798 0.38927335 0.47933856
-0.47478393 -0.0095183635 0.5606013 0.4107143 0.4743385 0.30294052 -0.3809173 -0.6696123
00000000: f387 253c 5314 42bc 534d 2c3e 9976 e9bb
00000010: ff57 c6bd e780 ae3d a88e a13e 9b92 833e
00000020: ba83 d7bd 336f 243d 3f9d 49be 6423 353e
00000030: c567 87be cd71 9e3e f737 62bd 26d6 49be
00000040: c60b 03be c4df de3d 8c93 babd 840d be3c
00000050: 45e8 33be 1886 9a3d dd50 97be 9093 20be
00000060: 4ff7 1dbe 6f79 383d 54f5 3b3e 5718 1abd
00000070: 4d61 9e3d 696c 1a3e 1aab dbbd 7ae9 1ebe
00000080: da72 0d3e 1cbe b9bd 210a babd 75e8 16be
00000090: 7637 1ebb 479a 5ebe a627 be3d db04 3f3e
000000a0: 73b1 23bd d5bb 2e3d 64cf e33c dbbd 6ebe
000000b0: 17ec 5dbe 969b 153e 9336 88bd 9f77 59bd
000000c0: 91ef fb3c 1f82 be3d 4c44 11bd a792 d1bc
000000d0: 602a eb3d 92e7 84be b966 4c3d 6746 2dbd
000000e0: a622 033d 074a 343e 7f84 cebd 113e d2bc
000000f0: 5662 3abd 6a12 293e c22f 463e 40b7 1ebe
00000100: 3008 5abe 6b3d dfbd 02bb fdbc 98a0 6fbe
00000110: fca3 293e 7d1e 663d 8a35 72bd fd2d 1fbb
00000120: 5109 ba3d 4666 e53d a889 d0bd 8dbb 543d
00000130: 223e 7bbd 59b0 16be bc72 3f3e 0df2 9c3d
00000140: 2005 c33e b06c 9fbe 94d4 f2be f319 ee3e
00000150: 604c d23e 8f40 b4be 7df1 81be 5caa a8bd
00000160: e399 b63e 2d9c 123f d057 27be 03da 6ebe
00000170: bdbc 62be 5f22 043e 6558 c0be 18ac ab3e
00000180: af3f 1b3f b542 12bf 6140 703e f33b 9cbe
00000190: 4b36 cebe 8c0e 9fbe aaef 0ebf 8754 c83e
000001a0: 8785 783e 9e9f 893e 14d6 a8be 957c 8a3e
000001b0: e645 3cbe 97a7 e3be d64e c73e dd6b f53e
000001c0: e116 f3be e9f2 1bbc 9183 0f3f 2549 d23e
000001d0: 7fdc f23e 051b 9b3e 9807 c3be b66b 2bbf

hidden2time.bias f4 [3]
0.13148384 0.21110845 -0.12315593
00000000: b3a3 063e d02c 583e 2d39 fcbd
