events_simulation/2nd_half_pred/models/model_20180524-0957.pt (torch_old, 4195 bytes, 6 tensors)

input_layer.0.weight f4 [10, 43]
000000 83 d0 a8 bd 5e 37 52 bd a7 50 37 3e 50 a6 9f bf
       -0.082428955 -0.051322334 0.1790186 -1.247263
000010 3f 2d cf bd d9 7b b0 3e f7 04 32 3e 2d 8a 50 3e
       -0.10116052 0.34469488 0.17384706 0.2036521
000020 e4 c1 74 bd 07 72 20 3d d9 f1 83 3e b4 0f 35 bf
       -0.05975522 0.039171245 0.25770453 -0.70727086
000030 99 42 45 3e 99 b0 37 bd c2 82 ef 3c df d6 bc 3d
       0.19263686 -0.04484615 0.029237155 0.09220671
000040 38 01 90 be 4b cb a4 be f7 d6 6e be 6c ce 00 3d
       -0.2812593 -0.3218635 -0.2332419 0.03144686
000050 34 d3 32 be 1e 30 78 be 56 f5 5c 3e 1a 36 c6 3e
       -0.1746338 -0.24237105 0.21577963 0.3871315
000060 10 85 58 3e 43 8e dc 3d 52 37 45 3e 3d de d3 bd
       0.2114451 0.10769322 0.19259384 -0.10345123
000070 18 41 97 3e 76 d2 e8 bd 5d 99 fb be 82 28 9d bd
       0.2954185 -0.11368267 -0.49140444 -0.07673742
000080 d5 25 98 3e 6c 1a 18 be da 3e 97 3e 4a 29 a2 3e
       0.29716364 -0.14853829 0.2954014 0.31672126
000090 de 61 82 3e 4f a4 6c bb 09 dd d0 bc 79 ab 68 bd
       0.25465292 -0.0036108678 -0.025496023 -0.056804154
0000a0 e3 0f 8b 3d 06 e8 15 ba c7 ff 98 3e f7 6e 37 3e
       0.067901395 -0.0005718473 0.29882643 0.17913423
0000b0 b9 01 d0 bc 11 ac 3b bd 54 34 9a be 81 7c 1a 3e
       -0.025391446 -0.045818392 -0.30118048 0.15086557
0000c0 47 ad 7a 3d e0 de 28 3e ed 3b b9 3d 0d 69 8f bc
       0.061200406 0.1649127 0.09044633 -0.017506147
0000d0 55 a1 d9 3e 1e 76 38 be 54 e3 88 3e 20 36 99 3e
       0.425059 -0.18013808 0.26735938 0.29924107
0000e0 d2 0f bd bd 45 7c 1d bd c3 b1 38 3e 42 af b2 3d
       -0.09231533 -0.03844859 0.1803656 0.08724834
0000f0 30 b0 37 bd b0 a5 b9 be be f8 89 bd 62 c0 c7 3d
       -0.04484576 -0.36259222 -0.06736897 0.09753491
000100 1e 4d 99 3e 65 e5 97 3e 30 76 c0 3c 91 77 79 bd
       0.29941648 0.29667202 0.023493856 -0.060905043
000110 f2 8d f6 3d 6f 2c d8 bd cb ae 83 3d 10 96 e1 bd
       0.12038793 -0.1055535 0.064298235 -0.1101495
000120 0a 6c c3 3e 61 84 4f 3c e8 06 c6 3e 36 52 d4 bd
       0.38168365 0.012665839 0.38677144 -0.10367243
000130 39 71 b9 3d 83 06 d2 3d a9 29 47 3e 7b 5f 58 3e
       0.09054799 0.10255148 0.19449486 0.21130173
000140 5e 84 93 3d b3 7a 26 be 49 f4 f8 3c b5 36 09 be
       0.072029814 -0.16257744 0.030389922 -0.13399775
000150 80 62 24 3e f3 39 d0 3e 52 f7 42 be b0 12 e6 be
       0.160532 0.40669212 -0.19039658 -0.44936132
000160 71 01 c3 3e a1 bc e5 be 3c 6b dc bd ac ef 5a be
       0.38087037 -0.44870475 -0.10762641 -0.2138049
000170 5d 52 9d 3e 10 7c 3c be 46 8e 92 bd d1 58 20 be
       0.307269 -0.18406701 -0.07156043 -0.15658881
000180 ac 4a 04 3e 8f b7 2a be 6b 4b 93 be d3 d5 59 3e
       0.1291911 -0.16671585 -0.28768477 0.21272974
000190 df 4d 23 be bc 01 3d be 2b 5b 76 be 36 ff 89 be
       -0.15947674 -0.18457693 -0.24058215 -0.26952523
0001a0 be f7 9b 3d 56 b6 b1 3e 33 f6 a1 be b5 16 c5 3d
       0.076156124 0.34709424 -0.31633148 0.09623472
0001b0 2a 32 7b be 52 2e df 3e a7 cc f5 bd e0 7d 59 3f
       -0.24530855 0.43590027 -0.12001925 0.84957695
0001c0 e4 7f 09 3e cf 40 38 3e c1 71 3d 3e 91 20 be be
       0.13427693 0.17993473 0.18500425 -0.3713422
0001d0 65 e4 0f bd b2 07 86 bd 45 b7 94 be f2 37 8a 3e
       -0.035129923 -0.065444365 -0.29046074 0.26995808
0001e0 ce 22 85 3e 46 b6 16 bf 44 ac a2 bd 7c 10 ae 3c
       0.26003116 -0.5887188 -0.07943013 0.021248095
0001f0 86 f5 a5 bd b8 19 17 be 63 a3 c7 bd 67 00 c2 3d
       -0.081034705 -0.14755905 -0.097479604 0.09472733
000200 5c b6 af 3e 29 f2 3d be fd a2 df 3d 7d b7 ee 3d
       0.34318817 -0.18549408 0.109197594 0.11656091
000210 4f ed 81 bf 76 d3 2c 3e 20 80 42 3e 8d 1e 74 3e
       -1.0150546 0.16877541 0.18994188 0.23839779
000220 54 ab 30 bd cc da 89 3e 8e 91 94 3d 18 e1 99 bd
       -0.04313214 0.2692474 0.07254325 -0.07513636
000230 b8 3a 82 3e b9 1f ac 3d 3d 80 02 be ec ca cc 3d
       0.25435424 0.08404488 -0.12744232 0.09999642
000240 56 08 99 3d 8d c6 f6 bd 1c 6d 88 3e b9 ae b8 bb
       0.07472293 -0.12049589 0.26645744 -0.005636063
000250 71 96 35 3e 3b 19 cd bd 6f d9 83 3e 45 c8 6c 3d
       0.1773317 -0.10014578 0.25751826 0.05780818
000260 fc 87 8d 3e d1 26 2e be 02 e0 08 3f b7 59 6f bd
       0.2764281 -0.17006995 0.5346681 -0.058435168
000270 17 01 13 be ff f2 28 3d f2 08 26 3e ac a3 38 3e
       -0.14355884 0.041247364 0.1621435 0.18031186
000280 79 45 7b bd 81 a2 2c be 5e b0 4b 3e ef b0 1f bd
       -0.06134555 -0.16858865 0.19891497 -0.038987096
000290 db 88 9b be 33 8b b6 be af 36 46 3d 86 12 9e be
       -0.3037785 -0.35653076 0.048391994 -0.30873507
0002a0 50 67 cd 3e 47 52 7d bd f7 cc d9 3c 19 ea de 3d
       0.40117884 -0.061846044 0.026586993 0.10884494
0002b0 05 06 4c 3e 22 66 86 bb 98 b0 8a be 2d 10 80 3f
       0.19924171 -0.0041015306 -0.27087855 1.0004936
0002c0 98 db 07 3e 8e 04 a8 bd 9a 04 16 bf f2 42 8b 3e
       0.13267362 -0.08203994 -0.5860077 0.27199513
0002d0 74 50 a8 bd 50 59 49 3e e9 cd 2a 3d 74 6d fb be
       -0.0821847 0.19662976 0.041700277 -0.49106944
0002e0 87 34 9a bd ba 0c 46 bd 62 ec cc be 47 d7 ab be
       -0.0752955 -0.04835198 -0.40024096 -0.3356268
0002f0 b8 aa 07 be de 56 ab 3d bd f4 b5 3d ea 5a 8f 3e
       -0.13248718 0.08366178 0.08884571 0.2799905
000300 12 bf e2 3d 0b d1 95 3e 47 9f a2 bd 1c 7f 19 3f
       0.110716 0.2926105 -0.07940536 0.5995958
000310 91 8f 74 3e 09 8a 7c be 1b ba 20 3d ca 89 c3 be
       0.23882891 -0.24662031 0.039239984 -0.38191062
000320 87 a4 f8 bd 0c c1 3b be 4d d4 8a be 5d 59 2a bd
       -0.12140756 -0.1833536 -0.27115098 -0.04158913
000330 ec 73 ce be ea b0 8c 3d 87 d5 5a 3d ca b9 65 be
       -0.40322816 0.06869681 0.05342629 -0.22434154
000340 29 30 b1 3e aa c5 90 3d f2 f8 bf bc 9c 96 be be
       0.34607056 0.070689514 -0.023434136 -0.3722428
000350 67 aa c7 be ea f0 4f bd b4 5a dd bc 49 70 45 3e
       -0.38997194 -0.050766863 -0.02702079 0.19281115
000360 3f b3 41 3e ba aa 27 be d4 05 af 3d d2 f3 4f 3e
       0.18916033 -0.16373721 0.085460335 0.20307854
000370 f4 d6 bc ba ff 8b 94 3d 62 59 f5 bc 89 28 05 3e
       -0.0014407323 0.07253265 -0.029949848 0.13003744
000380 c2 ae af 3d 65 c4 d9 bd 6b de a0 3e 7e d4 92 bc
       0.08578254 -0.106331624 0.3141969 -0.01792359
000390 42 f8 a7 3e 28 18 8a 3e a5 6d 36 3e 05 c8 1f 3e
       0.32806593 0.26971555 0.17815264 0.15603645
0003a0 73 f2 bd 3c 44 71 01 3e b9 af 94 3e 84 42 41 3d
       0.023186898 0.12640864 0.29040316 0.047182575
0003b0 72 5e aa 3e 1e df 1c 3e b9 af 1a be 49 8f 0f be
       0.3327518 0.15319487 -0.15106095 -0.14019503
0003c0 4e 4a 1c 3f 27 92 2d 3e f6 e8 70 bd fe bf 4a bd
       0.6105088 0.16950284 -0.05881592 -0.049499504
0003d0 b6 6c 80 be b6 75 4a 3d 38 eb 8e 3d 37 e5 f1 3c
       -0.2508294 0.049428664 0.06978458 0.029528243
0003e0 f7 1c 46 3d a0 a2 c5 3e 61 e2 de 3d 11 a2 bb bd
       0.048367467 0.38600636 0.10883022 -0.09161771
0003f0 75 61 9c 3d d8 6d 85 be 43 ed 86 3e 65 83 06 3e
       0.07635776 -0.26060367 0.2635289 0.1313606

input_layer.0.bias f4 [10]
000000 d9 55 25 be 6f 2c ff bd 88 b9 90 bc 84 fb cf bd
       -0.1614603 -0.12459647 -0.017666593 -0.10155395
000010 43 27 f1 3c d2 a7 f5 3d f4 50 1b 3d b8 44 78 3e
       0.029437667 0.119949 0.037919 0.24244964
000020 0e b4 9a 3c 23 5c b0 3c
       0.018884685 0.02152831

layer1.0.weight f4 [20, 10]
000000 d6 d2 d5 3d 02 7d b7 bd a0 12 5e bc e2 a2 81 be
       0.104406044 -0.0895939 -0.013554245 -0.25319582
000010 fc 72 6f be 12 da 34 be 13 a6 23 bc 34 f0 a3 3d
       -0.23383707 -0.17661312 -0.009988326 0.080047995
000020 13 14 dc bd 30 e1 a8 bd ac 97 94 3e 99 0a 5a be
       -0.10746016 -0.08246076 0.29021966 -0.21293105
000030 e8 bb 62 3e d2 e4 a0 3e 07 51 1c 3d ee 5f bd 3e
       0.22141993 0.31424576 0.03816321 0.3698725
000040 d5 88 4f be 93 35 3d bf 71 cc 61 be 69 7a 00 bf
       -0.20267041 -0.7390987 -0.22050644 -0.50186783
000050 79 7e e5 3e 7c 42 e5 be 68 32 14 3e 6b d7 9f 3c
       0.44823053 -0.44777286 0.14472353 0.019511899
000060 bc 02 ab be 9c ad 78 3e b1 e5 0a 3f 70 e7 3c 3e
       -0.33400524 0.24284977 0.5425673 0.18447661
000070 80 a3 6d be d3 61 26 be de d3 47 be a2 48 61 3a
       -0.23206902 -0.16248254 -0.19514415 0.0008593892
000080 63 8f 6a be 47 61 e2 3d 7e 43 97 be 80 51 7b be
       -0.2290626 0.110537104 -0.2954368 -0.24542809
000090 a2 13 c6 bd a8 ea 9b 3d 18 2c 25 3d 00 d5 7b 3c
       -0.096717134 0.076131165 0.040325254 0.015370607
0000a0 a1 dc 48 bc b0 ec 89 3e d0 46 c7 be 96 33 5b 3e
       -0.012259633 0.2693839 -0.38921213 0.21406397
0000b0 c9 ea da be 65 28 3c 3d 71 9e 4e bf de 31 74 3c
       -0.42757252 0.04593696 -0.8071051 0.014904467
0000c0 55 1f 9b 3e a1 15 9a be 2c 76 74 3e bb 9d 24 3e
       0.30297342 -0.30094627 0.23873204 0.16075794
0000d0 94 b1 19 3f 7d fc 1e 3e 4b 71 c1 be 90 e3 cf 3e
       0.6003659 0.15526004 -0.37781748 0.40603304
0000e0 d4 90 72 be 9d 67 29 be f8 a4 63 3e d7 da 57 be
       -0.2368806 -0.16543432 0.222309 -0.21079575
0000f0 2e e5 42 3e 26 24 c7 3e 8f b3 f8 bd d8 14 58 be
       0.19032738 0.38894767 -0.12143623 -0.21101701
000100 fb 70 a5 bc 49 35 b2 be a6 04 2b be b8 84 f5 3d
       -0.020195475 -0.34806278 -0.16700992 0.11988205
000110 ec 52 24 be a1 08 28 3e f7 60 3a 3e 7a 34 97 3e
       -0.16047257 0.16409542 0.18201052 0.29532224
000120 e9 f9 cc 3e 97 3e 07 3e ec f6 68 bf 02 88 9d 3e
       0.40034416 0.1320747 -0.9100177 0.30767828
000130 e2 17 d2 be 8c 08 e4 bd f5 fb 21 3e da ab 20 be
       -0.41033846 -0.11134443 0.1581877 -0.15690556
000140 c8 e0 08 3f 83 c2 a5 3e 69 da 1c bf b0 ba be 3e
       0.5346799 0.32374963 -0.6127077 0.37251806
000150 4c 39 10 bf 86 83 df bd 78 16 75 3e 4e 36 00 bf
       -0.5633743 -0.10913758 0.23934352 -0.5008286
000160 70 bf 9e 3e 0f 3c 8e be 47 97 09 3f 66 24 9b 3e
       0.3100543 -0.27780196 0.53746456 0.30301207
000170 b4 ce 5b bf c1 06 98 3d 16 b7 21 bf cd df a3 be
       -0.8586228 0.07423163 -0.6316999 -0.32006684
000180 12 0c a1 3e bb 7e d5 be 51 d4 92 3e 19 d8 09 bf
       0.3145452 -0.4169825 0.2867761 -0.53845364
000190 ea 47 0b 3d 87 1d 1c 3e 0b 58 ed be 42 ea 30 be
       0.03400413 0.15245639 -0.46356234 -0.17276862
0001a0 52 a8 00 3f 27 9b f4 3d 50 9d 86 3e 7e 8a ee 3e
       0.50256836 0.119436555 0.26291895 0.46590036
0001b0 73 1e 54 bd 61 63 1b 3f eb a7 9e be e1 dc 03 be
       -0.05178685 0.60698515 -0.30987486 -0.12877227
0001c0 e0 32 a0 bc e2 89 b6 bd a3 67 94 3e b0 80 0b be
       -0.01955551 -0.08913018 0.2898532 -0.13623309
0001d0 20 b5 62 bc bc ae 37 be 5c d4 b2 3d 81 a1 63 be
       -0.013837129 -0.1793775 0.087319106 -0.22229578
0001e0 b8 ac 19 3e 6f 4c ae 3e 91 58 67 3d ea 80 9a 3e
       0.15007293 0.3404269 0.056480948 0.3017648
0001f0 be 2b 20 bf 5f 09 18 3e 1a 62 7d bf 18 a7 98 bc
       -0.62566745 0.14847325 -0.98977816 -0.018634364
000200 7e c3 7e 3e ca 50 6d be 14 98 2b bf 2b 75 97 be
       0.24879262 -0.2317535 -0.6702893 -0.2958158
000210 94 a5 cd 3d d0 43 cd 3c c2 d5 39 3f 57 a2 85 bd
       0.10041347 0.02505675 0.72591794 -0.065251045
000220 23 bd 3e 3e 49 41 20 be ba bd d2 3e 92 e1 5b 3f
       0.18626837 -0.15649904 0.41160375 0.8589107
000230 9d 3a 42 be f9 9f b4 bd fc d4 31 3f 5f 60 3d 3c
       -0.18967672 -0.08819575 0.69465613 0.011558621
000240 db 39 19 bf 51 ba 92 3e 87 06 67 bf b7 9c 15 be
       -0.59853905 0.28657773 -0.90244335 -0.14610563
000250 3f e5 c2 3e 24 31 00 bf 92 38 99 3e f0 98 b4 bd
       0.38065526 -0.5007498 0.29925972 -0.08818233
000260 2b bb a2 bd 2a 40 9c 3e 78 91 e8 bd bc 98 02 3e
       -0.07945856 0.30517703 -0.11355871 0.12753576
000270 a5 59 06 be f9 d2 0e bf fa af 57 be 73 0a a9 be
       -0.13120134 -0.5579067 -0.21063223 -0.33015785
000280 5c 3e 56 be 36 52 ec 3e c3 dd a0 bd 1c d9 b1 be
       -0.20922226 0.46156472 -0.07854798 -0.34735954
000290 51 90 f5 3e fa ec 29 be 50 6d 6c bf 6c 42 21 3e
       0.47961667 -0.16594306 -0.923543 0.15747994
0002a0 1f 36 09 bf 9d 48 d9 3e bb 68 32 be a9 2d a9 be
       -0.5359821 0.42438212 -0.17422764 -0.33042648
0002b0 48 f6 3e 3e 5f 92 cb 3e 5e 2c 36 3f 78 0a 09 be
       0.18648636 0.3976011 0.7116145 -0.133829
0002c0 70 05 e5 3e c8 e3 e3 3e 7e c8 fa 3e 32 c6 2f 3f
       0.4473071 0.4450972 0.48981088 0.686618
0002d0 49 66 01 3d 96 c8 fa 3d d6 69 8a 3e 0c 06 5d 3e
       0.031591687 0.1224529 0.2703387 0.21584338
0002e0 c7 38 c5 be ff 40 c2 3d 7a d1 d9 be 76 24 81 be
       -0.3851988 0.09485053 -0.4254263 -0.2522313
0002f0 98 cc a1 be c2 c4 e0 be 00 e5 85 3b f0 f2 35 bd
       -0.31601405 -0.43900114 0.004086137 -0.044421136
000300 50 01 2b bd 78 d8 e6 3d e8 43 13 3e ca 15 7d be
       -0.0417493 0.11271757 0.14381373 -0.24715343
000310 9e 0a 91 be f8 29 0d bd cc d5 0d be ba a6 78 3e
       -0.28328413 -0.034463853 -0.13851088 0.24282351

layer1.0.bias f4 [20]
000000 85 50 56 be aa fd ab 3c dd 71 2a be b1 86 83 be
       -0.20929153 0.02099498 -0.16644998 -0.256887
000010 b4 44 0f bc ac e1 9c 3d f1 04 13 be d1 08 24 3e
       -0.008744407 0.07660231 -0.14357354 0.16018988
000020 14 fa 4e be 4d 0b bc 3c 6a e4 aa 3b d9 32 90 be
       -0.20212585 0.022954607 0.0052152174 -0.28163794
000030 0d 4a 0e bd ef b5 6f 3e a2 51 ee 3d 03 d6 02 3e
       -0.03473859 0.23409246 0.11636664 0.12776951
000040 2d 84 42 3d d2 e5 32 3d d1 be 5a 3e 66 5b 80 be
       0.047489334 0.043676205 0.21361853 -0.2506973

output_layer.weight f4 [3, 20]
000000 db f5 ce 3d cf bc c3 3e 50 a5 65 3d ff 98 c2 bd
       0.10105487 0.38229987 0.056065857 -0.09501838
000010 17 87 ba 3e f1 59 f6 3c c0 67 d8 3e bb d3 6b 3e
       0.3643119 0.030072184 0.42266655 0.23029988
000020 c0 90 0a 3f 7b 09 fe 3e 82 8e d6 be 78 99 e6 3d
       0.5412712 0.49616608 -0.419056 0.112597406
000030 76 6a 8f 3e 3a 6c 2c bf b4 77 5d 3e 7d f7 2f 3e
       0.2801091 -0.6735264 0.21627694 0.17184253
000040 f4 e5 ff be c0 24 19 bf 46 35 80 3e 2b 51 20 be
       -0.49980128 -0.598217 0.25040644 -0.15655963
000050 41 95 41 bc f7 a5 9b 3e a9 bd 76 bd 85 f3 bb bd
       -0.01181537 0.3040006 -0.060239468 -0.09177307
000060 0e 16 a2 be 41 a7 b4 be eb 5f f5 be a5 83 be be
       -0.3165745 -0.35283855 -0.47924742 -0.37209812
000070 04 18 bb bd 44 e1 c0 3e 4a 8f 98 3e 7a 84 a8 bd
       -0.0913544 0.37671864 0.2979682 -0.08228393
000080 0a 3c 5d be a3 40 21 be 12 99 f7 be 7d 8d 02 3e
       -0.21604934 -0.15747313 -0.4835897 0.12749286
000090 71 d7 30 3f 56 18 a4 3e 73 4a 01 bd e8 47 b1 3d
       0.6907874 0.32049817 -0.03156514 0.08656293
0000a0 b0 8a a4 bd c7 17 ac be 4c c7 e1 be 50 79 e1 3d
       -0.08034265 -0.3361189 -0.44097364 0.11009467
0000b0 77 61 b2 3d 6a a0 fd 3d 73 0a 29 3c 66 b2 6d 3e
       0.08709996 0.12384112 0.010317433 0.23212585
0000c0 e2 93 b4 be 9e d4 06 bf de 0f 5d be 98 ee 36 bd
       -0.35269076 -0.5266818 -0.21588084 -0.044661134
0000d0 1a ed 4b 3e 2d 89 d5 3e 55 e7 80 3e fd 7a 66 be
       0.19914666 0.4170622 0.25176492 -0.22507854
0000e0 6f 51 e9 3d cc 67 63 3d 34 5d 03 be af 74 d0 bd
       0.11392485 0.05551891 -0.12828523 -0.10178506

output_layer.bias f4 [3]
000000 e4 0f 3d be c3 d5 0a 3e d3 16 a8 bd
       -0.18463093 0.13558106 -0.082074784
