events_simulation/game_prediction/models/E0/model_5_0.000100_(20_20)_0.0.pt (torch_old, 8079 bytes, 8 tensors)

input_layer.0.weight f4 [20, 31]
0	0xbd2ea1a0	-0.042634606
1	0x3d67bf38	0.056578845
2	0xbe1c0100	-0.15234756
3	0xbe0cb7dd	-0.13742013
4	0x3d9871e8	0.07443601
5	0xbe1915b4	-0.14949685
6	0xbd4116cc	-0.04714088
7	0xbdbde8b3	-0.092728995
8	0xbde6bf3b	-0.11266943
9	0xbdc23597	-0.09482878
10	0xbd05be6c	-0.032652304
11	0xbe0ecb80	-0.13944817
12	0x3dd9c150	0.106325746
13	0x3db0de04	0.08636096
14	0x3d8c9ba8	0.068656266
15	0xbd8d3c7b	-0.06896301
16	0x3e1f699a	0.15567628
17	0x3e051e98	0.12999952
18	0xbb8c4780	-0.0042809844
19	0xbd5f1ea8	-0.054472595
20	0x3e0f4d1a	0.13994256
21	0xbe30754a	-0.17232242
22	0xbdf03b56	-0.117300674
23	0xbd240410	-0.040042937
24	0xbe28a170	-0.16467834
25	0xbd6ee7e0	-0.058326602
26	0xbd89143d	-0.06693313
27	0x3dc65fd0	0.096862435
28	0x3e20b768	0.15694964
29	0xbd56d3f4	-0.052448228
30	0xbe081da7	-0.13292561
31	0x3e0fbe34	0.140374
32	0x3d393e10	0.045225203
33	0x3d907b02	0.07054712
34	0xbe33d03d	-0.17559905
35	0xbe2817bf	-0.16415308
36	0x3da0cc6e	0.07851492
37	0x3e8e3539	0.2777498
38	0x3d84fb8e	0.06493293
39	0xbe1c7b67	-0.1528145
40	0x3e05db01	0.13071825
41	0xbb69294f	-0.00355776
42	0xbda462b4	-0.080266386
43	0xbd8dbc4a	-0.06920679
44	0xbcdb8c3e	-0.026800271
45	0x3dcc5b41	0.09978343
46	0x3e64db1d	0.2234921
47	0xbda5ea35	-0.08101312
48	0xbe12a978	-0.1432246
49	0x3e9fd642	0.31218153
50	0x3da44b2c	0.080221504
51	0xbd1e5157	-0.03865179
52	0xbe2a3bb0	-0.16624331
53	0xbe2b04e7	-0.16701089
54	0xbd81c0ca	-0.063356
55	0xbceba308	-0.028764263
56	0x3e192ba9	0.14958061
57	0xbd3ee12f	-0.04660147
58	0xbe12bc6c	-0.1432969
59	0x3c0312c0	0.008000076
60	0x3d9189c8	0.07106358
61	0xbdfce7a9	-0.12348873
62	0xbd09beb0	-0.03362912
63	0xbe3f10d2	-0.1865876
64	0x3e24957d	0.1607265
65	0x3e4ea423	0.201798
66	0x3dbead78	0.0931043
67	0x3ed67221	0.41883948
68	0xbe56ab90	-0.20963883
69	0xbe591959	-0.21201076
70	0xbdffb12d	-0.124849655
71	0x3e10cc94	0.1414054
72	0xbd633f50	-0.0554803
73	0x3e2d4eed	0.16924639
74	0xbd9cc230	-0.07654226
75	0x3ebd90ea	0.37024623
76	0xbcc3ee13	-0.023917234
77	0x3e754b76	0.23954567
78	0xbd22a95c	-0.039712295
79	0xbe58c8da	-0.21170369
80	0xbddd2fd5	-0.10800139
81	0xbe37aade	-0.17936274
82	0xbe33ae82	-0.17547038
83	0x3e8f00ee	0.27930397
84	0x3e7d8b89	0.2476026
85	0x3ded4469	0.11585314
86	0x3e953144	0.2913915
87	0x3d1f222a	0.03885094
88	0x3e2b2e44	0.16716868
89	0x3ea55dfd	0.3229827
90	0x3d78748c	0.060658023
91	0xbd85fec6	-0.06542735
92	0xbe0a245c	-0.13490433
93	0xbd78b9e6	-0.06072416
94	0x3ddd249c	0.10797998
95	0x3d84b8ae	0.06480537
96	0x3ccf1d40	0.025282502
97	0xbc7a34d0	-0.015271381
98	0x3d5037cc	0.050834462
99	0x3bb9f0c0	0.0056744516
100	0x3d18ee20	0.03733647
101	0xbe27c285	-0.16382797
102	0x3c7ec6e0	0.015550345
103	0xbe1f2de7	-0.15544854
104	0x3d60ffd4	0.054931477
105	0x3c9a1840	0.018810391
106	0xbc06e190	-0.008232489
107	0xbd4fdb80	-0.05074644
108	0xbe04f526	-0.12984142
109	0xbdbdfe40	-0.0927701
110	0x3db860d4	0.090028435
111	0xbd850e68	-0.064968884
112	0x3d8209ac	0.06349501
113	0xbe308544	-0.17238337
114	0xbe128b2e	-0.14310905
115	0xbd591c14	-0.053005293
116	0x3d7aef80	0.06126356
117	0x3d171cd4	0.036892727
118	0xbb86bc20	-0.0041117817
119	0x3de35890	0.11100876
120	0x3d9b69fc	0.07588574
121	0xbdfa6052	-0.12225403
122	0xbc3e9a30	-0.011633441
123	0xbd242ea8	-0.040083557
124	0x3e0cd68e	0.13753721
125	0x3e345cd8	0.17613542
126	0x3e1336ca	0.14376369
127	0xbd7f67e6	-0.062354945
128	0x3d1a0df4	0.037610963
129	0x3de3ff18	0.1113264
130	0x3e0409b0	0.1289432
131	0xbd16c89c	-0.03681241
132	0x3db9f9f0	0.09080875
133	0xbc1cd4d0	-0.009572223
134	0xbe067e37	-0.13134085
135	0xbe08bfcc	-0.13354415
136	0x3db3e1e8	0.087833226
137	0xbde4f22c	-0.11179003
138	0x3ded7aa4	0.115956575
139	0x3d6f6674	0.058447316
140	0x3c507350	0.012722805
141	0xbda0ecfd	-0.07857702
142	0x3ca3c5a0	0.019991696
143	0xbdf35d04	-0.11882976
144	0x3df9d954	0.12199655
145	0xbde5a397	-0.11212843
146	0x3daeefe0	0.08541846
147	0xbcca8fd0	-0.024726778
148	0x3c31ff30	0.010864064
149	0x3db983b4	0.090583235
150	0xbe31df55	-0.1737035
151	0x3cf324b0	0.02968058
152	0xbdd1b491	-0.102395184
153	0x3b902e20	0.00440003
154	0x3cc3aa70	0.023884982
155	0xbc19c320	-0.0093849
156	0x3ec12304	0.37722027
157	0xbdeca3a8	-0.115546525
158	0xbe321f56	-0.17394766
159	0xbd714e48	-0.058912545
160	0xbbf15f37	-0.007366087
161	0xbe0d565a	-0.13802472
162	0x3d7f558d	0.062337447
163	0xbdef2a28	-0.116779625
164	0x3d4c718b	0.04991297
165	0x3eb1fcf1	0.3476329
166	0xbd249934	-0.04018517
167	0x3dbdef42	0.092741504
168	0xbe108500	-0.14113235
169	0xbc7d0870	-0.015443906
170	0xbdbea964	-0.093096524
171	0xbdfade7e	-0.12249468
172	0x3ea3c074	0.31982768
173	0xbd3cd7e8	-0.04610434
174	0x3e06197d	0.1309566
175	0xbe318426	-0.17335567
176	0xbc343f7a	-0.011001462
177	0xbc21c250	-0.009872988
178	0x3caac819	0.020847367
179	0xbc29c100	-0.010360956
180	0x3dc1495d	0.09437821
181	0xbb04813c	-0.0020218631
182	0x3d922d2a	0.071375206
183	0xbde735eb	-0.11289581
184	0x3c973bc0	0.018461108
185	0xbddf1100	-0.10891914
186	0xbd8a7641	-0.067608364
187	0xbc527d00	-0.012847185
188	0xbd83a164	-0.06427267
189	0xbe2fbbaf	-0.1716144
190	0x3cb643f7	0.022249205
191	0xbdd8f9a8	-0.10594493
192	0x3ead631d	0.3386468
193	0x3ebd4531	0.3696685
194	0x3bce1ad6	0.00628982
195	0xbdfeb628	-0.12437087
196	0xbe0fa6bb	-0.14028446
197	0xbc417abf	-0.01180905
198	0xbdc61aa8	-0.09673053
199	0x3d460555	0.04834493
200	0xbe0f4248	-0.13990128
201	0xbd256b08	-0.040385276
202	0x3d9da744	0.07697919
203	0xbdc25602	-0.09489061
204	0x3e189a5e	0.14902636
205	0xbe1a2a02	-0.15055087
206	0x3c19ba30	0.009382769
207	0xbc5243d4	-0.012833554
208	0xbc9b8e68	-0.018988803
209	0x3c75f56a	0.015012125
210	0x3cb6a6f2	0.022296403
211	0xbc48068f	-0.012208595
212	0x3d3ab6f4	0.045584634
213	0xbd0c656c	-0.03427641
214	0xbc86fc60	-0.016477764
215	0xbdb23f52	-0.08703484
216	0x3e374822	0.1789861
217	0x3dee24a5	0.11628083
218	0xbe7fb55e	-0.2497153
219	0xbcec5c36	-0.028852563
220	0x3e78b4b2	0.2428768
221	0xbd7c6c90	-0.06162697
222	0x3e710421	0.23536731
223	0xbe7bcf42	-0.24590781
224	0xbe557049	-0.20843615
225	0x3d3aea5f	0.04563367
226	0x3e30e7c9	0.17275919
227	0xbe3dd151	-0.18536879
228	0x3e6e66df	0.2328143
229	0x3d8442b0	0.06458032
230	0x3ea25638	0.31706405
231	0x3e3c0a47	0.18363295
232	0x3e0213a0	0.12702799
233	0xbd8e1859	-0.06938238
234	0xbe80c819	-0.25152662
235	0xbe3d5961	-0.18491127
236	0xbe59b798	-0.21261442
237	0xbe1659c5	-0.14682682
238	0x3e940b04	0.28914654
239	0x3d09b540	0.03362012
240	0x3d525189	0.05134729
241	0x3dc9ccc6	0.098535106
242	0xbd2d9b35	-0.042384345
243	0x3e2a1b52	0.16611984
244	0xbb101775	-0.0021986638
245	0x3e31364c	0.17305869
246	0xbe093dcd	-0.13402481
247	0x3df27338	0.118383825
248	0x3c8bd3ed	0.017068828
249	0xbd8428d1	-0.064530976
250	0x3e9d6725	0.30742756
251	0xbdc6032d	-0.096685745
252	0x3e119af3	0.14219265
253	0xbe187eea	-0.14892164
254	0xbe37d288	-0.17951405
255	0xbe0a7493	-0.13521032

input_layer.0.bias f4 [20]
0	0xbe35bf16	-0.17748675
1	0x3d3a32a6	0.04545846
2	0x3e46d1d6	0.19415984
3	0xbe039948	-0.12851441
4	0xbe370509	-0.17873015
5	0x3c0c6c95	0.00857081
6	0x3c0794b6	0.008275202
7	0x3e66fa58	0.22556436
8	0x3e196bc9	0.14982523
9	0x3c56810a	0.013092289
10	0x3df5f3d3	0.120093964
11	0x3e6373eb	0.22212188
12	0x3e82da07	0.25556967
13	0x3dbc2701	0.09187127
14	0x3e896569	0.26835182
15	0x39df56ef	0.00042598645
16	0x3cbbbc03	0.0229168
17	0x3e817044	0.25280964
18	0x3e681036	0.22662434
19	0x3e0c8224	0.1372152

home_layer.0.weight f4 [20, 20]
0	0xbe317b94	-0.17332298
1	0xbcd38420	-0.025819838
2	0x3c513750	0.012769535
3	0xbe07f515	-0.13277085
4	0x3d562270	0.052278936
5	0xbd6dc1f8	-0.05804631
6	0xbdd6a87d	-0.10481355
7	0xbdfc0ddd	-0.12307332
8	0x3e62a17c	0.22131914
9	0xbd16faf0	-0.036860406
10	0xbdc16f18	-0.094450176
11	0xbd06fe70	-0.032957494
12	0xbdcd1ddd	-0.100154616
13	0x3e576006	0.21032724
14	0xbe0ee4a2	-0.13954404
15	0x3da9809c	0.082764834
16	0xbe261aa8	-0.16221106
17	0xbe0e1c9c	-0.13878101
18	0xbe5b438c	-0.21412486
19	0x3e5e2234	0.21692735
20	0x3e467342	0.19379905
21	0x3df59c2d	0.11992679
22	0x3e8aeb51	0.27132657
23	0x3e41c7f6	0.18923935
24	0x3d3ca440	0.04605508
25	0xbdbe2b4a	-0.092856005
26	0xbeb31fe5	-0.3498527
27	0x3e3948bd	0.18094154
28	0x3e81dd55	0.25364175
29	0x3df8c44b	0.12146815
30	0xbcbd4ec6	-0.023108851
31	0xbdc74068	-0.097290814
32	0x3d51c6a8	0.051214844
33	0xbe8a27e9	-0.26983574
34	0xbe5a9ba5	-0.21348436
35	0x3cba43ca	0.022737402
36	0x3e78d92f	0.24301599
37	0x3db24b04	0.08705714
38	0x3e3c940f	0.18415855
39	0x3d79e1a3	0.0610062
40	0x3d8d581c	0.06901571
41	0x3d998f75	0.074980654
42	0xbe5ae588	-0.21376622
43	0x3e1039a6	0.14084491
44	0x3e630060	0.22168112
45	0x3eacd7e4	0.3375846
46	0x3e74e51f	0.23915528
47	0x3da1df71	0.07903946
48	0xbe89aff1	-0.26892045
49	0x3e052ea6	0.13006076
50	0x3c9ec260	0.019379795
51	0x3e7f939f	0.24958657
52	0x3d69bade	0.057062976
53	0x3eef9dee	0.46800178
54	0x3dffe64d	0.12495098
55	0x3ed38178	0.41309714
56	0xbe565f24	-0.20934731
57	0x3e29878b	0.16555612
58	0x3e7049f7	0.23465715
59	0x3e4a4816	0.19754061
60	0xbe5decc4	-0.2167235
61	0xbd16aa74	-0.03678365
62	0x3df85046	0.12124686
63	0x3bd9cf80	0.0066470504
64	0xbc0a7ca0	-0.0084525645
65	0x3cc1d557	0.023661299
66	0xbe1a4a02	-0.15067294
67	0x3d9369b1	0.071978934
68	0x3d92ceaa	0.07168324
69	0x3e2fa8cc	0.17154235
70	0x3e55725b	0.20844404
71	0xbdcbdfab	-0.09954771
72	0x3d9dc875	0.0770425
73	0x3c4f4202	0.012650015
74	0xbe759aaa	-0.23984781
75	0x3e4feb07	0.203045
76	0xbde56054	-0.11200014
77	0xbe1c26ec	-0.15249223
78	0xbe77c4c6	-0.24196157
79	0x3e113728	0.14181197
80	0x3e3c0d2e	0.18364403
81	0x3edc6267	0.43043825
82	0x3e9c3a8d	0.3051342
83	0xbd0b3e40	-0.033994913
84	0xbc89de40	-0.01682961
85	0xbea0425d	-0.3130063
86	0x3e4b364a	0.19844928
87	0x3dc6a2a2	0.096989885
88	0xbd530fbb	-0.051528674
89	0x3f029db7	0.51021904
90	0xbe9cb1dc	-0.30604446
91	0xbe3520bd	-0.1768827
92	0xbbad2f97	-0.005285214
93	0x3cf60320	0.030030787
94	0x3e78b09a	0.24286118
95	0x3e11221e	0.14173171
96	0x3d90e5ac	0.070750564
97	0xbdfc30bc	-0.12313983
98	0xbc0d32be	-0.008618055
99	0xbe6106a7	-0.21975194
100	0xbd1106c8	-0.035406858
101	0xbe82161c	-0.25407493
102	0xbdd6eeae	-0.10494743
103	0xbe308a02	-0.17240146
104	0x3c332040	0.010932982
105	0x3e760851	0.2402661
106	0x3d01693a	0.031594492
107	0xbd99bdff	-0.07506942
108	0x3e90e7bf	0.28301808
109	0xbe4706e0	-0.19436216
110	0x3dcc30e5	0.099702634
111	0xbdf1d997	-0.1180908
112	0xbe4d92c9	-0.20075525
113	0xbe58dc05	-0.21177681
114	0xbca0c236	-0.019623857
115	0xbc9ed8d5	-0.019390503
116	0xbe14a82e	-0.1451728
117	0x3e59da7c	0.21274751
118	0x3df10d18	0.117700756
119	0x3db53360	0.0884769
120	0xbe0579cd	-0.13034745
121	0xbdf9b083	-0.1219187
122	0xbe4d4812	-0.20047024
123	0xbe06bc32	-0.13157728
124	0x3e3e5050	0.18585324
125	0x3ec86c5e	0.39145178
126	0x3eaa412e	0.33252853
127	0x3c7ebb86	0.015547639
128	0xbeb047b2	-0.344297
129	0x3a721ed4	0.0009236161
130	0x3d31ee4d	0.043440152
131	0x3d5107a1	0.051032666
132	0x3ea364bc	0.31912792
133	0xbcb8bf97	-0.022552295
134	0x3e0f932b	0.14020984
135	0x3e3025ac	0.1720187
136	0xbe925317	-0.28579018
137	0x3e82cb1e	0.2554559
138	0xbe3ee014	-0.18640167
139	0xbdf7d8dd	-0.1210191
140	0xbc8fdb28	-0.017560557
141	0x3e0dbdb0	0.13841891
142	0x3e4b61ea	0.1986157
143	0x3e4ddd36	0.20103917
144	0x3de6b774	0.1126546
145	0xbd80b998	-0.06285399
146	0x3be685fd	0.0070350156
147	0x3e8f4504	0.27982342
148	0x3e1f82c4	0.15577227
149	0xbdc178ad	-0.09446845
150	0x3a91cffd	0.0011124607
151	0x3bc551ca	0.006021713
152	0xbda8bc9d	-0.082391
153	0xbe491838	-0.19638145
154	0xbdccb06f	-0.099945895
155	0x3de36e61	0.111050375
156	0x3eb119e1	0.34590057
157	0xbd3fe571	-0.04684967
158	0x3d590a06	0.052988075
159	0x3e728252	0.23682526
160	0x3e1aaf14	0.1510585
161	0xbd808b1a	-0.062765315
162	0xbd827f7e	-0.063719735
163	0xbe41a23b	-0.18909542
164	0xbe5801f9	-0.21094503
165	0xbd5c52e4	-0.05378999
166	0x3d822348	0.063543856
167	0xbe0e1c24	-0.13877922
168	0xbd856b93	-0.06514659
169	0xbe2865d1	-0.1644509
170	0xbce2b659	-0.02767484
171	0x3db63fe0	0.08898902
172	0x3e1de87d	0.15420718
173	0xbdf3fc0e	-0.1191331
174	0x3e6bef0f	0.23040412
175	0x3de71995	0.11284176
176	0x3d977287	0.07394891
177	0xbeb2cb55	-0.34920755
178	0x3c12b491	0.008954183
179	0x3ea83cbb	0.32858834
180	0x3d1abd40	0.03777814
181	0xbe0ae157	-0.13562523
182	0x3db26cc4	0.08712152
183	0xbe48f0e0	-0.19623137
184	0x3e0287ce	0.12747118
185	0xbe5cf61a	-0.21578255
186	0x3e177b84	0.14793211
187	0xba7ed5b3	-0.0009721175
188	0xbddc1e32	-0.10747947
189	0x3e30fd4e	0.17284128
190	0xbd0c3d7f	-0.034238335
191	0xbd7b2013	-0.061309885
192	0x3dfc348d	0.12314711
193	0x3d98807b	0.07446381
194	0x3e46c4b6	0.19410977
195	0x3c14d440	0.0090838075
196	0xbd570062	-0.0524906
197	0xbd50e915	-0.051003534
198	0x3da8c077	0.08239835
199	0x3e52674d	0.20547219
200	0x3dbcaeb4	0.092130095
201	0x3c1626e0	0.009164542
202	0x3dbaa00c	0.09112558
203	0x3e1e3556	0.15450034
204	0x3d8d91bc	0.06912562
205	0xbe1bd1d1	-0.15216757
206	0x3d670ad8	0.056406826
207	0xbd836084	-0.06414893
208	0xbe426e17	-0.18987308
209	0xbe092a14	-0.13394958
210	0x3e160f0c	0.14654177
211	0x3e504860	0.20340109
212	0xbe46deca	-0.19420925
213	0xbdee1d07	-0.1162663
214	0xbe52663d	-0.20546813
215	0x3e2c1a54	0.16806918
216	0x3d7ba1e8	0.061433703
217	0xbdf8c875	-0.12147609
218	0x3bc44060	0.0059891194
219	0xbe483511	-0.19551493
220	0x3da26230	0.07928884
221	0x3dcb40e2	0.09924485
222	0x3cdf1f60	0.02723664
223	0xbe3b68cd	-0.18301697
224	0x3cdf5ff0	0.027267426
225	0xbe08dd65	-0.13365705
226	0x3e2e97a4	0.17050034
227	0xbdde9d27	-0.10869818
228	0xbe0676d7	-0.13131271
229	0x3d19c738	0.037543505
230	0x3bf2e01d	0.0074119703
231	0xbddf830c	-0.10913667
232	0x3d9be968	0.07612878
233	0x3db9c4a3	0.090707086
234	0xbd867f9d	-0.06567309
235	0x3de6f942	0.11278011
236	0xbe49b47d	-0.19697757
237	0xbe20019d	-0.15625615
238	0xbdfd8812	-0.12379469
239	0xbe068a06	-0.1313859
240	0x3e1148ac	0.14187878
241	0xbe27fa29	-0.16404022
242	0xbd5b8ee5	-0.05360307
243	0xbe35384c	-0.17697257
244	0x3d481760	0.048850417
245	0x3e7fe7c2	0.24990752
246	0x3e34c770	0.17654204
247	0xbe70e0ac	-0.23523206
248	0xbecc00de	-0.39844412
249	0x3c8cec04	0.017202385
250	0xbcae1306	-0.021249305
251	0x3d9c6f5c	0.076384276
252	0x3e90028d	0.28126946
253	0x3c99024b	0.018677851
254	0x3e863ea9	0.2621968
255	0x3ec4882e	0.38385147

home_layer.0.bias f4 [20]
0	0xbdbd5a06	-0.09245686
1	0x3e19bf7d	0.15014453
2	0x3e65dfab	0.22448604
3	0x3d2d0493	0.04224069
4	0x3dd8f929	0.105943985
5	0x3e013a5c	0.12619919
6	0x3e109b19	0.14121665
7	0x3e066c5b	0.13127272
8	0x3c9f5e50	0.019454151
9	0xbe57959a	-0.21053162
10	0xbd6e999c	-0.058251962
11	0xbba5afe2	-0.0050563673
12	0x3dbfa858	0.09358281
13	0x3e3402e7	0.17579232
14	0x3e25c181	0.16187097
15	0xbe363e2d	-0.17797156
16	0x3e71e48c	0.2362234
17	0x3e51317d	0.20429035
18	0x3dc79bc3	0.09746506
19	0x3e0d1e9d	0.1378121

away_layer.0.weight f4 [20, 20]
0	0x3e23752e	0.15962669
1	0x3cafea68	0.021474078
2	0x3d5d3cc0	0.054013014
3	0xbd99a7d8	-0.07502717
4	0xbe24ba64	-0.16086727
5	0x3e22699c	0.158606
6	0xbdb00c94	-0.08596149
7	0xbc868eb0	-0.01642546
8	0x3d956414	0.07294479
9	0x3d6e7a58	0.058222145
10	0xbe01b356	-0.12666067
11	0x3cc1c4b8	0.023653373
12	0x3d948c9c	0.072533816
13	0x3c971048	0.01844038
14	0x3cd6d920	0.02622658
15	0xbdb5821e	-0.088627085
16	0x3e468756	0.19387564
17	0x3dcaa1d0	0.098941445
18	0xbe280690	-0.16408753
19	0x3bef1420	0.0072961003
20	0xbe42017e	-0.18945882
21	0x3eba6b1b	0.3640984
22	0xbe8913e2	-0.26772982
23	0xbdceb253	-0.100926064
24	0x3e2e684a	0.1703197
25	0x3ec5195d	0.38495913
26	0x3df1b672	0.11802377
27	0xbcf0399b	-0.029324343
28	0x3df690e5	0.12039355
29	0xbe1af4ec	-0.15132493
30	0xbe1414c1	-0.14461042
31	0x3e7bba26	0.24582729
32	0x3e9d0257	0.30665848
33	0xbddf85ab	-0.10914167
34	0x3e9c61c9	0.30543354
35	0x3e262d36	0.16228184
36	0xbde70581	-0.11280347
37	0x3eb96271	0.36207917
38	0x3d67fd08	0.056637794
39	0xbe041bd1	-0.12901236
40	0xbe2d3663	-0.16915278
41	0xbdbb9732	-0.091596976
42	0xbe255ea3	-0.16149382
43	0xbdb9f204	-0.09079364
44	0x3e35b614	0.17745239
45	0x3c8be9c8	0.017079249
46	0x3e74bfc2	0.23901275
47	0x3d6460c8	0.05575636
48	0xbd5b2070	-0.05349773
49	0xbcb3ec9c	-0.02196341
50	0x3deff577	0.117167406
51	0x3e6a0d58	0.22856653
52	0xbca4112b	-0.020027718
53	0xbcdcbf60	-0.026946723
54	0x3de16a34	0.11006585
55	0x3e22afe6	0.15887412
56	0xbdfdd930	-0.12394941
57	0x3cdd8d70	0.027044982
58	0x3e1be4ec	0.15224046
59	0xbe1889d3	-0.14896326
60	0xbe105042	-0.14093116
61	0x3e935a1a	0.2877968
62	0xbea9ab40	-0.33138466
63	0x3e06efb4	0.13177377
64	0xbd0dde64	-0.034635916
65	0x3ea6546a	0.32486278
66	0x3d9646c1	0.07337714
67	0xbdc964e7	-0.09833699
68	0x3e6320ac	0.22180432
69	0xbe4ad8f7	-0.19809328
70	0xbd328909	-0.04358772
71	0xbcec6013	-0.028854406
72	0x3e6f2651	0.2335446
73	0xbe107657	-0.14107643
74	0x3e249ded	0.16075869
75	0x3ca3b7fb	0.01998519
76	0xbd87c44d	-0.06629238
77	0x3e066b52	0.13126877
78	0x3d5ac94c	0.053414628
79	0xbe77ec8d	-0.2421133
80	0xbd78e348	-0.060763627
81	0xbe6a165d	-0.22860093
82	0xb7875358	-1.6132064e-05
83	0x3e32f550	0.17476392
84	0xbe56dde9	-0.2098309
85	0x3bc61cb3	0.0060459017
86	0xba2380f1	-0.00062371703
87	0x3d798970	0.060922086
88	0xbe0e4b8c	-0.13896006
89	0x3d81300f	0.063079946
90	0xbe28c2b4	-0.16480523
91	0xbe508a9c	-0.20365375
92	0xbe01444f	-0.12623714
93	0x3d0e5513	0.0347491
94	0x3ba51bb6	0.005038704
95	0xbe1fdc42	-0.15611365
96	0xbd83c0aa	-0.06433232
97	0xbe8797a2	-0.26482874
98	0x3d6e95d6	0.058248363
99	0x3e0ed5d8	0.13948762
100	0x3cb2b2b8	0.021813735
101	0xbe46bedf	-0.19408749
102	0x3e8c30d6	0.2738101
103	0xbcc7d900	-0.024395466
104	0x3e268f1e	0.16265532
105	0xbdbe1b05	-0.09282497
106	0x390fa73d	0.00013699844
107	0x3e9f8c86	0.31161898
108	0x3e5fcddd	0.21855874
109	0x3e37411d	0.17895932
110	0xbed25e1d	-0.41087428
111	0x3e11faea	0.14255872
112	0x3e1332f5	0.14374907
113	0x3e2978b0	0.16549945
114	0x3e29aa79	0.16568936
115	0xbcd7a0a7	-0.026321722
116	0xbd1f071f	-0.03882515
117	0xbddbfa63	-0.10741117
118	0x3e89e9c6	0.26936167
119	0x3e7e8d79	0.24858655
120	0xbd9c6872	-0.07637109
121	0x3d8b0c1c	0.06789419
122	0x3def6110	0.11688435
123	0xbe35b8fd	-0.17746349
124	0x3bb534a0	0.005529955
125	0x3cb6a9a8	0.022297695
126	0x3c84c558	0.016207382
127	0x3dab843d	0.08374832
128	0xbc00b404	-0.007855419
129	0xbd3b148e	-0.0456739
130	0xbe491e0b	-0.19640367
131	0xbc7cc69a	-0.01542821
132	0x3d4d0af9	0.050059292
133	0x3e268caa	0.16264597
134	0xbe674932	-0.22586516
135	0x3dd37570	0.10325134
136	0x3e1f747d	0.1557178
137	0x3ca77351	0.02044073
138	0x3e34e5ca	0.17665783
139	0x3dbd6dcd	0.092494585
140	0x3e3d0b08	0.1846124
141	0x3e990c8c	0.29892385
142	0xbe09f821	-0.1347356
143	0x3da6fa48	0.08153206
144	0xbe1a48ce	-0.15066835
145	0xbd1ecdb1	-0.03877038
146	0x3e1ae328	0.15125716
147	0xbe8fc8c5	-0.28082862
148	0xbe09a17f	-0.13440512
149	0xbe71bf85	-0.23608215
150	0x3eb31fb8	0.34985137
151	0x3d799d74	0.060941175
152	0x3d93c1d4	0.07214704
153	0xbd455496	-0.04817637
154	0x3e3b1c66	0.18272552
155	0xbd86fc37	-0.06591075
156	0xbd3e5152	-0.04646427
157	0x3e77de2d	0.24205847
158	0x3dacc56f	0.08436095
159	0xbe63977f	-0.2222576
160	0xbe441769	-0.19149555
161	0xbe915d3c	-0.28391445
162	0x3e16da8d	0.14731808
163	0x3d50e920	0.051003575
164	0xbe076b0a	-0.13224426
165	0xbd94f260	-0.07272792
166	0xbda4ea31	-0.08052481
167	0x3e8999c8	0.26875138
168	0x3d8fd6b0	0.0702337
169	0x3d96dc68	0.07366258
170	0x3eb24a5b	0.34822354
171	0x3e51c408	0.20484936
172	0x3e0720ea	0.1319615
173	0xbd57e0f2	-0.05270476
174	0x3e3b64a1	0.18300106
175	0x3d3452a9	0.044024143
176	0x3e27b683	0.16378216
177	0xbe5277e4	-0.20553547
178	0x3e3bcd4a	0.1834003
179	0x3edd8529	0.43265656
180	0x3d2350e0	0.03987205
181	0x3e3c032c	0.18360585
182	0xbba48c05	-0.0050215744
183	0x3dc20be4	0.09474924
184	0x3d922a5c	0.07136986
185	0x3eaad26d	0.33363667
186	0xbdcd33f2	-0.100196734
187	0xbe61f293	-0.22065191
188	0x3d2e35f6	0.04253193
189	0x3dc37f48	0.09545761
190	0xbeb65877	-0.35614368
191	0x3d8ef46c	0.069802135
192	0x3e8af54e	0.27140278
193	0x3de0e601	0.1098137
194	0xbd7e9475	-0.0621533
195	0xbe04bf26	-0.12963542
196	0xbcc475b2	-0.023981903
197	0x3e8f3c51	0.27975705
198	0xbd250379	-0.040286515
199	0xbe817e83	-0.25291833
200	0xbded49c3	-0.115863346
201	0xbde664ef	-0.1124972
202	0x3e4f48f1	0.20242669
203	0x3e103ad2	0.14084938
204	0xbd85533e	-0.06510018
205	0xbe4487a0	-0.19192362
206	0x3e15a0d0	0.14612126
207	0xbdf50c56	-0.119652435
208	0xbdff2725	-0.12458638
209	0xbc085720	-0.0083215535
210	0x3e540b65	0.20707472
211	0xbdedac51	-0.11605132
212	0xbe1f3f88	-0.15551579
213	0x3dda0d34	0.106470495
214	0xbc9772b6	-0.018487316
215	0xbe60ff8a	-0.2197248
216	0xbb215a3d	-0.0024620437
217	0x3c9d7eee	0.019225564
218	0xbd3423bf	-0.043979403
219	0xbe5ffe6b	-0.21874397
220	0x3df23de0	0.11828208
221	0xbdcf00d0	-0.10107577
222	0x3e02eae2	0.12784913
223	0xbe0c9b84	-0.137312
224	0x3d47e4d8	0.048802227
225	0x3ea03a37	0.31294414
226	0xbd81cfb6	-0.06338446
227	0x3e84bfdf	0.25927636
228	0x3df9f099	0.122040935
229	0xbe21609d	-0.15759511
230	0xbde24600	-0.11048508
231	0x3de9abc1	0.114097126
232	0x3e5430a3	0.20721678
233	0xbe84f2f4	-0.2596661
234	0xbe199d24	-0.1500135
235	0x3e4574ab	0.19282787
236	0x3caa3121	0.02077538
237	0x3dcb9e87	0.09942346
238	0xbd702251	-0.058626477
239	0x3d1d5ced	0.0384187
240	0xbdd8c53a	-0.10584493
241	0xbe4b316b	-0.1984307
242	0x3e418d85	0.18901642
243	0x3cc975b0	0.02459225
244	0xbdc1fa34	-0.094715506
245	0xbab25c2d	-0.0013607793
246	0x3e1347fe	0.14382932
247	0x3ea163dc	0.315215
248	0x3e665621	0.22493793
249	0x3e6a5ac2	0.22886184
250	0xbe3b01fb	-0.18262474
251	0xbabf1765	-0.0014579116
252	0x3d8c10be	0.06839131
253	0x3aaf135e	0.0013357212
254	0xbd1cbf38	-0.038268298
255	0xbdbc9298	-0.09207648

away_layer.0.bias f4 [20]
0	0xbe37c988	-0.17947972
1	0xbc30042e	-0.010743184
2	0xbd811006	-0.06301884
3	0x3e61a297	0.2203468
4	0xbc9b69c3	-0.01897133
5	0x3ddf3e30	0.10900533
6	0xbe60f2a2	-0.21967557
7	0x3e4d2957	0.20035301
8	0xbdd095a3	-0.10184791
9	0x3e289869	0.1646439
10	0xbd3e784a	-0.046501435
11	0x3e151104	0.14557272
12	0xbe1a2c98	-0.15056074
13	0x3e371c9e	0.1788201
14	0xbe56093f	-0.20901965
15	0xbdbae1ec	-0.091251224
16	0x3e7629f3	0.2403944
17	0x3d83635a	0.06415434
18	0xbe356ae6	-0.1771656
19	0x3ddf353a	0.10898824

output_layer.weight f4 [3, 40]
0	0xbd841a38	-0.06450313
1	0xbd8a442f	-0.06751286
2	0x3df4c18f	0.11950981
3	0xbe8044a7	-0.25052378
4	0xbac94e12	-0.001535835
5	0xbe779d47	-0.2418109
6	0x3d4df218	0.050279707
7	0xbe937cd1	-0.28806165
8	0x3ce3fde1	0.02783102
9	0xbdd0ed57	-0.10201519
10	0x3dd163d2	0.10224117
11	0xbe21632a	-0.15760484
12	0x3e98cacf	0.2984223
13	0x3e8ab51e	0.27091306
14	0xbe755996	-0.23959956
15	0x3da83e42	0.08215
16	0xbe83d1e9	-0.25746086
17	0x3ea194e5	0.3155891
18	0x3e283ee1	0.16430236
19	0x3e9b14ff	0.30289456
20	0x3c00ebc0	0.007868707
21	0xbea2ed75	-0.3182179
22	0xbe5bd522	-0.21468022
23	0xbe2146c7	-0.15749656
24	0xbdb99d1c	-0.09063169
25	0x3e04adca	0.1295692
26	0x3cdbb68f	0.02682045
27	0xbe8f1050	-0.27942133
28	0x3d0cda56	0.03438791
29	0xbd1cb385	-0.03825714
30	0xbdab6770	-0.083693385
31	0x3e1eed04	0.15520102
32	0x3e84cba3	0.25936612
33	0x3ea2a5c2	0.31767088
34	0x3def275f	0.11677431
35	0x3cd6e671	0.02623293
36	0xbe5ddb6a	-0.21665731
37	0xbed2cfd0	-0.41174173
38	0x3db5cc5e	0.088768706
39	0x3e0ed506	0.1394845
40	0x3da28b3a	0.079367116
41	0x3e53d6dc	0.20687431
42	0xbe261728	-0.16219771
43	0x3e82293e	0.2542209
44	0x3e733eb5	0.2375439
45	0xbe14cf0d	-0.14532109
46	0xbe7c6e18	-0.24651372
47	0x3e3b9d7c	0.18321794
48	0xbe85c9c4	-0.26130497
49	0x3d05265d	0.03250729
50	0x3dcb010e	0.099123105
51	0xbe0769d1	-0.1322396
52	0xbd58b03f	-0.052902456
53	0xbe10ffce	-0.14160082
54	0xbd919cab	-0.0710996
55	0xbe97f7a3	-0.2968112
56	0x3e4875b1	0.19576146
57	0xbe1b07cc	-0.15139693
58	0xbeabc0ff	-0.33545682
59	0xbec018b5	-0.3751885
60	0x3d3c2db0	0.04594201
61	0x3e667554	0.22505695
62	0x3dae2bd6	0.08504455
63	0x3e1275ec	0.14302796
64	0x3d33ca58	0.043894142
65	0xbd6101a5	-0.05493321
66	0x3dd86d43	0.10567715
67	0x3e0d890c	0.1382181
68	0xbeba05b7	-0.36332485
69	0x3e9a90c4	0.30188572
70	0x3ca3c76f	0.019992558
71	0x3de33d47	0.11095672
72	0xbe87ed9e	-0.26548475
73	0xbe6f3645	-0.23360546
74	0x3bee5c2b	0.007274171
75	0xbd9234e4	-0.07138994
76	0x3e80cdf1	0.2515712
77	0x3e79fe73	0.24413471
78	0x3c57cd2f	0.013171478
79	0xbea61d24	-0.32444108
80	0xbdebf9c0	-0.115222454
81	0x3dbeb2a1	0.093114145
82	0xbd831016	-0.063995525
83	0xbd553816	-0.05205544
84	0xbebad51b	-0.36490712
85	0x3e715f76	0.23571572
86	0xbdf4cc7e	-0.11953066
87	0x3da94a78	0.08266157
88	0x3e82072b	0.25396094
89	0xbe0e0556	-0.13869223
90	0x3df8b452	0.12143768
91	0xbd56cc20	-0.052440763
92	0x3d66dc42	0.056362398
93	0xbe2732cc	-0.16327971
94	0x3e805393	0.25063762
95	0xbe3b6781	-0.18301202
96	0x3dda7f48	0.10668808
97	0x3de8db74	0.11369982
98	0xbe01d556	-0.12679037
99	0xbcd6b944	-0.026211388
100	0x3dc62aae	0.09676109
101	0xbe1dd7fb	-0.15414421
102	0xbd423a43	-0.047418844
103	0xbe4042ee	-0.18775532
104	0xbc9ddd77	-0.019270642
105	0xbe5cd655	-0.21566136
106	0xbd5a2d25	-0.05326571
107	0x3e47ac35	0.19499286
108	0x3de2f872	0.110825434
109	0xbe06c87b	-0.13162415
110	0xbcf4d6db	-0.029887607
111	0xbda5327e	-0.08066271
112	0xbe94b027	-0.29040644
113	0xbdbede89	-0.09319789
114	0x3def35ad	0.1168016
115	0x3e0fa5bf	0.14028071
116	0xbe0eb60c	-0.13936633
117	0xbd62765d	-0.05528866
118	0xbccf0d9b	-0.025275042
119	0x3dba04e5	0.09082965

output_layer.bias f4 [3]
0	0x3e3d5ecb	0.18493192
1	0x3cb85a62	0.022504035
2	0x3c6b64db	0.014367308
